W__RNN/W_RNN/md3/v_2/train_iter_0500.pt (torch, 79699 bytes, 6 tensors)

h0 f4 [128]
0	0x3fa06ad1	1.2532598
1	0xbe5b046e	-0.21388409
2	0xbde80845	-0.11329702
3	0xbe4c6052	-0.19958618
4	0xbf100a78	-0.56265974
5	0xbf41bdc5	-0.7568019
6	0x3ed140dc	0.40869796
7	0xbf2fd0fa	-0.6867825
8	0xbfd49375	-1.66075
9	0x3f89a8f1	1.0754682
10	0x3d074565	0.033025164
11	0x3f9deaa3	1.233723
12	0x3e5edd56	0.2176412
13	0xbed2e895	-0.4119307
14	0xbf170c34	-0.59002995
15	0x3eefafab	0.46813712
16	0xbded24a5	-0.11579255
17	0x3ee820e0	0.45337582
18	0x3eb4bda8	0.35300946
19	0x3c25fee9	0.010131576
20	0xbf13f026	-0.5778831
21	0x3ed342fa	0.41262037
22	0xbf56d475	-0.83917934
23	0xbe9453f5	-0.28970304
24	0x3e463d29	0.19359268
25	0xbf36875a	-0.7130028
26	0xbebc3ab5	-0.3676354
27	0x3e806ab2	0.25081402
28	0x3da6e6e7	0.0814951
29	0xbf692e81	-0.91086584
30	0x3fc24f7f	1.518051
31	0x3d38d427	0.0451242
32	0xbece3b53	-0.40279636
33	0xbf6bba27	-0.9208092
34	0xbf4e9220	-0.8069172
35	0x40484781	3.1293643
36	0x3fe377ee	1.7770975
37	0x3fb9b1d2	1.4507391
38	0xbf3937ff	-0.7235107
39	0x3fbf1edc	1.4931293
40	0xbf8a6378	-1.0811605
41	0x3f8b18fc	1.0867
42	0xbfb97d97	-1.4491452
43	0x3e192d3f	0.14958666
44	0xbfa08bd5	-1.2542673
45	0x3e9246cf	0.28569648
46	0xbe2f76fe	-0.17135236
47	0xbdab9f46	-0.08379988
48	0x3e27c0e7	0.1638218
49	0xbf1cc426	-0.612368
50	0xbfa85f8d	-1.315416
51	0xbe89d833	-0.2692276
52	0xbe84d903	-0.25946817
53	0xbfcf482e	-1.6193902
54	0xbeac258c	-0.33622396
55	0xbf68db6b	-0.90959805
56	0x3fbb1ed1	1.461878
57	0xbdb24f81	-0.087065704
58	0xc01c6a25	-2.4439785
59	0x3feaef80	1.835434
60	0x3fb7b917	1.435336
61	0x3ed6d453	0.41958866
62	0xbf89e16b	-1.0771917
63	0x3e8eb290	0.27870607
64	0xbec0f6d5	-0.37688318
65	0xbffa93be	-1.9576337
66	0x3f3a96e8	0.72886515
67	0x3c6e5341	0.014546216
68	0xbf984e09	-1.1898814
69	0x3d965225	0.073398866
70	0x3ef7908a	0.48352462
71	0x3bb9fcdb	0.0056758947
72	0x3f6dda1a	0.9291092
73	0xbed9c3f7	-0.42532322
74	0xbfb5010a	-1.4140942
75	0xbd2ebc77	-0.042660203
76	0xbeff3268	-0.49843144
77	0xbf2e65cc	-0.6812408
78	0xbf0d7ab4	-0.55265355
79	0x3f3d9996	0.7406248
80	0x3f02de6a	0.51120627
81	0x3ff50189	1.9141093
82	0xbf11086b	-0.5665347
83	0x400f0dd5	2.2352192
84	0xbebd3d29	-0.36960724
85	0xbf88017a	-1.0625451
86	0x3fe27dc1	1.7694627
87	0xbcafd6d8	-0.02146475
88	0x3fbf6497	1.4952573
89	0x3f9c21c0	1.21978
90	0xbf2119b7	-0.6292986
91	0xbe7f1c40	-0.2491312
92	0x3f32fb33	0.6991455
93	0x3f868821	1.0510293
94	0xbec9a544	-0.393839
95	0x3ea7e6e7	0.32793352
96	0xbfd9454d	-1.6974274
97	0x3f7098e7	0.9398331
98	0x3f843214	1.0327783
99	0x3f796061	0.9741269
100	0xbec9fe50	-0.39451838
101	0xbef408a8	-0.47662854
102	0xbf72463e	-0.9463843
103	0xbe01447c	-0.12623781
104	0xbe99c593	-0.3003355
105	0xbfa2401e	-1.2675817
106	0x3e613b34	0.2199524
107	0x3f6e3d72	0.9306251
108	0xbf69d849	-0.9134565
109	0x3fb5917f	1.4185027
110	0xbf9c1275	-1.2193133
111	0xbff35543	-1.9010395
112	0x3ec2dfb2	0.3806129
113	0xbda4cf8a	-0.080473974
114	0xbf1d71a7	-0.61501545
115	0xbfa39d7d	-1.2782437
116	0x3ec2b680	0.3802986
117	0x3fcce506	1.6007392
118	0x3ff1f42e	1.8902643
119	0xbedb207e	-0.42798227
120	0x3f9643f5	1.1739489
121	0xbf137450	-0.57599354
122	0x3f5c4b1f	0.86052126
123	0xbf0f5d37	-0.5600161
124	0x3edd9d3d	0.43284026
125	0xbf198281	-0.5996476
126	0xbecbe5df	-0.39823815
127	0xbf71c281	-0.94437414

RNN.layer_encode.weight f4 [128, 145]
0	0x3d62c390	0.055362284
1	0x3d7191cb	0.05897693
2	0xbcdfae5e	-0.027304824
3	0x3b3baad2	0.0028635752
4	0xbd799935	-0.060937125
5	0xbd139f0a	-0.036040343
6	0x3d7e85f5	0.06213947
7	0xb984b3a8	-0.00025310856
8	0xbd3783d7	-0.044803467
9	0xbc208248	-0.0097966865
10	0x3d6c3f3f	0.057677504
11	0xbe1af6d3	-0.15133218
12	0x3cca4f34	0.02469597
13	0x3abb062a	0.0014268805
14	0x3d4c53bd	0.049884547
15	0x3c4d1d2b	0.012519161
16	0xbdbed281	-0.09317494
17	0xbd021afc	-0.031764016
18	0x3cf51957	0.02991931
19	0x3c269a1d	0.010168579
20	0xbd74a0ad	-0.059723545
21	0x3c95bdfe	0.018279072
22	0x3d0a4ea1	0.033766393
23	0x3d25980c	0.040428206
24	0xbd278448	-0.040897638
25	0xbcc806d0	-0.024417311
26	0x3d8d3fe8	0.06896955
27	0xbb59673d	-0.0033173107
28	0xbc9c5979	-0.019085633
29	0x3d5ac03e	0.053405993
30	0xbd037c6d	-0.032101084
31	0xbcd0163a	-0.025401223
32	0x3d62ec97	0.05540141
33	0x3d8f0cb1	0.069848426
34	0xbccd7bb9	-0.02508341
35	0x3bacb3b2	0.005270445
36	0x3c2c2b64	0.010508392
37	0xbd9e6bbd	-0.07735393
38	0x3cd49120	0.025948107
39	0x3daaaec6	0.08334117
40	0xbd97059b	-0.07374116
41	0xbcaae6a5	-0.020861933
42	0x3cbe8709	0.02325775
43	0x3d532e94	0.051558092
44	0x3ceda31c	0.02900844
45	0xbc961ae2	-0.018323366
46	0xbd946c68	-0.07247239
47	0x3be662b9	0.0070308116
48	0xbd659ad7	-0.05605587
49	0x3d3c8a29	0.046030197
50	0xbd5f5189	-0.054521117
51	0xbce7c4d4	-0.028292097
52	0xbd8fbcc2	-0.070184246
53	0xbd832838	-0.064041555
54	0xbd22ab00	-0.03971386
55	0x3da18ef9	0.07888598
56	0xbd20749e	-0.039173715
57	0xbd69d68f	-0.057089385
58	0xbbc3f723	-0.0059803887
59	0xbd92f28d	-0.07175169
60	0x3d0e137c	0.03468655
61	0xbd030272	-0.031984754
62	0xbc555ac1	-0.013022126
63	0xbd4e016b	-0.05029432
64	0x3cc2b778	0.023769125
65	0x3da0897b	0.07838722
66	0xbd5ad627	-0.053426888
67	0xbc1ee630	-0.009698436
68	0x3c8ffc5d	0.01757639
69	0x3c94f578	0.018183455
70	0x3d4bc4a8	0.049748093
71	0xbd3083f3	-0.043094587
72	0xbd86ff43	-0.06591656
73	0xbd8d0c8c	-0.06887159
74	0xbcec94ca	-0.028879542
75	0x3d156819	0.03647623
76	0x3d7928d7	0.060829964
77	0x3d72ee1b	0.059309106
78	0xbcb2f4ed	-0.021845305
79	0x3dbaa87b	0.09114166
80	0x3d0fe0a5	0.035126347
81	0x3d8a6509	0.06757552
82	0x3bd46deb	0.00648283
83	0x3d9a3070	0.0752877
84	0x3d973e3f	0.073849194
85	0xbd167cfe	-0.036740296
86	0xbd37b87b	-0.04485367
87	0xbb01f929	-0.001983235
88	0x3d6aaef9	0.057295773
89	0x3d814ec6	0.06313853
90	0x3d1fd150	0.039017975
91	0xbc8eb32d	-0.017419422
92	0xbcfadfbc	-0.030624263
93	0xbd156ca4	-0.03648056
94	0x3cba68ac	0.02275499
95	0x3d47d0cc	0.04878311
96	0xbbd9a74e	-0.0066422587
97	0x3cd5e038	0.026107892
98	0xbd6477c7	-0.05577829
99	0x39e6e60e	0.00044040423
100	0xbcf1af2a	-0.02950247
101	0x3dc1b139	0.09457631
102	0x3c308346	0.0107734855
103	0x3da9314a	0.08261354
104	0xbcc615ef	-0.02418038
105	0x3c75504a	0.014972756
106	0x3ce20549	0.02759041
107	0x3d781b5a	0.06057296
108	0x3d8ae068	0.06781083
109	0xbc385254	-0.011250097
110	0xbd43dbeb	-0.047817152
111	0x3db20a72	0.086933985
112	0x3c13500c	0.008991253
113	0x3d170da1	0.036878232
114	0x3d0aa94a	0.033852853
115	0xbcc42812	-0.023944888
116	0xbd145bfb	-0.036220532
117	0x3ceca4a6	0.028887104
118	0xbd82f60a	-0.063945845
119	0xbda8d7e6	-0.08244304
120	0xba56d36b	-0.0008194956
121	0xbce711b2	-0.02820668
122	0x3cfb25ce	0.030657675
123	0xbceac37b	-0.028657665
124	0xbc2515ac	-0.010075968
125	0x3d8e6fbc	0.069549054
126	0x3b80652d	0.003918311
127	0x3da08d38	0.07839435
128	0x3dc02f50	0.09384024
129	0xbc3722a2	-0.011177691
130	0x3d3ff8d1	0.04686815
131	0x3d9a4e36	0.07534449
132	0xbc1a0a3e	-0.009401856
133	0xbd41ab66	-0.0472826
134	0xbda2fba3	-0.07958152
135	0xbd5bf10b	-0.053696673
136	0x3c9a18f2	0.018810723
137	0x3d99c487	0.07508188
138	0x3da5e2e9	0.0809992
139	0x3d0839cd	0.033258248
140	0x3d873fa3	0.066039346
141	0xbd1fe211	-0.039033953
142	0xbcf8f8c6	-0.030392062
143	0xbc1da996	-0.009622952
144	0xbd824012	-0.06359877
145	0x3d98199f	0.07426762
146	0xbd47c9d7	-0.048776474
147	0xbd43cbbd	-0.04780172
148	0xbd23d0ee	-0.039994173
149	0xbc225e59	-0.00991019
150	0xbcf2faaf	-0.02966055
151	0xbe079149	-0.13239016
152	0xbd87d415	-0.06632248
153	0xbe0654b9	-0.13118257
154	0x3c56f0cc	0.013118934
155	0x3d4f26c2	0.05057407
156	0x3d53e901	0.05173588
157	0xbe1a5468	-0.15071261
158	0xbd6e3838	-0.058159083
159	0xbdc25c03	-0.09490206
160	0xbaf8fe85	-0.0018996751
161	0x3dde5373	0.108557604
162	0xbd364b9c	-0.0445057
163	0x3baa7b17	0.0052026617
164	0x3d3dda19	0.046350572
165	0xbdd2d864	-0.102951795
166	0x3d9779c6	0.07396273
167	0xbd1a070e	-0.037604384
168	0x3db476a3	0.08811691
169	0xbd27be0f	-0.04095274
170	0xbd7a8021	-0.06115735
171	0x3cb59876	0.022167426
172	0xbbcc9dde	-0.006244405
173	0xbc926670	-0.017871112
174	0xbc4c3e5a	-0.012466038
175	0x3bc2990e	0.0059386557
176	0xbc2b73f8	-0.010464661
177	0xbce09e60	-0.02741927
178	0x3d0f20a7	0.03494325
179	0xbd8d2afd	-0.06892965
180	0x3d78fee5	0.06078996
181	0xbd34d419	-0.044147585
182	0xbcb79b93	-0.02241305
183	0x3d4781cf	0.04870778
184	0x3d66b696	0.05632647
185	0x3e526181	0.20545007
186	0xbde55455	-0.11197726
187	0x3d0a96f5	0.03383537
188	0x3cc36ffc	0.02385711
189	0x3d1d665a	0.03842769
190	0xbcdcce5a	-0.026953865
191	0xbdf951e6	-0.12173824
192	0xbdb83460	-0.08994365
193	0xbdb57833	-0.08860817
194	0xbd41146a	-0.04713861
195	0xbd4d8b59	-0.05018172
196	0x3c170a56	0.009218773
197	0x3e0666be	0.1312513
198	0xbcdfe3db	-0.02733033
199	0xbd8cd866	-0.06877212
200	0x3d82d639	0.06388516
201	0x3d1913df	0.037372466
202	0xbcf89e16	-0.030348819
203	0x3e221642	0.15828803
204	0xbdbd25d2	-0.09235729
205	0x3ce2951f	0.027658997
206	0x3dd5c3b6	0.104377195
207	0x3d2af53f	0.04173779
208	0xbcf30a3b	-0.029667964
209	0x3e25e58b	0.16200845
210	0x3ba1dd5f	0.0049397196
211	0xbde81d7e	-0.1133375
212	0x3d982026	0.07428007
213	0xbcd1b752	-0.02560011
214	0x39cf8dea	0.0003958785
215	0xbb53fe0e	-0.0032347473
216	0xbdf5779d	-0.11985705
217	0x3d689feb	0.056793135
218	0xbd3a501f	-0.045486566
219	0xbcc545f6	-0.024081212
220	0xbda8ea4d	-0.08247814
221	0xbd25681c	-0.04038249
222	0x3d90d8f8	0.070726335
223	0x3bcd4523	0.0062643453
224	0x3ddfb404	0.10923007
225	0x3cf71495	0.030161181
226	0x3d297030	0.041366756
227	0x3d7ae49e	0.061253183
228	0xbcbdb7e0	-0.023158967
229	0xbc13da1f	-0.009024172
230	0x3d49dadb	0.049280982
231	0x3d03dd5b	0.032193523
232	0x3da8194f	0.08207952
233	0x3c4a0385	0.012329941
234	0x3d444c37	0.047924247
235	0xbc9d1f0d	-0.019179845
236	0xbda82450	-0.08210051
237	0xbc98873e	-0.018619176
238	0x3d6f4537	0.058415618
239	0x3e0f3486	0.1398488
240	0xbdb46f69	-0.08810312
241	0xbdaccf89	-0.08438022
242	0x3d5b2baf	0.053508457
243	0x3af6a8ba	0.0018818595
244	0x3c54c81b	0.012987162
245	0xbdbea7f3	-0.093093775
246	0x3d9b5d4d	0.07586155
247	0x3d70d60b	0.058797877
248	0xbdc120a2	-0.09430052
249	0x3ac3d74a	0.001494148
250	0x3ce5a9f5	0.028035143
251	0xbd88bf95	-0.066771664
252	0xbd92ed3f	-0.07174157
253	0x3d154722	0.03644479
254	0x3d57e6c0	0.052710295
255	0xbcf17494	-0.029474534

RNN.layer_encode.bias f4 [128]
0	0x3dbbfa38	0.09178585
1	0x3d9accab	0.075585686
2	0x3d64f0a1	0.055893544
3	0xbd57e033	-0.052704047
4	0xbb7dfd33	-0.0038755655
5	0x3d70a1f6	0.058748208
6	0xbdd46fdc	-0.10372898
7	0xbc8cf53e	-0.017206784
8	0xbd962876	-0.07331936
9	0x3d131dbf	0.03591704
10	0x3d5d7bd3	0.054073166
11	0xbd9b20c6	-0.075746104
12	0x3db0872d	0.08619533
13	0x3d5f6329	0.054537926
14	0x3d189367	0.03724995
15	0xbd880d43	-0.066431545
16	0xbc3ba53d	-0.01145297
17	0x3d3e0597	0.04639205
18	0x3d163e67	0.036680605
19	0xbb925c36	-0.004466559
20	0xbd62866d	-0.05530398
21	0xbd1a4759	-0.0376657
22	0x3cb4774e	0.022029545
23	0x3d59f13d	0.05320858
24	0x3acb7ce6	0.0015524894
25	0x3d828f29	0.06374962
26	0x3d54864f	0.0518859
27	0xbd702837	-0.058632102
28	0x3c61a1c2	0.013771476
29	0xbd95ce73	-0.07314768
30	0xbb1d0919	-0.0023961721
31	0x3d953a71	0.072865374
32	0xbd6fb5ac	-0.058522865
33	0xbc876edf	-0.01653236
34	0x3da2427c	0.07922837
35	0xbcb24ecd	-0.02176609
36	0x3d967cb6	0.073480055
37	0xbbb6f8de	-0.0055838665
38	0xbd40b8e3	-0.04705132
39	0x3d91f302	0.07126428
40	0xbd6acfc9	-0.057327066
41	0x3dcc1c74	0.099663645
42	0x3bf563e3	0.007488714
43	0xbca04dd2	-0.019568358
44	0x3de5fc4f	0.11229765
45	0xbd563cf5	-0.052304227
46	0xbd8ef386	-0.06980042
47	0xbcb56fe3	-0.022148078
48	0xbd1b9ca9	-0.0379912
49	0xbc91fa36	-0.017819505
50	0xbd684793	-0.056708883
51	0xbc1339e3	-0.008985969
52	0x3d80e85e	0.062943205
53	0x3d1a5721	0.03768075
54	0x3c85500b	0.016273519
55	0x3c29a7fe	0.010354994
56	0xbcee4b33	-0.029088592
57	0x3d781075	0.06056257
58	0xbd9885de	-0.07447408
59	0xbd27d287	-0.04097226
60	0xbb04fe83	-0.0020293302
61	0x3d3c1b3e	0.045924418
62	0x3da40844	0.08009389
63	0x3d0646a8	0.032782227
64	0x3d76af30	0.060225666
65	0x3ba2a57c	0.004963575
66	0xbcf83097	-0.030296607
67	0xbd856548	-0.065134585
68	0xbd8170cc	-0.063203424
69	0xbc7bcd6e	-0.0153688025
70	0xbcc13891	-0.023586543
71	0xbbb9d7e0	-0.0056714863
72	0xbd50a504	-0.05093862
73	0xbb82d89b	-0.0039931065
74	0xbc9d3f61	-0.01919526
75	0x3c89b7a4	0.0168112
76	0xbd679b4c	-0.056544587
77	0x3b2ba899	0.0026193021
78	0xbd1b2962	-0.037881263
79	0xbd693304	-0.056933418
80	0x3dc1f56b	0.09470638
81	0x3d8bf7e2	0.06834389
82	0xbd8e3a54	-0.06944719
83	0xbc5f8bbd	-0.013644156
84	0xbd3be64c	-0.045873925
85	0xbd6a9394	-0.057269648
86	0x3d1f0bd4	0.03882964
87	0x3d48417a	0.04889057
88	0xbda3729d	-0.07980845
89	0x3cc9b179	0.024620758
90	0x3d018b0f	0.031626757
91	0x3d5b08da	0.05347524
92	0xbd5da337	-0.054110732
93	0x3c6003fd	0.013672826
94	0x3ba35529	0.004984517
95	0xbc94ee4b	-0.018180033
96	0xbd4bad93	-0.04972608
97	0xbc39ca2a	-0.011339704
98	0x3cd0b8c7	0.025478734
99	0x3b5173ae	0.003195982
100	0xb9d69d40	-0.0004093442
101	0xbd487d5d	-0.04894768
102	0x39c07d84	0.0003671461
103	0xbdb1da0e	-0.08684169
104	0x3d6da26a	0.05801622
105	0xbd995579	-0.07487006
106	0x3a87122a	0.0010305096
107	0xbd49d765	-0.04927768
108	0xbdae85f7	-0.085216455
109	0xbdd4edf4	-0.103969485
110	0xbc57ce9a	-0.013171816
111	0xbbf27226	-0.0073988615
112	0xbcc77a4e	-0.024350312
113	0x3d8e0bb0	0.06935823
114	0xbbab9ffd	-0.005237578
115	0x3d3a7ee2	0.04553116
116	0xbd0c905b	-0.034317356
117	0xbd81094f	-0.063006036
118	0x3cdef71e	0.027217444
119	0x3c2f0847	0.010683126
120	0xbd591935	-0.053002555
121	0x3a2db208	0.0006625955
122	0x3d0fb0d2	0.03508074
123	0xbc929b93	-0.01789645
124	0x3dc91576	0.098185465
125	0x3d803737	0.062605314
126	0x3c4f6ab0	0.012659714
127	0xbd1377df	-0.03600299

actor.weight f4 [3, 128]
0	0x3c3b19d9	0.011419737
1	0xbe8d93f2	-0.27651936
2	0xbe17e365	-0.14832838
3	0xbe0e6da8	-0.13909018
4	0x3e5d32f8	0.21601474
5	0x3e1c69fa	0.15274802
6	0x3e0f7f81	0.14013483
7	0xbd52f686	-0.051504634
8	0xbd1616fc	-0.036643013
9	0xbc8e3372	-0.017358515
10	0x3d1f0459	0.038822506
11	0x3dd171b3	0.102267645
12	0x3e08fdc9	0.13378061
13	0xbe790983	-0.24320035
14	0x3e77e49a	0.24208298
15	0x3e568240	0.20948124
16	0xbe7bfa1f	-0.24607132
17	0xbe47e75b	-0.19521849
18	0xbbeabd13	-0.0071636527
19	0xbe1049ae	-0.14090607
20	0x3ea00668	0.31254888
21	0x3d3bbdeb	0.045835417
22	0x3e1c80ad	0.15283461
23	0xbd7884d4	-0.06067355
24	0xbb14f62f	-0.0022729745
25	0xbd2b7119	-0.041855905
26	0xbcdcea96	-0.026967328
27	0x3d2f271e	0.042761914
28	0x3e71e8b2	0.23623922
29	0xbe24f2ba	-0.16108218
30	0x3e205a1b	0.15659373
31	0x3e70b708	0.23507321
32	0xbdb0dfbb	-0.08636423
33	0x3e1efc97	0.15526043
34	0x3e4f8aa1	0.20267726
35	0x3e9720e7	0.2951729
36	0x3e86038b	0.26174578
37	0xbd992418	-0.074775875
38	0x3e3b0494	0.18263465
39	0xbe73793f	-0.2377672
40	0x3e3cd16d	0.18439265
41	0xbe2f06aa	-0.17092386
42	0xbe1894de	-0.14900538
43	0x3e3eeb5a	0.18644467
44	0xbe9fe711	-0.31230977
45	0xbcc48ee9	-0.023993926
46	0x3e442475	0.19154532
47	0xbe95cab6	-0.2925622
48	0x3e39aee7	0.18133126
49	0x3db20f75	0.086943544
50	0x3e34b83f	0.1764841
51	0x3c9d4d41	0.019201877
52	0x3e4edba9	0.20200981
53	0xbe4f90a5	-0.20270021
54	0xbd89b74a	-0.06724413
55	0xbde3f60f	-0.11130916
56	0x3dc595d5	0.09647719
57	0x3d9ca394	0.076483876
58	0xbe44082c	-0.19143742
59	0x3e507e6e	0.20360729
60	0x3e02cd00	0.12773514
61	0xbdf6a5cb	-0.12043341
62	0x3e15fcbe	0.14647195
63	0x3e9f0c20	0.31063938
64	0xbdce3bc7	-0.100699954
65	0x3e36eed2	0.1786454
66	0xbdd46518	-0.103708446
67	0xbea33401	-0.31875613
68	0x3e62bb40	0.22141743
69	0x3e51681c	0.20449871
70	0x3b3f59fb	0.002919792
71	0xbe3059a6	-0.17221698
72	0x3e04aea0	0.12957239
73	0xbddb26f5	-0.1070079
74	0xbe8c2b93	-0.27376994
75	0x3df090e0	0.11746383
76	0x3c95fbe4	0.018308587
77	0xbe5a160a	-0.2129747
78	0x3db35c7e	0.08757876
79	0x3e238bed	0.15971346
80	0x3e2336a6	0.15938815
81	0x3c201d4b	0.009772609
82	0xbd944313	-0.07239356
83	0x3dd3b22e	0.103367195
84	0x3d8eba26	0.06969099
85	0x3e05b864	0.1305862
86	0xbe619c70	-0.22032332
87	0x3e056bb0	0.13029361
88	0x3dd4a515	0.103830494
89	0x3e1c46f9	0.15261449
90	0x3e0fd820	0.14047289
91	0x3d6fb9c3	0.058526766
92	0x3e13a57f	0.144186
93	0xbd373e76	-0.0447373
94	0x3e4aa1a8	0.1978823
95	0x3d9dfa19	0.07713718
96	0x3de5bd36	0.1121773
97	0x3e22ba68	0.15891421
98	0x3e28a40b	0.16468827
99	0xbe04cc51	-0.12968566
100	0x3da7c8a4	0.08192566
101	0x3e1fa76a	0.15591207
102	0x3d2d151b	0.042256456
103	0xbd439ff2	-0.047759958
104	0xbe439dff	-0.1910324
105	0xbe5f9637	-0.21834646
106	0x3de4b9ad	0.11168227
107	0xbd96bfd7	-0.07360809
108	0xbb8cf710	-0.004301913
109	0xbe2ee7c9	-0.17080607
110	0x3e5e3756	0.21700796
111	0x3e1982be	0.1499128
112	0xbd3cff9c	-0.046142206
113	0x3e337190	0.1752379
114	0x3e47e35b	0.19520323
115	0x3dce1720	0.100630045
116	0xbd607307	-0.0547972
117	0x3de44b08	0.111471236
118	0xbe1c046e	-0.15236065
119	0x3ddb648d	0.10712538
120	0x3e46f1c5	0.19428165
121	0x3e114262	0.1418548
122	0x3e942f3d	0.2894229
123	0xbd999e6f	-0.07500922
124	0xbd787551	-0.060658757
125	0x3db0831b	0.086187564
126	0x3df56d07	0.11983686
127	0xbe479423	-0.19490103
128	0xbe7c6573	-0.24648075
129	0x3e5ed773	0.21761875
130	0xbc1d1377	-0.00958716
131	0xbd6f07c8	-0.05835703
132	0x3d628248	0.055300027
133	0xbdd05fb5	-0.10174505
134	0xbdc1212c	-0.09430155
135	0xbccf470a	-0.025302429
136	0x3b9b2805	0.0047349953
137	0x3e1ee18d	0.15515728
138	0xbddbaf02	-0.107267395
139	0x3e2709b2	0.16312292
140	0x3d8a2e5a	0.06747122
141	0x3d9293db	0.071571074
142	0xbeb71094	-0.35754836
143	0xbce6c7d2	-0.028171454
144	0x3cdd8a96	0.027043622
145	0x3d612d63	0.054974925
146	0x3e16cd0e	0.1472666
147	0x3e21512b	0.1575362
148	0xbe08568c	-0.13314265
149	0x3ded4648	0.11585671
150	0xbdf621f4	-0.12018195
151	0x3cc5b87e	0.024135824
152	0xbd58de09	-0.052946124
153	0x3d60e7c7	0.05490854
154	0xbd2dd032	-0.04243488
155	0xbd3aee35	-0.04563733
156	0x3d80b637	0.06284755
157	0x3d256483	0.04037906
158	0x3c8fc8d1	0.017551811
159	0xbde71d62	-0.11284901
160	0x3e7c79d3	0.24655847
161	0x3e0c4db2	0.13701513
162	0xbe2b7115	-0.16742356
163	0xbe533b2f	-0.20628045
164	0xbe17d2e6	-0.14826545
165	0xbe8f1995	-0.27949205
166	0xbe84d065	-0.25940242
167	0x3d73e13c	0.059540972
168	0xbe00b83d	-0.12570281
169	0x3d79f040	0.061020136
170	0xbdca4f0f	-0.098783605
171	0xbd4c1b5f	-0.04983079
172	0xbb9102ab	-0.004425367
173	0x3e6ae024	0.22937065
174	0xbdf53302	-0.119726196
175	0xbb57effd	-0.003294944
176	0xbe038aac	-0.12845868
177	0xbd8b7428	-0.068092644
178	0xbe457b3d	-0.19285293
179	0xbde240a9	-0.11047489
180	0xbd3b448f	-0.04571968
181	0x3e8210a5	0.25403324
182	0x3ca58829	0.020206528
183	0x3e8881c1	0.26661494
184	0xbd323bae	-0.043513946
185	0xbe893bfa	-0.2680357
186	0x3e6a3058	0.22870004
187	0xbe0d3dc3	-0.13793091
188	0xbe15be21	-0.1462331
189	0xbdca4f69	-0.098784275
190	0xbe45886c	-0.19290322
191	0xbe402bc0	-0.1876669
192	0xbe1c79b7	-0.15280806
193	0x3d3498f5	0.044091184
194	0x3d0aa2f1	0.0338468
195	0xbdee3c6a	-0.11632617
196	0xbd8b1c72	-0.06792535
197	0xbe5d686f	-0.2162187
198	0xba998943	-0.0011713881
199	0x3d5fb5ea	0.054616846
200	0xbe859698	-0.26091456
201	0x3e4c403d	0.1994638
202	0x3ea327e6	0.31866378
203	0xbe2d570c	-0.16927737
204	0xbe971d39	-0.29514483
205	0xbdfdb780	-0.123885155
206	0x3e2abb44	0.16672999
207	0x3e05a22e	0.13050148
208	0xbdaef457	-0.08542698
209	0x3e04ad0a	0.12956634
210	0x3e1db3b9	0.1540059
211	0xbdf26daa	-0.11837323
212	0xbca6b533	-0.020350074
213	0xbe0306f2	-0.12795618
214	0x3d91c12a	0.07116921
215	0x3d74e6f8	0.05979058
216	0xbe03b1f5	-0.12860854
217	0xbe47796c	-0.19479913
218	0x3d0caa0a	0.03434185
219	0x3d52fe44	0.051512018
220	0xbdb39202	-0.08768083
221	0xbe313c07	-0.17308055
222	0xbe35aaa6	-0.17740878
223	0x3d746159	0.05966315
224	0xbdd73b08	-0.10509306
225	0xbe2a3e1b	-0.16625254
226	0xbe10e659	-0.1415037
227	0x3d8ca6de	0.06867765
228	0x3d5c8780	0.05384016
229	0xbdcf6b11	-0.10127843
230	0x3c396b72	0.011317121
231	0xbd548fea	-0.05189506
232	0x3e473bf1	0.1945646
233	0xbd95fa99	-0.07323188
234	0xbce63533	-0.02810154
235	0xbce5a324	-0.028031893
236	0x3dd17185	0.1022673
237	0xbca437ec	-0.020046197
238	0xbe5df17d	-0.21674152
239	0x3d947937	0.072496824
240	0x3d830fe0	0.06399512
241	0xbe4866e4	-0.195705
242	0xbcb35807	-0.02189256
243	0x3df7142f	0.120643966
244	0x3e2405f2	0.16017893
245	0xbdfd3d62	-0.123652235
246	0x3d8cf0b6	0.068818495
247	0xbdc3e60a	-0.09565361
248	0xbe6076e9	-0.2192036
249	0xbe25f374	-0.16206151
250	0xbda57956	-0.080797836
251	0x3de777e2	0.11302163
252	0x3e61bcfb	0.22044747
253	0x3e0460f6	0.12927613
254	0xbd88fef9	-0.06689257
255	0x3e390bec	0.18070954

actor.bias f4 [3]
0	0x3cc244a3	0.02371437
1	0xbd2077aa	-0.03917662
2	0xbbd61d61	-0.006534264

critic.weight f4 [1, 128]
0	0xbda998a9	-0.08281071
1	0xbcbdeb00	-0.023183346
2	0x3e04f351	0.12983443
3	0x3dd04c56	0.1017081
4	0xbcef796b	-0.029232701
5	0xbe134fb7	-0.14385878
6	0x3e1bbe41	0.15209295
7	0xbe3898d6	-0.18027052
8	0x3d8a1287	0.06741815
9	0xbd8804e8	-0.06641561
10	0xbe008d8a	-0.12553993
11	0xbdee7ce7	-0.11644917
12	0xbc866eef	-0.01641032
13	0xbdc69319	-0.096960254
14	0xbe5b7ab8	-0.21433532
15	0xbd9ffa6a	-0.078114346
16	0x3d5314c5	0.05153348
17	0x3c3cd265	0.011524771
18	0xbe475ef2	-0.19469813
19	0xbe671a3a	-0.22568598
20	0xbb2ad776	-0.0026068366
21	0xbda86b87	-0.08223634
22	0xbd9190e6	-0.07107715
23	0x3e59cc65	0.21269377
24	0x3de602be	0.11230992
25	0x3e3d58e9	0.18490948
26	0xbdf9bb27	-0.121938996
27	0xbe7fc97c	-0.24979204
28	0x3b99f179	0.0046979752
29	0x3d5975d6	0.053090893
30	0xbd5ddcb6	-0.054165564
31	0x3b26d77d	0.002545803
32	0x3cb9412c	0.022614084
33	0xbd0ea3ac	-0.03482406
34	0x3d219c7c	0.039455876
35	0xbdc1177b	-0.09428307
36	0x3dd401bc	0.10351893
37	0x3bcd54e2	0.0062662223
38	0xbddd3a33	-0.10802116
39	0x3dd420c7	0.10357814
40	0xbb4ac3c9	-0.003093945
41	0xbd2b8a1f	-0.04187977
42	0x3e379e83	0.17931561
43	0x3d788645	0.060674924
44	0xbc35fdfe	-0.01110792
45	0xbb9a55a4	-0.004709916
46	0x3e0ab0f1	0.1354406
47	0x3d604ac5	0.054758806
48	0x3e3743e1	0.17896987
49	0x3e7a8767	0.24465714
50	0x3c92ff3f	0.017943976
51	0x3e5c3430	0.21504283
52	0xbd84f584	-0.06492141
53	0xbcd17681	-0.025569202
54	0x3e14a489	0.1451589
55	0xbd249ce0	-0.04018867
56	0xbd4ab22c	-0.049486324
57	0xbcdd1147	-0.026985778
58	0x3da5d3dc	0.080970496
59	0x3c89ac67	0.01680584
60	0xbddd53dc	-0.108070105
61	0x3e2eae5f	0.17058705
62	0x3dee5b1c	0.116384715
63	0xbcd3721a	-0.025811244
64	0x3d11fccd	0.03564148
65	0x3d7d44e4	0.061833277
66	0x3d20f962	0.03930033
67	0xbce414de	-0.027841982
68	0x3db71f16	0.08941476
69	0x3b8818ae	0.0041533327
70	0x3d18cc6c	0.037304327
71	0x3de097af	0.10966431
72	0x3c099b0d	0.008398783
73	0x3d9a6c27	0.0754016
74	0xbc6ecbc2	-0.014574947
75	0x3d010469	0.031498346
76	0x3e900e66	0.28135985
77	0xbdcebe15	-0.10094849
78	0x3cc05bd8	0.023481295
79	0xbde5b72a	-0.112165764
80	0xbe08c252	-0.13355377
81	0x3dfc7da0	0.123286486
82	0x3dc68879	0.09693999
83	0x3d260b64	0.040538207
84	0xbdd085fe	-0.10181807
85	0x3d33c4c0	0.043888807
86	0xbe1a2834	-0.15054399
87	0xbe7d9432	-0.24763563
88	0x3e8c59e2	0.27412325
89	0xbda525f2	-0.08063878
90	0xbce0f032	-0.027458284
91	0xbd0aac1f	-0.033855554
92	0xbe2f5652	-0.17122772
93	0xbc410fa8	-0.011783518
94	0x3d198584	0.037480846
95	0xbe17280d	-0.14761372
96	0x3e00d40f	0.12580894
97	0x3da3eddc	0.080043525
98	0xbdc0c844	-0.09413198
99	0xbdbe4d88	-0.09292132
100	0xbde577e6	-0.112045094
101	0xbe01090b	-0.12601106
102	0xbd70d135	-0.058793265
103	0xbceeac7b	-0.02913498
104	0x3c21d320	0.009876996
105	0x3d9b66e0	0.07587981
106	0x3e324ee5	0.17412908
107	0x3d216bb0	0.03940934
108	0xbbe411f0	-0.006960146
109	0x3e15f315	0.1464351
110	0xbd24f266	-0.04027023
111	0xbe06ea69	-0.13175358
112	0xbd6e622c	-0.058199093
113	0xbcd6360b	-0.026148817
114	0xbb6269a0	-0.003454782
115	0x3da50565	0.080576696
116	0x3d902408	0.070381224
117	0x3c4dde3a	0.01256519
118	0x3e5f7ff0	0.21826148
119	0xbccae20b	-0.024765989
120	0xbc034e4c	-0.008014273
121	0x3d493b16	0.049128614
122	0x3d981911	0.07426656
123	0x3db28c6b	0.08718189
124	0x3e9500c7	0.29102156
125	0x3c351ad2	0.011053758
126	0x3d38b1f2	0.045091577
127	0x3e084901	0.13309099
