W__RNN/W_RNN/md2/v_2/train_iter_5000.pt (torch, 80523 bytes, 8 tensors)

h0 f4 [128]
0	0x3ec539a9	0.38520554
1	0x3f0e016c	0.5547092
2	0x3ffc823b	1.9727243
3	0xbefced8a	-0.49399978
4	0x3e87c827	0.26519892
5	0x3efd92dc	0.49526107
6	0xbee13eb2	-0.43993145
7	0x3d942386	0.07233338
8	0xbe2586f6	-0.16164765
9	0x3ea2271c	0.31670463
10	0x3f208eee	0.62718093
11	0x3f9a4c66	1.2054565
12	0x3ee30c30	0.44345236
13	0xbd4d44fb	-0.050114613
14	0x3f984438	1.1895819
15	0xbf2a4159	-0.6650596
16	0x3f68e072	0.90967476
17	0xbfce10b2	-1.6098845
18	0xbdf00b97	-0.117209606
19	0xbd54712f	-0.051865753
20	0xbe530dda	-0.20610753
21	0xbca70633	-0.020388698
22	0xc00a705a	-2.1631074
23	0xbf2d9062	-0.67798436
24	0x3f1c1f2d	0.6098507
25	0x3cbe2a60	0.023213565
26	0xbee9c23f	-0.4565601
27	0x3fd95e27	1.6981858
28	0xbe7310bb	-0.23736851
29	0xbeafb044	-0.34314167
30	0x3dfaf95e	0.12254594
31	0x3e964b45	0.293543
32	0xbf4c0610	-0.7969675
33	0xbf0f6ca6	-0.5602516
34	0xbf265fd3	-0.64989966
35	0x3f9ad82b	1.2097219
36	0xbf1284f5	-0.57234126
37	0x3fb1e275	1.3897234
38	0x3dd32ea0	0.103116274
39	0x3f290990	0.66030216
40	0x3e83ad2c	0.25718057
41	0xbf5d5282	-0.8645402
42	0xbe9dd659	-0.30827597
43	0xbea8a942	-0.32941633
44	0xbfc00918	-1.5002775
45	0xbcc86f88	-0.024467245
46	0x3e9e8ffd	0.3096923
47	0x3d7b255f	0.061314937
48	0x3ec5f48c	0.38663137
49	0x3e95611d	0.29175654
50	0x40118144	2.2735147
51	0xbf509469	-0.81476456
52	0xbf272e41	-0.6530495
53	0x3fcb86b0	1.5900478
54	0xbf65dc4b	-0.89789265
55	0xbeee105e	-0.46496862
56	0xbfd9b9d3	-1.7009834
57	0xbf6113c5	-0.8792079
58	0xbfc78e00	-1.559021
59	0x3c3bd37e	0.011463998
60	0xbe9f51d2	-0.3111711
61	0x3d1a6598	0.037694544
62	0x3f9344ce	1.1505373
63	0xbe0232d9	-0.1271471
64	0xbea58ad6	-0.32332486
65	0x3f5bf555	0.8592122
66	0x3e817a23	0.25288495
67	0xbea6c967	-0.32575533
68	0x3e5832e6	0.21113166
69	0x3f555279	0.8332897
70	0xbf2aa024	-0.66650605
71	0x3dddd344	0.10831311
72	0xbe19a851	-0.15005614
73	0xbc5f9cdb	-0.013648237
74	0xbfc769a5	-1.5579115
75	0xbf100304	-0.562546
76	0xbf82ddee	-1.0223978
77	0xbf1d44c0	-0.6143303
78	0xbfbd94ab	-1.4810995
79	0x3ea19363	0.3155776
80	0xbea2f5a3	-0.3182803
81	0x3eadc449	0.33938816
82	0xbf203912	-0.6258708
83	0xbf0f54a6	-0.5598854
84	0x3f3741c1	0.7158471
85	0xbd3d7e86	-0.04626324
86	0x3edc82de	0.43068594
87	0x3e872105	0.2639238
88	0x3f5b4a18	0.85659933
89	0xbf231b96	-0.6371397
90	0xbfd52d6d	-1.6654488
91	0x3dc659a7	0.096850686
92	0x3d22665e	0.039648406
93	0x3fe21ea2	1.7665598
94	0x3e880790	0.2656827
95	0x3fa803ba	1.3126137
96	0xbf1b0ba9	-0.60564667
97	0xbf24262d	-0.6412075
98	0xbfab3506	-1.3375556
99	0xbf9f0c94	-1.2425714
100	0x4003cb43	2.059281
101	0xbf770dc9	-0.9650541
102	0xbfbfdde3	-1.498959
103	0x3fdac589	1.7091533
104	0xbf8409db	-1.0315508
105	0xbf60f7c5	-0.87878066
106	0x3ec03843	0.37542924
107	0xbe8e1761	-0.27752212
108	0xbe7e166e	-0.24813244
109	0xbfba4596	-1.4552486
110	0xbef7ddac	-0.4841131
111	0x3f6d72ed	0.9275349
112	0x3fcbf920	1.5935402
113	0xbfc754aa	-1.5572712
114	0xbf7db1ac	-0.9909923
115	0xbf6fd66a	-0.93686545
116	0x3ec1472f	0.3774962
117	0xbf37e9e8	-0.7184129
118	0x3f44852a	0.7676569
119	0xbeb5b053	-0.35486087
120	0x3cd1f16d	0.025627816
121	0x3b97aecb	0.0046289912
122	0x3f9bb7e0	1.2165489
123	0xbf955e03	-1.1669315
124	0xbdf7b826	-0.120956704
125	0xbe3ce83f	-0.1844797
126	0x3f707c2b	0.93939465
127	0x400d6276	2.2091346

RNN.weight_ih_l0 f4 [128, 17]
0	0xbe3c98da	-0.18417683
1	0x3cf1f0af	0.029533712
2	0x3de004ec	0.10938439
3	0xbc7a8f00	-0.015292883
4	0xbc22aaac	-0.009928387
5	0x3c63ee7e	0.013911841
6	0xbe072eaa	-0.13201395
7	0x3db06880	0.08613682
8	0xbdc1f104	-0.09469798
9	0xbe051170	-0.12994933
10	0x3c320370	0.010865077
11	0xbba04df0	-0.0048921034
12	0xbc36ee85	-0.011165266
13	0x3cdd91e8	0.027047113
14	0xbcf1733a	-0.02947389
15	0xbe260df9	-0.16216268
16	0xbde2a32c	-0.11066279
17	0x3d81093c	0.063005894
18	0xbd88587c	-0.06657502
19	0xbe70f639	-0.23531426
20	0xbeb8c7aa	-0.36089832
21	0x3e03b9ec	0.12863892
22	0x3c8771f6	0.016533833
23	0xbe33873f	-0.17532061
24	0x3e56f13d	0.20990463
25	0x3e56059f	0.20900582
26	0x3e5ebe1b	0.21752207
27	0xbc8507d0	-0.016239077
28	0xbeaddfc2	-0.33959776
29	0x3e3b7a10	0.18308282
30	0x3dc410c1	0.09573508
31	0xbcb71857	-0.022350473
32	0x3d6f514e	0.058427148
33	0xbd9874f0	-0.07444179
34	0xbe99b9b7	-0.30024502
35	0x3d987db2	0.074458495
36	0xbe01a49b	-0.12660448
37	0xbe260fbb	-0.16216938
38	0xbe6a0ca7	-0.22856389
39	0xbea32891	-0.31866887
40	0xbdee59db	-0.11638232
41	0xbcb423ec	-0.021989785
42	0x3d554ae0	0.05207336
43	0x3ce27521	0.027643742
44	0x3d2d6d5d	0.042340625
45	0xbd809416	-0.06278245
46	0x3d2db6f0	0.04241079
47	0xbd97fd5e	-0.07421373
48	0xbc8f5002	-0.017494205
49	0x3d6c0a47	0.05762699
50	0xbcb48bfa	-0.022039402
51	0x3e994f64	0.29943383
52	0xbcba8b17	-0.022771401
53	0xbdc23a3a	-0.09483762
54	0x3d7a11a4	0.06105198
55	0x3e48937b	0.1958751
56	0xbd934530	-0.07190931
57	0x3ec36a80	0.3816719
58	0x3e0028cd	0.12515564
59	0x3d99131f	0.0747435
60	0x3da723c3	0.08161118
61	0xbe4bb769	-0.19894184
62	0xbe385cf8	-0.18004215
63	0x3da4331a	0.08017559
64	0xbe7029ab	-0.23453395
65	0x3e046e51	0.12932707
66	0x3cb96103	0.022629267
67	0x3d1b7fc8	0.03796366
68	0x3e7376cf	0.2377579
69	0x3d5793c0	0.05263114
70	0xbe0ca859	-0.13736095
71	0xbd995fe9	-0.074889965
72	0x3e75b9c7	0.2399665
73	0x3e8416a2	0.25798517
74	0xbd71ff49	-0.05908135
75	0xbcf17273	-0.029473519
76	0x3c084de6	0.008319354
77	0xbce03919	-0.027370976
78	0xbe4f2b3e	-0.2023134
79	0x3c97eb4c	0.018544815
80	0x3e7ad281	0.24494363
81	0xbe3a67d1	-0.18203665
82	0x3d0ca394	0.034335688
83	0x3dec926a	0.11551364
84	0x3dfdf251	0.12399734
85	0x3d8e4b08	0.06947905
86	0xbd76d66b	-0.06026308
87	0xbd8d7743	-0.06907513
88	0x3e0db62f	0.13839029
89	0x3dd09ac6	0.10185771
90	0xbe1c4c49	-0.15263475
91	0xbead7c06	-0.33883685
92	0x3e3cc869	0.18435825
93	0x3e539e19	0.20665778
94	0x3e0143da	0.1262354
95	0x3c7ec08e	0.015548838
96	0xbda2b794	-0.07945171
97	0x3d77d21e	0.060503118
98	0xbe11b18d	-0.14227886
99	0x3d8f4551	0.06995643
100	0x3cf98522	0.03045899
101	0x3c0ab398	0.00846567
102	0xbc91fc52	-0.017820511
103	0xbe43373f	-0.19064043
104	0xbecf42b4	-0.40480578
105	0xbed2f9cb	-0.41206202
106	0x3e85e0e5	0.26148143
107	0x3e37a4f7	0.17934023
108	0xbce8b7de	-0.028407987
109	0x3f277397	0.6541075
110	0x3f19e464	0.6011412
111	0x3ece760d	0.4032444
112	0xbe30555b	-0.1722006
113	0x3e5ca69d	0.21547933
114	0xbe674529	-0.22584976
115	0x3b30b53e	0.0026963498
116	0xbc94792b	-0.018124184
117	0xbdf0ac79	-0.117516465
118	0x3dbf0147	0.093264155
119	0xbda8ee7a	-0.08248611
120	0xbd67b1d4	-0.056566074
121	0xbd57d1fa	-0.052690484
122	0x3d9a933d	0.07547615
123	0xbd043ff2	-0.032287546
124	0x3d07c301	0.033144955
125	0xbd9e0247	-0.07715278
126	0xbd3ee34e	-0.046603493
127	0x3bfd440f	0.0077290605
128	0xbd442d22	-0.047894605
129	0x3d8a4cfe	0.06752966
130	0x3ed2cfd4	0.41174185
131	0xbccef11b	-0.025261452
132	0xbd8a88cc	-0.06764373
133	0xbdc04fe6	-0.093902394
134	0xbd4125c9	-0.047155175
135	0x3e8471a1	0.25867942
136	0x3e33d31c	0.17561
137	0xbeb72a03	-0.3577424
138	0xbd828c46	-0.06374411
139	0x3e8044ba	0.25052434
140	0xbe04479a	-0.12917939
141	0xbe6c19f9	-0.23056783
142	0x3e2f2533	0.17104034
143	0x3e221218	0.15827215
144	0x3c148543	0.009064975
145	0xbd3b10bb	-0.045670252
146	0xbdffa664	-0.12482908
147	0xbe4f1191	-0.20221545
148	0x3d78d480	0.06074953
149	0xbd2e0fbd	-0.042495478
150	0x3dc2c505	0.09510235
151	0x3d2173d0	0.039417088
152	0xbcbd4b87	-0.023107303
153	0x3a8864cc	0.0010406016
154	0xbd3371ef	-0.043809827
155	0xbc96cac5	-0.018407235
156	0xbe9f0935	-0.31061712
157	0xbdc61ab9	-0.09673066
158	0xbcc24347	-0.023713721
159	0xbe57a4e8	-0.21059
160	0x3d3a14d8	0.045430034
161	0x3d28df78	0.04122874
162	0x3d96c4da	0.07361765
163	0xbda3f052	-0.08004822
164	0xbe6ad25d	-0.2293181
165	0x3e06509d	0.13116689
166	0xbcb59ce3	-0.022169536
167	0x3d86c08a	0.06579693
168	0x3dc260c4	0.09491113
169	0xbd0c3f2b	-0.03423993
170	0x3e040a35	0.12894519
171	0x3e235c43	0.15953164
172	0x3d56ed45	0.05247237
173	0xbe876c6f	-0.26449916
174	0x3dbff8b3	0.093736075
175	0x3ecc74ca	0.39932853
176	0x3d098771	0.033576433
177	0x3ca08222	0.019593302
178	0x3cc8684c	0.024463795
179	0xbd62107f	-0.055191513
180	0xbd748d86	-0.05970528
181	0xbcf8fd62	-0.03039426
182	0x3e10190d	0.14072056
183	0xbe731d81	-0.23741724
184	0x3d56c72a	0.05243603
185	0x3ca53461	0.020166578
186	0x3d1bbdfc	0.03802298
187	0xbe295e13	-0.16539793
188	0xbcd39d0e	-0.025831725
189	0x3db4b781	0.08824063
190	0x3e8ef0e4	0.2791816
191	0xbdf28197	-0.118411236
192	0xbe060cd4	-0.13090831
193	0xbc94d471	-0.018167706
194	0xbd0f4441	-0.0349772
195	0xbdf3cb75	-0.11904041
196	0xbbcdac82	-0.006276668
197	0xbdc46fc6	-0.095916316
198	0x3e361f37	0.17785345
199	0x3cb232e0	0.021752775
200	0x3e1689f3	0.14701061
201	0xbe5b1aaa	-0.2139689
202	0xbd9bd01b	-0.07608052
203	0x3e2b6eca	0.16741481
204	0xbe5ebb68	-0.21751177
205	0xbdf41862	-0.11918713
206	0xbdb83da2	-0.089961305
207	0x3ce7685a	0.028248
208	0xbc7c22a6	-0.01538912
209	0xbe30fb79	-0.17283429
210	0xbe40be1a	-0.18822518
211	0xbd427869	-0.047478113
212	0x3d7b7f6d	0.06140082
213	0xbbb7454e	-0.0055929786
214	0x3e573d3f	0.21019457
215	0x3d720e6b	0.05909578
216	0x3dec1360	0.11527133
217	0xbcbb3594	-0.022852696
218	0x3c9ceda9	0.019156294
219	0xbdd631b3	-0.10458698
220	0xbd5c6583	-0.053807747
221	0xbeb943fc	-0.3618468
222	0xbe7754d2	-0.2415345
223	0xbe72c678	-0.23708522
224	0xbd5cceda	-0.053908207
225	0xbe1810e0	-0.14850187
226	0xbe6e2410	-0.23255944
227	0xbe6b8ff2	-0.2300413
228	0xbe1fcfd9	-0.15606631
229	0xbe21853a	-0.15773478
230	0xbe8c1393	-0.27358684
231	0x3e7c0132	0.24609831
232	0x3de52d04	0.11190227
233	0x3dc97745	0.09837202
234	0xbdcaa18a	-0.098940924
235	0xbd33d9cd	-0.043908883
236	0x3c858158	0.016297027
237	0x3d1d73bf	0.038440462
238	0x3c964fc2	0.018348578
239	0xbd824374	-0.06360522
240	0xbe4255bf	-0.18978022
241	0xbec58c7b	-0.3858374
242	0x3e2caec1	0.16863538
243	0xbe248db7	-0.16069685
244	0xbe213ffc	-0.15747064
245	0x3ebcec13	0.3689886
246	0x3ef08ff3	0.46984825
247	0x3e5c240d	0.21498127
248	0x3e61771e	0.22018096
249	0xbe018db6	-0.12651715
250	0xbdbfc08d	-0.09362898
251	0x3d9f3adf	0.07774901
252	0xbc2b6994	-0.0104621835
253	0x3d4a5273	0.049395036
254	0xbc38eded	-0.011287195
255	0xbdb53096	-0.08847158

RNN.weight_hh_l0 f4 [128, 128]
0	0x39dddd66	0.0004231736
1	0xbd55d88e	-0.052208476
2	0xbe26c386	-0.16285524
3	0x3d1eb006	0.038742088
4	0x3dcd6bae	0.10030304
5	0x3d2b5717	0.041831102
6	0x3d625510	0.055256903
7	0x3bedd659	0.0072582182
8	0x3cb4d365	0.022073457
9	0x3d5633d7	0.052295532
10	0x3c1c0d34	0.009524632
11	0x3c05f4de	0.008176057
12	0x3dd3c2bc	0.10339877
13	0xbcceea2e	-0.02525815
14	0xbe60b037	-0.2194222
15	0x3d077e52	0.033079453
16	0xbd1326bd	-0.035925616
17	0x3d516b3b	0.051127654
18	0x3da166cd	0.07880936
19	0x3b391d32	0.0028246162
20	0x3d70a72c	0.058753178
21	0x3c564f8d	0.01308049
22	0x3d300326	0.042971753
23	0xbe1acb79	-0.15116681
24	0xbba4e0fa	-0.005031702
25	0x3c35c8d3	0.0110952435
26	0x3e1db505	0.15401085
27	0xbd26d281	-0.040728096
28	0xbc69b9a8	-0.014265455
29	0xbc0b2b4f	-0.008494212
30	0xbd4b402f	-0.049621757
31	0xbcb76ce4	-0.02239079
32	0x3d69db5f	0.057093974
33	0xbab03a18	-0.0013445048
34	0xbe0af1ed	-0.1356885
35	0x3cd0c45f	0.025484262
36	0xbdbc599d	-0.0919678
37	0x3d73d785	0.059531707
38	0xbbc9034a	-0.0061344253
39	0x3d8524a2	0.06501128
40	0xbd0a8cb2	-0.033825584
41	0x3d447aac	0.04796855
42	0xbdb6123f	-0.08890199
43	0xbd1c4aa7	-0.03815713
44	0xbd40bc41	-0.047054533
45	0x3d8d13ae	0.06888519
46	0xbafa1b86	-0.0019081689
47	0xbd94e86d	-0.07270894
48	0x3db54b5b	0.088522635
49	0xbe28968b	-0.16463678
50	0x3d09a168	0.033601195
51	0x3d498019	0.04919443
52	0x3da3e419	0.080024906
53	0x3cb6e27e	0.022324797
54	0x3d3979f4	0.04528232
55	0xbc1653da	-0.009175265
56	0xbd8c8614	-0.06861511
57	0xbde402eb	-0.11133369
58	0xbe35261c	-0.17690319
59	0xbd8c2e7e	-0.06844805
60	0xbd9efb13	-0.07762732
61	0xbc86f63c	-0.016474836
62	0x3d1a2769	0.03763524
63	0x3c443a3f	0.011976778
64	0x3dc57110	0.096407056
65	0x3db453f2	0.08805074
66	0x3c200aa2	0.00976816
67	0x3bfcdc74	0.0077167097
68	0xbdec3405	-0.115333594
69	0xbe0fedb5	-0.14055522
70	0xbc01c3ff	-0.007920264
71	0xbd2c4981	-0.042062286
72	0xb80bebf0	-3.3359916e-05
73	0xbc96ea51	-0.018422278
74	0x3d80b7cd	0.06285057
75	0x3be3d225	0.0069525414
76	0xbbeeec9d	-0.00729139
77	0xbd947254	-0.07248369
78	0x3b9cf0df	0.0047894563
79	0x3d34cab5	0.04413863
80	0x3dcee7ec	0.10102829
81	0xbd2484c6	-0.040165685
82	0x3d833993	0.06407466
83	0x3b2f5fa8	0.0026759896
84	0xbcc50e7c	-0.024054758
85	0x3d88ac70	0.06673515
86	0xbd719264	-0.0589775
87	0x3e152606	0.14565286
88	0x3d791437	0.060810294
89	0xbce805a6	-0.028323006
90	0xbcfe0c12	-0.031011615
91	0xbd63f773	-0.055655908
92	0x3a085c57	0.0005201748
93	0xbd063ed2	-0.032774754
94	0xbdfeebb5	-0.12447301
95	0xbcdb69ea	-0.026783902
96	0xbd8b3389	-0.06796939
97	0x3cd2ac5c	0.025716953
98	0xbd95ec53	-0.07320466
99	0xbd50fd93	-0.051023077
100	0xbda89849	-0.08232171
101	0x3d525be7	0.051357176
102	0x3aa91114	0.0012898766
103	0xbe5233e1	-0.20527603
104	0x3da4aad5	0.08040396
105	0xbd3d0df8	-0.0461559
106	0x3da50134	0.0805687
107	0xbdbe20be	-0.09283589
108	0x3db97b77	0.09056752
109	0xbc033779	-0.008008831
110	0xbdd5957d	-0.10428903
111	0x3d57a193	0.052644324
112	0x3d9f4f48	0.077787936
113	0xbad2065e	-0.0016023626
114	0xbde13993	-0.109973095
115	0x3c26e8a7	0.010187305
116	0xbe763e22	-0.2404714
117	0xbd8e4764	-0.069472104
118	0x3e3b30c1	0.18280317
119	0x3c598500	0.013276339
120	0xbdd7ab53	-0.105307244
121	0x3db338f3	0.087510966
122	0x3e0dad45	0.13835628
123	0x3cc7908a	0.024360914
124	0x3c27ae31	0.010234402
125	0x3ce44952	0.027866993
126	0xbdf5c567	-0.12000542
127	0xbdcfe44e	-0.101509675
128	0x3d84aa01	0.06477738
129	0x3d177279	0.036974404
130	0x3d4569b3	0.048196506
131	0xbc76f32b	-0.015072624
132	0xbcee9a46	-0.029126298
133	0xbd887c77	-0.06664365
134	0x3c22632c	0.00991134
135	0xbc915bd3	-0.01774398
136	0x3d8a11ba	0.06741662
137	0xbd0775bc	-0.033071265
138	0xbd9e1b71	-0.07720078
139	0x3d39f3e2	0.0453986
140	0xbdbc01b5	-0.09180013
141	0xbd1f9940	-0.03896451
142	0xbcc50b6e	-0.024053302
143	0x3d557d4e	0.052121453
144	0xbd528ebc	-0.051405653
145	0xbd9ba114	-0.075990826
146	0x3d6640ce	0.056214146
147	0x3d19672c	0.037451908
148	0xbd8b785d	-0.06810067
149	0x3d8423b6	0.06452124
150	0x3d8e9fa5	0.069640435
151	0xbd14352a	-0.036183514
152	0xbd63330e	-0.05546861
153	0xbd6b257f	-0.057408806
154	0x3d64c849	0.05585507
155	0x3d0b977f	0.034080025
156	0x3d95cb9a	0.073142245
157	0xbd9df1ce	-0.07712136
158	0x3cbd5628	0.023112372
159	0xbd3854e0	-0.045002818
160	0x3d6e822b	0.058229607
161	0xbd170d11	-0.036877695
162	0xbcf3a752	-0.02974287
163	0xbda9cae8	-0.082906544
164	0x3c41c528	0.011826791
165	0xbd8fdc41	-0.07024432
166	0x3d98e508	0.07465559
167	0xbd2e8ac3	-0.042612802
168	0xbaa9a6ef	-0.0012943427
169	0xbd5c5960	-0.053796172
170	0xbc5ba0bb	-0.01340502
171	0xbc87c68c	-0.016574167
172	0xbc4598a8	-0.012060322
173	0xbc9f2196	-0.019425195
174	0xbd32b08c	-0.0436254
175	0xbca73b53	-0.02041403
176	0x3d658103	0.05603124
177	0x3cb554e6	0.02213521
178	0x3d960060	0.0732429
179	0x3bd477ed	0.006484023
180	0x3d5400c2	0.051758535
181	0xbd4303e5	-0.047611136
182	0x3d790abc	0.060801253
183	0x3d4a6bea	0.04941932
184	0xbcb862a9	-0.022507982
185	0xbc99fad9	-0.018796371
186	0x3d1b2131	0.03787345
187	0xbd90a553	-0.07062783
188	0xbdb69e9b	-0.0891697
189	0xbd826062	-0.0636604
190	0x3d16926a	0.036760725
191	0xbca11e3e	-0.01966774
192	0xbcbdeac0	-0.023183227
193	0x3d906320	0.070501566
194	0xbd726369	-0.059176836
195	0x3c23a0a2	0.009987028
196	0x3b303612	0.0026887697
197	0xbd57bfc4	-0.052673116
198	0xbd71435d	-0.058902133
199	0xbcc1ccbc	-0.023657195
200	0xbd75553e	-0.059895746
201	0xbd08a409	-0.03335956
202	0x3d1fd15a	0.039018013
203	0xbad15233	-0.0015969932
204	0xbd4ea956	-0.05045446
205	0x3d803449	0.062599726
206	0xbc737292	-0.014858859
207	0x3cb358f6	0.021893006
208	0x3d4f8dc6	0.050672315
209	0xbd5678d0	-0.05236131
210	0xbd4bbabd	-0.049738634
211	0x3db1084f	0.08644163
212	0xbd9621e7	-0.07330685
213	0x3da14a8e	0.07875548
214	0xbcde1c8d	-0.027113223
215	0x3da62d0d	0.081140615
216	0xbb5790f0	-0.0032892786
217	0x3d5b1205	0.05348398
218	0x3d310dde	0.043226115
219	0x3cde122a	0.02710827
220	0xbc7ec445	-0.015549724
221	0xbdfe4911	-0.1241628
222	0x3b8088ab	0.003922542
223	0xbd0ef32d	-0.03489988
224	0x3c18cd35	0.009326269
225	0xbde64300	-0.11243248
226	0x3df7061a	0.12061711
227	0x3da5516d	0.08072171
228	0x3d80665c	0.062695235
229	0x3d16e6f7	0.03684136
230	0x3ce2d539	0.027689563
231	0x3c634bfc	0.013873097
232	0x3c584444	0.01319987
233	0x3d223228	0.039598614
234	0x3d4b29f0	0.04960054
235	0xbcc00a9b	-0.023442557
236	0xbcf4bc27	-0.029874874
237	0xbd8fc08e	-0.07019149
238	0xbca78f85	-0.020454178
239	0x3cfb2201	0.030655863
240	0x3d13a151	0.036042515
241	0xbdae7cc3	-0.0851989
242	0xbcf6ddcb	-0.030135056
243	0x3d5606f5	0.05225273
244	0xbbe0183a	-0.0068388255
245	0xbd83d3eb	-0.064369045
246	0xbc9c9327	-0.019113136
247	0xbdab155a	-0.08353682
248	0x3d16e41b	0.036838632
249	0x3d8f55fc	0.06998822
250	0x3d2e5223	0.0425588
251	0x3c290894	0.010316987
252	0x3c404525	0.011735235
253	0x3d69e190	0.05709988
254	0x3c8cbdb3	0.0171803
255	0x3d54eab2	0.051981635

RNN.bias_ih_l0 f4 [128]
0	0x3ad4571c	0.0016200277
1	0x3cc49ec0	0.02400148
2	0xbc6467b3	-0.013940739
3	0x3c3ecf31	0.011646078
4	0xbc67bd38	-0.014144234
5	0x3d8e5a6e	0.06950842
6	0xbc321f90	-0.010871783
7	0xbd31430b	-0.043276828
8	0xbc6217ff	-0.013799666
9	0xbd8e6bff	-0.06954192
10	0x3d25be4a	0.040464677
11	0xbd89c76c	-0.0672749
12	0x3b29c994	0.0025907503
13	0x3db8b852	0.09019531
14	0xbd8642ac	-0.065556854
15	0x3d55802f	0.0521242
16	0x3da0d473	0.078530215
17	0xbd5de2c8	-0.054171354
18	0x3ce7dd19	0.02830367
19	0xbdda296d	-0.106524326
20	0xbc222957	-0.0098975515
21	0x3dc8938f	0.097937696
22	0x3cd9f70b	0.026607057
23	0x3d2f5f57	0.042815533
24	0xbb828029	-0.003982563
25	0x3c8ac6a7	0.016940428
26	0x3cd80f2e	0.026374426
27	0x3cfde806	0.030994426
28	0x3d422cc2	0.047405966
29	0xbc82b265	-0.015954206
30	0x3c5af709	0.013364562
31	0xbdce3c1b	-0.10070058
32	0x3d0a482a	0.033760227
33	0xbc056552	-0.008141832
34	0x3d12d219	0.035844896
35	0xbd97ad75	-0.07406131
36	0x3d726481	0.05917788
37	0x3d3d9229	0.046281967
38	0xbc3a304c	-0.011364054
39	0x3dc3e515	0.09565178
40	0x3b9c3f52	0.0047682906
41	0xbcf1de47	-0.029524935
42	0xbc8130a6	-0.015770268
43	0x3dd5271c	0.1040785
44	0xbd81b02a	-0.06332429
45	0xbcabbd1c	-0.020964198
46	0x3cc37747	0.023860587
47	0xbd7faf40	-0.06242299
48	0x3dd4a08e	0.10382186
49	0x3db39c69	0.08770067
50	0x3dac605f	0.08416819
51	0x3cf69c26	0.030103754
52	0x3d876e6d	0.06612859
53	0xbdd20fff	-0.10256957
54	0x3d5625b9	0.05228207
55	0xbd5128ad	-0.051064182
56	0x3d3c8287	0.046022918
57	0x3e049257	0.12946449
58	0xbd33f0c5	-0.043930788
59	0x3cd08b4b	0.025457045
60	0xbc88a91c	-0.0166822
61	0x3e0cccd4	0.1375001
62	0xbcac64c9	-0.021044152
63	0x3d8d5feb	0.069030605
64	0x3d625321	0.05525506
65	0xbdc2c4ef	-0.09510218
66	0xbd4b713b	-0.049668532
67	0xbdb5bf50	-0.088743806
68	0x3cd5c550	0.026095062
69	0x3d4f4203	0.050600063
70	0x3d817fe1	0.06323219
71	0x3decbe16	0.115596935
72	0xb7aea380	-2.0818552e-05
73	0x3da8d25c	0.08243248
74	0x3d2d7d4c	0.04235582
75	0x3d02056f	0.031743463
76	0x3d6c7beb	0.057735365
77	0x3d63468e	0.055487208
78	0x3d5349c0	0.051584005
79	0xbd1148a4	-0.035469666
80	0xbc6ad7a6	-0.014333641
81	0xbd443246	-0.047899507
82	0x3d84d6c5	0.064862765
83	0x3dce5d9f	0.100764506
84	0x3ca0f5db	0.019648483
85	0x3ce2a3e8	0.027666047
86	0xbd55801a	-0.05212412
87	0x3cd8b2d0	0.026452452
88	0xbb333a21	-0.002734788
89	0xbcb91a24	-0.022595473
90	0x3c3f6a52	0.011683064
91	0xbc9cc298	-0.019135758
92	0x3d706ed3	0.05869944
93	0xbdcd8975	-0.100359835
94	0x3c744e69	0.014911273
95	0xbcf0f367	-0.029412938
96	0x3db46452	0.08808197
97	0xbd1c59df	-0.038171645
98	0x3d9744d2	0.07386173
99	0x3d1da856	0.038490616
100	0xbd27a064	-0.040924445
101	0x3c10a385	0.008828049
102	0xbd165c89	-0.036709342
103	0xbd799023	-0.060928475
104	0x3d520af0	0.051279962
105	0x3d355fbe	0.04428076
106	0xbcf363c2	-0.029710654
107	0xbd42600b	-0.047454875
108	0xbdaef8f8	-0.08543581
109	0xbd1a314e	-0.037644677
110	0xbcc558d2	-0.024090204
111	0x3d8511ea	0.064975575
112	0x3dc78490	0.09742081
113	0x3be4567b	0.006968317
114	0x3d1ceaaa	0.03830973
115	0x3d27b330	0.04094237
116	0x3c7efdad	0.015563411
117	0x3c122491	0.008919851
118	0x3ca89685	0.020579586
119	0xbd99ae05	-0.07503895
120	0xbd039805	-0.0321274
121	0xbd0bb017	-0.03410348
122	0xbcd11754	-0.025523819
123	0xbd590dee	-0.0529918
124	0x3c9e87aa	0.019351799
125	0x3dd62ded	0.104579784
126	0xbd0a722d	-0.033800293
127	0x3dca60ba	0.098817304

RNN.bias_hh_l0 f4 [128]
0	0xbd913174	-0.070895106
1	0x3db5cd5a	0.08877058
2	0x3d535a69	0.051599894
3	0x3b3ed4be	0.0029118503
4	0x3d23f574	0.040029004
5	0xbca2075e	-0.019778904
6	0xbaa44324	-0.0012532216
7	0x3d4112d7	0.047137108
8	0x3d64bd16	0.05584439
9	0x3b5829ab	0.003298382
10	0x3d64a9c2	0.055825956
11	0xbdb2ba98	-0.08726996
12	0xbc0a9e18	-0.008460544
13	0x3da1bf5d	0.07897828
14	0xbc6eee1c	-0.014583137
15	0x3ca540e5	0.020172546
16	0x3d01d767	0.031699564
17	0x3ce2c468	0.027681544
18	0xbc87e7d7	-0.016590042
19	0xbdac485c	-0.08412239
20	0xbd3c6947	-0.045998838
21	0xbca81d1e	-0.020521697
22	0x3de8cc5b	0.11367103
23	0xbd33bbea	-0.04388038
24	0xbc38f544	-0.011288945
25	0x3c8ad569	0.016947465
26	0x3d30028c	0.04297118
27	0xbdad0feb	-0.08450302
28	0xbd69ca10	-0.057077467
29	0x3d972c93	0.07381549
30	0x39d2b7ce	0.00040191266
31	0xba3968f2	-0.0007072828
32	0xbd4ce980	-0.05002737
33	0xbd8d745f	-0.06906962
34	0x3d618071	0.055054132
35	0xbcab97d0	-0.020946413
36	0x3dbb69f3	0.091510676
37	0xbd050136	-0.032471858
38	0xbd987d91	-0.07445825
39	0xbd3bcd7c	-0.045850262
40	0xbcc01d97	-0.02345161
41	0xbd677808	-0.056510955
42	0xbdb2e898	-0.0873577
43	0x3d9c895c	0.07643387
44	0xbd9d1a11	-0.076709874
45	0x3ca54cc2	0.020178203
46	0x3dc0243a	0.0938191
47	0x3bccf942	0.0062553
48	0xbbf75fc1	-0.0075492566
49	0x3cd93572	0.026514743
50	0x3d2a8cd6	0.041638218
51	0x3cb12ade	0.021626886
52	0x3b95a432	0.0045666927
53	0x3d7ecc70	0.062206686
54	0x3db6e8ec	0.08931145
55	0x3d77527b	0.060381394
56	0xbd1a5fa3	-0.037688863
57	0x3cbc9e06	0.02302457
58	0x3d83e11d	0.06439421
59	0xbcb71fa1	-0.022353949
60	0x3d922da2	0.0713761
61	0x3c744b7a	0.014910573
62	0x3d9d50b8	0.076814115
63	0x3d31529e	0.04329168
64	0xbccc818f	-0.024964122
65	0xbd48dcf3	-0.04903884
66	0xbd9944ef	-0.07483851
67	0x3d42e1a3	0.047578465
68	0x3d2ec556	0.042668663
69	0x3d12f080	0.03587389
70	0x3c600a52	0.013674336
71	0x3de7ef8a	0.11324985
72	0x3d94e0d8	0.07269448
73	0x3d5d213b	0.05398677
74	0x3d88ecdd	0.06685803
75	0x3d36259d	0.044469465
76	0x3c3ab594	0.011395831
77	0x3db3bcb3	0.08776226
78	0x3dbcea8f	0.09224426
79	0x3cdc3525	0.02688081
80	0x3da43f74	0.08019915
81	0x3d1f87b0	0.03894776
82	0xbd7383cc	-0.059451863
83	0x3d896a7f	0.06709766
84	0x3da06a66	0.07832794
85	0xbd95ff99	-0.07324142
86	0xbd444697	-0.047918882
87	0xbd1a8f43	-0.03773428
88	0x3dc2feb6	0.095212385
89	0x3c8247c3	0.01590336
90	0xbdc075fc	-0.09397504
91	0x3d251838	0.0403063
92	0xbd3fd05f	-0.046829578
93	0xbd62c894	-0.055367067
94	0xbc709242	-0.014683308
95	0x3d91c786	0.07118134
96	0xbc99a570	-0.018755645
97	0xbd4759a5	-0.048669476
98	0x3d873e47	0.06603675
99	0xbd7f1c51	-0.062282864
100	0xbd55c974	-0.052194074
101	0x3c82d305	0.015969763
102	0xbd334e88	-0.043776065
103	0x3b036190	0.0020047165
104	0xbddba732	-0.10725249
105	0xbc5c3ed6	-0.013442716
106	0x3d88affb	0.066741906
107	0xbd1109b1	-0.035409633
108	0x3d6d1ee4	0.057890788
109	0x3deeb38d	0.1165534
110	0x3dd2f395	0.10300366
111	0x3cc1bfa2	0.023650948
112	0x3db6e85a	0.08931036
113	0x3ccff892	0.025387082
114	0xbd16072c	-0.036627933
115	0x3d0b83f0	0.034061372
116	0xbdba2b7e	-0.09090327
117	0xbd6ac9b5	-0.05732127
118	0x3d4a5184	0.049394146
119	0xbdbf8921	-0.09352327
120	0x3d62323c	0.05522369
121	0x3dc0d04f	0.09414732
122	0x3daf375c	0.08555481
123	0xbb817df2	-0.0039517814
124	0xbc4d4a40	-0.01252991
125	0x3ca863ea	0.020555455
126	0x3d889012	0.06668104
127	0x3d36c247	0.04461887

actor.weight f4 [3, 128]
0	0xbdf3791c	-0.11888334
1	0x3e3a7828	0.18209898
2	0xbe7a0b1c	-0.244183
3	0x3f2f7164	0.68532395
4	0x3f3d5b1a	0.73967135
5	0x3ed29c5a	0.41134912
6	0x3dd80e06	0.1054955
7	0xbe1ade4d	-0.15123864
8	0x3d918243	0.071049236
9	0x3e1b9f2c	0.15197438
10	0x3f17f321	0.5935536
11	0xbe7c0ab0	-0.24613452
12	0xbde31dcf	-0.1108967
13	0xbe9e31d3	-0.30897388
14	0xbe12a411	-0.14320399
15	0x3e1b4f6c	0.15167016
16	0x3e3c7e59	0.18407573
17	0x3dfc2766	0.12312202
18	0x3ea71178	0.32630515
19	0xbc3850a7	-0.011249698
20	0xbe358b47	-0.17728911
21	0x3ec54af9	0.38533762
22	0xbe2498d2	-0.16073921
23	0xbd80f02c	-0.06295809
24	0x3e51cd74	0.2048853
25	0x3d340370	0.04394859
26	0x3e5c578c	0.21517771
27	0x3d3c69ea	0.045999445
28	0xbbd3f212	-0.006468066
29	0x3f1b877d	0.60753614
30	0x3f31a1a0	0.69387245
31	0xbe42d036	-0.19024739
32	0xbc49e304	-0.012322191
33	0xbe3f1973	-0.18662052
34	0x3dc692a8	0.09695941
35	0x3d9d1777	0.07670491
36	0x3ecf9d2a	0.40549594
37	0x3ea15619	0.31511
38	0x3e50218d	0.20325299
39	0x3ed2effa	0.41198713
40	0xbcee9df4	-0.029128052
41	0x3d887baf	0.06664216
42	0xbef22ad9	-0.47298315
43	0x3ee90aa7	0.4551594
44	0x3db4ba12	0.088245526
45	0xbda5a510	-0.08088124
46	0x3e3b2851	0.18277098
47	0x3f03cc7c	0.51483893
48	0x3f3aff89	0.73046166
49	0x3e6f1eae	0.23351547
50	0x3e074e02	0.13213351
51	0xbdd990f4	-0.10623351
52	0xbd80118c	-0.06253347
53	0x3e369c5e	0.17833087
54	0xbb0c2462	-0.002138399
55	0xbd80d34f	-0.06290304
56	0xbd29e454	-0.041477516
57	0x3ebf8667	0.37407228
58	0xbe1f5aa0	-0.15561914
59	0x3d8921ec	0.06695923
60	0x3f2202fb	0.632858
61	0x3ef48cde	0.47763723
62	0xbe95bfd0	-0.29247904
63	0x3e7ec0fa	0.24878302
64	0x3e3cf044	0.18451029
65	0xbd9211c2	-0.07132293
66	0xbd7625d3	-0.060094666
67	0xbf07cd8b	-0.5304801
68	0xbe70371e	-0.23458526
69	0x3c803192	0.015648637
70	0xbf19a381	-0.6001511
71	0x3f2ec11b	0.68263406
72	0x3e8e6846	0.2781393
73	0x3edc0eec	0.42980134
74	0xbcdd78ff	-0.027035234
75	0xbb893138	-0.0041867755
76	0x3f1d22e1	0.61381346
77	0xbea278b9	-0.3173273
78	0xbee13061	-0.43982223
79	0x3ea32f7b	0.31872162
80	0x3ea1ae8b	0.31578478
81	0xbe26adbd	-0.16277213
82	0x3eaadc23	0.33371076
83	0x3e2766ce	0.1634781
84	0x3eb0db0e	0.34542125
85	0xbdf8ed9d	-0.12154696
86	0x3e94ec1e	0.29086393
87	0xbdc02b58	-0.09383267
88	0x3eb24e41	0.34825328
89	0x3ddbf19c	0.10739443
90	0xbd9bad48	-0.0760141
91	0x3e4877ec	0.19576997
92	0x3eb406ad	0.35161343
93	0x3e1537c8	0.1457206
94	0xbeb9ab64	-0.36263573
95	0x3ba75f18	0.0051077716
96	0x3ea25d82	0.31711966
97	0xbdca3fb4	-0.09875432
98	0xbe0d4d9a	-0.13799134
99	0x3e686df2	0.22698191
100	0xbd6e55d5	-0.058187325
101	0x3e3251a3	0.17413954
102	0x3e519e70	0.20470595
103	0xbe0ecc47	-0.13945113
104	0xbe05b137	-0.13055883
105	0x3ec4c3fa	0.38430768
106	0x3e2d3f36	0.16918644
107	0xbe0d809c	-0.13818592
108	0xbdae9099	-0.085236736
109	0x3e9f123a	0.31068593
110	0xbe949f1d	-0.29027644
111	0x3f1960ab	0.5991313
112	0x3e02f260	0.12787771
113	0x3ea05bc0	0.3132
114	0x3e268bb1	0.16264226
115	0x3ca71ba9	0.020398932
116	0xbda5dcbf	-0.080987446
117	0xbda3481b	-0.079727374
118	0xbe901c4e	-0.28146595
119	0x3e0cfc14	0.13768035
120	0x3ee992e7	0.4561989
121	0x3e260933	0.16214447
122	0xbe4ab034	-0.19793779
123	0xbe33cee1	-0.17559387
124	0x3e23976e	0.15975735
125	0xbeb62ebb	-0.35582528
126	0xbebaa2dd	-0.3645238
127	0xbe20a94b	-0.1568958
128	0x3e472e6d	0.19451304
129	0xbe2534f7	-0.16133486
130	0xbe04481b	-0.12918131
131	0xbe23e15f	-0.16003941
132	0xbef12df6	-0.47105378
133	0xbc0143a1	-0.007889659
134	0x3e14bb59	0.14524592
135	0x3ebe2e3b	0.37144646
136	0xbe8e4e26	-0.27793998
137	0xbe2caffe	-0.1686401
138	0xbe85ef9c	-0.2615937
139	0x3e9e11f8	0.30873084
140	0xbe5de382	-0.21668819
141	0x3c42c419	0.011887574
142	0xbe63dc96	-0.22252116
143	0x3d98a0eb	0.07452568
144	0x3b11e08d	0.0022259087
145	0xbd95b75c	-0.07310364
146	0xbe94c465	-0.29056087
147	0xbd36d1e9	-0.04463378
148	0x3ee9966c	0.45622575
149	0xbe02e9a8	-0.12784445
150	0x3dbf9c48	0.0935598
151	0xbe05806a	-0.13037267
152	0xbe2bcc33	-0.16777115
153	0x3ec31c9f	0.38107774
154	0x3ddcc3f0	0.107795596
155	0x3d1f674e	0.03891688
156	0x3d0c6d17	0.034283724
157	0xbe4cc5f1	-0.19997384
158	0xbeab56f6	-0.33464783
159	0xbe38c9b8	-0.180457
160	0xbde18581	-0.11011792
161	0x3e4c0892	0.19925144
162	0xbd0dc0d7	-0.034607735
163	0x3d9a60e2	0.0753801
164	0xbe45792e	-0.19284508
165	0xbea6da00	-0.32588196
166	0xbdb58219	-0.08862705
167	0xbe303d5c	-0.17210907
168	0x3d2a08da	0.041512348
169	0xbdee5c56	-0.116387054
170	0x3eed6b01	0.463707
171	0xbecac0e4	-0.3960029
172	0xbd33cec4	-0.04389836
173	0x3db9e0f3	0.09076109
174	0xbefbc51a	-0.49173814
175	0xbe8ef77a	-0.27923185
176	0xbee52f2b	-0.4476255
177	0xbedfe17b	-0.43726715
178	0xbd138c29	-0.03602234
179	0x3e819d1a	0.2531517
180	0xbe467592	-0.19380787
181	0xbe019172	-0.12653139
182	0x3e13fd7f	0.1445217
183	0x3e36c6df	0.17849301
184	0xbdffd676	-0.12492077
185	0xbe012df8	-0.12615192
186	0xbe75f723	-0.24020056
187	0xbdd4e631	-0.10395468
188	0xbebf91d6	-0.37415951
189	0xbe6bd35d	-0.23029847
190	0xbdb7265c	-0.08942863
191	0xbe59f32f	-0.21284173
192	0x3d3dd8d3	0.046349358
193	0x3e2cda3d	0.16880126
194	0xbd2c0d02	-0.042004593
195	0x3ef1d688	0.47233987
196	0x3e574a42	0.21024421
197	0xbc8736c7	-0.016505612
198	0x3dafa2b9	0.08575959
199	0xbf3cda8c	-0.73770976
200	0xbe706b7e	-0.23478505
201	0x3afaa78a	0.0019123417
202	0x3e141844	0.14462382
203	0x3e4ec29d	0.20191427
204	0xbf24d01d	-0.64380056
205	0x3e2b3a9d	0.16721578
206	0x3ec2c0c5	0.38037696
207	0xbc8a2c50	-0.016866833
208	0xbd986f69	-0.07443125
209	0x3ecf63d3	0.40505847
210	0x3da656f4	0.08122054
211	0xbeadd651	-0.33952573
212	0xbe90c80b	-0.2827762
213	0x3b9f2111	0.0048562367
214	0xbefab936	-0.4896943
215	0x3e85813b	0.26075158
216	0xbed0c49a	-0.40774995
217	0xbdd4179f	-0.10356068
218	0x3b9bb754	0.004752079
219	0x3d12caa8	0.0358378
220	0xbd3b1b86	-0.045680545
221	0xbccd7daf	-0.025084345
222	0x3e2e98ed	0.17050524
223	0xbe2db0ea	-0.16962019
224	0x3d88178c	0.06645116
225	0xbbbc0600	-0.00573802
226	0x3d92626a	0.07147677
227	0xbe47eb3a	-0.19523326
228	0xbde63aa1	-0.11241651
229	0xbd8256e0	-0.06364226
230	0xbe2111a2	-0.15729383
231	0x3e1ec639	0.15505303
232	0x3dae5bbd	0.085135914
233	0x3eaca842	0.3372212
234	0x3e327919	0.17429008
235	0x3ea3aed2	0.31969315
236	0xbd48a636	-0.048986636
237	0xbebc6810	-0.36798143
238	0xba2637db	-0.00063407206
239	0x3dc63696	0.0967838
240	0xbd9b505c	-0.07583687
241	0xbe4f6065	-0.20251615
242	0xbef58415	-0.47952333
243	0x3e531612	0.20613888
244	0x3e2ca9cb	0.16861646
245	0x3ea14b90	0.31502962
246	0x3de47d5c	0.11156723
247	0xbd95c096	-0.073121235
248	0xbebf9734	-0.37420046
249	0x3dbd1420	0.09232354
250	0xbe68c887	-0.22732745
251	0xbd24b507	-0.040211704
252	0xbdd6432e	-0.10462032
253	0x3dc52588	0.09626299
254	0x3eb2641d	0.34842005
255	0x3f046248	0.51712465

actor.bias f4 [3]
0	0x3d8520e6	0.065004155
1	0xbd500d30	-0.050793827
2	0xbbb2796a	-0.0054466026

critic.weight f4 [1, 128]
0	0xbdbbfe39	-0.091793485
1	0xbdb1e5d6	-0.08686416
2	0xbc05eb8f	-0.008173837
3	0xbc259d9c	-0.010108378
4	0xbd40ae4f	-0.047041234
5	0xbe10da8e	-0.14145872
6	0xbed291b7	-0.41126797
7	0xbd16ab45	-0.03678443
8	0x3c7dce53	0.015491086
9	0xbd91480e	-0.070938215
10	0xbdc2428e	-0.094853505
11	0x3d4b7020	0.049667478
12	0x3d9404ae	0.07227455
13	0x3e3a4c9a	0.18193284
14	0x3cf224da	0.029558588
15	0x3e3e2308	0.18568051
16	0xbc1f1dc1	-0.009711684
17	0xbb9f7f4c	-0.00486747
18	0xbdccfd86	-0.10009293
19	0xbdf120bb	-0.11773821
20	0x3b8cd501	0.004297853
21	0x3d5ef586	0.05443337
22	0x3e664c07	0.2248994
23	0x3def7e19	0.11693973
24	0x3d91ef3b	0.07125708
25	0x3e097212	0.1342242
26	0x3e1e89db	0.15482275
27	0x3e947d5b	0.2900189
28	0xbe1fbf2e	-0.15600273
29	0xbd805928	-0.06267005
30	0x3c8cc9df	0.017186103
31	0x3d19b5b4	0.0375268
32	0x3e0b94e4	0.13631016
33	0xbe59590c	-0.21225375
34	0x3e60a9a9	0.2193972
35	0xbdd32ac9	-0.10310895
36	0x3e1140a8	0.1418482
37	0x3e80226f	0.2502627
38	0x3d87c153	0.066286705
39	0xbe4aa8f3	-0.19791012
40	0xbde168e7	-0.11006337
41	0xbe161d9b	-0.14659731
42	0x3e9812b3	0.29701766
43	0x3e9380a1	0.28809074
44	0x3ae76215	0.0017653132
45	0xbe04e79e	-0.1297898
46	0x3e67501f	0.22589158
47	0xbe22e2ea	-0.15906873
48	0x3e845912	0.25849205
49	0xbe2692c7	-0.16266929
50	0x3e3e63ef	0.18592809
51	0xbd4fc102	-0.050721176
52	0x3e8298ec	0.25507295
53	0x3e1dd004	0.15411383
54	0x3d07a120	0.033112645
55	0xbc5eb309	-0.01359249
56	0xbe3086a0	-0.17238855
57	0x3e512a8a	0.20426384
58	0xbd20b414	-0.039234236
59	0xbdf1770b	-0.11790284
60	0xbe0944fe	-0.13405225
61	0x3d826f14	0.06368843
62	0xbbc70e0d	-0.006074673
63	0xbd8e2c71	-0.0694207
64	0xbe9c4026	-0.3051769
65	0x3e96910e	0.29407543
66	0xbdc93ec1	-0.098264225
67	0xbccf20b1	-0.025284143
68	0xbe1401d8	-0.14453828
69	0x3e44d62b	0.19222324
70	0x3bdaae08	0.006673578
71	0xbb8c7422	-0.004286305
72	0x3bacc804	0.005272867
73	0xbc9b3d40	-0.018950105
74	0x3e3a93fc	0.18220514
75	0x3e025748	0.12728608
76	0x3e621491	0.22078158
77	0xbd86daa7	-0.065846734
78	0x3e34b6aa	0.17647806
79	0x3dce6b1f	0.100790255
80	0xbda0b67a	-0.07847305
81	0x3dd0f4cd	0.10202942
82	0x3e115d8d	0.14195843
83	0xbdeafbd1	-0.114738114
84	0x3e0675dc	0.13130897
85	0x3ba53c1a	0.005042565
86	0x3d7d8d43	0.061902296
87	0xbc72ce7e	-0.014819739
88	0x3e1085c2	0.14113525
89	0x3c4fc9f4	0.012682427
90	0x3e80dd13	0.25168666
91	0x3c221092	0.009891646
92	0xbd2bd7d9	-0.041953895
93	0x3e3f282c	0.18667668
94	0x3e81ceb1	0.25353006
95	0x3e088e54	0.13335544
96	0xbd403909	-0.046929393
97	0x3e9ad13b	0.30237755
98	0x3da81cc5	0.08208612
99	0xbde07884	-0.109604865
100	0x3d05aace	0.032633595
101	0x3d85fe5b	0.06542655
102	0x3e4d8031	0.20068432
103	0xbe2caf85	-0.1686383
104	0xbce2748c	-0.027643465
105	0x3e477cf9	0.19481267
106	0x3e21e0c9	0.15808405
107	0xbc64acf7	-0.013957254
108	0xbe18c164	-0.14917523
109	0x3e64d181	0.22345544
110	0x3d0d8239	0.034548018
111	0x3daf6d3c	0.08565757
112	0x3c96b383	0.018396145
113	0xbdad2600	-0.084545135
114	0x3e6c4aa1	0.23075344
115	0x3d3faa2c	0.046793148
116	0xbd9ccbdc	-0.076560706
117	0xbe805ed2	-0.25072342
118	0xbcf23426	-0.029565882
119	0x3d9136e0	0.07090545
120	0x3e5653aa	0.20930353
121	0x3d56ed65	0.05247249
122	0x3d8c55f1	0.068523295
123	0xbdacadad	-0.084315635
124	0xbe0a431a	-0.1350216
125	0x3e32240c	0.17396563
126	0x3bd97cc1	0.0066371863
127	0xbe116d10	-0.1420176
