W__RNN/W_RNN/md2/v_2/train_iter_0800.pt (torch, 79699 bytes, 6 tensors)

h0 f4 [128]
0.9656342 1.200979 -1.5431658 -0.88472855 0.03515069 -1.0908364 -0.022349922 0.5366021
-0.54224855 0.20769547 -0.6915686 0.58058023 2.4292314 1.7291038 1.0639389 -0.036482383
0.6724128 -2.0772455 -1.023755 -0.028992571 -0.05103114 0.233578 2.3171582 0.67363966
-0.8469745 0.7104494 0.41892383 -1.0251904 -0.62383026 -1.0313498 0.13580008 0.7767047
-0.6992614 -0.25789994 -1.3993105 2.0572135 -0.28035125 1.3818561 -1.3477681 -0.15255457
0.54332864 0.24743827 2.18094 -0.5412796 -1.5781105 -1.3355266 0.49239707 -0.13907512
0.13580316 -0.33912444 1.3208653 -1.4825046 -1.0359359 -0.70047075 -0.98324734 -1.1009222
0.4979818 -0.1065095 -0.30959544 -0.07272841 0.8495616 -1.8166685 -0.5321433 -0.045960892
-1.656605 0.908109 0.44638956 -0.22360806 0.26640847 1.1968924 -1.3924134 0.32532412
1.1006904 0.15283893 0.04547454 0.88389087 0.4903697 0.03393476 0.5342826 -1.2635348
-0.80912745 0.4836836 0.36144447 -2.1145697 -2.217392 -0.39119247 -0.5076737 -1.0509955
1.4096488 0.14688498 -1.5211334 -0.7555795 -0.26233745 -0.29741704 -0.006072132 2.9938896
-1.3657519 2.25232 -0.007480341 -1.6267482 -0.8904236 1.4527651 1.2714407 -0.5473065
-0.16660187 -0.32105836 -0.5705834 -0.55758333 3.2651772 1.8747345 -1.4307358 -0.7756676
-0.7311828 1.2650034 -0.2752928 0.88736707 -1.3002288 -0.4260696 0.18610962 -0.11688779
0.6672798 -0.83785886 -0.99597555 0.38288134 -0.8172743 1.0330628 -0.27663377 0.3706768
00000000: ce33 773f aeb9 993f 7586 c5bf 927d 62bf
00000010: 2bfa 0f3d 87a0 8bbf 2f17 b7bc c15e 093f
00000020: cdd0 0abf 1fae 543e a40a 31bf e8a0 143f
00000030: 8778 1b40 4653 dd3f 262f 883f 8d6e 15bd
00000040: 3f23 2c3f 97f1 04c0 670a 83bf d481 edbc
00000050: 0706 51bd 122f 6f3e 524c 1440 a673 2c3f
00000060: 52d3 58bf 03e0 353f 2f7d d63e 7039 83bf
00000070: 57b3 1fbf 4503 84bf 2d0f 0b3e 1fd6 463f
00000080: cc02 33bf 760b 84be 9b1c b3bf 63a9 0340
00000090: 338a 8fbe a9e0 b03f aa83 acbf 4437 1cbe
000000a0: 9617 0b3f 7560 7d3e 8594 0b40 4d91 0abf
000000b0: 86ff c9bf 89f2 aabf 781b fc3e b569 0ebe
000000c0: fc0f 0b3e b8a1 adbe 1d12 a93f b6c2 bdbf
000000d0: 8c99 84bf 0d52 33bf 19b6 7bbf 05eb 8cbf
000000e0: 78f7 fe3e a721 dabd 4b83 9ebe a2f2 94bd
000000f0: de7c 593f 9888 e8bf 8b3a 08bf 7d41 3cbd
00000100: a20b d4bf d579 683f 2c8d e43e 83f9 64be
00000110: b166 883e c533 993f 9a3a b2bf e290 a63e
00000120: 6ce3 8c3f cf81 1c3e 8343 3a3d ac46 623f
00000130: bd11 fb3e 2dff 0a3d bfc6 083f 82bb a1bf
00000140: fa22 4fbf 60a5 f73e 400f b93e 1c55 07c0
00000150: c0e9 0dc0 614a c8be e7f6 01bf 0587 86bf
00000160: 5f6f b43f 0469 163e 80b4 c2bf a86d 41bf
00000170: 1851 86be 0c47 98be bcf8 c6bb e39b 3f40
00000180: f5d0 aebf 0326 1040 a61d f5bb 4939 d0bf
00000190: cdf2 63bf 35f4 b93f 92be a23f 471c 0cbf
000001a0: ae99 2abe c361 a4be c111 12bf c8bd 0ebf
000001b0: aaf8 5040 4df7 ef3f 5a22 b7bf 2792 46bf
000001c0: cc2e 3bbf a2eb a13f 2ef3 8cbe 7d2a 633f
000001d0: e66d a6bf cb25 dabe 8593 3e3e de62 efbd
000001e0: d9d2 2a3f eb7d 56bf 41f8 7ebf 0609 c43e
000001f0: e338 51bf 673b 843f f1a2 8dbe 59c9 bd3e

RNN.layer_encode.weight f4 [128, 145]
0.22702536 -0.12613723 -0.20825492 -0.24059302 -0.14567842 -0.1429491 -0.15505615 0.13904952
0.12855794 -0.082584 -0.05805488 0.18765937 -0.096399955 -0.06250445 -0.0035001482 -0.028143473
0.18210539 -0.10187406 0.0022047786 0.025048448 0.08296973 -0.07815838 -0.15308502 0.08549676
-0.027235212 -0.09298452 -0.044831824 0.07618732 -0.061990432 -0.047344126 0.014030353 0.09183036
0.058325972 0.015610711 0.016922403 -0.16294344 0.071537055 -0.0034234002 -0.036177974 0.008959427
-0.029170636 -0.03278331 -0.096631564 0.15892701 0.00864445 -0.10798374 0.07286907 0.06276848
-0.04180728 0.10271414 0.018074261 0.051392555 -0.100521915 0.0052393274 -0.006432554 -0.040633406
-0.050767537 -0.026380684 0.068832 0.02453749 -0.027957767 -0.04291709 -0.12329787 -0.16397838
0.002261337 0.023421068 -0.08605695 -0.13897695 -0.007914424 -0.054375764 0.0014390689 -0.02928709
-0.029686684 0.12722461 0.014023677 -0.022593286 -0.05935193 0.063689314 0.009917741 -0.05039543
0.019428976 0.008222645 0.016495038 -0.08240817 -0.03485966 0.016185455 -0.048967402 0.103798516
-0.031478338 0.07231257 0.055359516 0.0033533513 -0.16636495 -0.10195033 -0.0015911377 -0.08654068
-0.04055159 0.1815318 -0.0057071624 -0.0019654531 0.08727819 -0.03605168 0.014712732 0.06437212
-0.09521523 0.014398937 0.016507301 -0.031959947 -0.039631907 0.036804304 0.09760506 0.224381
-0.08951637 -0.016235389 -0.09073253 0.08527346 -0.09978983 0.035950482 0.053650167 -0.06135321
-0.042553015 -0.018509299 0.092610344 -0.034466453 -0.01293662 0.05172553 0.05151736 -0.16120383
-0.03144054 0.089035176 -0.017601544 -0.0013151013 0.030522916 -0.04184629 -0.0459513 0.097091734
0.009888073 0.01620845 -0.009741902 0.18801348 0.036512475 -0.008053318 -0.004502099 0.045160938
-0.056719612 0.051726602 -0.21709605 0.28853393 0.41361842 -0.31457403 -0.24931616 0.09138977
-0.3484867 -0.36224878 -0.3475117 0.16989572 0.15960689 0.06610044 -0.17596903 -0.0028682337
-0.12280051 -0.0040763374 0.013732385 0.09838817 0.028458685 0.10216494 -0.0022754434 0.12820096
0.12885806 0.016612358 0.099203266 0.007061617 -0.04372296 0.06573276 -0.089387625 0.09383628
-0.00101234 0.016275749 -0.04977591 -0.041057613 -0.0034839348 0.02926695 0.014342086 0.09337283
-0.06101583 -0.056683667 -0.019612804 0.1616887 -0.07898862 -0.07084783 -0.039158344 -0.02084268
-0.048546527 -0.00022839807 -0.11462148 -0.0764618 0.045671925 -0.10238607 0.098022535 -0.025241848
0.050689682 -0.027973091 -0.053518377 0.15239458 0.08318415 0.050921176 0.103862114 -0.0369352
-0.07682371 -0.02149384 -0.008349634 0.028675461 0.002381101 -0.03299684 0.040255524 0.036016103
0.16828784 0.074512556 0.076659545 -0.027518619 0.12159954 -0.019983716 0.118040904 0.08314315
-0.043951463 0.07000677 0.008364854 0.015104188 -0.027590051 -0.01582934 0.017182266 -0.07530515
0.05558293 -0.004860528 0.036900643 0.017543633 0.022443853 -0.045803804 -0.16220026 -0.0042574657
0.04377983 0.11969919 -0.036619376 -0.09356379 -0.07731222 0.049907383 0.13986121 -0.10969928
-0.008354397 -0.13879088 -0.05512726 -0.059622675 0.15310177 -0.0605652 0.042339146 0.057041127
00000000: 5679 683e 1e2a 01be c740 55be 045e 76be
00000010: b92c 15be 4061 12be 0ac7 1ebe ff62 0e3e
00000020: b1a4 033e cd21 a9bd f4ca 6dbd c729 403e
00000030: 576d c5bd 5502 80bd be62 65bb 248d e6bc
00000040: d679 3a3e 59a3 d0bd 0c7e 103b 6732 cd3c
00000050: 09ec a93d 8011 a0bd 52c2 1cbe ed18 af3d
00000060: 611c dfbc ab6e bebd 93a1 37bd 1908 9c3d
00000070: aee9 7dbd eaeb 41bd 91df 653c 8e11 bc3d
00000080: 37e7 6e3d 11c4 7f3c daa0 8a3c a5da 26be
00000090: 0582 923d 205b 60bb 5b2f 14bd 8fca 123c
000000a0: 42f7 eebc cb47 06bd c5e6 c5bd c3bd 223e
000000b0: 74a1 0d3c 9426 ddbd 613c 953d c38c 803d
000000c0: 1c3e 2bbd cb5b d23d 7910 943c 0081 523d
000000d0: 6fde cdbd aaae ab3b 2dc8 d2bb 376f 26bd
000000e0: 9ff1 4fbd 4e1c d8bc cbf7 8c3d d902 c93c
000000f0: b007 e5bc d5c9 2fbd 9883 fcbd f3e9 27be
00000100: f032 143b 8add bf3c a03e b0bd f94f 0ebe
00000110: 80ab 01bc 1fb9 5ebd 249f bc3a 7beb efbc
00000120: 7d31 f3bc 2b47 023e 91c3 653c 8e15 b9bc
00000130: 021b 73bd 8b6f 823d 057e 223c 706b 4ebd
00000140: 8429 9f3c 46b8 063c 9a20 873c 9dc5 a8bd
00000150: 01c9 0ebd 5c97 843c 0b92 48bd 5194 d43d
00000160: 6eef 00bd 9d18 943d a9c0 623d e6c3 5b3b
00000170: 935b 2abe 56cb d0bd b98d d0ba 3d3c b1bd
00000180: 6d19 26bd 79e3 393e 2603 bbbb d5ce 00bb
00000190: e8be b23d edaa 13bd ac0d 713c 88d5 833d
000001a0: 3400 c3bd 85e9 6b3c 523a 873c 6fe8 02bd
000001b0: 1155 22bd 1cc0 163d 29e5 c73d 22c4 653e
000001c0: 5c54 b7bd 1400 85bc fad1 b9bd daa3 ae3d
000001d0: 9c5e ccbd d040 133d 47c0 5b3d 814d 7bbd
000001e0: 124c 2ebd d0a0 97bc 7eaa bd3d b22c 0dbd
000001f0: 1ef4 53bc 26de 533d de03 533d 9e12 25be
00000200: ccc7 00bd 1358 b63d 1d31 90bc 7a5f acba
00000210: 320b fa3c 0467 2bbd 6e37 3cbd 08d8 c63d
00000220: 9601 223c 95c7 843c 809c 1fbc 9b86 403e
00000230: 1b8e 153d 10f2 03bc 5886 93bb adfa 383d
00000240: d352 68bd 46df 533d 6d4e 5ebe b8ba 933e
00000250: cbc5 d33e d90f a1be bc4c 7fbe 8f2a bb3d
00000260: d96c b2be ac78 b9be 0eed b1be 25f9 2d3e
00000270: fd6f 233e ab5f 873d 3a31 34be faf8 3bbb
00000280: d57e fbbd cc92 85bb ccfd 603c bd7f c93d
00000290: 3022 e93c da3b d13d 9b1f 15bb 1d47 033e
000002a0: 5ef3 033e a416 883c 152b cb3d 2365 e73b
000002b0: d916 33bd e69e 863d dc10 b7bd 3c2d c03d
000002c0: 7eb0 84ba b854 853c d3e1 4bbd 072c 28bd
000002d0: ba52 64bb 3ec1 ef3c 12fb 6a3c 413a bf3d
000002e0: bceb 79bd 222d 68bd 08ab a0bc b991 253e
000002f0: c9c4 a1bd ab18 91bd 8064 20bd 45be aabc
00000300: b9d8 46bd 247e 6fb9 abbe eabd 0198 9cbd
00000310: 7c12 3b3d caaf d1bd 0ac0 c83d fec7 cebc
00000320: fc9f 4f3d d327 e5bc 1636 5bbd 530d 1c3e
00000330: 745c aa3d b992 503d a9b5 d43d 5d49 17bd
00000340: c055 9dbd d913 b0bc e7cc 08bc cde8 ea3c
00000350: 3f0c 1c3b b227 07bd fae2 243d 9f85 133d
00000360: a653 2c3e 0a9a 983d aeff 9c3d ba6e e1bc
00000370: 2e09 f93d e4b4 a3bc 6ebf f13d f546 aa3d
00000380: 7306 34bd b65f 8f3d be0c 093c 8e77 773c
00000390: 8804 e2bc 88ac 81bc d3c1 8c3c 9639 9abd
000003a0: edaa 633d 1045 9fbb 2125 173d aab7 8f3c
000003b0: 2cdc b73c c59c 3bbd d317 26be 3682 8bbb
000003c0: 7b52 333d d924 f53d 33fe 15bd 5f9e bfbd
000003d0: df55 9ebd af6b 4c3d c737 0f3e 04aa e0bd
000003e0: e1e0 08bc 321f 0ebe 1fcd 61bd e836 74bd
000003f0: b6c6 1c3e 3713 78bd d06b 2d3d f5a3 693d

RNN.layer_encode.bias f4 [128]
0.14568162 -0.03312143 0.03309987 -0.06528142 0.044446032 -0.08564311 -0.027489776 -0.089974165
0.046085 0.017685328 0.06701001 0.08388055 -0.052503906 0.07612901 0.015391385 -0.079562984
0.08747565 0.029501095 -0.008432427 0.076255456 0.03739119 -0.028066926 0.065699935 -0.059742555
0.091116086 -0.034764297 0.0454619 0.054664887 0.00089834264 0.047975775 -0.055993684 -0.03586326
0.016101079 0.04490984 -0.028050315 0.059906587 0.07341784 0.05660959 -0.06530734 -0.07637081
0.04148259 -0.06545639 0.06112901 -0.010598236 -0.040961146 0.06760621 0.027295321 0.007217951
0.09976445 0.007865415 0.051318675 -0.07464766 -0.0056545185 0.0069872765 0.07383703 -0.0365887
0.026751459 0.07036657 0.010099928 0.048213076 -0.02545098 0.00902626 -0.06967362 -0.02715868
0.02680125 -0.010122014 -0.041910004 0.07373051 0.047265705 -0.07958683 -0.023874467 -0.020412844
0.09521876 0.04946294 -0.03223314 -0.06937283 -0.062624924 -0.03886302 0.01788558 0.042449497
0.044535168 0.049617298 0.04280105 0.02102923 0.10157551 0.0055929497 -0.0877661 0.066126406
0.08510677 0.03986436 0.05488061 0.05320783 -0.06901848 -0.031869657 -0.082159504 -0.021413688
0.0664437 -0.06275702 0.07246906 -0.019761814 -0.12512164 0.025125079 0.02741401 -0.019138718
0.06484739 -0.083961725 -0.00982505 0.03255989 0.022694575 0.017541682 -0.050257955 0.02293638
-0.10817571 -0.037097074 -0.0055171144 0.06008179 0.0853694 0.02360905 0.028366026 0.024191638
0.026035585 0.0922592 0.099215195 0.03354777 0.03264334 -0.016234886 0.0038704104 -0.00827055
00000000: 902d 153e 56aa 07bd bb93 073d 44b2 85bd
00000010: 0b0d 363d a865 afbd 3d32 e1bc 6044 b8bd
00000020: a0c3 3c3d d2e0 903c 8b3c 893d 91c9 ab3d
00000030: 560e 57bd 87e9 9b3d 262c 7c3c ebf1 a2bd
00000040: 6f26 b33d 48ac f13c 2a28 0abc d22b 9c3d
00000050: 8127 193d 9cec e5bc b08d 863d 9cb4 74bd
00000060: 129b ba3d 0265 0ebd 4236 3a3d 4ae8 5f3d
00000070: c17e 6b3a 3f82 443d a259 65bd 5be5 12bd
00000080: 69e6 833c 61f3 373d c6c9 e5bc 9c60 753d
00000090: 185c 963d 75df 673d dbbf 85bd 4d68 9cbd
000000a0: a6e9 293d 000e 86bd 6a62 7a3d 39a4 2dbc
000000b0: e0c6 27bd 2075 8a3d 709a df3c 9084 ec3b
000000c0: 4e51 cc3d f1dd 003c 8833 523d dfe0 98bd
000000d0: 8a49 b9bb 86f5 e43b de37 973d 08de 15bd
000000e0: e025 db3c 591c 903d 2b7a 253c 137b 453d
000000f0: 937e d0bc e1e2 133c 0bb1 8ebd e17b debc
00000100: 4c8e db3c ced6 25bc d3a9 2bbd 0600 973d
00000110: af99 413d 6cfe a2bd 6394 c3bc d638 a7bc
00000120: 0e02 c33d a799 4a3d e606 04bd 5813 8ebd
00000130: 7f41 80bd d42e 1fbd c884 923c 86df 2d3d
00000140: 826a 363d 823b 4b3d 2750 2f3d 7e45 ac3c
00000150: d206 d03d 1045 b73b b7be b3bd 486d 873d
00000160: 754c ae3d d048 233d 7eca 603d 74f0 593d
00000170: 9059 8dbd c289 02bd 3e43 a8bd c26b afbc
00000180: a213 883d c186 80bd a96a 943d 87e3 a1bc
00000190: e31f 00be 1cd3 cd3c 5993 e03c cdc8 9cbc
000001a0: b5ce 843d 20f4 abbd 3ff9 20bc 855d 053d
000001b0: f9e9 b93c 93b3 8f3c 49db 4dbd 13e5 bb3c
000001c0: 3a8b ddbd 1af3 17bd e9c8 b4bb 5318 763d
000001d0: 27d6 ae3d c467 c13c de5f e83c 8b2d c63c
000001e0: 9448 d53c 64f2 bc3d 5631 cb3d 6369 093d
000001f0: 06b5 053d 06ff 84bc b6a6 7d3b 3381 07bc

actor.weight f4 [3, 128]
-0.11687303 -0.2730154 0.118360125 0.031451438 -0.30064416 -0.15163533 0.06476188 -0.22439165
-0.19243729 0.41452935 0.17356534 0.14061019 0.006727796 -0.17075613 0.21515694 -0.28295565
0.26230237 -0.06774446 0.31285638 0.11865488 0.10258044 0.05336038 -0.10930408 -0.15654191
-0.24158727 0.20414807 0.10816791 0.26152912 0.14760855 0.21957813 0.012403512 0.30616793
-0.009518987 -0.11658028 -0.19199932 0.33056775 0.28382036 0.22676651 -0.13660023 -0.020882674
0.20249312 -0.25734165 -0.26993224 0.42884922 0.3976264 0.069969095 0.041378554 0.15719038
-0.37582308 0.37014502 0.3144924 0.038193025 0.36839572 -0.19567603 -0.3329139 0.12236346
-0.06755905 0.2897955 -0.18176715 0.29052326 -0.1953446 -0.009703962 0.43503237 0.18954629
0.26024097 0.2828568 0.051514797 0.34519583 -0.044607356 0.043907903 0.058786675 -0.3066863
0.2772403 -0.29011622 -0.06360022 0.33999777 -0.045779936 -0.22852516 0.34981006 0.19206405
-0.19665155 -0.30074158 -0.081533596 0.30452454 -0.35330287 -0.058993805 -0.02358472 0.12665363
0.26524723 0.21263896 0.36048523 -0.12984265 -0.104952596 0.1544113 -0.2148659 0.14667825
-0.17152078 0.28002915 -0.26960367 0.30818048 0.16409327 0.0023992974 -0.12258374 0.22725235
-0.12923147 0.2632993 -0.053645644 0.24774143 0.27169895 -0.026656607 0.08746861 0.30255216
-0.038889006 0.13074839 0.11111236 -0.2481926 -0.039153937 0.25268745 -0.023812398 0.23577784
-0.16022456 0.3161585 -0.33506534 -0.10626149 -0.20003061 -0.07897752 0.2135949 -0.30018497
0.39781955 0.046293646 -0.21506965 -0.19900964 0.4535991 0.14955227 -0.06689203 0.03404115
-0.01808318 -0.19767612 -0.1612044 0.014495459 0.30395398 0.2866931 -0.056751784 0.19456124
-0.0023632634 0.15381321 -0.28360102 0.16902967 0.1895012 -0.17026576 0.054702725 0.22989076
0.06897454 -0.27602437 -0.22711934 -0.20701195 0.30897573 -0.25419053 0.20571245 -0.3728083
0.21015279 0.19602743 0.23646928 -0.01609681 0.11910636 -0.18273422 0.18650034 -0.088159725
0.19839482 -0.45190805 0.033145506 -0.049881298 -0.1686793 -0.25961095 -0.064716145 -0.250207
0.15529194 -0.091955155 -0.09907434 -0.030987138 -0.34087887 -0.26692772 0.14514582 -0.28579682
-0.4910297 -0.20049445 -0.24751878 -0.19091678 -0.22663152 0.18162389 -0.06459361 -0.278912
-0.03896026 -0.16081889 -0.021481248 -0.3408763 -0.0013530074 0.037339836 -0.3022174 0.0187898
-0.32764602 0.18762755 0.14864327 -0.21148704 -0.039549973 0.39966878 -0.30911136 -0.30703256
0.14544609 0.01198608 -0.00047753128 -0.2496133 0.1513585 0.1767214 0.009687712 -0.27191082
-0.21496785 -0.25048798 -0.13616502 0.01072644 -0.07701682 -0.12878796 -0.27018446 -0.1328631
0.17582919 -0.23755077 0.13766398 -0.23849818 -0.14063649 -0.09617194 0.4677808 0.12655373
0.32534924 -0.31579417 0.026521694 -0.15107693 -0.1309211 -0.028438592 0.14728627 -0.26526615
-0.0680216 0.09390666 0.18789567 0.2698141 0.31414065 -0.18947703 -0.16951244 -0.4329013
0.114566356 0.17072147 0.0896984 0.013020461 0.2662242 0.09674856 -0.032764234 -0.14956115
00000000: 215b efbd adc8 8bbe cb66 f23d 39d3 003d
00000010: 08ee 99be 4b46 1bbe e0a1 843d edc6 65be
00000020: 480e 45be 313d d43e 1dbb 313e 1efc 0f3e
00000030: d874 dc3b b2da 2ebe 1a52 5c3e 90df 90be
00000040: 7f4c 863e 9cbd 8abd b62e a03e 5401 f33d
00000050: b215 d23d 6a90 5a3d d1da dfbd 864c 20be
00000060: a762 77be 310c 513e 2387 dd3d 25e7 853e
00000070: b226 173e 17d9 603e 1a38 4b3c 0bc2 9c3e
00000080: 86f5 1bbc a4c1 eebd 789b 44be 2d40 a93e
00000090: e750 913e 7b35 683e eee0 0bbe 2412 abbc
000000a0: 5b5a 4f3e 49c2 83be 8f34 8abe 2092 db3e
000000b0: b095 cb3e f54b 8f3d 8f7c 293d 84f6 203e
000000c0: e26b c0be a683 bd3e 2605 a13e 4a70 1c3d
000000d0: 5d9e bc3e 4c5f 48be b173 aabe b299 fa3d
000000e0: 665c 8abd 1360 943e 2b21 3abe 77bf 943e
000000f0: 6a08 48be 5efd 1ebc 90bc de3e 6c18 423e
00000100: 4e3e 853e 9bd2 903e 2e01 533d 82bd b03e
00000110: 34b6 36bd c6d8 333d 4cca 703d fd05 9dbe
00000120: 71f2 8d3e 1d8a 94be d540 82bd 3014 ae3e
00000130: be83 3bbd 8002 6abe 4e1a b33e 70ac 443e
00000140: 065f 49be cdfa 99be 16fb a6bd a4ea 9b3e
00000150: 1de4 b4be 7da3 71bd be34 c1bc 7db1 013e
00000160: 7cce 873e 07be 593e 8591 b83e 79f5 04be
00000170: 63f1 d6bd ff1d 1e3e ce05 5cbe d332 163e
00000180: 25a3 2fbe fb5f 8f3e 7e09 8abe d5c9 9d3e
00000190: 1108 283e 883d 1d3b 2f0d fbbd d7b4 683e
000001a0: 4155 04be 2acf 863e 89bb 5bbd eeaf 7d3e
000001b0: 201c 8b3e f55e dabc be22 b33d 1ee8 9a3e
000001c0: 144a 1fbd e8e2 053e e18e e33d 3326 7ebe
000001d0: e15f 20bd 4060 813e 3812 c3bc bf6f 713e
000001e0: e811 24be 87df a13e af8d abbe a09f d9bd
000001f0: d3d4 4cbe f7be a1bd 9fb8 5a3e d8b1 99be
00000200: 01af cb3e 689e 3d3d 383b 5cbe 2fc9 4bbe
00000210: 243e e83e 3b24 193e b0fe 88bd bc6e 0b3d
00000220: 2d23 94bc 9c6b 4abe c412 25be 5d7e 6d3c
00000230: db9f 9b3e 70c9 923e 8f74 68bd 103b 473e
00000240: fbe0 1abb 3681 1d3e 2734 91be 1d16 2d3e
00000250: 9a0c 423e 265a 2ebe f70f 603d 7c68 6b3e
00000260: 8642 8d3d 1153 8dbe f991 68be f1fa 53be
00000270: 1132 9e3e 4325 82be 49a6 523e bbe0 bebe
00000280: 4b32 573e 6abb 483e 0125 723e 75dd 83bc
00000290: 09ee f33d ae1e 3bbe f2f9 3e3e 168d b4bd
000002a0: 0328 4b3e 7e60 e7be 95c3 073d 5550 4cbd
000002b0: 44ba 2cbe baeb 84be e689 84bd 221b 80be
000002c0: da04 1f3e fc52 bcbd 7de7 cabd bdd8 fdbc
000002d0: ad87 aebe c0aa 88be 1ba1 143e f653 92be
000002e0: 3f68 fbbe 6b4e 4dbe 9075 7dbe b07f 43be
000002f0: 1812 68be 9dfb 393e a849 84bd 8ecd 8ebe
00000300: cb94 1fbd b5ad 24be 71f9 afbc 5787 aebe
00000310: 6557 b1ba a8f1 183d 3dbc 9abe 11ed 993c
00000320: 38c1 a7be 7021 403e f135 183e 0f90 58be
00000330: 27ff 21bd 63a1 cc3e d843 9ebe 5f33 9dbe
00000340: d2ef 143e 4361 443c 2a5d fab9 a19a 7fbe
00000350: b9fd 1a3e 74f6 343e 36b9 1e3c e537 8bbe
00000360: 8820 5cbe f63f 80be d86e 0bbe f3bd 2f3c
00000370: ffba 9dbd fee0 03be 9e55 8abe 440d 08be
00000380: 910c 343e 8240 73be c9f7 0c3e de38 74be
00000390: 0303 10be cbf5 c4bd f780 ef3e 4d97 013e
000003a0: 2d94 a63e c6af a1be 0644 d93c e9b3 1abe
000003b0: 2e10 06be 0df8 e8bc 36d2 163e f7d0 87be
000003c0: e94e 8bbd 2352 c03d b967 403e 1325 8a3e
000003d0: 0bd7 a03e 4406 42be ab94 2dbe 3da5 ddbe
000003e0: c4a1 ea3d 9cd1 2e3e cbb3 b73d c653 553c
000003f0: 8a4e 883e 1c24 c63d ca33 06bd 8f26 19be

actor.bias f4 [3]
0.004800607 0.018702762 -0.04455659
00000000: 694e 9d3b 8936 993c f980 36bd

critic.weight f4 [1, 128]
-0.10368653 0.24622652 0.06263427 -0.16443717 0.051850513 0.18221106 0.060833354 0.103240244
0.08622052 -0.11520736 0.05160546 0.021307945 -0.1746849 -0.15220368 0.094917335 0.14808172
0.007870882 -0.151553 0.13857028 -0.15114608 -0.046343856 0.22998653 0.13106957 -0.12255406
0.0093847215 0.22166634 0.1330864 0.009376824 0.02799482 0.24771017 0.023422409 0.06290234
-0.15462402 0.112068206 0.14481293 0.10299733 0.12363467 0.066623025 0.15333739 -0.025341783
0.07173836 -0.070087254 0.08980656 0.10415048 -0.035011876 0.0044417125 -0.10517151 -0.101067446
0.12805589 0.17672527 -0.11419888 0.139735 -0.041533716 -0.030995281 0.20937036 -0.16574292
0.0912542 0.04667098 0.109721 -0.0011778991 0.029341867 -0.0027672977 0.058999944 -0.0064613423
0.08958476 -0.040721852 -0.07792255 0.0036460343 0.08353838 -0.060131166 0.16365738 -0.00615525
-0.028987011 0.016437074 -0.050677057 -0.010698963 -0.1480233 -0.09853119 -0.15866406 0.13728279
0.16401295 -0.0671605 -0.13893278 -0.040968344 0.1576258 0.18212327 0.043248955 -0.11886805
-0.07733851 -0.008380726 0.2552469 -0.074245274 0.07226215 0.24201094 0.3115892 -0.0045450577
-0.24654661 0.09411133 0.09247944 0.20076403 0.2674637 -0.16920552 -0.066389084 0.20360401
0.031206023 0.1829075 -0.06666237 -0.08378684 0.13256428 -0.103421345 -0.075645365 -0.018336907
0.1371187 0.29650933 -0.021278027 0.18672305 -0.030413935 -0.058431637 0.1320581 0.05242368
-0.094409466 0.13760823 -0.13754071 -0.019684065 -0.19354485 0.0065573696 0.013328006 0.16776958
00000000: 9a59 d4bd ce22 7c3e 6546 803d 3862 28be
00000010: 3461 543d 8995 3a3e 652c 793d 9f6f d33d
00000020: 6294 b03d d6f1 ebbd 3f60 533d 008e ae3c
00000030: 99e0 32be 48db 1bbe 0564 c23d bca2 173e
00000040: dff4 003c b630 1bbe 5ee5 0d3e 0ac6 1abe
00000050: 0ed3 3dbd 9781 6b3e 1a37 063e 9ffd fabd
00000060: 60c2 193c 80fc 623e cd47 083e 40a1 193c
00000070: 6555 e53c bca7 7d3e 5ae0 bf3c f1d2 803d
00000080: c255 1ebe 0484 e53d d749 143e 44f0 d23d
00000090: 2d34 fd3d a771 883d 7a04 1d3e 9299 cfbc
000000a0: 90eb 923d e889 8fbd 80ec b73d d94c d53d
000000b0: 9d68 0fbd c98b 913b 2964 d7bd 73fc cebd
000000c0: 1521 033e 78f7 343e 1ae1 e9bd b116 0f3e
000000d0: 421f 2abd d1e9 fdbc 2f65 563e 83b8 29be
000000e0: 7be3 ba3d 122a 3f3d 67b5 e03d bc63 9aba
000000f0: 5b5e f03c 8d5b 35bb eda9 713d abb9 d3bb
00000100: 3778 b73d f5cb 26bd dc95 9fbd 4ef2 6e3b
00000110: 2c16 ab3d 194c 76bd cd95 273e fbb1 c9bb
00000120: 2b76 edbc 0ba7 863c bf92 4fbd b44a 2fbc
00000130: 6c93 17be b8ca c9bd d578 22be dc93 0c3e
00000140: 03f3 273e 728b 89bd 6544 0ebe 6cce 27bd
00000150: a868 213e 867e 3a3e d125 313d 1871 f3bd
00000160: a763 9ebd 504f 09bc b9af 823e e80d 98bd
00000170: 2efe 933d b7d1 773e 9f88 9f3e b5ee 94bb
00000180: b776 7cbe 71bd c03d dc65 bd3d 1695 4d3e
00000190: 01f1 883e 3644 2dbe 00f7 87bd 927d 503e
000001a0: c6a3 ff3c 1b4c 3b3e 4886 88bd 6f98 abbd
000001b0: eebe 073e 92ce d3bd f5eb 9abd 4837 96bc
000001c0: d868 0c3e 12d0 973e 424f aebc 5434 3f3e
000001d0: a526 f9bc 0356 6fbd 3d3a 073e 36ba 563d
000001e0: c059 c1bd 2ce9 0c3e 79d7 0cbe 7a40 a1bc
000001f0: 9f30 46be 34df d63b b55d 5a3c cacb 2b3e
