W__RNN/W_RNN/md2/v_2/train_iter_1000.pt (torch, 80523 bytes, 8 tensors)

h0 f4 [128]
000000 1c ba ed 3e d7 4c 13 3f d0 38 01 40 2d 07 e8 be
       0.46431053 0.57539123 2.0190926 -0.45317975
000010 d6 e9 95 3e ed bc 04 3f 9a 44 f4 be 28 6e 98 3d
       0.29279965 0.5185078 -0.4770859 0.07442886
000020 d9 b9 12 be cf 0f c3 3e 11 5b 2d 3f 16 03 9f 3f
       -0.14328708 0.38097998 0.6771708 1.2422817
000030 ff 89 f1 3e 94 4a 87 bd b2 36 9d 3f c9 00 39 bf
       0.47175595 -0.066060215 1.2282317 -0.72266823
000040 85 2b 6f 3f 2e a9 d8 bf a5 12 c2 bd d6 a0 b8 bd
       0.9342578 -1.692663 -0.094762124 -0.09015052
000050 18 b9 61 be d0 94 18 bd 95 6e 0c c0 3d b7 33 bf
       -0.22043264 -0.037251294 -2.1942494 -0.70201474
000060 af 96 34 3f ba b4 f1 bb 51 20 eb be 48 cb e5 3f
       0.70542425 -0.0073762806 -0.45923093 1.7952662
000070 9a fd 85 be 8d 43 a5 be c0 2e 09 3e 74 31 9a 3e
       -0.26170045 -0.322781 0.1339674 0.30115855
000080 57 3c 51 bf 08 20 0e bf 91 bd 1f bf b7 8f 96 3f
       -0.81732696 -0.55517626 -0.6239863 1.1762608
000090 e4 47 0d bf 9f 44 b7 3f 84 2b 16 3e de fc 38 3f
       -0.5518782 1.4317816 0.14665037 0.72260845
0000a0 37 52 6c 3e 3c 16 66 bf 64 18 9c be 10 38 ab be
       0.23078237 -0.89877677 -0.3048736 -0.3344121
0000b0 6e 50 c6 bf f4 95 09 bd 0b 9c ab 3e 23 38 02 3d
       -1.5493295 -0.033590272 0.3351749 0.031791817
0000c0 31 f1 de 3e 90 9a a8 3e 21 77 14 40 ea 4d 4e bf
       0.4354339 0.32930422 2.319771 -0.8058764
0000d0 42 eb 1d bf 20 0b c9 3f 79 f0 69 bf 54 f7 03 bf
       -0.616871 1.570652 -0.9138256 -0.5154927
0000e0 19 93 e6 bf 38 10 65 bf 90 96 cf bf 27 35 5e 3d
       -1.8013641 -0.8947787 -1.6217823 0.05424991
0000f0 97 aa 8e be 46 e9 86 3d f3 ca 9b 3f e2 b2 0e be
       -0.27864525 0.06587462 1.217131 -0.13935426
000100 15 fa 95 be 96 1d 6a 3f 56 42 81 3e 87 20 b0 be
       -0.2929236 0.91451395 0.25245923 -0.34399816
000110 06 9c 77 3e 22 c1 63 3f be 8b 30 bf ca 67 02 3e
       0.24180612 0.8896657 -0.6896323 0.12734905
000120 ec e3 ee bd a9 e0 a5 3c fd 4d c6 bf cf c9 03 bf
       -0.116645664 0.020248728 -1.549255 -0.5147981
000130 b1 18 84 bf f9 23 1c bf 09 fd c1 bf 52 cb aa 3e
       -1.0320035 -0.6099239 -1.5155345 0.33358246
000140 7f 59 92 be 01 ad ac 3e ee a6 1f bf f9 f5 12 bf
       -0.28583905 0.33725742 -0.6236409 -0.57406574
000150 a7 f6 38 3f dd 95 7f bd ef c7 f2 3e 66 81 a2 3e
       0.7225136 -0.06239878 0.47418162 0.31739348
000160 00 98 6e 3f be 6f 36 bf 86 98 e1 bf 05 4c f6 3d
       0.93200684 -0.71264255 -1.7624671 0.12026218
000170 d3 2d 24 3d 70 7f e8 3f 8c 12 a7 3e 78 46 b0 3f
       0.040082764 1.8163891 0.32631338 1.3771505
000180 8c b9 2b bf 16 2f 39 bf 87 b2 ae bf 38 ec a6 bf
       -0.6708 -0.7233747 -1.3648232 -1.3040838
000190 83 b4 08 40 27 ef 7d bf c1 8e c5 bf e6 32 d9 3f
       2.1360176 -0.9919304 -1.543419 1.6968658
0001a0 6f 41 83 bf 5d f3 6f bf 9e 72 b3 3e db 20 82 be
       -1.0254344 -0.9373072 0.35048383 -0.25415692
0001b0 52 82 89 be 0a b9 bb bf 2b be fb be af 5b 65 3f
       -0.2685724 -1.4665844 -0.49168524 0.89593023
0001c0 a4 16 d6 3f 79 a1 ca bf 61 63 80 bf a1 b6 79 bf
       1.6725659 -1.5830528 -1.0030328 -0.97544295
0001d0 8a b1 bc 3e 73 da 32 bf 7a 1b 54 3f da 9c eb be
       0.36854202 -0.6986458 0.82854426 -0.46018106
0001e0 c7 35 9e 3c 30 ee 30 ba 0f 5d a3 3f 42 ae a1 bf
       0.019312752 -0.000674936 1.2762774 -1.2631304
0001f0 3b c2 e6 bd 65 78 27 be c4 d3 74 3f 0b bf 0e 40
       -0.11267515 -0.1635452 0.9563563 2.2304103

RNN.weight_ih_l0 f4 [128, 17]
000000 69 2a 96 bd e9 58 1b 3d ae 6e 93 3d 50 2b 87 bc
       -0.07332308 0.03792659 0.07198845 -0.016500145
000010 2f 23 82 bc d5 70 b7 3c 2c 4c e8 bd 51 a5 b1 3d
       -0.015885917 0.02239267 -0.11342654 0.0867411
000020 c8 61 c7 bd e8 17 fd bd b0 51 28 bd 7a b0 eb 3a
       -0.09735447 -0.123580754 -0.04109353 0.0017981671
000030 b8 12 ef bc 60 fe 9a 3d 42 7b 1a bd 93 1c 99 bd
       -0.02918373 0.075680494 -0.037715204 -0.07476153
000040 7d 3f bc bd 50 7f 57 3c e2 5b 09 bc 3e c2 27 be
       -0.09191797 0.013152912 -0.008383723 -0.16382691
000050 56 8f a1 be 40 30 c1 3d 10 de 4c 3d d4 4c c5 bd
       -0.3155467 0.09433031 0.050016463 -0.096337944
000060 8e 20 ef 3d 50 18 0a 3e f3 1e 46 3e 36 14 65 3c
       0.11676131 0.13485837 0.19347744 0.013981869
000070 ed 15 7d be ac 7e 4c 3e 66 9e de 3d ef 5a 59 bc
       -0.24715395 0.19970196 0.10870056 -0.013266309
000080 12 8f 2c 3d 9e 22 87 bd 28 c3 03 be 85 4d 6e 3d
       0.04212863 -0.065983996 -0.12867415 0.058179397
000090 94 8f d4 bd 94 08 04 be 64 c2 d3 bd ee ae 25 be
       -0.10378948 -0.12893897 -0.103398114 -0.16180012
0000a0 69 bb 25 be 5b 1b 6d bd d4 08 a2 bc e7 20 a3 3c
       -0.16184773 -0.057887416 -0.0197796 0.01991315
0000b0 4c 01 a0 bc ee 5a ca bd 8c c2 fa 39 b9 12 78 bd
       -0.019531868 -0.09880625 0.00047828665 -0.06056473
0000c0 e4 96 ae bc ba cc 13 3d 58 a1 69 bd 0f 2d 07 3e
       -0.021312185 0.036083914 -0.057038635 0.13200782
0000d0 3e 6d b4 ba d1 80 1b 3d af 0c 78 bc 62 12 d6 3d
       -0.0013765467 0.037964646 -0.015139743 0.10452725
0000e0 d7 62 b1 3c 3a b0 f6 3d 07 2d a0 3d f0 02 32 3d
       0.021653576 0.12045331 0.07821088 0.043459833
0000f0 8d 47 fd 3d 06 6d bd bd f0 ef b4 bd 56 05 bd 3c
       0.12367163 -0.0924931 -0.08834827 0.023073833
000100 64 c4 b3 bd b7 ba b6 3d 8f 7e df bc 61 c5 a6 bc
       -0.08777693 0.08922332 -0.027282028 -0.02035779
000110 68 5d cd 3d 90 ca 73 3d 92 0a 4a bd 6d 92 f5 3c
       0.100275815 0.05951935 -0.049326487 0.029977048
000120 94 8c 85 3d 11 05 0d 3e 58 63 4c 3c 0b bb 9e bc
       0.06520954 0.13771464 0.012474857 -0.019376298
000130 58 38 a7 3c fa 7e 54 3d f6 56 bd bd 01 1c 9b bd
       0.020412609 0.051878907 -0.09245102 -0.07573701
000140 2a 15 11 3e 71 d5 2f bd 39 ae f7 3b 51 b2 e3 3d
       0.1416823 -0.042928163 0.0075586108 0.111179955
000150 02 3d cf ba 22 26 3e bc 9a 44 d6 bd 27 5a ae bd
       -0.0015811028 -0.011605771 -0.104623035 -0.08513289
000160 9c 5e 34 3d 0b f9 ee 3d fb 81 7e bb a1 e2 8b bd
       0.04403554 0.11668595 -0.0038834799 -0.068303354
000170 70 3b 72 3d 7c 9d f8 3d c4 c0 d7 3d 27 7b 12 3c
       0.059138715 0.12139413 0.10534814 0.008940495
000180 20 87 88 bd dc 12 10 3d 72 30 37 bd db 4b 85 3d
       -0.06666398 0.035174236 -0.044723935 0.06508609
000190 ea bb 9a 3c c8 b8 aa 3c cf 79 94 3b 91 c0 d2 bd
       0.018888433 0.020840064 0.0045311223 -0.102906354
0001a0 91 08 96 be c6 b9 d9 be 15 34 81 3e 26 e9 5b 3e
       -0.2930341 -0.42524546 0.25235048 0.21475658
0001b0 7e bc 6b 3d d7 13 eb 3e 0e 36 d9 3e a9 36 9b 3e
       0.057552807 0.45913574 0.42424053 0.3031514
0001c0 0b 3a 25 bd 30 02 1b 3e 56 7e ca bd 00 81 47 3c
       -0.040338557 0.15137553 -0.09887378 0.012176752
0001d0 2f 78 2e bc ad 88 0b be 5b 0e 02 3e 13 76 99 bc
       -0.010648771 -0.13626356 0.12700789 -0.01873306
0001e0 05 0e 73 bd 96 7b 00 bd 47 1f 89 3d 4e d3 3d bd
       -0.059339542 -0.03136786 0.06695419 -0.046344094
0001f0 6c 54 96 3b b7 8c 50 bd b7 e2 3b bd 0b 28 c5 3b
       0.0045877006 -0.050915446 -0.04587051 0.0060167364
000200 91 02 db bc 0a 4d 94 3d 97 66 75 3e d4 f0 84 3d
       -0.026734622 0.072412565 0.23964916 0.06491247
000210 4c 28 b4 bd 33 95 9f bd 03 34 f5 bc 70 8e db 3d
       -0.087967485 -0.07792129 -0.029932028 0.10720527
000220 da dc 92 3d de 8f 82 be 98 73 84 bd 02 a8 24 3e
       0.0717103 -0.25500387 -0.0646736 0.16079715
000230 18 5b e1 bc 59 f5 b7 bd 06 39 87 3d f0 cd 22 3d
       -0.027509257 -0.08982343 0.06602673 0.03974718
000240 cd 7c bb 3c 75 ca 8b bd d8 c1 b4 bd 9d 08 97 bd
       0.022886658 -0.06825725 -0.08826035 -0.0737469
000250 4c 86 6b 3d 52 09 07 bd da 61 bf 3d e8 3d 45 3d
       0.057501122 -0.032967873 0.093448356 0.04815474
000260 c0 ad 6e bd 87 47 d8 bc b0 f8 b4 bd d2 1d 00 bd
       -0.05827117 -0.026401294 -0.08836496 -0.03127844
000270 b9 20 60 be 7a 4d 3f bd 92 5b dc 3c 97 e4 d5 bd
       -0.21887483 -0.046704747 0.026899133 -0.10443991
000280 66 0a fa 3c db 75 23 3c 1c c5 a3 3b 12 7c 93 bd
       0.030522536 0.009976829 0.0049978625 -0.07201399
000290 6c 6e 32 be 38 f6 f4 3d c2 81 f6 3b 08 fb 8c 3d
       -0.17424935 0.11961025 0.0075227926 0.06883818
0002a0 b4 4a b0 3d 28 1d 91 bc 8c c2 0e 3d a2 53 24 3d
       0.086079985 -0.017714098 0.034853503 0.04011882
0002b0 4a d9 b5 3c d1 af 13 be 46 43 d7 3b ae b1 07 3e
       0.022198338 -0.14422537 0.006569299 0.13251373
0002c0 ff cc 1c 3e 3b a8 e9 bc e3 76 18 bc 22 87 10 3b
       0.15312575 -0.028522601 -0.009305689 0.0022053202
0002d0 20 32 87 3c 22 84 9c bc e8 c6 d1 3d 05 24 09 be
       0.016503394 -0.019105975 0.102430165 -0.13392647
0002e0 1b b0 80 3c 39 ae 40 3d 84 8d b5 bc 9d 5b a8 bd
       0.015708974 0.04704115 -0.022162206 -0.08220599
0002f0 0e 9d d3 bc a5 2f b7 3d 2e 4d 8b 3e 97 81 f2 bd
       -0.025831725 0.08944634 0.2720732 -0.118411236
000300 d4 0c 06 be 71 d4 94 bc 41 44 0f bd 75 cb f3 bd
       -0.13090831 -0.018167706 -0.0349772 -0.11904041
000310 82 ac cd bb 4c 10 93 bd 52 65 32 3e e0 32 b2 3c
       -0.006276668 -0.07180843 0.17421463 0.021752775
000320 c2 4b 33 3d 1d 8b bb bd fb 31 3d bd ac 73 2e 3e
       0.04377342 -0.09157393 -0.046190243 0.17036313
000330 56 1b 7c bd 30 af 15 be 7e 1d 30 bd f8 ec fa 3d
       -0.061549507 -0.1461761 -0.042996876 0.122522295
000340 e5 a7 44 3b 28 04 07 be 95 66 81 bd 06 f9 54 bd
       0.00300073 -0.13185179 -0.06318394 -0.0519953
000350 c9 b8 8c 3d 25 32 18 3d af de d7 3d 83 15 92 3d
       0.068711825 0.037157197 0.105405204 0.07133009
000360 e6 b9 e2 3d 42 38 6a bc 26 c6 4c 3a 04 71 1c bd
       0.110706136 -0.0142956395 0.0007811509 -0.038193718
000370 92 59 d2 bc 59 75 86 be b6 c3 4e be 97 c9 50 be
       -0.025677476 -0.26261404 -0.20191845 -0.203894
000380 17 20 02 bb d3 65 b4 bd 58 cf 2f be 2c ac 2f be
       -0.0019855553 -0.08808484 -0.17168939 -0.17155522
000390 04 1b ac bd 59 fc 1d bd 9b 14 68 be 1e 9b 45 3e
       -0.0840359 -0.038570736 -0.2266411 0.19297454
0003a0 3c ac 0a 3e 52 14 cf 3d e4 e5 dc bd 74 0e 52 bd
       0.13542265 0.10111298 -0.10786036 -0.051283315
0003b0 d3 6f 47 bb 7d 1b 56 3d c8 9a 52 3d 9b 1d 91 3d
       -0.0030431643 0.05227231 0.051417142 0.07085725
0003c0 49 ac f2 bd a9 ed b1 be fc 55 45 3e 8a d5 ab bd
       -0.11849267 -0.34751633 0.19271082 -0.08390339
0003d0 77 68 1a bd 91 94 69 3e 24 e3 ad 3e 54 cb 18 3e
       -0.03769728 0.2281058 0.33962357 0.14921314
0003e0 28 f4 34 3e 26 29 a7 bd 47 d0 c4 bd d1 e7 65 3d
       0.17671263 -0.08162145 -0.09610038 0.05612928
0003f0 a8 cb f6 3b 01 83 3d ba 94 5c 56 bc 36 56 44 bc
       0.007531602 -0.0007229299 -0.013083596 -0.011983445

RNN.weight_hh_l0 f4 [128, 128]
000000 64 21 a8 bc 9b 64 49 bd ba bd 10 be ed 96 54 3b
       -0.020523734 -0.04916821 -0.14134875 0.0032438592
000010 39 d6 53 3d e2 01 a8 3b c5 88 00 3b 79 ac 9a bd
       0.05171797 0.0051271776 0.001961277 -0.07552428
000020 c8 36 f8 bb 89 15 9f 3d 1b c7 97 bc 9e e5 1f 3c
       -0.00757489 0.077677794 -0.018527558 0.009759335
000030 ba 0d ba 3d 0c 29 b8 3c 7b a9 2c be 1b ee 5c 3d
       0.090846494 0.02248051 -0.16861527 0.053938013
000040 3a 93 b4 bb 78 cd 38 3c 92 bc 96 3d 06 36 23 3b
       -0.005510715 0.011279456 0.07360186 0.0024904027
000050 8f 3f 36 3d 55 3d cd 3c 67 f8 9c 3d 2c 58 a5 bd
       0.044494208 0.02505366 0.076645665 -0.08073458
000060 86 80 95 bc d0 3a 6c 3d d6 27 f7 3d c6 c9 11 bd
       -0.018249761 0.057673275 0.12068145 -0.035592817
000070 79 1f 9a bc 03 ac 59 bc 84 cd 3d bd d4 21 c0 3c
       -0.018813835 -0.01328564 -0.046338573 0.02345363
000080 12 a3 58 3d 05 4c 90 3c ef 69 b1 bd 87 8d 4b 3d
       0.05288989 0.017614374 -0.08662783 0.049695518
000090 f2 cd 6f bd 62 24 96 3d c1 54 27 bd 78 e3 ed 3c
       -0.058546014 0.07331158 -0.040852312 0.02903913
0000a0 26 f1 88 bc f7 7e 26 3d 4f 7e 83 bc 76 f0 87 bb
       -0.016716551 0.040648427 -0.01605144 -0.004148538
0000b0 f8 a4 53 bd fc ee ba 3c 8f 9b 7d 3c 98 ac 7f bd
       -0.051671 0.022819035 0.015478983 -0.062420458
0000c0 04 9b dc 3d 43 44 0f bd 9e 16 70 3d 82 85 ce bb
       0.107717544 -0.03497721 0.05861532 -0.0063025365
0000d0 28 98 a9 3d ef b3 9b 3d 84 93 83 bc ac 08 69 bc
       0.082809746 0.07602679 -0.016061552 -0.014223259
0000e0 92 16 8c bd 1e e9 a0 bd 35 13 19 bd 00 e7 a8 bd
       -0.068402424 -0.078569636 -0.037371833 -0.08247185
0000f0 e1 0c b0 bd c3 e6 c3 bb 51 69 9f 3c 68 ce af 3b
       -0.085962065 -0.0059784367 0.019459398 0.0053651817
000100 9f fd c9 3d f2 fc b3 3d 29 82 6c 3c b8 b2 a9 bd
       0.098628275 0.0878848 0.0144353295 -0.08286041
000110 0f 67 73 bd c0 6c 77 bd 10 d7 23 3c b6 be ff bc
       -0.059424456 -0.060406446 0.010000005 -0.031218868
000120 73 fa 71 3a 31 7f 39 bd d8 78 72 3d 22 5f 88 3c
       0.000923074 -0.045287315 0.059197277 0.016646925
000130 dc 4c 1e 3c 1c 3a 88 bd 76 9a 1a 3c 0b 7b 3b 3d
       0.009661879 -0.066517085 0.00943624 0.04577164
000140 1c 37 1b 3d 61 8e 89 bd 57 db b4 3d 57 be 97 3c
       0.037894353 -0.0671661 0.08830898 0.018523378
000150 27 d0 fc bc 29 ba ba bc 2d 7c e5 3b 3d 78 f1 3c
       -0.030860974 -0.022793846 0.0070033283 0.02947628
000160 f6 87 a2 3d 7d 51 13 bd e3 13 34 3d b3 bf 92 bd
       0.07936089 -0.035966385 0.043964278 -0.0716547
000170 8d d4 3a bb 33 0c ae 3d c6 13 92 bd a8 58 bb bb
       -0.0028508038 0.084984206 -0.07132678 -0.0057173558
000180 3a a5 92 bd 36 72 8e 3d af d1 0d bd 64 68 8d bd
       -0.07160421 0.06955378 -0.034623798 -0.069046766
000190 0e 5e ab bd ca 50 86 3d 90 0c 91 bb 2e 4c ec bd
       -0.08367549 0.06558378 -0.0044265464 -0.115379676
0001a0 04 80 78 3d 63 f0 67 3c ad df a7 3d d7 09 d5 bd
       0.06066896 0.014156434 0.0819696 -0.104022674
0001b0 c5 92 8b 3d ce 49 f2 3c 5c 51 6c bd a1 ca 1b 3d
       0.068151034 0.029576208 -0.057694778 0.03803504
0001c0 40 0f 15 3d 96 f4 c3 3c 3a 32 89 bd 85 64 c6 bc
       0.036391497 0.023920339 -0.06699033 -0.024217853
0001d0 04 14 c9 bd 21 d2 e2 bd c1 4a a2 3d 34 8a 0d 3c
       -0.09818271 -0.11075235 0.079244144 0.008638907
0001e0 fa 7a 9c bd 19 a4 7c 3d cc 32 d9 3d fd ef a1 3c
       -0.076406434 0.061679933 0.10605392 0.019767756
0001f0 6c 75 91 bd 22 cb 8e 3c 22 95 ab bd cb 8e 84 bd
       -0.071024746 0.017430846 -0.08378054 -0.06472548
000200 ba bd 3a 3d ff 53 8a 3d 6f 9a 4f 3d b3 03 f1 bc
       0.045591094 0.06754302 0.05068439 -0.02942071
000210 02 1f 00 bc 08 7f 8a bd 86 be 22 3c a0 04 2c bc
       -0.007819893 -0.067625105 0.00993312 -0.01049915
000220 ba 01 68 3d 27 cf bb bc 3a 82 74 bd c1 1c 84 3d
       0.05664227 -0.022925926 -0.059694506 0.06450797
000230 21 ec 9f bd 60 54 08 bd 82 ea 12 bd 28 cc 94 3d
       -0.0780871 -0.03328359 -0.035868175 0.07265502
000240 25 d5 a6 bc bc ee 77 bd 47 1c 3b 3d 09 ea 41 bd
       -0.020365307 -0.06053041 0.045681264 -0.047342334
000250 f8 19 8a bd 24 08 b4 3d cd 02 a8 3d fa 3c b3 bc
       -0.067432344 0.08790615 0.08203659 -0.021879662
000260 0f d6 97 bd 48 68 ca bc 85 09 a0 3d 6d 8f 36 3d
       -0.07413875 -0.024707928 0.07814316 0.044570375
000270 09 01 89 3d 2a 4b 82 bd 41 6c 06 3c a3 e5 f9 3b
       0.066896506 -0.06361993 0.008204521 0.007626252
000280 70 fb 55 3d 14 80 8b bc 90 b3 ab bc 38 e1 4e bd
       0.052241743 -0.017028846 -0.020959646 -0.050507754
000290 b6 80 93 3c 76 18 7d bd 8b 94 92 3d 66 09 95 bb
       0.01800571 -0.061790906 0.071572386 -0.0045482395
0002a0 92 c6 42 3d d0 a8 81 bd 64 38 b1 3c 67 5c 1b bc
       0.047552653 -0.063310266 0.021633334 -0.00948248
0002b0 e4 64 9a bc b8 71 30 bd 95 52 26 bd cf 96 c5 bc
       -0.018846937 -0.0430772 -0.0406061 -0.024119763
0002c0 bd 4e a7 3d 6b eb bd 3c b7 78 cf 3d 7b 1b 95 3c
       0.08169315 0.023183545 0.101304464 0.01820158
0002d0 fe b3 8c 3d 1b a8 09 bd 73 97 3c 3d b7 b5 b3 3d
       0.06870268 -0.033607583 0.04604287 0.08774894
0002e0 f1 94 86 bd d2 a3 96 bb e2 ff 44 3d e3 c9 0d bd
       -0.06571377 -0.0045971656 0.04809559 -0.034616362
0002f0 fd ff 76 bd a1 c0 83 bd c6 ab 6b 3c 97 c0 a3 ba
       -0.060302723 -0.064332254 0.014384216 -0.0012493309
000300 2f 74 b3 bc e1 3d b0 3d 9b ee 5a bd 2b 4c d2 3c
       -0.021905987 0.086055525 -0.05345021 0.025671085
000310 6d bd d1 3c 94 dc 3f bd e1 39 2a bd 9f 54 e5 bc
       0.02560302 -0.04684122 -0.041559104 -0.027994452
000320 b0 7f 5e bd a0 95 e0 b9 05 a1 1f 3d 8f b8 df 3c
       -0.05432099 -0.0004283609 0.03897192 0.027309684
000330 b6 12 85 bd f8 eb 7d 3d 98 83 07 bc d2 51 85 3d
       -0.064977095 0.061992615 -0.0082711205 0.065097466
000340 5c c7 72 3d 74 ad 08 bd e5 c4 0b bd 15 80 a5 3d
       0.059272155 -0.033368543 -0.03412332 0.0808107
000350 be 50 6b bd ac 3c ea 3c 8e af 05 bc 90 cc 7e 3d
       -0.05745005 0.028593384 -0.008159531 0.062206805
000360 7f 4b f4 3b b8 c5 c6 3c 9f 71 8c 3d ab dc 47 3d
       0.007455289 0.024264202 0.06857609 0.04879443
000370 00 14 49 bc dc ca 9c bd 10 93 ce 3c ba a5 02 bc
       -0.012272835 -0.0765588 0.02521661 -0.007974083
000380 ca 80 03 3d 81 25 85 bd 91 82 c5 3d 39 fd 88 3d
       0.032105245 -0.06501294 0.09644044 0.066889234
000390 54 f8 7d 3d 57 16 8e 3d 34 34 f6 3c f3 8d b4 3c
       0.062004402 0.06937855 0.03005419 0.022040343
0003a0 80 97 c6 37 9f ca 33 3d 4a 04 b5 3d 95 d0 c5 bc
       2.3673987e-05 0.043894406 0.08838709 -0.024147311
0003b0 29 d9 82 bc b8 a4 91 bd dc 6e 00 bd 34 23 0f 3d
       -0.01597269 -0.07111496 -0.031355724 0.03494568
0003c0 b5 50 4c 3d ff a5 a7 bd f3 95 f3 bc 49 fd 8e 3d
       0.049881656 -0.08185958 -0.029734587 0.06981904
0003d0 58 12 fc 3c fc 85 6d bd cd 34 0e bd f1 61 b7 bd
       0.030770466 -0.057989106 -0.034718323 -0.08954228
0003e0 39 62 41 3d d5 e5 ba 3d f0 c6 5e 3d 5c f5 7f 3b
       0.047212813 0.09125868 0.05438894 0.0039056158
0003f0 16 ba a7 3c e1 e7 94 3d 02 e8 b4 3c c5 46 8d 3d
       0.020474475 0.0727079 0.022083286 0.06898264

RNN.bias_ih_l0 f4 [128]
000000 57 a1 f7 ba 19 87 d5 3c 06 5e 08 bd 34 68 f8 bc
       -0.0018892688 0.026065396 -0.033292793 -0.030323125
000010 c9 69 37 bd 7f 91 88 3d 7f f4 e7 3b d2 a6 82 bd
       -0.04477862 0.06668376 0.0070787068 -0.06379475
000020 9b 9e 5e bc da 2a 73 bd a4 21 2f 3c 31 3a 58 bd
       -0.013587619 -0.05936704 0.010689173 -0.05278987
000030 0d c9 d7 3a 74 bb a2 3d 26 03 5d bd 98 1e 65 3d
       0.0016463116 0.0794591 -0.05395808 0.05593738
000040 23 34 b1 3d 91 0f f9 bc 1e 91 9a 3c d5 94 c5 bd
       0.086525224 -0.03040293 0.018868025 -0.09647528
000050 35 7e d6 3b 44 b6 b0 3d db c8 b8 3c 09 0e 07 3d
       0.006545807 0.086285144 0.022556713 0.03297237
000060 a1 c0 bb 3a 56 fd 4d 3c 69 38 0d 3d 4e 10 65 3c
       0.0014324376 0.012572607 0.034477625 0.013980938
000070 ef 1d 76 3d 2f 7a 80 bd be d9 17 ba 77 35 a6 bd
       0.06008714 -0.06273305 -0.0005792639 -0.08115666
000080 87 23 34 3d 36 a9 a4 3a d7 d9 2c 3d 51 e0 64 bd
       0.043979194 0.0012562636 0.042199936 -0.055877987
000090 36 5d 14 3d 05 c2 30 3d 7a 98 4b ba 3b 01 92 3d
       0.036221705 0.04315378 -0.0007766556 0.07129141
0000a0 0b 84 a4 3c be 47 85 bc 2e 4f 67 3c fc 60 ca 3d
       0.020082494 -0.01626956 0.014117999 0.098817796
0000b0 9a a6 7a bd 91 97 74 3c af ff e9 39 78 45 a4 bd
       -0.06119404 0.014928714 0.00044631722 -0.080210626
0000c0 6d a3 a0 3d 1c bf 8e 3d 84 d5 8e 3d 12 2f 13 3d
       0.07843671 0.06970045 0.069743186 0.03593356
0000d0 1b 3f 52 3d 9d ff 96 bd b1 c4 4d 3d af 09 b9 bc
       0.051329713 -0.07372973 0.050236408 -0.022587625
0000e0 f4 c5 a2 3d 1e a6 d1 3d 6b 4c cd bc 3f 97 3e 3d
       0.07947913 0.102367625 -0.025060853 0.04653096
0000f0 b2 96 18 bd 78 0e d9 3d 21 d2 5e bc 0d 07 83 3d
       -0.03725309 0.10598463 -0.013599903 0.06397829
000100 56 cb 8a 3d 2a f9 be bd cb 29 18 bd 90 bb 78 bd
       0.067770645 -0.09324868 -0.037149232 -0.06072575
000110 7e 9f 30 3d 9e 95 00 3d c6 74 10 3d 90 45 8c 3d
       0.043120854 0.031392686 0.035267614 0.068492055
000120 bf c7 d3 3b a6 96 ac 3d 9e f0 35 3d e8 0d c1 3c
       0.0064630206 0.084271714 0.044418924 0.023566201
000130 90 d9 eb 3c c1 bf 82 3d bb 42 2d 3d 29 e5 3f bd
       0.028790265 0.063842304 0.042299967 -0.046849404
000140 03 c4 a1 bb e8 76 28 bd d4 97 b1 3d 56 f0 c6 3d
       -0.0049366965 -0.041129023 0.08671537 0.09713809
000150 b0 4b 99 39 e6 7a 24 3d d5 f8 6b bd 75 54 10 3d
       0.00029238826 0.040156268 -0.05761035 0.035236795
000160 60 2a 72 bc fa 13 c5 bc 47 71 71 3c ee e1 ca bb
       -0.014780611 -0.024057377 0.01473648 -0.0061914837
000170 49 7f 19 3d 68 d1 ca bd e7 b7 1c 3c 99 80 32 bd
       0.037474904 -0.09903222 0.00956533 -0.04357967
000180 1e 11 8f 3d bc 00 47 bd 34 c5 b2 3d 16 a7 3a 3d
       0.06985687 -0.048584685 0.0872902 0.0455695
000190 fe 90 48 bd 38 c2 93 3c 0a bb 7f 3c 51 6d 3b bd
       -0.0489664 0.018036947 0.015608558 -0.04575855
0001a0 4a 84 81 3d d1 e5 36 3d 32 26 26 bc 8e 1e f8 bc
       0.0632406 0.044652764 -0.010140942 -0.030288007
0001b0 be 01 9f bd f1 ea 8d b9 dc 03 0c bc 66 dd 1f 3d
       -0.07764004 -0.0002706866 -0.008545842 0.0390295
0001c0 53 39 be 3d e4 18 af b9 74 b2 10 3d 2e b6 21 3d
       0.092882775 -0.00033397146 0.035326436 0.03948038
0001d0 34 db 81 3d de 1b 08 3d 5b c7 28 3d c8 18 92 bd
       0.06340638 0.0332297 0.041205745 -0.07133633
0001e0 7b 38 64 bd 8f 14 fb bc fb 25 02 bd de fe 22 bd
       -0.055717926 -0.030649452 -0.031774502 -0.03979384
0001f0 7f d1 2c 3d e4 c5 07 3e 6c 7a d8 bb 2d be af 3d
       0.04219198 0.13259083 -0.0066063907 0.08581195

RNN.bias_hh_l0 f4 [128]
000000 4e 61 98 bd 63 07 ba 3d 65 16 04 3d 99 fa 1f bd
       -0.074404344 0.0908344 0.03224792 -0.039057348
000010 80 eb 19 3c e3 2a b9 bc be c8 88 3c 7a 10 da 3c
       0.0093945265 -0.022603458 0.016697284 0.026619185
000020 68 9b 65 3d 37 bf 5c 3c e0 67 d5 3c 5c 10 95 bd
       0.05605641 0.013473324 0.026050508 -0.07278511
000030 4a 17 1a bc 7c c2 8b 3d d0 95 43 bb 95 7d c4 3c
       -0.009404967 0.06824204 -0.0029843934 0.023985663
000040 6a 96 22 3d 24 bd 52 3d da 33 d5 bc c2 b3 97 bd
       0.039694227 0.05144991 -0.026025701 -0.07407333
000050 3a 1e f2 bc 38 c9 03 bd c4 80 e0 3d 37 0d 5c bd
       -0.029555429 -0.03217432 0.1096206 -0.05372354
000060 36 7a c0 bb f1 1a 4e 3c 64 33 51 3d e2 e7 cf bd
       -0.0058739437 0.0125796655 0.0510744 -0.1015165
000070 e3 d8 35 bd 1f 7c dd 3c ec de 5d bc 48 4f 9a 3c
       -0.044396292 0.027036725 -0.013541918 0.018836632
000080 22 0e 23 bd 05 6a 74 bd 3e 88 7b 3d 32 13 35 bb
       -0.0398084 -0.05967142 0.061409228 -0.002762985
000090 4d 66 8c 3d 4d d1 11 bd 9d ce 82 bd 7a ca 8f bd
       0.0685545 -0.035599995 -0.063870646 -0.07021041
0000a0 df 52 05 bc 92 2c 31 bd 0d 65 6b bd 3f c3 91 3d
       -0.008137434 -0.043255396 -0.057469416 0.07117318
0000b0 33 bd 98 bd d8 aa 65 3d 76 30 90 3d 7a f2 3c bc
       -0.07457962 0.056071132 0.07040493 -0.01153242
0000c0 99 e6 06 bd c4 7f 0b 3c 64 ee de 3c ec ec e0 3c
       -0.03293476 0.008514348 0.027213283 0.027456723
0000d0 f3 a4 27 bc a3 76 ba 3d 55 b8 b2 3d 3f fb b5 3d
       -0.010232198 0.091046594 0.08726565 0.08885812
0000e0 30 b1 8a bb 1c 72 85 bb 75 86 aa 3d 95 c7 a7 ba
       -0.004232548 -0.004072441 0.08326427 -0.0012800569
0000f0 08 19 50 3d 60 07 88 bc a1 8f ac 3d b5 a0 1c 3d
       0.05080512 -0.01660508 0.084258325 0.0382392
000100 6f f5 4b bc 66 45 41 bd 6e 42 7f bd 41 d2 9a 3d
       -0.012448653 -0.047185324 -0.06231921 0.07559634
000110 31 82 74 3d 0b 88 88 3c 00 22 6a bc f3 76 87 3d
       0.059694473 0.016666433 -0.014290333 0.06614485
000120 52 28 a2 3d 0a aa 64 3d 6c 26 8d 3d 3f a7 14 3d
       0.07917847 0.055826224 0.06892094 0.03629231
000130 79 c3 8f bc 12 d9 c4 3d 21 e7 a9 3d 5b f8 7d 3c
       -0.017549263 0.096117154 0.082960375 0.015501107
000140 1e 7e b7 3d fb 42 3b 3d c2 01 1a bd 39 fd 81 3d
       0.08959602 0.045718174 -0.037599333 0.063471265
000150 67 8c 71 3d 59 d6 78 bd 57 bf 5a bd 50 28 ed bc
       0.05897179 -0.060751293 -0.053405132 -0.028949887
000160 38 53 aa 3d e4 9b 6c 3c 08 35 ba bd 4c 1d 5a 3d
       0.08316654 0.014441464 -0.09092146 0.053250596
000170 e8 5f 8b bd a0 58 5d bd 59 14 a4 bc fe 87 69 3d
       -0.06805402 -0.054039598 -0.020029234 0.057014458
000180 ce 78 17 bd 89 00 72 bd ac be a2 3d 85 1d 62 bd
       -0.036980443 -0.05908254 0.07946524 -0.055203933
000190 09 ba 76 bd 71 43 ce 3c 20 f3 0b 3c fd b1 8c 3c
       -0.06023601 0.025178643 0.008541852 0.017174715
0001a0 52 28 c3 bd b2 26 56 bc 04 c4 b0 3d a8 71 95 bc
       -0.09529175 -0.013070749 0.08631137 -0.018242672
0001b0 9b 86 86 3d 30 9f 1d 3e 50 c9 f2 3d e1 69 16 bb
       0.06568643 0.15392756 0.118548036 -0.0022951292
0001c0 2c 9d ad 3d 92 26 94 3c 78 3f 22 bd fe 86 05 3d
       0.08477244 0.018084798 -0.03961131 0.03259944
0001d0 fc 5f 30 bd e9 36 07 bd cf 66 8f 3d e4 f3 b7 bd
       -0.043060288 -0.03301135 0.07002031 -0.08982065
0001e0 c8 91 01 3d 3e e3 c7 3d 18 6a a2 3d 46 7d 17 3c
       0.03163317 0.0976014 0.07930392 0.009246176
0001f0 1f ec 28 3c 9d ed 46 3d 85 41 c0 3d 28 7d 01 3d
       0.010310202 0.04856645 0.09387497 0.0316135

actor.weight f4 [3, 128]
000000 56 21 1b be 20 07 1b 3e e7 da 76 be ce fc 8c 3e
       -0.15149435 0.15139437 -0.24106942 0.27536625
000010 d9 f0 9c 3e 63 20 c0 3d e4 1b e2 ba 47 94 a6 bd
       0.30652502 0.09381177 -0.0017250744 -0.081337504
000020 8b 49 23 3d 53 3e 09 3e 84 a8 74 3e 79 da 32 be
       0.039865058 0.13402681 0.23892409 -0.17466153
000030 70 8d f6 bd 99 28 83 be 47 b1 1d be 6f b5 c3 3b
       -0.12038696 -0.2561691 -0.15399657 0.0059725563
000040 5e 6e 02 3e 07 1c 06 3e 4b b7 5c 3e ad 54 8d bc
       0.12737414 0.13096629 0.21554296 -0.01725229
000050 b9 8a 04 bd ce 37 ac 3e 86 f2 42 be 85 6f 0e bd
       -0.03235886 0.33636326 -0.19037828 -0.034774322
000060 82 03 60 3d 0e 36 90 3c f4 50 e4 3d 8a 6b 02 3e
       0.054690845 0.0176039 0.11148253 0.12736335
000070 a9 98 7c b9 67 59 ab 3e d4 59 e3 3e ba 69 49 be
       -0.00024089463 0.33466646 0.4440447 -0.19669238
000080 bd 9e 47 bc bc f6 94 bd 90 be 59 3d 57 cd 57 3d
       -0.012183842 -0.07273623 0.05316025 0.05268606
000090 72 47 93 3d aa b2 f4 3d 4e 78 59 3e f2 74 9f 3e
       0.071913615 0.1194814 0.21237299 0.3114391
0000a0 57 71 8c bd e5 48 93 3d 64 16 57 be 09 f3 1c 3e
       -0.06857555 0.07191638 -0.21004635 0.15327086
0000b0 7c 61 d7 3d ad d0 c1 bd 0f 6f 8e 3d 2f 75 a2 3e
       0.105166405 -0.0946363 0.069547765 0.3173003
0000c0 c7 b6 a6 3e 82 08 01 3e b6 bf c1 3d c7 5f b4 bd
       0.32561323 0.12600902 0.09460394 -0.088073306
0000d0 4d f2 dc bd 59 fd 71 3d 81 6a 94 bc b3 09 19 bd
       -0.10788403 0.0590795 -0.018117191 -0.037362766
0000e0 48 81 04 bd 13 e5 82 3e f1 29 02 be e3 19 a8 3d
       -0.032349855 0.25565395 -0.12711312 0.082080625
0000f0 56 9e 7c 3e ea b4 c6 3e dc c5 54 be 01 79 6e 3e
       0.24669775 0.388099 -0.20778602 0.23288347
000100 8f 94 ed 3d 1e fd 5c bc 3c f4 75 bd 2f 23 a3 be
       0.11600601 -0.013488082 -0.060047373 -0.3186278
000110 b1 97 53 be 14 0e 7b 3c 29 32 83 be 32 5e 97 3e
       -0.20663334 0.015323181 -0.25624207 0.29564053
000120 bc 10 27 3e dd 18 18 3e aa 12 6e bd 75 f7 01 bd
       0.16314977 0.14853235 -0.05812327 -0.031730134
000130 b0 0c 84 3e 18 f9 6b be d2 f9 9d be 91 00 95 3e
       0.2579093 -0.2304424 -0.3085466 0.29101995
000140 3b d9 19 3e e3 70 96 bd 89 24 05 3e 80 14 64 3d
       0.15024273 -0.0734575 0.13002218 0.055683613
000150 f7 74 54 3e 6b 94 03 be 89 0a 5e 3e cd b9 fc bd
       0.20747744 -0.12849586 0.21683706 -0.12340126
000160 22 a9 72 3d 2e 78 a2 3d b5 23 b6 bd e9 e8 1a 3e
       0.05924333 0.07933079 -0.08893529 0.1512791
000170 d4 ef 82 3e 39 f8 a3 3d 75 78 c4 be fb f1 a2 3b
       0.255736 0.08006329 -0.3837315 0.004972694
000180 92 a8 f2 3d 62 96 a8 bd 30 93 93 bd e5 67 f8 3d
       0.118485585 -0.08231808 -0.07205808 0.12129191
000190 4d 84 f5 bc 59 fc f4 3d bd e2 b4 3d 7a 22 10 be
       -0.029970312 0.11962194 0.088323094 -0.14075652
0001a0 47 82 1a be 29 42 0d 3e e8 d0 0b 3e 6a fb 0e 3c
       -0.1508876 0.1379477 0.1365391 0.008726934
0001b0 28 68 27 bc da 08 86 3e 60 d6 5e be a7 80 a3 3e
       -0.010217704 0.26178628 -0.21761465 0.3193409
0001c0 34 56 f0 3d 2f 78 bc 3d ce a5 e7 3d 41 b1 ea 3b
       0.11735192 0.09202611 0.113109216 0.0071622436
0001d0 fb 2b b5 bd 09 29 47 bd de e8 a6 be f3 fb 0c 3e
       -0.08846279 -0.04862312 -0.3259954 0.13767986
0001e0 7c 97 80 3e 10 26 01 3e 9b 71 4b be 15 52 2f be
       0.25115573 0.12612176 -0.19867556 -0.17121156
0001f0 82 8b 72 bd 12 94 9a be f4 45 78 be 24 5b 9c bd
       -0.059215076 -0.30191094 -0.24245435 -0.07634571
000200 ab f9 75 3e f9 97 09 be 3d 21 d1 bd 49 98 65 3d
       0.24021022 -0.13436879 -0.10211418 0.056053434
000210 46 ee 6e be 9b 55 4c 3d 5d 87 30 bb 89 57 84 3e
       -0.23333082 0.049886327 -0.0026936152 0.25848034
000220 75 c4 8b be 39 89 d5 bd 0b 41 38 bd cb 51 4a 3e
       -0.27298322 -0.10426564 -0.044983905 0.19757764
000230 8f 5b 46 be b9 00 b8 3c 4f 01 4a be 35 7e c3 3d
       -0.19370864 0.022461282 -0.19727062 0.095455565
000240 4a 78 06 3d b9 1d d2 bd 9e 91 56 be 1f ef 6b bd
       0.03282956 -0.102595754 -0.20953986 -0.05760109
000250 87 6f 6c 3e 3e ee cd bd cf ee e9 3d e9 9c f3 bd
       0.2308942 -0.10055207 0.11422502 -0.118951626
000260 f7 09 8e bd 19 74 c2 3e f6 58 23 3e a2 b8 f5 bd
       -0.069354944 0.379792 0.15951905 -0.119981065
000270 a2 2a e4 3c 1e ce d3 bc e8 cb 27 be 6c 95 1a be
       0.02785236 -0.02585512 -0.16386378 -0.15096062
000280 63 81 e1 bd 52 ab 29 3e 26 93 8b bc 77 83 dc 3d
       -0.11011007 0.1656926 -0.01703794 0.107672624
000290 ff 1f 2a bc 1a c8 20 be 3a 0e f2 bd 75 62 05 be
       -0.010383605 -0.15701333 -0.1181912 -0.1302584
0002a0 77 cc 28 3d 7f 75 1c be 8f 5f 59 3e 1b 00 d9 bd
       0.041210618 -0.15279196 0.21227859 -0.10595723
0002b0 8f f6 3b bd 9c b3 d9 3d 14 24 cd be 5a cf 1b be
       -0.045889433 0.10629961 -0.40066588 -0.15215817
0002c0 66 84 50 be 8c 69 6a be ea e8 9e bb 52 2f 42 3e
       -0.20363006 -0.22891825 -0.004849543 0.18963364
0002d0 df ef 1c be 2e f9 1d bd f2 77 08 3e f7 f7 38 3e
       -0.15325879 -0.038567714 0.13327006 0.18063341
0002e0 aa b8 13 be 06 55 b7 bd d2 80 13 be e4 8b de bd
       -0.14425912 -0.08951764 -0.1440461 -0.10866526
0002f0 4f 96 16 be d6 11 26 be ca d4 40 bd 6a 72 54 be
       -0.14705776 -0.16217741 -0.04707793 -0.2074677
000300 1b ca cf 3d 3c 2e 05 3e 85 10 2c bd 2d 73 b2 3e
       0.101459704 0.13005918 -0.04200794 0.34853497
000310 78 93 5b 3e a7 ca 44 bd f6 1e b7 3d 72 8c b0 be
       0.21442974 -0.048044827 0.08941452 -0.3448215
000320 5b 08 29 be 07 b5 be 3d 74 a1 31 3e 3e ab 75 3e
       -0.16507094 0.09311872 0.17346746 0.23991105
000330 52 47 a0 be ae df 29 3e a8 13 e9 3d f6 f1 31 3c
       -0.31304413 0.16589233 0.11380702 0.010860911
000340 64 09 ce 3c 37 b3 a1 3e d8 85 02 3e 98 21 91 be
       0.025150962 0.31582043 0.1274637 -0.28345942
000350 54 41 30 be 33 3e 10 bc 83 9d ce be f9 e7 97 3e
       -0.1721242 -0.008803892 -0.40354547 0.2966917
000360 14 de 55 be aa e0 dd bd 34 31 b4 bc f9 12 98 3d
       -0.20885497 -0.10833867 -0.021996118 0.07425494
000370 bb 43 0e bc 8a d4 66 bd 04 aa 34 3e ee 92 1c be
       -0.00868314 -0.056355037 0.17642981 -0.15290424
000380 d8 d4 15 3c 9a 55 58 bd 2d 43 a5 3d 89 71 05 be
       0.009144984 -0.05281601 0.080694534 -0.13031591
000390 64 70 b0 bd d0 b1 34 bd 4f ea 96 bd 31 03 22 3e
       -0.08615187 -0.044114888 -0.073689096 0.1582153
0003a0 0b cf 8f 3d 76 30 a6 3e 47 e5 26 3e a2 4b 13 3e
       0.07021912 0.32458848 0.162984 0.1438432
0003b0 5e 81 ea bd d7 c4 ac be e1 61 06 3d 37 8a e7 3d
       -0.11450456 -0.33743927 0.03280819 0.11305659
0003c0 58 0c 4c bd 23 bb 15 be e1 c4 90 be de f2 59 3e
       -0.04981646 -0.14622168 -0.28275207 0.21284053
0003d0 d0 a4 21 3e fa 09 37 3e 90 ac 05 3e 79 c0 95 bd
       0.15785527 0.178749 0.13054109 -0.07312102
0003e0 b5 8d 86 be c3 a6 f2 3d 47 2e 58 be 2f 24 3e bd
       -0.2627999 0.118482135 -0.21111403 -0.046421226
0003f0 91 74 47 3d c3 11 bb 3d ba b9 98 3e 04 4d d1 3e
       0.04869515 0.09134247 0.29829198 0.4087907

actor.bias f4 [3]
000000 07 3a 10 3d 54 4c fd bc 28 b7 2f bc
       0.03521159 -0.030920185 -0.01072482

critic.weight f4 [1, 128]
000000 c9 d8 6a bd 7d 03 04 be 83 48 75 bd 7d ad 47 bd
       -0.05733565 -0.12891956 -0.059883606 -0.048749436
000010 96 6c f4 bc 1d aa cc bd 89 3f bc be 2c 78 b1 bd
       -0.029836934 -0.09993384 -0.36767223 -0.08665499
000020 0c 3b 01 3d 5f d5 85 bd 0c 98 73 bd 4f e0 97 3d
       0.031550452 -0.06534838 -0.059471175 0.0741583
000030 13 c1 b2 3c 9b 5d 33 3e 31 c4 93 3c 68 bf 1b 3e
       0.02182058 0.17516176 0.018037887 0.15209734
000040 4e 7d 16 bd 7d a5 24 bc c5 e8 ab bd 40 4f 24 be
       -0.036740594 -0.010049221 -0.08394007 -0.16045856
000050 19 ba a2 bd 12 b7 86 3c 1b bc 4d 3e f6 ec ba 3d
       -0.079456516 0.016444717 0.20091288 0.09127228
000060 35 03 80 3d 4e 8b a8 3d 3a 9c f2 3d 7d ff f7 3d
       0.06250612 0.08229695 0.11846204 0.121092774
000070 27 4a 29 be 57 9b 68 bd 49 38 97 3c 5d e2 99 3d
       -0.16532193 -0.05678877 0.018459456 0.075138785
000080 6e 06 03 3e 10 e0 7c be e9 94 46 3e c8 e6 a5 bd
       0.12795421 -0.24694848 0.19392742 -0.08100659
000090 1e 63 c0 3d 11 27 48 3e c2 9a e0 3d f1 23 36 be
       0.09393905 0.19546153 0.10967018 -0.17787148
0000a0 3c 20 02 bd b3 1c 4b be 6e 4b 10 3e ba a7 6f 3e
       -0.031769022 -0.19835167 0.14091274 0.23403826
0000b0 eb e3 79 bc 41 e6 50 be e1 af 48 3e 96 4d 44 be
       -0.015252094 -0.20400335 0.19598342 -0.19170222
0000c0 c7 49 42 3e 5b e6 13 be 0a 22 1f 3e 7e dc dd bd
       0.18973456 -0.14443342 0.15540329 -0.10833071
0000d0 76 64 4e 3e f6 a3 ed 3d 1e 7c ac bd 09 cc 84 3c
       0.2015551 0.11603539 -0.08422111 0.016210573
0000e0 c1 20 12 be c0 e4 3a 3e 80 72 80 bd b9 6b 50 be
       -0.14270307 0.18251324 -0.06271839 -0.20353593
0000f0 e5 c5 08 be f0 0d 84 3c be c1 5d ba 55 81 f4 bd
       -0.13356741 0.016119927 -0.0008459351 -0.119387306
000100 07 eb 1f 3c 80 b7 cc 3d 44 f3 bc bd 2b dd 9b bc
       0.009760625 0.09995937 -0.09226087 -0.01902636
000110 68 0b 23 be f1 1a 72 3d 04 48 e0 3b 03 1f d6 bc
       -0.1592232 0.059107725 0.0068445224 -0.026137834
000120 c6 51 8b bb ac 2a 60 bd 31 a7 0e 3e b6 11 bf 3d
       -0.0042516915 -0.054728195 0.13930966 0.0932955
000130 57 25 57 3e 26 40 35 bd 31 2e 0b 3e 64 b9 96 3d
       0.21010338 -0.04425063 0.1359184 0.07359579
000140 18 d2 45 bd 60 88 cf 3d 78 2a 8f 3d 49 0d d0 bd
       -0.048296064 0.10133433 0.06990522 -0.10158784
000150 6f 01 b8 3d 0e 35 14 bd 38 53 19 3d aa 2f 81 bd
       0.089846484 -0.03618341 0.03743288 -0.06307919
000160 93 a5 e7 3d c3 a0 4f 3d 1f d6 89 3e 3d 7c 4c bd
       0.11310878 0.050690424 0.26921174 -0.04992317
000170 8c 8e a1 bd e5 1e 03 3c d3 b8 61 3e 20 d3 81 3d
       -0.07888517 0.008002971 0.22043161 0.06339097
000180 3c 5d 53 bd d3 90 93 3d cd 74 1a 3d ab b7 d6 bd
       -0.051602587 0.072053574 0.037709046 -0.10484251
000190 b6 48 4b 3b 7a 73 01 3d 42 ae 9b 3d 99 55 40 be
       0.003101868 0.031604268 0.076015964 -0.18782653
0001a0 f2 ca 03 bd 95 29 06 3e 79 a2 08 3e 14 59 88 bd
       -0.032175966 0.131018 0.13343228 -0.06657615
0001b0 49 96 a6 bd f6 70 4e 3e 02 95 49 3d 4c 87 35 3d
       -0.08134133 0.20160279 0.04921437 0.044318482
0001c0 70 86 c4 3a d3 22 7e bd 57 30 05 3e 69 81 9b bd
       0.0014993679 -0.06204493 0.13006721 -0.075930424
0001d0 29 dc d9 bd fc 6e 8c be 69 59 42 bd 62 e0 8e 3d
       -0.10637695 -0.27428424 -0.04744855 0.069763914
0001e0 cb 47 33 3e e5 93 22 3c 02 c2 bf 3c 3e e6 b1 bd
       0.17507856 0.009922956 0.02340794 -0.08686493
0001f0 d5 7e c5 bd 67 d8 35 3e 1a ee 82 3b f2 4b 2b be
       -0.09643332 0.17758332 0.003995669 -0.1672819
