W__RNN/W_RNN/md2/v_2/train_iter_0400.pt (torch, 79699 bytes, 6 tensors)

h0 f4 [128]
00000000: a396 743f a123 993f 33f3 c4bf 3230 5ebf
00000010: fff0 473d 1701 8cbf 3d5b 08bc 6f43 093f
00000020: 4033 10bf 5a88 603e e27d 29bf fb12 153f
00000030: fd76 1c40 2362 de3f 8b9a 8b3f 4342 0e3b
00000040: bc5a 313f c032 05c0 0434 80bf de48 bebc
00000050: a67a 9bbd 2e0e 6a3e 8b4e 1540 6a80 2f3f
00000060: 0070 56bf b7e0 383f 0e65 e13e d421 83bf
00000070: 9b15 2abf 192a 83bf c714 243e 4e05 463f
00000080: 0893 38bf 091f 61be 98b3 b2bf 63aa 0440
00000090: a22d 90be 22a3 b13f 19b7 aabf a8c3 20be
000000a0: c7ab 0e3f 59d5 8b3e a37a 0c40 b00a 06bf
000000b0: 0e3c cabf bac9 adbf a090 003f 8be8 11be
000000c0: 7a06 033e 74c5 b2be 88c5 a43f 3ae9 bcbf
000000d0: cbd6 84bf e53d 2ebf 0b60 7dbf 5663 8dbf
000000e0: 6277 053f 5722 d7bd 2fca 99be 4f16 2abd
000000f0: 1557 683f 6874 e9bf e236 0bbf ff51 34bd
00000100: 4a27 d7bf 615f 6c3f 5315 e83e 2597 4cbe
00000110: cc03 8f3e 9687 9b3f 6e9e b1bf 52a7 ac3e
00000120: ccce 8d3f 94c6 2f3e 761f 2c3d 3382 653f
00000130: 0ab0 f53e 8eef ce3c 8dca 083f 41af a2bf
00000140: c00c 4cbf db8d 003f bc27 b03e a593 07c0
00000150: 04ad 0ec0 815e bcbe ee5f f3be 8896 86bf
00000160: 12b2 b23f d1cb 1d3e 2b9b c3bf 0654 42bf
00000170: a997 8dbe fdce 96be 1a3d 8a3b 24d7 4040
00000180: 04e1 aebf 531b 1140 17bc d83c 25d9 d2bf
00000190: 3575 62bf e99d b93f 78b1 a43f 7c74 10bf
000001a0: ef95 3cbe 40b8 b6be 4849 10bf 22b1 0ebf
000001b0: e7ac 5240 2cdb f13f 0202 b9bf d325 45bf
000001c0: e6bf 38bf cb1c a13f 6009 8bbe b3b2 643f
000001d0: 067c a0bf 42ba d3be 18df 473e 402d d1bd
000001e0: 68f0 263f 5671 54bf 1560 7abf 89aa ca3e
000001f0: fd8d 52bf 4d26 823f 7471 83be 6046 c43e
0.95542353 1.1963998 -1.5386719 -0.8679229 0.048813816 -1.0937833 -0.008322534 0.5361852
-0.563282 0.21927014 -0.66207707 0.58232087 2.4447625 1.7373699 1.0906538 0.0021706976
0.69279075 -2.0812225 -1.0015874 -0.023228105 -0.07591753 0.22856972 2.332919 0.6855532
-0.8376465 0.7221789 0.4402241 -1.0244699 -0.6643922 -1.0247222 0.16023551 0.77351844
-0.7209935 -0.21984495 -1.3961058 2.0728996 -0.28159815 1.3877909 -1.3337127 -0.15699637
0.5573086 0.2731121 2.1949852 -0.5236006 -1.5799577 -1.3577187 0.5022068 -0.14248864
0.1279544 -0.3491627 1.2872782 -1.4758675 -1.037805 -0.68063194 -0.98974675 -1.104594
0.5213529 -0.10504597 -0.30037066 -0.04152518 0.90757877 -1.8238649 -0.5438062 -0.04402351
-1.6808865 0.92333037 0.4532877 -0.19979532 0.27932584 1.2150753 -1.3876474 0.33721405
1.1078734 0.17165595 0.04202219 0.89651793 0.4798587 0.025260713 0.5343407 -1.2709733
-0.79706955 0.50216454 0.34405315 -2.1183865 -2.22931 -0.3679085 -0.47534126 -1.0514688
1.3960593 0.15409781 -1.5281729 -0.7590946 -0.2765477 -0.29454795 0.0042187097 3.0131311
-1.3662419 2.2672927 0.026456876 -1.6472517 -0.88460094 1.4501315 1.2866659 -0.5642774
-0.1841657 -0.35687447 -0.5636182 -0.55739033 3.2918031 1.8895011 -1.4453738 -0.7701084
-0.72167814 1.2586912 -0.2715559 0.89335173 -1.2537849 -0.4135304 0.19518697 -0.10213709
0.6521058 -0.82985437 -0.9780286 0.39583233 -0.82247907 1.0167938 -0.25672495 0.38334942

RNN.layer_encode.weight f4 [128, 145]
00000000: d64e 493e 2756 d8bd f768 28be 3296 2ebe
00000010: da14 0dbe 86a0 d7bd 0058 e2bd ffaf 1a3e
00000020: 872d 083e 0bcc 9ebd 5683 83bd 60b5 3a3e
00000030: 2c7d 57bd f747 90bd 4d8d bfbc 1c70 4dbd
00000040: c4e8 393e 0ac7 e8bd 8b59 963a e5e1 a13c
00000050: ae84 6b3d 60b5 b9bd b48e 0fbe 3e9d bf3d
00000060: 51aa 00bd 0240 9fbd 478c 7fbd e8ea a83d
00000070: cc45 55bd 388a 02bd 66a1 b3bc 17e7 a83d
00000080: 60e6 493d ef3b 743c 8a70 a53c 9a60 10be
00000090: 1b29 833d d04b e33a 3982 0dbd fbe1 d5bb
000000a0: 173b cbbc 6065 c8bc 6336 8abd 8abb 1a3e
000000b0: b065 68bb 47da 9fbd 54b3 993d 28bb 8b3d
000000c0: f75d 48bd 6ef2 ae3d 3a7a bb3c 733d 453d
000000d0: 232a 68bd 8106 3b3c 5e05 8d39 c447 3ebd
000000e0: dc9c 68bd f4d0 63bc 09ae 493d dd6c 4a3b
000000f0: 45e0 a8bc 051a 30bd cd2c c6bd f3cb 16be
00000100: ec7a 03bc ab78 7f3c 0a43 a9bd cec1 02be
00000110: 8682 c3bc fa3a 60bd d483 a4bc a3f4 1fbd
00000120: 8b3b 8cbc d6ad f93d 50ae 3e3c 321b abbc
00000130: 8033 26bd 4f76 523d b469 0ebc 56cd 5bbd
00000140: d5d1 c23c b913 833c dd02 2a3c 4106 88bd
00000150: 57cd f6bc 2c9d 203d 1323 30bd 93ae d13d
00000160: be2b 84bc 76be 9e3d d73c 683d adc8 25bc
00000170: 4430 0cbe a050 a8bd 3d24 40bc 872c 95bd
00000180: ed70 ffbc 10ac 203e de39 9f3c 1b89 733c
00000190: e2ec 4b3d 57c8 16bd f2a7 803b 5131 6e3d
000001a0: 4a51 6dbd c9d8 a93c c89a bd3c e472 dcbc
000001b0: bee1 12bd c0b5 933c dedc c33d 9aff 503e
000001c0: 1046 a8bd 9165 0abd 8ca6 65bd 5bd5 b53d
000001d0: 73b8 c2bd 8ccc 3e3d d226 273d 9148 bfbc
000001e0: dd8e 00bd 7c62 d7bc 28fc a03d 9225 49bd
000001f0: a1c2 6ebc c462 623d 13c2 913d 9fa6 24be
00000200: 282b 9cbc b8d1 a33d 31f7 d5bc efc0 353b
00000210: 7b70 033d 8846 1bbd 8940 20bd 2e91 303d
00000220: 552a 8dbb f955 483d b6e0 9fb9 b2c2 1f3e
00000230: 0153 183d a0e8 1ebc 46d3 e83b 7733 2c3d
00000240: f98b 29bd c4a3 093d ccaa 0fbe 5853 2f3e
00000250: 952e 4b3e 9ecd 6cbe f320 27be e06d e73d
00000260: 44d8 9bbe 85d7 87be 0366 7cbe e876 203e
00000270: 8e89 1c3e d69a 533d 851d f8bd ba9a 03bc
00000280: 8aee a1bd 9ec8 ecbb 4160 3b3c 37b2 9f3d
00000290: 347a c63c 559f e53d 1272 9e3c ba88 e13d
000002a0: 9092 093e 64f6 bc3c a92b f73d 0c1d b73a
000002b0: 9408 39bd 2a4b 813d 6e1a a3bd 3540 9d3d
000002c0: 7521 b2bb f583 133c 9d1e 63bd 3bc8 d5bc
000002d0: ce7c 5cbb 1722 0d3d b166 c03c d5b2 b63d
000002e0: 9107 67bd df09 78bd dac2 06bc b0c4 0c3e
000002f0: 2b05 8dbd d42c 8cbd 12fa 07bd 03db bdbc
00000300: 0e36 7cbd 1c02 e9bb a5bc c4bd e619 90bd
00000310: a433 c43c 2e83 bdbd fc75 c63d 4adc 87bc
00000320: dabb 6b3d 2f65 42bd 51dc 56bd ec80 1b3e
00000330: 64c4 b93d 9814 253d bf1e c03d bee2 f4bc
00000340: ab8c 28bd 415d d2bc 7889 8ebc dab1 d63c
00000350: 9633 afba e2a0 adbc 3d12 3c3d 399b 893d
00000360: 43eb 153e 512b bb3d 4f64 a33d 5bb1 99bc
00000370: b4ab de3d 35f1 5bbc 05aa ea3d 5fc0 813d
00000380: eb54 44bd c218 923d ed0e dd3a 1f23 693c
00000390: 76e5 d6bc 13be abbc d254 863c 4274 8abd
000003a0: 7860 513d f4e6 383b cbbb 043d ef21 d63c
000003b0: 6fc7 7e3b 4e41 3cbd cc55 95bd d033 28bb
000003c0: b2a5 633d d2ca ee3d c7c2 cabb a798 0fbc
000003d0: 0bc9 81bc 23f1 493d 34e6 e33d 4b53 e2bd
000003e0: bfed aab9 9abc a1bd 45e3 5fbd 2a99 75bd
000003f0: c5f8 173e df3b 0bbd 6edc 943c 22f4 4e3d
0.1965898 -0.10563307 -0.16446291 -0.17049482 -0.13777485 -0.10528664 -0.11051941 0.151062
0.13298617 -0.07753762 -0.06421535 0.18233252 -0.052609608 -0.07044976 -0.023382807 -0.050155744
0.181552 -0.11366089 0.0011470778 0.019761035 0.05749958 -0.09067798 -0.1401928 0.093561634
-0.031412426 -0.077758804 -0.06238964 0.0824793 -0.052068517 -0.031870097 -0.021927547 0.08247202
0.04929197 0.014906867 0.020195264 -0.1409935 0.064043246 0.001734132 -0.034548018 -0.006527183
-0.02480845 -0.024462402 -0.06748655 0.15110603 -0.0035461 -0.07805305 0.07504907 0.068228066
-0.048917737 0.085423335 0.02288543 0.048154306 -0.05668081 0.011415125 0.00026897615 -0.04645516
-0.056790218 -0.013904799 0.04923824 0.0030887641 -0.020614753 -0.042993564 -0.09676514 -0.14726238
-0.008024912 0.015592734 -0.0826474 -0.12769243 -0.02386595 -0.054743744 -0.020082392 -0.039051663
-0.017118236 0.1219136 0.011638239 -0.020886991 -0.040576458 0.05138236 -0.008692194 -0.05366262
0.023781696 0.016000615 0.010376659 -0.06641818 -0.03012721 0.03921239 -0.0430022 0.102383755
-0.01613414 0.07751171 0.056698646 -0.010118646 -0.13690287 -0.08218503 -0.01172739 -0.072838835
-0.031181777 0.15690637 0.019436773 0.014864231 0.049786456 -0.036812153 0.0039262706 0.0581525
-0.05793885 0.020733254 0.023145095 -0.026910253 -0.035859816 0.018031001 0.095636114 0.20410004
-0.08216488 -0.033788268 -0.056067035 0.08878585 -0.09507837 0.04658179 0.040808506 -0.023350032
-0.031386245 -0.026292078 0.07860595 -0.049108095 -0.01457277 0.05526997 0.07117095 -0.16079186
-0.019063547 0.07998985 -0.026118847 0.0027733406 0.03208969 -0.03790906 -0.039124046 0.043107204
-0.004308025 0.048910115 -0.00030494266 0.15601614 0.037188534 -0.009699017 0.007105264 0.04204127
-0.041393254 0.033603445 -0.14029998 0.17121637 0.19841988 -0.23125312 -0.16321163 0.11300254
-0.30438435 -0.26531616 -0.2464829 0.15670359 0.15286848 0.051661335 -0.121150054 -0.008032495
-0.07906826 -0.007226064 0.011436523 0.07797664 0.024228193 0.11212031 0.019341502 0.11012407
0.13434815 0.023066707 0.120688744 0.0013970449 -0.045174196 0.063131645 -0.079640254 0.07678262
-0.0054361173 0.009003629 -0.055449117 -0.026096454 -0.0033643725 0.03445634 0.023486467 0.08920828
-0.0564037 -0.06055629 -0.008225167 0.13746905 -0.06885751 -0.06844488 -0.03319747 -0.023175722
-0.061574988 -0.007110847 -0.096062936 -0.0703619 0.023950405 -0.09253536 0.096904725 -0.016584534
0.057552196 -0.047459777 -0.052456204 0.15185899 0.09070662 0.040302843 0.09380864 -0.029893275
-0.041149776 -0.025679233 -0.017399535 0.026207853 -0.0013366814 -0.021194879 0.04591583 0.067190595
0.14640526 0.09139121 0.07978117 -0.018761327 0.108725935 -0.013424207 0.1145821 0.0633552
-0.047932547 0.071336284 0.001686541 0.014229565 -0.026232462 -0.020964658 0.016397867 -0.06760456
0.05111739 0.002821383 0.032405656 0.026139228 0.0038876196 -0.045960717 -0.07291755 -0.0025665648
0.05557794 0.11659779 -0.00618777 -0.0087644225 -0.015842935 0.04930223 0.11127892 -0.11051043
-0.0003260206 -0.07897301 -0.0546601 -0.05996052 0.14840992 -0.033992644 0.018171515 0.050525792

RNN.layer_encode.bias f4 [128]
00000000: 7de4 e43d 3bb3 0bbd 3871 123d a29e 83bd
00000010: 6d6a 2b3d 3a0a afbd fd8e e4bc 6044 b8bd
00000020: 9770 093d 6f0c ce3b 0490 8a3d fe93 aa3d
00000030: 405a 54bd 57ea 8f3d 0221 fa3c c1c4 b2bd
00000040: 2dd1 b53d 7926 b43c 9573 e7bb 5bb9 913d
00000050: 31fa fe3c 985f 96bc 9c8e 903d f407 83bd
00000060: 7e6a be3d 6f21 fdbc 366a 8b3d f17f 753d
00000070: a8ee 6abb 40ec 463d 80a7 73bd 60da 15bd
00000080: 01b0 643c 1ec8 323d 5211 0fbd b67e 933d
00000090: 58eb 8f3d 2f17 6e3d e735 6bbd c26a 9cbd
000000a0: 10d9 473d f93a 89bd 69b1 3d3d cb2a fc3a
000000b0: 7774 55bd 9f85 863d 24e1 dd3c 50eb 0e3c
000000c0: 0404 b63d 189d 3f3c 856c 603d dfe0 98bd
000000d0: 6632 fdbb 4c1a 44bc bae2 6a3d a31c 2cbd
000000e0: 7050 da3c dc40 8a3d 8928 b73b d0e0 5f3d
000000f0: 1810 e1bc b5d3 323c ce39 8abd 5849 babc
00000100: ea0a b23c d0ee ccbb 3563 34bd a6f0 9b3d
00000110: af99 413d cc5d 92bd b155 98bc 3f02 acbc
00000120: b1f5 bb3d 6fca 263d 0271 00bd 2090 8fbd
00000130: 164e 81bd 0417 65bd 9259 b93c cc07 0c3d
00000140: 4dd9 233d e184 313d a563 103d f81b 543c
00000150: ee0f a43d ed9a aa3c f9ff a9bd d776 823d
00000160: e8e3 b43d c3d8 183d 2c79 483d d636 593d
00000170: 8cc2 8bbd 1df8 f0bc af2d 5cbd d69d 97bc
00000180: 5bc6 833d 020a 82bd 197f 983d 315d 80bc
00000190: dce9 d6bd 4297 cd3c 318e b33c 7c7c ebbc
000001a0: 3b52 3f3d 21a0 abbd 3ff9 20bc 5ca7 053d
000001b0: 3479 fc3c a1e0 833c af39 56bd 146a b03c
000001c0: 342b cfbd 9e0f 15bd 1457 19bc c5cd 643d
000001d0: f707 a83d ad6b f03c e915 c83c 8521 f53c
000001e0: e989 ae3c b87e b33d 1a23 893d 9964 123d
000001f0: 5143 f73c ac48 1bbc 0209 313b 2b64 afbb
0.11176393 -0.034106474 0.035752505 -0.06426741 0.041849542 -0.085468724 -0.027900213 -0.089974165
0.03355464 0.0062881033 0.0676575 0.083290085 -0.05184388 0.07027119 0.030533317 -0.08728934
0.08877788 0.021991001 -0.007063339 0.07115432 0.03112516 -0.01835613 0.070584506 -0.06398001
0.092976555 -0.030899731 0.068073675 0.059936468 -0.0035847817 0.04856515 -0.059485912 -0.03658521
0.013957978 0.043647878 -0.034928627 0.072019026 0.0702731 0.05812758 -0.057424452 -0.0763755
0.04879099 -0.06700701 0.04631177 0.0019238828 -0.052113023 0.06568455 0.027084894 0.008723095
0.08887485 0.011695169 0.054790992 -0.07464766 -0.007726955 -0.01196916 0.05734513 -0.042019498
0.026649684 0.06750652 0.005589549 0.054657757 -0.027473494 0.010914733 -0.067493066 -0.022740051
0.02173372 -0.0062540546 -0.044039924 0.076142594 0.047265705 -0.071467966 -0.018595548 -0.020997165
0.09177721 0.0407204 -0.031357773 -0.070099115 -0.06313722 -0.055930153 0.022625718 0.034187123
0.040002156 0.043339614 0.03525128 0.012946121 0.08010851 0.020825827 -0.08300776 0.06370323
0.08832532 0.037316095 0.048943684 0.05303081 -0.06824216 -0.029415185 -0.053754505 -0.01850788
0.06434318 -0.06349565 0.07446117 -0.015669437 -0.10493824 0.02509654 0.021918388 -0.028745882
0.04670928 -0.083801515 -0.00982505 0.03263031 0.030819513 0.016098322 -0.052301105 0.021534957
-0.10115662 -0.036391847 -0.00935914 0.0558603 0.08204644 0.029348219 0.02442451 0.02992321
0.021305995 0.08764404 0.06696148 0.03574047 0.030183466 -0.009477776 0.0027013426 -0.005352517

actor.weight f4 [3, 128]
00000000: 1e4f 67bd eacc 6bbe 035a 953d 39af 6d3c
00000010: 4488 3fbe cf72 18be e083 563d edc6 65be
00000020: ad93 05be 1014 9b3e aa7f c23d 5e87 c73d
00000030: c273 403d f6db c4bd f56a 193e eda5 81be
00000040: 45bf 663e 0116 23bd 91c1 663e 8c97 2f3e
00000050: 1d8b e03d 8290 7a3c 528f bcbd 3b7e e4bd
00000060: 7cdd 54be 1883 013e 65d7 a13d 137f 5a3e
00000070: 0434 ed3d a831 223e 0e40 d03b e6b2 6c3e
00000080: 5baa c13d 87db d5bd 9313 25be 0dd9 8c3e
00000090: 2c51 573e fcf9 3b3e bae5 08be 804b 9abc
000000a0: 05a6 283e 921c 81be 9fa9 4fbe 416b b73e
000000b0: 9908 993e 01a0 623c ce0d 213d 193e c63d
000000c0: 99d6 9dbe ed55 8e3e 4681 683e 4a70 1c3d
000000d0: 4db9 983e b71d 6abe 3f46 87be f35d b03d
000000e0: 9422 ecbd d415 523e 9685 1dbe 1ca0 723e
000000f0: 44a3 33be 1df4 1ebc 3f48 bd3e 545b 073e
00000100: fb30 363e 79cd 463e cd6e 3e3d c47a 803e
00000110: 34b6 36bd 4ace 053c 0ac0 e73c bb73 94be
00000120: 2f54 4e3e fa45 83be be40 82bd a4e4 8b3e
00000130: 91a6 003d 9d41 14be f94b 893e bac9 b43d
00000140: a12e 32be 1c7c 6abe 3ae8 f63b 5f5e 733e
00000150: 8e6b 87be 050f 9cbd 8a51 bfbc ef10 a53d
00000160: 1c4d 6b3e 6eb0 1c3e e65c 8a3e 7229 bfbd
00000170: ceec d6bd 7f8a d33d 08f7 73be a35e cc3d
00000180: 8634 c8bd 522b 473e b475 66be afab 543e
00000190: 97c5 9d3d ec0e 803d 60eb 9aba 9cce 233e
000001a0: 5ffd a3bd c44f 353e 89bb 5bbd 788b 253e
000001b0: 727e 653e a2dd acbb 5e2d 993d f9c2 693e
000001c0: 3d02 67bd bde5 983d 54ba ee3d ea01 54be
000001d0: 6bb5 a2bc a8fc 523e efa7 993c e06e 1b3e
000001e0: c8d7 edbb 8a70 873e 92e5 6dbe fa59 76bd
000001f0: e1c4 13be 8673 a2bd 60b4 253e f050 81be
00000200: e306 863e 5a0b 0e3d 41b8 2cbe 7e61 0fbe
00000210: 15ed 8e3e 289e df3d 5502 6dbd bc6e 0b3d
00000220: ae58 433d 194e 02be 40de eabd 3a77 aebb
00000230: 72b8 493e fd82 463e e1ab 69bd dba9 663e
00000240: 411b 0ebc c7d8 9e3d 0eb1 55be d02c b33c
00000250: 2110 0a3d ff6b e5bd 5372 4d3d f300 0a3e
00000260: 312d 3d3d 25dc 44be f847 27be 3553 4dbe
00000270: 4df3 663e df99 50be da10 0c3e 89c7 a3be
00000280: 01f6 843d 695b 183e 1d6d 603e 9d20 ce3b
00000290: b5b3 093e 131f 2fbe cd52 463e e14b bbbd
000002a0: cb9c 403e 876e 90be 4e18 6e3d debc 1a3c
000002b0: 1e8f dcbd 6159 6dbe 1eb1 87bd b0d3 2fbe
000002c0: e501 1c3e d53e 2dbd ef7f 54bd bdd8 fdbc
000002d0: 208c 94be 6126 b4bd 76bf 003e 4d2e 12be
000002e0: 58c2 ccbe 0561 39be 8724 95bd 480d 2cbe
000002f0: 60f6 c9bd 7bfa 393e b80f 8abd 33c8 83be
00000300: 7977 8a3b 398b f5bd 2c8a 9bbc 3c0e 7cbe
00000310: 6557 b1ba e43b 223d a944 84be ecde bc3d
00000320: 1807 80be bbb3 423e e335 183e e8d3 00be
00000330: 21fe a9bd 5de8 843e 6ea5 89be 2605 71be
00000340: d4dd 033e 271a b83c 487f e23c 48a5 83be
00000350: 74f7 ec3d 984d 253e 6455 193c 43bb 03be
00000360: 09ec 4bbe 6aaa 53be 3645 97bd dc77 d53b
00000370: e1b9 9dbd ff95 a8bd 2200 39be c252 cabd
00000380: 4543 ac3d 5391 3abe 6173 2c3e 8df4 26be
00000390: 0427 a2bd ab1a 2cbe 0e85 b13e 82a8 ff3d
000003a0: 3fa1 673e 41d9 41be 0644 d93c c8aa 09be
000003b0: 6053 e5bd 4058 82bc 65b5 843d 3082 5ebe
000003c0: 8287 dfbc f581 e33d 595c db3d 2389 453e
000003d0: b219 7a3e f6fe 30be 7cf6 5bbe 0a98 a7be
000003e0: af86 72bd f9d5 273e 5acc d03b 54dd 183d
000003f0: fefa 433e 7a86 c73d b50d bebb e500 9ebd
-0.056471936 -0.23027387 0.07292559 0.014507108 -0.18704325 -0.14887546 0.05237186 -0.22439165
-0.13044615 0.30288744 0.09497006 0.09742616 0.046985395 -0.09612267 0.14982207 -0.25321904
0.22533901 -0.039815906 0.22534777 0.17147654 0.10964034 0.015293242 -0.09207024 -0.11156889
-0.20787615 0.12647665 0.07902411 0.21337537 0.11582187 0.15839255 0.006355292 0.2311512
0.09456321 -0.10442262 -0.16120748 0.27509347 0.21027058 0.1835708 -0.13368884 -0.01883483
0.16469581 -0.2521711 -0.20279549 0.35824016 0.29889372 0.013832093 0.039319806 0.09679813
-0.30827788 0.2779993 0.22705564 0.038193025 0.29828873 -0.22862898 -0.2642078 0.086116694
-0.11530033 0.2051614 -0.1538299 0.2369389 -0.1754275 -0.009701756 0.36969182 0.13218433
0.17792122 0.19414319 0.046492387 0.25093663 -0.044607356 0.008166859 0.028289814 -0.28994545
0.20149301 -0.25639325 -0.06360005 0.27322876 0.03140885 -0.14478154 0.26815775 0.08827539
-0.174006 -0.22898906 0.007535008 0.23766468 -0.26449245 -0.07620052 -0.02335431 0.080598705
0.22978634 0.15301678 0.27024 -0.09334077 -0.10494386 0.103291504 -0.23824704 0.09978988
-0.09775643 0.19450119 -0.22505838 0.20768617 0.07703703 0.06252846 -0.0011819415 0.15996784
-0.08007311 0.1770621 -0.053645644 0.16166484 0.22411516 -0.005275444 0.07479356 0.22828282
-0.05639862 0.07465694 0.11656633 -0.20703855 -0.019861897 0.20604193 0.018756835 0.15179014
-0.007258389 0.26453048 -0.23232105 -0.060144402 -0.14430572 -0.079321906 0.16182089 -0.25257063
0.2617713 0.034678794 -0.16867162 -0.14002034 0.27915254 0.10918838 -0.057863552 0.03404115
0.047691993 -0.12725104 -0.11468172 -0.0053242715 0.19699267 0.19385906 -0.057048682 0.22525732
-0.00867349 0.07756191 -0.20868322 0.021871954 0.033706788 -0.11202239 0.050157856 0.13476925
0.046185676 -0.19224603 -0.16336048 -0.20051272 0.2255375 -0.20371197 0.13678303 -0.3198817
0.06492234 0.1487862 0.21916623 0.006290509 0.13447459 -0.17101698 0.19367523 -0.09145332
0.18809812 -0.28209326 0.058128648 0.0094444435 -0.10769485 -0.23178627 -0.06625579 -0.17170596
0.15235098 -0.04229625 -0.05187982 -0.030987138 -0.29013157 -0.08796383 0.12573037 -0.14275475
-0.39992023 -0.18103416 -0.07282358 -0.16801941 -0.098614454 0.18161957 -0.06741279 -0.25738677
0.004225668 -0.11989445 -0.018986784 -0.24614805 -0.0013530074 0.039607897 -0.25833634 0.092222065
-0.25005412 0.19013874 0.14864306 -0.12580836 -0.08300424 0.2595853 -0.26884025 -0.2353712
0.1287759 0.022473408 0.027648583 -0.25712037 0.115706354 0.16142881 0.009358738 -0.12864403
-0.19914259 -0.20670477 -0.07386248 0.0065145325 -0.07701469 -0.082317345 -0.18066457 -0.09879066
0.08411268 -0.182195 0.16840889 -0.16304226 -0.07917598 -0.16807048 0.34671825 0.12483312
0.22620104 -0.18930532 0.026521694 -0.13444054 -0.11197543 -0.015911222 0.06479911 -0.2172935
-0.027286295 0.11108772 0.10710973 0.19290595 0.24423864 -0.1728476 -0.21480745 -0.32733184
-0.059210476 0.16390218 0.006372017 0.03732045 0.19138715 0.09742446 -0.005799974 -0.07715014

actor.bias f4 [3]
00000000: 9fc7 023d 0037 46bd 6994 4ebc
0.031928655 -0.048392296 -0.012608626

critic.weight f4 [1, 128]
00000000: 91e1 d8bd 1583 463e d09e 333d 2ee6 27be
00000010: d53a 843d 0e59 1f3e 0140 613d 9f6f d33d
00000020: 83c1 92bc 6644 efbd 44bf 413d 8bbf a63c
00000030: d158 2bbe 7ef2 1cbe e93c c03d 5c97 023e
00000040: 8303 ea3b 9e37 15be dc59 043e ef20 16be
00000050: 1fc3 46bd 847c 5a3e e137 0f3e 08ff e7bd
00000060: 6711 433c 2fcc 2c3e b070 153e ecd2 233c
00000070: 1747 643c d2ce 6e3e 7710 c23c 4487 6d3d
00000080: 4097 15be ecd3 cb3d da50 f83d 91f1 ce3d
00000090: ebe5 e23d fb12 883d 6c68 043e dc54 d0bc
000000a0: 5625 963d 8381 e6bd b3d4 b53d f9f0 983d
000000b0: dbd1 70bd 6131 893b 7baf d3bd 39d7 e4bd
000000c0: 2296 d13d 11fe 263e 367a 0bbe b116 0f3e
000000d0: bb06 3bbd 53b4 2dbd 5459 133e 2ba3 2bbe
000000e0: b23f be3d 8fe8 2e3d 1041 593c 10cb bdbb
000000f0: 9cd7 ce3b f63f 33bb ee0a 473d eecf e6bb
00000100: 9936 9b3d d00d 38bd 76e6 9fbd 74c6 fdba
00000110: 2c16 ab3d 0252 6ebd 7a30 163e c550 1dbc
00000120: 88ab 01bd d62e d63c 41a4 4fbd b1ad 96bc
00000130: fde8 09be fd1f bdbd 4601 22be ab92 c63d
00000140: cf28 4a3e 8cc8 5ebd 44fc fcbd 4743 3ebd
00000150: e92e d53d 1f60 403e f66a af3c b954 ebbd
00000160: 8de0 a6bd 5c02 07bc 0ad7 2a3e 918d 85bd
00000170: 3513 943d a7f3 6c3e 5a30 9b3e ff90 8bbb
00000180: ad10 61be e188 973d a888 643d 1c51 373e
00000190: 20d7 6d3e 05c1 23be 7875 68bd 10a8 1b3e
000001a0: 3cfc a73c ed67 253e 4886 88bd f2f3 b2bd
000001b0: 6e9a 093e 91cb a8bd a3a8 a5bd c1a9 00bd
000001c0: 7bc0 0d3e 6f3f 8e3e 22d4 a2bc fd42 263e
000001d0: b095 29bd ac89 6cbd e6a1 c73d 071a 1f3d
000001e0: 795c 99bd bdb8 fc3d b2f2 bfbd 8ca4 88bc
000001f0: 8842 3cbe f58c e5b9 1994 6e3c a3a1 eb3d
-0.105898984 0.19385941 0.043852627 -0.163964 0.06456534 0.15561315 0.05499268 0.103240244
-0.01791454 -0.11682968 0.047301546 0.020355007 -0.167331 -0.15326878 0.09386618 0.12753052
0.007141532 -0.14571998 0.12924904 -0.14661 -0.048525926 0.21336561 0.1398616 -0.1132794
0.0119060045 0.16874765 0.14593768 0.009999018 0.013932965 0.23321083 0.023689492 0.057990327
-0.14608479 0.0995253 0.12124796 0.10104669 0.110790096 0.06644245 0.12930459 -0.02543109
0.0733134 -0.11255171 0.0887846 0.07467837 -0.058793884 0.0041867946 -0.103362046 -0.11173863
0.10233714 0.16307856 -0.13620839 0.139735 -0.045660716 -0.0424083 0.14389545 -0.16761462
0.09289493 0.042702254 0.013260141 -0.005792029 0.0063123237 -0.0027351356 0.048594408 -0.00704383
0.07578773 -0.044935048 -0.07807629 -0.0019361512 0.08353838 -0.058183677 0.1466693 -0.0096017765
-0.031657726 0.02614538 -0.050693754 -0.01839337 -0.13467784 -0.09234617 -0.15820798 0.096959434
0.1974213 -0.054390475 -0.12352803 -0.04645088 0.10409338 0.18786667 0.021413308 -0.11490769
-0.081482984 -0.008240309 0.16683593 -0.06521142 0.07230226 0.23139821 0.30310327 -0.0042592282
-0.21979018 0.073991545 0.055794388 0.17902035 0.23226595 -0.159916 -0.056752652 0.1520083
0.020506017 0.16152926 -0.06666237 -0.08737935 0.13437817 -0.08241952 -0.080888055 -0.03141189
0.13842957 0.2778277 -0.019876543 0.16236492 -0.04140252 -0.05774848 0.097476766 0.03884318
-0.07488341 0.123399235 -0.09372462 -0.016680025 -0.18384755 -0.00043783305 0.014561676 0.11505439
