W__RNN/W_RNN/md2/v_2/train_iter_0500.pt (torch, 80523 bytes, 8 tensors)

h0 f4 [128]
000000 78 3e f9 3e 8e 85 14 3f 3b 24 02 40 80 80 e5 be
       0.48680472 0.5801629 2.0334613 -0.448246
000010 46 0b 98 3e 7e 96 07 3f 47 25 ee be e0 76 98 3d
       0.296961 0.5296401 -0.46512815 0.074445486
000020 85 68 13 be 87 ea c8 3e 0c eb 2e 3f 92 93 a0 3f
       -0.1439534 0.3924143 0.68327403 1.2545035
000030 d0 7b f9 3e 9c 80 6a bd a6 3a 9e 3f 09 5e 3f bf
       0.48727274 -0.057251558 1.2361648 -0.7475286
000040 10 14 72 3f 11 2f da bf 10 7a c5 bd 7c 1c c1 bd
       0.9456186 -1.7045614 -0.09642422 -0.09429261
000050 75 9e 63 be 60 bf 0e bd 9b fd 0c c0 0d 40 36 bf
       -0.22228415 -0.03485048 -2.2029788 -0.71191484
000060 2f 40 37 3f 13 91 26 bc 59 a5 eb be 9e c1 e6 3f
       0.7158231 -0.010166424 -0.46024588 1.8027837
000070 85 88 8f be c0 00 a3 be 03 11 0c 3e f5 e3 9b 3e
       -0.28033844 -0.3183651 0.13678364 0.30447355
000080 2d 3f 51 bf d6 76 0a bf 77 2d 1c bf b4 b7 95 3f
       -0.81737024 -0.5408758 -0.61006874 1.1696687
000090 0b e5 07 bf 57 d0 b7 3f 09 50 10 3e 8e 0e 3a 3f
       -0.53083867 1.4360455 0.14093031 0.7267846
0000a0 69 d2 6b 3e e9 fc 66 bf 34 96 a5 be 95 08 b5 be
       0.23029484 -0.9022966 -0.32341158 -0.3535811
0000b0 20 36 c7 bf 33 e8 f9 bc d5 0b ab 3e dc 54 21 3d
       -1.5563393 -0.030506229 0.33407465 0.03938757
0000c0 48 e5 db 3e 7c 6e a8 3e cf b8 14 40 9a 33 4d bf
       0.42948365 0.32896793 2.3237798 -0.8015686
0000d0 9f e0 1d bf 9e 19 cb 3f e0 b1 68 bf 6e 60 03 bf
       -0.6167087 1.5867193 -0.90896416 -0.51319015
0000e0 f3 f4 e6 bf 88 27 66 bf ec a1 cf bf b1 82 70 3d
       -1.8043503 -0.8990407 -1.622129 0.058718387
0000f0 62 c5 8a be 1f a6 8e 3d 31 43 9c 3f 40 0c 0d be
       -0.27103716 0.06965279 1.2208005 -0.13774204
000100 fa 97 90 be 86 a8 6b 3f c0 ed 81 3e 7f 52 ae be
       -0.2824095 0.9205402 0.253767 -0.34047315
000110 1a 00 7c 3e 0b 1c 66 3f 7f 6e 33 bf 3d 94 06 3e
       0.24609414 0.8988654 -0.7009048 0.13142486
000120 64 28 e1 bd 7d b7 b3 3c 0c a2 c6 bf 32 fb 02 bf
       -0.10994032 0.02193808 -1.5518203 -0.51164544
000130 d3 fb 84 bf 3a e0 1b bf b3 21 c3 bf e6 e8 ad 3e
       -1.0389351 -0.6088902 -1.5244659 0.3396675
000140 e2 d4 92 be 6a ef b1 3e 22 07 22 bf 59 f1 11 bf
       -0.28678042 0.3475297 -0.63292134 -0.5700889
000150 ec c8 38 3f 4d 92 90 bd bf ad f3 3e c2 e0 a2 3e
       0.7218158 -0.07059155 0.47593495 0.31812102
000160 df 91 70 3f d3 53 39 bf 54 e8 e7 bf 32 46 f7 3d
       0.9397258 -0.7239353 -1.8117776 0.120739356
000170 ff 7f 83 3d 45 ce e9 3f e1 d9 aa 3e 58 3f b1 3f
       0.06420898 1.8266073 0.33369353 1.3847456
000180 94 f3 32 bf 37 43 3b bf 77 b7 ad bf 82 64 aa bf
       -0.6990292 -0.73149437 -1.3571614 -1.3311923
000190 90 ca 08 40 2b 6b 7e bf 0e f3 c6 bf 75 37 da 3f
       2.1373634 -0.99382275 -1.5542924 1.7048174
0001a0 a4 c8 84 bf ad 00 76 bf ba 98 b2 3e 74 f4 84 be
       -1.0373731 -0.9609478 0.34882146 -0.25967753
0001b0 22 3a 88 be a3 70 bc bf 81 e0 fe be 70 9d 63 3f
       -0.26606852 -1.4721874 -0.49780658 0.88912106
0001c0 b6 e3 d6 3f 34 5c ca bf 0b bb 82 bf 15 6c 7a bf
       1.6788242 -1.5809388 -1.0213331 -0.9782117
0001d0 25 4f c0 3e cb 0b 34 bf 05 8d 56 3f ed de f0 be
       0.37560382 -0.70330495 0.8380893 -0.4704508
0001e0 eb fe bf 3c 1d f7 93 3b d9 47 a5 3f 6a 6a a3 bf
       0.023436984 0.004515542 1.2912551 -1.276685
0001f0 c5 82 d7 bd 60 1d 33 be bb 11 75 3f 50 c5 0e 40
       -0.10522989 -0.17491674 0.9573018 2.230793

RNN.weight_ih_l0 f4 [128, 17]
000000 10 20 16 bc 33 a6 8a 3d 79 8b a4 3d e0 65 12 3b
       -0.009162918 0.06769981 0.08034415 0.0022338554
000010 2c db b9 3c 7e e6 8f 3d 90 49 a0 bd ad e6 a7 3d
       0.022687517 0.07026385 -0.07826531 0.08198295
000020 46 72 9c bd 72 42 a4 bd 8d 3e 08 bd 68 13 5d 3c
       -0.076389834 -0.08020486 -0.033262778 0.013493396
000030 e1 0d 15 bd 9a 5e 99 bc a6 5e 36 bd 1e ea 94 bc
       -0.03639019 -0.018721867 -0.044523858 -0.018178042
000040 18 ca 73 bd 8d e7 cd 3b 45 d8 9f bd 24 3c 28 be
       -0.059518903 0.0062837065 -0.07804922 -0.16429192
000050 ec ec 6b be 21 28 62 3d cd f7 22 3e 92 10 bd 3d
       -0.23039597 0.05521405 0.15914841 0.09231676
000060 94 13 18 3c c8 06 5a 3d 0f 11 0e 3e fc 33 c9 3c
       0.009282012 0.053229123 0.13873695 0.02456092
000070 c9 f9 42 be 1e 8f 55 3e a6 25 8d 3d 98 1c 47 bc
       -0.19040598 0.20855376 0.068919465 -0.012152813
000080 51 02 0b 3d 9b 3b 94 bc 1a 4a 97 bd d9 0c 64 3c
       0.033937756 -0.018094828 -0.073871806 0.013919079
000090 6d 73 b7 bd 56 16 41 bd 04 ac ab bd ec 1d 96 bd
       -0.089575626 -0.04714044 -0.08382419 -0.07329926
0000a0 5f 4c 44 bd 05 a3 9b bd b3 93 7f bd 0c 10 25 3a
       -0.047924396 -0.07599453 -0.062396716 0.00062966417
0000b0 b4 b7 96 bd 16 61 d9 bd 38 d4 11 3d c4 07 56 bd
       -0.07359257 -0.10614221 0.03560278 -0.0522535
0000c0 36 e5 01 bd ac dc 10 bb 7c 8f 82 bd c7 b5 89 3d
       -0.031712733 -0.0022104187 -0.06375024 0.067241244
0000d0 d0 60 2b bc a3 9a 5a 3d cb 08 13 bd 52 79 84 3d
       -0.010460094 0.05337013 -0.035897058 0.064684525
0000e0 e6 04 fe bb f4 cd a9 3d d0 9b 98 3d 6c 31 85 3c
       -0.007752049 0.082912356 0.07451594 0.016258918
0000f0 95 c5 90 3d d8 33 71 bd 92 82 b8 bd b0 fd 9d 3d
       0.07068936 -0.058887333 -0.09009279 0.07714403
000100 fc 2f 11 bd 7e 13 b3 3d 8f c6 49 bc 9d 25 bf bc
       -0.035446152 0.08743952 -0.012315406 -0.023333365
000110 67 f4 c2 3d b7 7c 0d 3d 16 57 60 bd 3d c8 8f 3d
       0.09519272 0.034542765 -0.05477055 0.07020614
000120 05 df 22 3c 27 13 17 3c 72 f1 8b bd e7 19 89 3d
       0.009940867 0.009220875 -0.068331614 0.066943936
000130 fb d3 b8 3d 9a e7 75 3d 8a b4 30 bd 58 35 1b bd
       0.09024807 0.060035326 -0.043140925 -0.03789267
000140 9a 23 4f 3d d3 43 ab 3c d3 4d 4a 3b 96 73 d1 3d
       0.05057106 0.020906365 0.003086914 0.102271244
000150 1a 2f 5f 3c c1 a5 8a bc 6b 27 eb bc 4e 37 21 bd
       0.01362207 -0.01692474 -0.02870532 -0.039359383
000160 f7 8f 88 3c d8 eb 06 3e 70 92 a3 3d 60 b8 0c bd
       0.01667021 0.13175905 0.07986915 -0.03435552
000170 03 00 23 bd 50 bc 82 3d 1c 49 7d 3d ec 29 37 3d
       -0.039794933 0.06383574 0.0618373 0.044717714
000180 41 b1 a7 bc ad d1 12 3d 16 0b a9 bd 61 bc 8b 3d
       -0.020470263 0.035844494 -0.082540676 0.0682304
000190 39 ee eb 3b 4e 0e 7c 3d 2d 1d de bc f7 63 3a be
       0.007200029 0.06153708 -0.027113521 -0.18202196
0001a0 7e d3 9d be 97 4d c1 be 07 26 67 3e 4e d2 b0 3e
       -0.30825418 -0.3775451 0.225731 0.3453545
0001b0 ab 28 7d 3e 5f 00 98 3e f1 7e 85 3e a8 e5 3d 3e
       0.24722545 0.29687783 0.2607341 0.18544638
0001c0 5a bf 28 bd 9d bc 9d 3d 55 45 d1 3c 01 0f 8f 3a
       -0.041198112 0.07701991 0.025545755 0.0010914506
0001d0 6d 99 98 bb b0 fe cd bd 15 5c 57 3d 07 8a 35 3a
       -0.0046569617 -0.100583434 0.05257805 0.000692517
0001e0 c6 49 5c bd 9a 5b e1 bc 18 2f 9a 3d d6 ba 31 bd
       -0.053781293 -0.0275095 0.07528514 -0.04339107
0001f0 ec 9b 11 3c 01 19 44 bd 9b e2 2e bd b7 e5 a3 3b
       0.008887272 -0.047875408 -0.042696577 0.0050017494
000200 e0 d5 04 bd ef cd a7 3d ba 6d 22 3e 96 dc c0 3d
       -0.03243053 0.081935756 0.1586217 0.094170734
000210 63 e7 a7 bd ad 15 8f bd 1b e0 7f 3c 1f 75 03 3d
       -0.081984304 -0.06986556 0.015617396 0.032094117
000220 de 04 fc 3c d2 d0 d3 bd 95 c1 b2 bc e9 ef 72 3d
       0.03076404 -0.10342564 -0.021820823 0.059310827
000230 ee 69 5e 3d 32 dd b6 3c 11 17 f4 bc d9 db e4 3c
       0.05430024 0.022322271 -0.029796155 0.027936863
000240 08 b7 6b 3c 06 f1 6b bd 9a 2f 94 bd 9b d3 8a bd
       0.0143869 -0.057602905 -0.07235642 -0.06778642
000250 bd f5 e8 bb d5 7e 50 3d 30 86 b1 3d aa 96 64 3d
       -0.0071093724 0.050902206 0.08668172 0.055807747
000260 5f 33 5f bd d3 67 37 bd 6c 15 79 bd f0 47 0e 3b
       -0.05449235 -0.04477675 -0.060811445 0.0021710359
000270 82 85 27 be 96 21 0a bd 3a 62 d6 3d f0 d0 b0 bc
       -0.16359523 -0.033723436 0.10467954 -0.021584004
000280 ed 48 48 bd f4 43 04 bd 94 63 a9 bb 9f 80 9a bd
       -0.048897672 -0.032291368 -0.0051693413 -0.07544064
000290 c3 2f e9 bd f3 df 22 3e 41 29 a3 bc 8a 6c 8a 3d
       -0.11386063 0.15905742 -0.019917132 0.067589834
0002a0 47 6e 87 3d 95 79 c8 3c ce 61 57 3d 71 e7 51 3d
       0.066128306 0.024472037 0.05258351 0.05124611
0002b0 53 0d fc 3c ae 91 d7 bd d4 4b e1 3c a6 c6 50 3d
       0.030768072 -0.10525833 0.027501978 0.050970696
0002c0 e3 e1 2f 3d 1a fc 8e 3c 8b 47 82 3c 16 ca 9e 3b
       0.04294003 0.017454196 0.015903255 0.004845868
0002d0 a4 99 6b 3d d5 34 ae 3b f6 fc 9c 3c 86 dc ab bd
       0.05751957 0.0053163567 0.01916359 -0.08391671
0002e0 fe e9 a1 3c bd 6c e3 3c be d6 8b bc e3 41 66 bd
       0.019764896 0.027761811 -0.01707017 -0.05621518
0002f0 31 0b 86 bc bc 88 0b 3e 27 e0 63 3e af 0b e5 bd
       -0.016362758 0.13626379 0.22253476 -0.11183869
000300 9d f4 0b be 22 a3 6c bc df 4f 00 bd c2 ac f0 bd
       -0.13667531 -0.014443191 -0.03132617 -0.11751701
000310 56 a3 a8 3b 13 b5 82 bd 0d e7 06 3e 10 3d a0 3c
       0.0051464243 -0.063821934 0.13174076 0.019560367
000320 42 58 b3 3c c3 9c 64 bd 2e 50 84 3b 8d 73 09 3e
       0.02189267 -0.055813562 0.0040378785 0.13422985
000330 2c 77 fb 3c 45 6e 1d bd 15 f0 d5 3b f3 ad e1 3b
       0.030696474 -0.03843524 0.006528864 0.0068871914
000340 48 f1 35 3d e0 06 7e bd 85 15 7f 3d 3e 18 a8 bd
       0.044419557 -0.062018275 0.062276382 -0.08207749
000350 a6 4a 8b 3d 95 2b 86 3d ca 36 67 3c 4d 29 8a 3d
       0.068013474 0.06551281 0.014112184 0.06746159
000360 08 80 8b 3d 15 30 1e bd 17 73 11 bc fa c5 3c bd
       0.068115294 -0.038620073 -0.008877537 -0.046087243
000370 ea fc 80 bd b0 05 36 be 54 e1 11 be 1a fb 1e be
       -0.062982395 -0.17775607 -0.14246112 -0.15525475
000380 6c a0 74 bc 0a 83 0f bd 90 54 91 bd 97 0c 77 bd
       -0.014930826 -0.035037078 -0.07096207 -0.06031474
000390 fa 0a cd bd bc 4b cd bc 43 b2 21 be d3 15 1e 3e
       -0.10011859 -0.025060527 -0.15790658 0.15438013
0003a0 1d 6d f2 3d fd 34 3d bc 1e b0 d0 bd e5 60 83 bd
       0.11837218 -0.011548278 -0.10189842 -0.064149655
0003b0 71 8b 32 bc df fc 43 3d 98 02 f4 3c 09 44 e4 3b
       -0.010897503 0.04784858 0.029786393 0.0069661182
0003c0 e6 4d f7 bd c8 6f 7f be 3c 7b 3a 3e 78 58 84 3d
       -0.12075405 -0.24944985 0.18211073 0.064621866
0003d0 f1 ac 30 3e 42 18 c3 3d 40 e8 60 3e cd 2d 9e 3d
       0.17253472 0.09526111 0.21963596 0.077235796
0003e0 f2 e7 fd 3d 81 5d 8a bb 2f 65 79 bd f8 1d 2d 3d
       0.12397756 -0.0042225723 -0.06088751 0.04226491
0003f0 e8 a5 1c 3c 9e 75 2e bd 43 0a 48 3d 44 4a fb bc
       0.0095610395 -0.042592637 0.04883791 -0.030675061

RNN.weight_hh_l0 f4 [128, 128]
000000 57 4e 8a bd 5f 0b a0 bd 43 45 97 bd 28 c6 e8 3c
       -0.067532234 -0.07814669 -0.073862575 0.0284148
000010 54 01 5e 3d 4d 8d b5 bc 99 8f 0a 3d ef 4a 9e bd
       0.054200485 -0.022162104 0.03382835 -0.07729136
000020 1d 22 96 3a 94 94 6e 3d c2 32 fb bc 09 22 3b 3d
       0.0011454258 0.058247164 -0.030663852 0.045686755
000030 1a 61 55 3d 02 a5 5a bb 7c f5 9d bd d4 b2 31 3d
       0.052094556 -0.0033362512 -0.07712838 0.043383434
000040 44 fd 8d 3c 84 83 1d bc 13 f1 38 3d 24 ea 97 3c
       0.01733268 -0.009613875 0.04515178 0.018544264
000050 b9 b7 eb 3c e6 b3 58 3c c4 30 29 3d 4e 7b c1 bd
       0.02877413 0.013226485 0.041306272 -0.09447347
000060 7d de c2 bc b5 6b a2 3c b0 76 a8 3d ca 77 9a bc
       -0.023787731 0.01982675 0.08225763 -0.018855948
000070 fc 28 6c bb 49 63 2c 3c 6e b8 8a bd 5d 68 b4 3c
       -0.003603517 0.010521718 -0.067734584 0.02202242
000080 26 2a 87 3d 8b 9f 54 3c f3 38 66 bd 48 b0 5d 3d
       0.06599836 0.012977491 -0.056206655 0.054123193
000090 09 77 a8 bd c3 ce d6 3b 24 71 60 bd 64 7e 11 3d
       -0.08225829 0.0065554096 -0.0547954 0.035520926
0000a0 a2 da f6 ba c0 a8 f5 3b 97 f1 0b bd 08 25 ad bc
       -0.0018833468 0.007496923 -0.034165945 -0.021135822
0000b0 c3 84 06 bd c4 d1 86 3c 79 fc e7 3c f8 0d 39 bd
       -0.032841455 0.016457446 0.02831863 -0.045179337
0000c0 fa e7 93 3d a4 64 37 bd fe 3f 24 3d ec b3 18 bb
       0.072219804 -0.044773713 0.04010009 -0.0023300601
0000d0 09 56 0f 3d 7f 3a 39 3d 3f 3a 17 bd 89 64 1f bd
       0.03499416 0.0452218 -0.036920782 -0.038914237
0000e0 4e 24 37 bd 34 96 a9 bd 5b e4 8e 3d c3 df 9f bd
       -0.044712357 -0.08280602 0.06977149 -0.07806351
0000f0 2f 33 d2 bd ee 82 cc bc 83 35 ad bc 20 f5 c4 3b
       -0.10263669 -0.024964776 -0.02114368 0.0060106665
000100 db e2 94 3d 11 c6 8d 3d 08 26 08 3a 1f fc c3 bd
       0.07269832 0.06922544 0.00051936554 -0.09569573
000110 2d 6a 7d bd 3f 04 23 bd 75 46 49 3d 95 cb 60 bc
       -0.061868835 -0.03979897 0.04913946 -0.013720413
000120 d7 39 38 3b 0f 68 60 bd 44 79 13 3d fb db 05 bb
       0.0028110647 -0.054786738 0.03600432 -0.0020425308
000130 ec 75 0f 3d 04 5f 85 bd c3 27 4c 3d 65 dd ce 3c
       0.03502457 -0.065122634 0.049842607 0.025252054
000140 f4 7c 10 3d b2 93 f2 bc 5d 2a 58 3d 97 52 e8 3c
       0.035275415 -0.029611442 0.052774776 0.028359694
000150 d6 60 8a bd 18 75 da bc 42 4a f8 3b ee e9 4b 3c
       -0.06756751 -0.026667163 0.0075772116 0.01244591
000160 03 df 12 3d 12 9d 91 bc ee 77 fe 3c 78 c6 56 bd
       0.03585721 -0.017775092 0.031063046 -0.05243537
000170 92 3b 06 3d 1b 0a a3 3d 12 5b 85 bd ac a8 9a 3d
       0.032771654 0.07960912 -0.06511511 0.07551703
000180 52 7c 02 bd a9 c3 af 3d 52 dd 47 3d 7d 2c 2d bd
       -0.031856842 0.08582241 0.048795052 -0.042278755
000190 1a 69 a1 bd 71 5a 4f 3d d6 07 53 3c 6e bb 82 bd
       -0.07881375 0.05062336 0.012880286 -0.063834056
0001a0 54 ad 9f 3d 4d 2b 80 bc f4 f4 67 3d 0b b4 91 bd
       0.077967316 -0.015645647 0.05663009 -0.071144186
0001b0 8c 35 8e 3c 20 ed 97 3c 9d e4 85 bd 4c 1a 03 3d
       0.017359518 0.018545687 -0.06537745 0.0320075
0001c0 70 7b db 3c a9 31 2e 3d c6 8a a3 bd 06 08 63 bd
       0.026792258 0.04252783 -0.07985453 -0.055427574
0001d0 c2 c3 52 bd 4d 76 9c bd 3d e0 94 3d 30 95 bc 3b
       -0.05145622 -0.076397516 0.072693326 0.005755089
0001e0 75 ac a9 bd e7 9d 18 3d f9 3c b5 3d 25 cd 1d 3d
       -0.08284847 0.037259962 0.0884952 0.03852572
0001f0 2b 7b 8d bd d5 b1 3b 3d ee 28 a0 bc 87 3c d2 bb
       -0.06908258 0.04582389 -0.019550767 -0.006415907
000200 81 e5 48 3d 28 9d 8b 3d d8 f0 4f 3d 10 2d ee bc
       0.049046997 0.068170846 0.050766796 -0.029074222
000210 e1 af f8 bb 24 64 8a bd 67 05 a0 3c 1f c5 29 bc
       -0.007589326 -0.067573816 0.019533826 -0.010361939
000220 2f 3a 69 3d 0a 97 b6 bc c9 6c 72 bd 5b 8d 3f 3d
       0.056940254 -0.022288818 -0.059185777 0.046765666
000230 8c 5f 8e bd 00 bc 0f bd e8 41 ab bc c1 86 7a 3d
       -0.06951818 -0.0350914 -0.02090545 0.061163668
000240 08 35 ab bc 88 d5 74 bd 2d 44 3c 3d e2 46 3a bd
       -0.02089931 -0.05977395 0.045963455 -0.045477755
000250 90 a1 89 bd c4 b8 b4 3d dc 64 b4 3d 3b 43 9f bc
       -0.06720269 0.08824304 0.088083 -0.019441238
000260 d1 03 98 bd 60 96 bc bc 76 af a5 3d 80 1c 2f 3d
       -0.07422603 -0.023020923 0.08090107 0.04275179
000270 6d 26 8d 3d ba 10 82 bd 8c c1 05 3c 53 91 bd 3b
       0.06892095 -0.063508466 0.008163821 0.0057851463
000280 8a f9 61 3d f3 bd 75 3c 37 2d 00 bd 9b e4 1a bd
       0.05516962 0.014998901 -0.03129312 -0.03781567
000290 60 c8 35 3c e9 8b 79 bd 38 f4 94 3d 2e 1e 82 bb
       0.011095136 -0.060924444 0.072731435 -0.003970883
0002a0 bc f8 69 3d cc 11 86 bd 0f 15 ae 3c 83 8c 0d bc
       0.057121977 -0.06546363 0.021250276 -0.008639458
0002b0 ca 3b 89 bc 7f 7b 2e bd 7d 00 2e bd 22 d1 c5 bc
       -0.016752142 -0.042598244 -0.042480934 -0.024147574
0002c0 4d e4 ad 3d 63 5e b7 3c 1d 14 c8 3d ec 3e 92 3c
       0.084908105 0.022383874 0.09769461 0.01785227
0002d0 2a 49 79 3d 65 c8 11 bd 87 5e 3b 3d b9 bc b2 3d
       0.06086079 -0.0355915 0.045744445 0.08727402
0002e0 99 55 85 bd b8 af 90 bb 58 01 31 3d 23 f6 0b bd
       -0.06510467 -0.0044154786 0.043214172 -0.03417028
0002f0 48 a1 75 bd 9e 54 83 bd 02 8b c4 3c 91 11 55 ba
       -0.059968263 -0.06412624 0.023992065 -0.0008127923
000300 50 6a b5 bc 07 ed ac 3d b0 c7 63 bd ca a5 c9 3c
       -0.02214542 0.08443647 -0.05561036 0.024615187
000310 0f ab 81 3d 9c dd 3f bd 2a 84 cc bc 8c 9b e4 bc
       0.06331455 -0.046842203 -0.024965364 -0.027906202
000320 3c 05 5d bd 72 80 05 ba fc 23 41 3d ae f8 cd 3c
       -0.05396007 -0.0005092687 0.047153458 0.025142994
000330 40 91 6c bd 47 c2 7e 3d ed f8 d5 bb 1f 5a 85 3d
       -0.05775571 0.062196996 -0.0065299184 0.0651133
000340 80 1e 73 3d 10 2a 51 bd 6a 29 05 bd 3f 9e a5 3d
       0.05935526 -0.051065505 -0.0325102 0.08086824
000350 76 30 6b bd 2c 20 f1 3c 6f 4f 05 bc 96 88 80 3d
       -0.057419263 0.029434286 -0.008136614 0.06276052
000360 8f 4c 01 3c 87 87 d8 3c a4 e7 9e 3d 8c 93 48 3d
       0.007891788 0.026431812 0.07759026 0.048968837
000370 72 38 48 bc b6 30 9e bd bf d2 10 3c ce 6c 00 bc
       -0.012220489 -0.077241346 0.008839308 -0.007838441
000380 8d c9 04 3d a1 c2 7e bd 44 33 c4 3d 75 87 8a 3d
       0.032418776 -0.06219733 0.09580091 0.06764118
000390 a2 25 7e 3d cb b0 8d 3d c9 9f 03 3d e8 16 b2 3c
       0.06204761 0.06918486 0.032134805 0.021739438
0003a0 82 58 09 3b 4b 3a 1a 3d 16 59 b4 3d bb d8 c3 bc
       0.0020957296 0.03765325 0.08806054 -0.023907056
0003b0 e8 41 7c bc 08 fb 86 bd ce 09 98 bc 05 ea 11 3d
       -0.015396573 -0.06590849 -0.018559363 0.03562357
0003c0 cf 9f 4b 3d af 8f a6 bd 2b 75 e4 bc 2e 68 8e 3d
       0.049712952 -0.08132874 -0.027887901 0.069534644
0003d0 ab 8f f5 3c 76 50 6c bd f6 33 10 bd ca 93 b5 bd
       0.029975733 -0.05769392 -0.035205804 -0.08866079
0003e0 bf b4 42 3d 6f d1 b9 3d 48 8f 8e 3d c4 62 c4 3b
       0.047535654 0.090731494 0.069609225 0.005993219
0003f0 cf 7c a7 3c 33 79 90 3d b1 c7 12 3d 94 73 8b 3d
       0.020445256 0.07054367 0.03583497 0.06809154

RNN.bias_ih_l0 f4 [128]
000000 ec 6f a5 38 8d 09 fe 3c 1c a9 5b bd 5b 1d f9 bc
       7.88866e-05 0.031010414 -0.053628072 -0.030409506
000010 eb 93 55 bd 39 57 93 3d 5f ec 07 3c 62 81 60 bd
       -0.05214302 0.07194371 0.008296101 -0.05481089
000020 42 23 92 bc bf 40 7e bd 7b f8 35 3c 6d c0 53 bd
       -0.017839078 -0.062073465 0.011106606 -0.051697183
000030 90 ce dc bb 0a 0c 88 3d 75 db 54 bd 8e 1e 5e 3d
       -0.0067384914 0.06642921 -0.051967103 0.054228358
000040 7c 57 9f 3d cb da b4 bc dc bb 3c 3c d5 94 c5 bd
       0.07780358 -0.022076985 0.011519399 -0.09647528
000050 79 e6 55 3c ca 1c b1 3d 98 04 8f 3c 54 2b ca 3c
       0.013055437 0.08648069 0.017458245 0.024678864
000060 7e 63 2c 39 4b be 92 3c 05 b9 d7 3c 85 83 bf 3c
       0.00016440262 0.017913004 0.026333341 0.023378143
000070 ef 1d 76 3d 17 54 8a bd ea 16 15 bc d9 4e a3 bd
       0.06008714 -0.0675432 -0.009099701 -0.07974023
000080 a2 7c 5b 3d 28 bb 87 b9 0c 82 e9 3c 0b b2 59 bd
       0.053585656 -0.0002588865 0.028504394 -0.05314831
000090 83 a5 18 3d fd bd 09 3d 88 53 5e bb ba 60 a0 3d
       0.03726722 0.033628453 -0.00339243 0.07830949
0000a0 a6 99 93 3c 33 ac eb bc b2 62 d8 3c 2f 35 c1 3d
       0.018017601 -0.028768634 0.02641425 0.09433972
0000b0 9a a6 7a bd 51 ed 29 3c 2c 5f 93 bc e5 58 8d bd
       -0.06119404 0.010371522 -0.017989717 -0.06901721
0000c0 0c 5a 75 3d 75 c3 7d 3d aa d1 86 3d c2 df 26 3d
       0.05990033 0.06195398 0.06582959 0.040740736
0000d0 68 31 36 3d 6c a2 90 bd 20 47 4f 3d 61 9f bd bc
       0.04448071 -0.070622295 0.05060494 -0.023147287
0000e0 69 b4 b4 3d ea c9 c4 3d a6 78 da bc fa 80 5b 3d
       0.08823473 0.096088246 -0.026668858 0.0535898
0000f0 22 bc 04 bd 95 fb bf 3d ac ab 5c bc 0c 83 7a 3d
       -0.03240598 0.09374157 -0.013468664 0.061160132
000100 79 02 98 3d d2 5d bf bd cb 29 18 bd d6 d6 89 bd
       0.074223466 -0.09344067 -0.037149232 -0.0673043
000110 93 53 31 3d 20 e2 ef 3c ba ac fd 3c e4 86 5c 3d
       0.043292593 0.02928263 0.030966152 0.05383958
000120 00 44 69 3c fc a1 ad 3d 1e 10 2b 3d ad 25 9a 3c
       0.014237404 0.08478162 0.041763417 0.018816793
000130 6e 7e 83 3c f5 0c 6c 3d f8 a5 05 3d 51 3d 45 bd
       0.016051497 0.057629544 0.032628983 -0.04815418
000140 ac 72 a5 b9 99 d8 15 bd 04 24 b6 3d 82 2e bf 3d
       -0.0003155669 -0.036583517 0.08893588 0.093350425
000150 d9 e2 e1 ba f9 82 de 3c 37 3c 97 bd 94 47 13 3d
       -0.0017233744 0.027162062 -0.07384532 0.035956934
000160 b7 1d be bc 50 31 ba bc 09 3c 77 3c c1 0b 49 bc
       -0.023207529 -0.022728592 0.015089997 -0.012270869
000170 ac af c8 3c 25 24 c1 bd 77 1d da bb d4 dc 5b bd
       0.02449783 -0.09430722 -0.0066563445 -0.053677395
000180 75 fe 86 3d ed 80 47 bd 5b 9d a6 3d 6a 92 53 3d
       0.065915026 -0.048706938 0.08135482 0.051653303
000190 b5 df 70 bd 04 b8 71 3c 2c 8f 4a 3d 37 ad 4b bd
       -0.058807094 0.014753345 0.049452946 -0.049725737
0001a0 4a 84 81 3d ee f2 5e 3d 3e 69 28 bc 1a cb cf bc
       0.0632406 0.054430895 -0.010278998 -0.025365401
0001b0 ae 6b 94 bd ad f3 85 bc e5 ac 77 bb 0d de 42 3d
       -0.07247101 -0.016351545 -0.0037792262 0.047575045
0001c0 e9 89 bd 3d aa b2 6a bb 64 ec 4a 3d 26 b0 34 3d
       0.0925482 -0.0035812058 0.049541846 0.0441133
0001d0 24 ff 79 3d 7f 76 1d 3d 4c 43 2b 3d 35 7e 7e bd
       0.061034337 0.038443085 0.041812226 -0.06213208
0001e0 c5 55 83 bd ae f4 ef bc e8 a3 4f bd 19 8b 1e bd
       -0.064128436 -0.029291477 -0.050693423 -0.038706873
0001f0 2e 0c 48 3d 2e 00 f2 3d ec 47 77 bc ce 87 b4 3d
       0.04883974 0.118164405 -0.015092831 0.08814965

RNN.bias_hh_l0 f4 [128]
000000 72 59 94 bd 0b 28 c4 3d 46 2d 43 3c 2c 55 20 bd
       -0.07243623 0.0957795 0.0119126495 -0.039143726
000010 e8 0b 05 3b e1 13 8e bc cb c1 92 3c 82 d4 11 3d
       0.0020301286 -0.017343463 0.017914673 0.035603054
000020 75 31 54 3d 81 67 30 3c 45 d3 d8 3c 75 d3 92 bd
       0.05180498 0.010766865 0.026467929 -0.071692385
000030 dc bb 91 bc 21 26 62 3d 46 35 82 ba 86 7d b6 3c
       -0.017789774 0.055212144 -0.000993409 0.022276651
000040 33 ba fd 3c 7f d7 74 3d 83 b3 08 bd c2 b3 97 bd
       0.030972576 0.059775826 -0.03337432 -0.07407333
000050 83 ca bc bc 3e fc 02 bd bf 0f d6 3d 99 05 7e bd
       -0.023045784 -0.03197884 0.10452222 -0.062017057
000060 45 07 ea bb 1d cd 92 3c 82 d7 2f 3d 06 a9 bc bd
       -0.00714198 0.017920071 0.042930134 -0.09211926
000070 e3 d8 35 bd 69 14 b6 3c 1d bc b4 bc 98 e9 a5 3c
       -0.044396292 0.02222653 -0.022062356 0.020252988
000080 fb 69 f7 bc cd 9e 7a bd 61 6f 43 3d 14 b4 0b b8
       -0.030201903 -0.0611866 0.04771364 -3.3307893e-05
000090 85 8a 8e 3d 57 d5 38 bd 0d 2a 88 bd fc 6a 81 bd
       0.06960014 -0.04512533 -0.066486456 -0.06319234
0000a0 b4 27 27 bc c2 5e 64 bd 6f 07 39 bd 71 97 88 3d
       -0.010202337 -0.05575443 -0.045173105 0.0666951
0000b0 33 bd 98 bd 3f 00 53 3d 5c dd 54 3d 36 bb b1 b9
       -0.07457962 0.051513907 0.051968917 -0.00033899554
0000c0 6e d3 52 bd e1 4d 49 3a fd de be 3c 20 27 04 3d
       -0.051471166 0.00076791464 0.023299688 0.032263875
0000d0 e4 ed 8b bc d1 d3 c0 3d 82 79 b3 3d d4 d5 b4 3d
       -0.017081209 0.09415401 0.0876341 0.08829847
0000e0 19 36 94 3b 7b 9a 29 bc 66 3b a7 3d 9c 5b bd 3b
       0.0045230505 -0.010351772 0.08165626 0.005778743
0000f0 9b f3 63 3d 0e 53 ec bc 70 d4 ac 3d ba 15 11 3d
       0.055652242 -0.028848197 0.08438957 0.03542111
000100 3e 78 c4 bb b6 0e 42 bd 6e 42 7f bd 2a 59 8d 3d
       -0.0059957793 -0.04737731 -0.06231921 0.06901772
000110 42 36 75 3d ed 7d 6e 3c da 4d 98 bc a3 e9 52 3d
       0.059866197 0.01455639 -0.01859181 0.051492345
000120 53 14 b2 3d ae c0 66 3d 33 b6 87 3d 1e 33 01 3d
       0.08695283 0.056336097 0.066265486 0.03154289
000130 9d 1e f8 bc ca 1f b8 3d bf 18 96 3d bc 97 68 3c
       -0.030288035 0.08990438 0.07328939 0.014196333
000140 ec f4 c0 3d 4a e1 4d 3d 77 e9 10 bd c2 76 74 3d
       0.09421715 0.05026368 -0.0353789 0.05968357
000150 c6 4a 69 3d e7 07 97 bd 7b 9f 8e bd 05 42 e7 bc
       0.056956075 -0.07374554 -0.06964012 -0.028229723
000160 17 11 99 3d 9c 30 81 3c b5 7b b9 bd 8a 36 41 3d
       0.07473963 0.01577025 -0.09056798 0.047171153
000170 a6 f3 a5 bd 2c fe 49 bd d8 7b 14 bd c7 2b 40 3d
       -0.08103113 -0.049314663 -0.03625092 0.04691675
000180 08 9e 27 bd be 80 72 bd d0 96 96 3d 2e 32 49 bd
       -0.040922195 -0.05920481 0.07352984 -0.04912012
000190 5c 84 8f bd 3f 5d b3 3c 32 9d 2d 3d 84 64 58 3c
       -0.070076674 0.02189505 0.04238624 0.013207559
0001a0 52 28 c3 bd 3c c9 57 bb a4 7b b0 3d 5e 3c 5a bc
       -0.09529175 -0.0032926342 0.086173326 -0.013320057
0001b0 ad 1c 91 3d aa 27 0d 3e 63 8c fc 3d 7d d0 cc 3b
       0.070855476 0.13784662 0.12331464 0.0062504397
0001c0 c5 ed ac 3d 3a 19 73 3c fb 0a d0 bc f3 80 18 3d
       0.084437884 0.014837557 -0.02539586 0.03723235
0001d0 30 17 3a bd 8d b8 e3 bc c4 a4 90 3d 36 1a a5 bd
       -0.04543227 -0.027797962 0.070626765 -0.0806164
0001e0 7b 3d be 3c 3b ab ca 3d 32 56 77 3d 59 4c 29 3c
       0.023222676 0.09895941 0.060384937 0.010333144
0001f0 74 eb 8a 3c 6d d6 0b 3d 2e e0 ae 3d 52 10 0b 3d
       0.016957976 0.03414004 0.08538853 0.03395111

actor.weight f4 [3, 128]
000000 6a 5d 00 be 37 98 e2 3d 66 57 57 be d4 fa 60 3e
       -0.12535635 0.11064189 -0.21029434 0.21970683
000010 d4 64 4c 3e 61 93 87 3d 44 a5 95 bc f4 ae 26 bd
       0.19960338 0.06619907 -0.018267281 -0.040694192
000020 dd f9 c7 3c 20 1b b7 3d 37 0a ff 3d 8f 25 01 be
       0.024411136 0.089407206 0.1245312 -0.12611984
000030 10 e6 04 be 3d bd 5e be f1 7f c1 bd d0 13 af bb
       -0.12978387 -0.21751876 -0.09448231 -0.005342938
000040 11 88 eb 3d 54 95 f3 3d 42 a1 08 3e ad 54 8d bc
       0.11500562 0.118937165 0.13342765 -0.01725229
000050 a6 a0 42 bb 2f 88 8d 3e d3 97 2b be 8f 75 4d bc
       -0.0029697805 0.27642962 -0.16757135 -0.012540235
000060 a5 22 22 3d 1c 9e 19 3d a7 8d 14 3d c9 24 fa 3d
       0.03958382 0.0375043 0.036267903 0.122140475
000070 a9 98 7c b9 78 0e 90 3e ae 2a bd 3e 3b 6e 39 be
       -0.00024089463 0.2813604 0.36946625 -0.18108456
000080 a4 50 34 bc eb c6 e0 bd df 04 31 3d e3 cf 70 3d
       -0.011005554 -0.109754406 0.043217536 0.058792006
000090 9f 65 02 3d ee 98 0e 3d ca 05 4b 3e 22 65 81 3e
       0.031835195 0.034813814 0.19826427 0.2527247
0000a0 dd 8c ab bd 3a 0d ab 3d 80 1a 40 be 0f 14 f1 3d
       -0.08376477 0.08352132 -0.18760109 0.11771404
0000b0 7c 61 d7 3d 8a 32 80 bd cf 67 55 3c 04 76 8e 3e
       0.105166405 -0.062596396 0.013025238 0.27824414
0000c0 21 48 44 3e 31 d4 99 3d 50 28 90 3d 75 3b 7a bd
       0.1916814 0.075111754 0.07038939 -0.06109186
0000d0 dc 75 22 be 72 c7 0a 3d e8 4a 4a bc 55 15 06 bd
       -0.15865272 0.033881612 -0.012346961 -0.032735188
0000e0 b4 5f f7 b9 37 2e 61 3e 56 00 ca bd d7 10 8c 3d
       -0.00047182816 0.21990286 -0.09863345 0.068391494
0000f0 71 20 30 3e 6b 7b 93 3e b8 bd 32 be 60 99 34 3e
       0.17199875 0.28805098 -0.17455184 0.17636633
000100 4d b1 e9 3d 1e fd 5c bc 3c f4 75 bd 2f 10 60 be
       0.114107706 -0.013488082 -0.060047373 -0.21881174
000110 31 4c 08 be 5c cd ef 3c b4 42 4c be 6a e5 62 3e
       -0.13310315 0.029272728 -0.1994732 0.22157827
000120 13 c3 ff 3d 54 e5 c2 3d 06 fd 4e bd db 99 fe bc
       0.12488379 0.09516397 -0.05053427 -0.031079223
000130 ef 86 24 3e 61 25 41 be cc f7 68 be cc c3 85 3e
       0.16067098 -0.18861915 -0.22750777 0.26125944
000140 ad af 09 3e a1 5b 0d bd fc 96 85 3d b0 00 09 3c
       0.13445921 -0.034511212 0.065229386 0.00836198
000150 6c e1 f4 3d 20 36 d5 bd 00 aa 1f 3e 11 8c cd bc
       0.11957058 -0.10410714 0.15592194 -0.025091203
000160 56 5c 04 bb 3b 78 a2 3d 3b 09 97 bd 30 be 18 3e
       -0.0020196638 0.079330884 -0.073748074 0.14916301
000170 3e 1a 59 3e ed 8a 9c 3d ad 63 a0 be a3 c2 59 bb
       0.21201417 0.076436855 -0.31326047 -0.0033227585
000180 fd f2 d8 3d df f8 a6 bd 5e 92 4d bc f6 d7 f3 3d
       0.10593221 -0.08152937 -0.012547104 0.11906426
000190 20 29 08 bd 2f e8 c6 3d 52 74 a1 3d 65 af 9e bd
       -0.033242345 0.09712254 0.078835145 -0.077482976
0001a0 47 82 1a be 05 ce c7 3d ce 5c fa 3d 81 3a 09 3d
       -0.1508876 0.09756092 0.12224732 0.03350306
0001b0 a6 ea f3 bc a5 10 62 3e 15 f5 41 be 6a fe 84 3e
       -0.029774975 0.22076662 -0.18941148 0.25975353
0001c0 ff 21 bf 3d 46 f5 82 3d 16 d7 82 3d d9 6a 66 3c
       0.09332656 0.063944384 0.06388681 0.01406356
0001d0 6a fe 5d bd 68 42 0c bd 0c ff 85 be 21 5c 09 3e
       -0.054197706 -0.034243017 -0.26171148 0.1341405
0001e0 ed ba 4e 3e 56 ca e3 3d 38 ba 0e be 14 52 2f be
       0.20188494 0.11122577 -0.13938224 -0.17121154
0001f0 f4 c6 4d bd 0f bb 7b be 35 61 05 be 9b 88 02 bd
       -0.050238565 -0.24583076 -0.13025363 -0.03186856
000200 24 80 40 3e 94 85 02 be de 76 4e bd 78 d0 81 3d
       0.18798882 -0.12746269 -0.05040633 0.063385904
000210 57 94 2c be ed a4 47 3d 69 8b 53 bd ce 44 5f 3e
       -0.16853462 0.04874127 -0.051646624 0.2180359
000220 62 8e 84 be 15 e2 9b bd 7c 1b 3f 3c da c8 0c 3e
       -0.2588988 -0.07611481 0.011664268 0.13748494
000230 c9 69 f1 bd 49 e4 3d 3d 28 d0 05 be b4 ef c3 3d
       -0.11787755 0.046360288 -0.13067687 0.09567204
000240 91 c7 7d bb 38 f9 b4 bd e1 f8 47 be 1f ef 6b bd
       -0.0038723687 -0.08836597 -0.19528534 -0.05760109
000250 6e eb 2c 3e ff a5 a7 bd a1 b3 02 3e 79 f7 9e bd
       0.16886684 -0.08185958 0.12763835 -0.077620454
000260 ae 61 a5 bd cb 88 a8 3e e3 3f 1b 3e 4e d5 f5 bd
       -0.080752715 0.32916865 0.1516109 -0.12003575
000270 a2 2a e4 3c 8c 36 32 bc 98 ee cf bd 7f f0 0b be
       0.02785236 -0.010877263 -0.1015293 -0.1366596
000280 57 93 e1 bd 46 14 28 3e 31 fc ec bc c7 b0 a4 3d
       -0.11014431 0.16413984 -0.028928848 0.0804153
000290 a7 1b 36 bc 09 b0 3c be 63 02 d7 bd 5c cd 07 be
       -0.011114991 -0.18426527 -0.10498502 -0.13261932
0002a0 c7 a9 68 3d 90 14 1e be 7c c8 2e 3e 81 03 82 bd
       0.056802537 -0.15437531 0.17068666 -0.063483246
0002b0 8f f6 3b bd 8b e4 f2 3d cb 27 a0 be f9 01 19 be
       -0.045889433 0.11859997 -0.3128036 -0.14942159
0002c0 d6 de 07 be 83 85 3e be 6e a4 0f bc 25 cb 24 3e
       -0.13268599 -0.18605618 -0.00876723 0.16093118
0002d0 c1 d0 22 be f7 cb 54 bb 0f af f8 3d e7 ff 38 3e
       -0.15899946 -0.0032470205 0.12142765 0.18066369
0002e0 c6 21 eb bd 22 f8 a7 bd 89 e7 de bd f9 28 e3 bd
       -0.11481051 -0.082016245 -0.108840056 -0.11091799
0002f0 e8 95 e5 bd 56 99 15 be b7 81 32 bc 70 ed 47 be
       -0.11210233 -0.14609274 -0.010895184 -0.19524169
000300 53 e6 e5 3d 3c 2e 05 3e 85 10 2c bd 01 20 a0 3e
       0.112255715 0.13005918 -0.04200794 0.31274417
000310 dc 2b 43 3e a1 4e 3e bd 8f 21 eb 3d b7 2c 83 be
       0.190597 -0.046461705 0.1148101 -0.25620052
000320 3d e3 14 be 16 47 b2 3d 7c cc 0a 3e d4 e2 57 3e
       -0.1453981 0.08704965 0.13554567 0.21082622
000330 a0 c2 54 be f6 59 3b 3e 87 59 81 3d 47 33 0e bc
       -0.20777369 0.18296036 0.06315904 -0.008679218
000340 a6 ef bc 3c a0 75 89 3e e4 69 05 3e 09 20 7b be
       0.023063492 0.26847553 0.13028675 -0.24523939
000350 9a 9f de bd 14 05 7f bc 5b 64 9f be d6 6f 8a 3e
       -0.10870285 -0.015565176 -0.31131253 0.2703845
000360 48 f1 1e be d3 e0 dd bd f1 8b 19 bd 5e 24 3b 3d
       -0.15521729 -0.108338974 -0.037486974 0.04568898
000370 5e 31 8d bb 01 23 7b bd 1a 3f 1b 3e fa bd d9 bd
       -0.0043088635 -0.06131268 0.1516079 -0.10631938
000380 cb d1 70 bd 28 87 41 bd fd d0 eb 3d 9f 01 e7 bd
       -0.058793824 -0.047248036 0.11514471 -0.11279606
000390 97 77 20 bd 2a 5d 40 bd 4b 5a 89 bd 13 23 d0 3d
       -0.03917655 -0.04696385 -0.06706675 0.1016294
0003a0 0b cf 8f 3d 8a 85 9c 3e cf 05 1f 3e 03 f1 df 3d
       0.07021912 0.30570632 0.1552956 0.10934641
0003b0 48 64 d2 bd 9e 89 92 be 79 7f 6e 3d 49 e3 d9 3d
       -0.102730334 -0.2862062 0.058227036 0.10639054
0003c0 39 63 15 bd 32 14 ef bd 2e 7a 66 be 89 54 4d 3e
       -0.03647158 -0.11673774 -0.22507545 0.20051779
0003d0 69 ca 05 3e 1e 3c 1f 3e 8e f7 ea 3d 68 ec 95 bd
       0.13065495 0.15550277 0.114729986 -0.073204815
0003e0 b0 21 6e be fa cb dc 3d 56 bb 1c be c0 24 3e bd
       -0.23255038 0.10781093 -0.15305838 -0.046421766
0003f0 92 71 5e 3d bf d4 c8 3d cd 7e 89 3e 35 d5 b6 3e
       0.054307528 0.09806203 0.26854554 0.3570954

actor.bias f4 [3]
000000 ae 90 11 3d bc 35 80 bc 07 e6 e2 bc
       0.035538368 -0.015650623 -0.027697576

critic.weight f4 [1, 128]
000000 6e 2b 1a be 86 29 17 be 01 77 7e bd 73 ab 79 bd
       -0.1505563 -0.14761934 -0.06212521 -0.060954522
000010 6e 31 17 bd 48 a2 e3 bd 9a 7f 75 be ad 1b d8 bd
       -0.036912374 -0.11114937 -0.23974457 -0.10552154
000020 d4 d9 83 3c d6 72 a2 bd cf 3a b0 bd 82 c5 b9 3c
       0.01609508 -0.079320595 -0.08604967 0.022677187
000030 12 1e 3e bd a7 2e 1d 3e 0d 1a 34 3d 86 46 d3 3d
       -0.046415396 0.15349828 0.043970156 0.10316186
000040 9d 70 86 bc 71 02 83 bc a7 e8 d2 bd 40 4f 24 be
       -0.01641112 -0.015992375 -0.10298281 -0.16045856
000050 df aa 92 bd 96 8e 35 3a 1a a4 36 3e 3d e9 4f 3d
       -0.07161497 0.0006925849 0.17836037 0.050759543
000060 66 27 42 3d b1 66 84 3d 07 d4 9c 3d 2d 08 e5 3d
       0.047400855 0.06464899 0.076576285 0.111832
000070 27 4a 29 be cc 44 89 bd 3e 53 14 bb ea ad 91 3d
       -0.16532193 -0.06702575 -0.0022632624 0.071132496
000080 51 6e d3 3d f6 32 87 be 98 55 15 3e c7 01 3b bd
       0.103237756 -0.26406068 0.14583433 -0.045655992
000090 3e 4c 3d 3d 27 cc e0 3d bc d8 be 3d da ae 3f be
       0.04621529 0.10976439 0.093186826 -0.18719044
0000a0 87 52 a5 3b e3 2b 44 be 85 7e c2 3d f5 c1 50 3e
       0.0050452384 -0.19157366 0.09496788 0.20386489
0000b0 eb e3 79 bc 61 87 43 be c4 2a f9 3d f5 7a 52 be
       -0.015252094 -0.19094612 0.1216636 -0.20554717
0000c0 ad c1 19 3e 43 91 20 be 7c b0 05 3e fb 16 ed bd
       0.15015288 -0.15680413 0.13055605 -0.11576649
0000d0 e7 28 fd 3d 67 5f bf 3d 0c 15 cc bd 53 6c 88 bc
       0.12361317 0.093443684 -0.09964952 -0.016653216
0000e0 ad 20 fb bd ad 31 26 3e ba 68 28 bd 54 7c 52 be
       -0.12262092 0.16229887 -0.0411155 -0.2055524
0000f0 8b ab 19 be ee 3f 42 3b 80 e7 62 bc 43 44 04 be
       -0.15006845 0.0029640156 -0.013849139 -0.12916665
000100 73 b6 f9 3c 78 41 ca 3d 44 f3 bc bd 17 70 56 3c
       0.030482506 0.098757684 -0.09226087 0.013088248
000110 cc 5f e8 bd e6 2e 2e 3d 6c 02 18 3c 7c 20 20 bd
       -0.11346397 0.042525195 0.009277921 -0.03909348
000120 2c a0 b0 bc 24 eb aa bd 45 69 7c 3d 78 e4 79 3d
       -0.02156075 -0.08345631 0.06162383 0.0610089
000130 d6 af 1f 3e b5 fc 7d bd 07 6d c0 3d 4d cd 62 3d
       0.1559442 -0.06200858 0.09395795 0.05537157
000140 02 2e 81 bd 97 23 3a 3d ea d8 4a 3d 4b 1f d7 bd
       -0.063076034 0.045444097 0.04952327 -0.105040155
000150 28 80 73 3d 43 bb 02 bc 01 13 bb 3c 71 3d 39 bd
       0.05944839 -0.007979217 0.02283621 -0.04522461
000160 7c 80 be 3d 66 cf 4f 3d b5 bd 71 3e 0a 74 18 bd
       0.0930185 0.0507349 0.23607524 -0.03722004
000170 83 ff 9e bd 50 1c f7 bc fd 8f 4a 3e 51 5b 68 3d
       -0.07763579 -0.030164868 0.1978149 0.05672771
000180 ec 68 21 bd b1 de 3b 3d 3f 8a 98 3d 28 73 d9 bd
       -0.039406702 0.045866672 0.07448243 -0.106176674
000190 6a 0d 89 bc c6 a7 37 3c 7b b7 70 3d 6a 8e 1b be
       -0.01673003 0.011209434 0.05876873 -0.15191045
0001a0 f2 ca 03 bd 6d df da 3d f3 e1 de 3d 78 63 89 bd
       -0.032175966 0.10687146 0.1088294 -0.06708425
0001b0 00 bb ba bd 54 0d 45 3e fd ed 74 3d 2e 6d 0d 3d
       -0.09117699 0.19243366 0.059797276 0.03452795
0001c0 0f fa 0a bc 1a e5 8b bd fe 69 dc 3d e5 b8 bc bd
       -0.00848247 -0.06830807 0.10762404 -0.09214953
0001d0 83 8f df bd 27 af 87 be 8c a4 20 bd 5b 0b 69 3d
       -0.109160446 -0.26500818 -0.039219424 0.056895595
0001e0 a2 76 20 3e b3 8b 82 bc 32 d9 a7 bc a9 e4 b1 bd
       0.15670255 -0.015935754 -0.020489309 -0.086861916
0001f0 46 90 e4 bd 37 e9 31 3e c3 4c 27 3d bb 13 2f be
       -0.111603305 0.1737412 0.04084469 -0.1709737
