W__RNN/W_RNN/md2/v_3/train_iter_5000.pt (torch, 80523 bytes, 8 tensors)

h0 f4 [128]
000000 1d b6 91 3e 55 fa 5f bf 7b fe af bf 6b c7 51 be
       0.28459254 -0.8749135 -1.3749536 -0.20486228
000010 28 86 2a bf 06 8f 83 3d 9f 1d 50 3f dc 65 12 be
       -0.66610956 0.06423764 0.812952 -0.14296669
000020 60 68 29 3f cf 94 07 bf 20 ef 33 40 6c 8c 39 be
       0.6617489 -0.5296144 2.81147 -0.18119973
000030 21 7f c3 3f a2 43 7e bf d0 b5 da 3f 63 74 ba bf
       1.5273172 -0.9932195 1.7086735 -1.4566768
000040 c3 6e b8 3f 0e 6b f7 be 7b be c5 3f 66 25 35 bf
       1.4408802 -0.48323864 1.5448755 -0.7076019
000050 a5 54 e9 3e fc 2f ae 3f 23 47 21 3e bc a4 c1 3f
       0.4557239 1.3608394 0.15749793 1.5128398
000060 f2 2a 92 3f 74 1a 80 3e 9d 88 87 bf 5b 1a 0b bf
       1.1419356 0.25020182 -1.0588566 -0.5433709
000070 1b f5 cd be 39 5d ba be 8b f3 ce bf f7 69 9e 3f
       -0.40226063 -0.36399248 -1.6168073 1.2376088
000080 6a 69 8b bd 62 03 73 3f 05 47 49 bd b6 4b 38 bd
       -0.068072155 0.94927037 -0.049139995 -0.04499408
000090 b3 b0 b6 3f d5 46 4a bf c5 fe 9a 3f e8 7c 12 bf
       1.4272674 -0.7901433 1.2109 -0.5722184
0000a0 ff 51 17 3f 9f 91 84 be 99 f3 a6 3f a5 79 d7 be
       0.5910949 -0.2589235 1.304309 -0.42084995
0000b0 76 27 fa 3c 27 30 87 3f b0 45 41 bf 23 7a ee be
       0.030536395 1.056157 -0.7549696 -0.46577558
0000c0 19 40 94 bf 23 10 0d bf 4a bd 55 3f 86 79 c8 3f
       -1.1582061 -0.5510275 0.8349196 1.5662086
0000d0 4c 64 24 bf 19 10 8f 3e 0a b3 9c 3e c3 ee 1d be
       -0.6421554 0.2794197 0.30605346 -0.15423112
0000e0 1c 03 0f be 9a 22 3a bf ec 46 17 40 f7 e5 6e bf
       -0.1396603 -0.7270905 2.3637037 -0.9331965
0000f0 78 87 69 bf e8 9c 37 3f 09 b8 75 3f 7f 9a 6a 3f
       -0.91222334 0.71723795 0.9598394 0.9164199
000100 0c 0b 33 3f 46 7c 37 3d bc e2 0b bf 88 d9 45 3e
       0.6993873 0.04479625 -0.54642844 0.19321263
000110 aa 14 28 40 c8 f1 e1 3d 56 26 93 bf f7 46 73 be
       2.6262612 0.11032444 -1.1496074 -0.2375754
000120 d1 9c 92 3f 32 44 d5 bd 77 a2 82 bf 54 0c 88 3f
       1.1454107 -0.10413398 -1.020583 1.0628762
000130 b2 0f a1 3e c4 75 1c bf 6d 1e 98 3f 45 31 dd 3b
       0.31457287 -0.61117196 1.1884285 0.006750258
000140 40 64 97 3e ed 0c 7f bf ef 63 95 3e f1 cd 85 3e
       0.29568672 -0.996291 0.29177806 0.26133683
000150 0e fb 1b bf ba d3 26 3f 80 ef 14 bf 58 60 1c be
       -0.60929954 0.6516682 -0.5817795 -0.15271127
000160 e8 bd d2 bf 64 fe 18 3e a6 94 07 3f d1 17 ed bf
       -1.6464205 0.14940792 0.52961195 -1.8522893
000170 51 1d 1f 3e 22 4d 97 bf 57 cb 16 3f e2 e1 ab be
       0.15538527 -1.1820414 0.5890402 -0.33570772
000180 6e 9b 58 bf a1 c7 fa be 26 1d 51 3f ab a9 2e 3f
       -0.84612167 -0.4898043 0.816851 0.6822764
000190 4b 08 58 bf 39 a2 22 3f 9f d1 8b bf de cf 56 3f
       -0.84387654 0.6352878 -1.0923346 0.8391093
0001a0 2c 4d 09 c0 cf 7f 29 3f c9 5d 65 3f ec 5a ba be
       -2.1453352 0.66210645 0.8959623 -0.36397493
0001b0 b3 6d eb 3e 68 90 19 c0 9c 72 5f be 65 d5 bd 3d
       0.4598213 -2.3994389 -0.21821064 0.092692174
0001c0 ca a4 37 be 85 52 95 3e 98 a4 fc bd a2 c0 24 3f
       -0.17933956 0.2916452 -0.12336081 0.64356434
0001d0 f4 f7 0f 3e 65 f9 19 40 48 7f 73 bf c3 0f f2 be
       0.1405943 2.4058468 -0.9511609 -0.4727765
0001e0 a2 58 29 be 2d ae ad bf d6 7b b2 bd 11 26 98 bf
       -0.16537717 -1.3568779 -0.08715026 -1.1886617
0001f0 c7 bd 35 c0 3a cf ff bf fc 41 ba 3f 09 15 b5 3e
       -2.839708 -1.9985116 1.4551387 0.3536761

RNN.weight_ih_l0 f4 [128, 17]
000000 b5 e3 86 bd ee b1 97 3e 07 ef af 3d 36 a9 d1 3e
       -0.065864004 0.29627937 0.08590513 0.4094941
000010 5b f2 11 be 12 5e bd 3c 99 04 54 3d ce 51 c5 be
       -0.14252608 0.023116145 0.051762197 -0.38538975
000020 55 af cb be a3 3a a7 be b4 07 12 be 9b 2b e4 3e
       -0.39782205 -0.32661924 -0.14260751 0.44564518
000030 22 dc 0e 3e 75 ce 51 bd 73 24 97 3d d2 22 82 bd
       0.13951162 -0.051222283 0.07379999 -0.06354298
000040 75 23 c7 3e 5b 71 60 bc 1d 1f d8 bd 2a 5e 57 be
       0.3889424 -0.013698901 -0.105528094 -0.21032014
000050 f1 72 97 be 2f a8 a3 3c f4 97 6d be 2e 92 b1 bb
       -0.2957988 0.019977657 -0.23202497 -0.0054190373
000060 92 0a 14 3f 94 5f bc 3e cb 38 9f 3e de fb 2d bc
       0.5782863 0.3679167 0.31098017 -0.010619132
000070 88 f8 ac 3c 39 e6 26 3e 9d 09 a9 bc 1c ac 71 3d
       0.021114603 0.1629876 -0.020634467 0.059002027
000080 db 22 dc bd ee 81 55 bd 56 88 45 3e 75 ba bd 3d
       -0.10748836 -0.052125864 0.1929029 0.092640795
000090 ec b0 a6 bd 17 21 80 be 37 a2 48 3e d3 f8 a3 3c
       -0.08139214 -0.25025246 0.1959313 0.02001611
0000a0 d2 1a dd 3c 5f e0 a7 ba ef e8 69 3d dc 84 c0 3c
       0.026990328 -0.0012807957 0.05710691 0.023500852
0000b0 ec 16 78 be 94 85 d4 bd e4 53 f9 3e 96 45 74 be
       -0.24227494 -0.103770405 0.48696816 -0.2385467
0000c0 0d 17 8e 3d 4e c9 26 3b 1d 9c a7 3d 21 31 ba bd
       0.0693799 0.0025449577 0.08184073 -0.09091402
0000d0 7b 1c d9 3c 71 1d 86 3e 0c 52 15 3f 93 b2 d0 bc
       0.026502838 0.26194337 0.5832832 -0.025475776
0000e0 8b 06 06 3d cd b8 b1 3e 3e d3 09 be ca 9f 36 bd
       0.032721084 0.34711304 -0.13459489 -0.04458598
0000f0 a8 80 9b bd 1c 53 5e bd 3a 8e 97 bd dc d2 15 be
       -0.075928986 -0.054278478 -0.074001744 -0.14631218
000100 4c 5f 38 3e 8f 83 94 3d bd e6 32 be e4 b6 07 bd
       0.18005103 0.07251655 -0.17470832 -0.033133402
000110 93 f7 b6 be 13 b4 07 bd 0a 49 05 3d 9e 2f 0c bd
       -0.3573576 -0.033130717 0.03254036 -0.0342251
000120 24 a5 82 3d cc ee 11 be e9 a4 77 be fe 26 6c 3d
       0.06379154 -0.1425125 -0.24184002 0.057654373
000130 c2 4a a6 3d 8a b7 25 bd fe 0d bb 3e 48 ad b6 3d
       0.08119728 -0.04045824 0.36534113 0.089197695
000140 7b 29 0f be 85 78 1a 3d fd 7a 74 3d 87 9a 32 be
       -0.13980667 0.037712593 0.059687603 -0.1744176
000150 1a c4 06 3d 8d d8 b6 bc 46 30 6d 3d 5c c5 58 3e
       0.03290186 -0.022320056 0.057907365 0.21169037
000160 b9 ff 21 3f 45 12 3d bc 9f 40 cc bd 81 c4 23 be
       0.63280827 -0.01154 -0.09973263 -0.15992929
000170 68 6a 32 be 7d aa b8 bd 9e 97 55 bd cf b9 02 bd
       -0.17423403 -0.09016893 -0.052146547 -0.031915482
000180 52 76 08 bf c0 91 8b 3e 3e 4b 83 be 93 13 63 3d
       -0.5330554 0.27259636 -0.25643343 0.05543859
000190 a6 e4 17 3d 2d ba 04 be bc 23 61 3d 7b 5b 2f 3d
       0.03708329 -0.12961645 0.05496572 0.042811852
0001a0 78 5f 5e 3e 85 44 93 bd f6 ac 26 be 6b 5e b3 3c
       0.21716106 -0.071908034 -0.16276917 0.021895608
0001b0 2c 2e e6 bc de de db bd f2 47 b9 bd 5a dc f5 bd
       -0.028098188 -0.10735868 -0.090469256 -0.12004919
0001c0 e5 d1 a6 3d ef 2a e3 3e ef 95 00 be 51 90 31 bd
       0.08145503 0.44368693 -0.12557195 -0.04335052
0001d0 e3 cd 01 3c 82 4f a6 bd 1d b6 73 3e 79 36 8a 3d
       0.007922622 -0.08120634 0.2379994 0.06748671
0001e0 95 62 3e be 07 a2 64 3e 64 e1 c4 3e 63 cd 84 be
       -0.18592294 0.22327434 0.3845321 -0.25937948
0001f0 e6 60 bd be de af 70 be a3 8c 0b be 76 c6 12 be
       -0.3698799 -0.23504588 -0.13627867 -0.1433352
000200 4d ad b4 bd c2 1b 72 bc 82 44 18 bd 04 45 0b 3e
       -0.08822117 -0.014777126 -0.03717471 0.13600546
000210 45 09 1a be 50 3e 18 ba 56 72 b5 bb 13 8d 50 bd
       -0.15042599 -0.0005807625 -0.0055373115 -0.05091579
000220 cb 16 59 3e 6a 07 58 3d 83 83 b9 bc a6 e5 25 3d
       0.21200101 0.052741446 -0.022645717 0.040502213
000230 3a 41 29 bd b4 69 03 3e e9 45 75 3e 3e ba e7 bd
       -0.04132197 0.12833291 0.2395245 -0.1131482
000240 c7 53 d2 bd 2a 16 22 be 80 43 c2 3c d2 8d a0 be
       -0.102698855 -0.15828767 0.023713827 -0.313582
000250 0f 74 95 be d2 20 1e bc 36 e9 32 bd 94 df da 3d
       -0.29190108 -0.00965138 -0.04367944 0.106871754
000260 34 65 3a bd 9d ae 04 3e 69 9b ed bd 16 52 f2 bd
       -0.04550667 0.12957235 -0.11601908 -0.11832063
000270 56 87 3e bd 97 1e cc bc 65 2c fc 3c ee 57 a5 bd
       -0.046515785 -0.02491693 0.030782888 -0.08073412
000280 ce ad 3b bd d4 38 0a 3c cf 4b 87 bd 21 e2 e1 bd
       -0.04582005 0.0084364 -0.06606256 -0.11029459
000290 86 95 82 be ed ff 00 3e 49 40 22 3d e0 7a ba 3d
       -0.25504702 0.12597628 0.03961209 0.09105468
0002a0 03 9a e0 3d 0c 5e d1 bd d4 5e 21 be 3d c3 38 be
       0.109668754 -0.10223016 -0.1575883 -0.18043227
0002b0 55 73 f8 bd 39 0b 0e be 70 96 e3 3d 2f 44 9f bd
       -0.12131373 -0.13871469 0.11112678 -0.07776677
0002c0 26 ac 5a be 7d 35 e0 3d ae e6 3d 3e 16 51 07 3e
       -0.21354732 0.10947702 0.18545029 0.13214526
0002d0 58 c1 05 3e 3c 5c 32 3d cc 20 7e bd de 08 a3 bd
       0.13062036 0.043544993 -0.062042996 -0.07960676
0002e0 81 99 ee 3c 2b a8 eb 3c 70 4b d1 bd c5 bc 23 3e
       0.02912593 0.028766712 -0.10219467 0.15989979
0002f0 4a 27 97 bd d9 9a d6 bc b6 bc 01 3d 7d 50 03 be
       -0.07380541 -0.026196884 0.03167411 -0.12823673
000300 5f 81 4d be 66 9d a0 3d 6c bf dd 3c 0a 87 34 3b
       -0.20068882 0.07842521 0.027068816 0.002754631
000310 33 bd 77 bd 8c c2 3b be d0 7b 9a be cd dd c1 3d
       -0.06048317 -0.18335932 -0.30172586 0.09466133
000320 a1 82 2a be ce 11 04 3e 01 be 03 3d eb 83 68 bc
       -0.16651393 0.12897417 0.032163624 -0.014191608
000330 8f 5a 99 3e 03 da 41 be 3d 19 82 3e 72 99 1a 3f
       0.29951903 -0.18930821 0.2540988 0.6039039
000340 2d 9a 81 be 88 f8 ce be fb be 63 3e 4c bd 2a 3d
       -0.2531294 -0.4042399 0.22240822 0.041684434
000350 ee 30 f5 bc 8b 61 3c bd e8 a0 91 be 99 20 30 be
       -0.029930558 -0.04599146 -0.28443074 -0.17199935
000360 b5 61 81 3e 73 98 99 be 2e 94 96 bb 03 8a f3 3c
       0.25269857 -0.29999122 -0.004595301 0.029728895
000370 46 e3 41 bd d3 b3 76 be 02 ec 56 3c 42 55 91 be
       -0.047335885 -0.24092035 0.013117792 -0.2838536
000380 6d 4c c1 be 01 5a cd 3e 84 dc cd 3d c2 dc e7 3d
       -0.3775362 0.4010773 0.10051826 0.11321403
000390 11 c2 88 3c 0c 21 a6 3d 4e 2d 4c 3e bd 14 4b 3e
       0.0166941 0.08111772 0.19939157 0.1983213
0003a0 d4 9d ab 3e 52 24 61 be d3 29 6a 3d 6c f2 21 3c
       0.3351885 -0.21986511 0.057168793 0.009884458
0003b0 68 d3 78 be bd ac 9b 3e bc 74 71 bd b6 0d 81 3e
       -0.24299395 0.30405226 -0.058949217 0.25205773
0003c0 67 22 5d 3e 14 ec f7 3e c2 79 8d 3d 89 a5 02 3f
       0.21595155 0.484223 0.06907989 0.51033837
0003d0 1e 10 3f be 09 39 95 be 56 83 02 be 98 6c 0a be
       -0.18658492 -0.29145077 -0.12745413 -0.13517988
0003e0 c9 16 33 be 97 ab 03 be 72 0b 51 3e 10 26 12 3c
       -0.1748916 -0.12858425 0.20414522 0.008920208
0003f0 ab f8 5c 3d 41 35 84 bd 4a 1d a1 bd df 38 1f 3d
       0.053948086 -0.0645547 -0.078669146 0.038872596

RNN.weight_hh_l0 f4 [128, 128]
000000 8a 93 a3 bd 21 0b 1d 3e 7b fe 5b 3d 51 f4 ed bc
       -0.07987125 0.15336277 0.05370949 -0.029047163
000010 06 6d fc bc e0 e6 42 bd 68 14 89 bd 72 15 b5 3c
       -0.030813705 -0.04758346 -0.06693345 0.022104952
000020 d1 06 2c bd 95 a9 69 3c 9d 5b 42 bd cf aa fa 3d
       -0.041998688 0.014261623 -0.04745065 0.122396104
000030 d8 01 50 bd 52 5b 8c 3b b6 84 86 3d e8 0f 59 bd
       -0.05078301 0.004283347 0.06568281 -0.052993685
000040 d3 52 20 3d 11 5b 1c 3d 5d cc c1 bd 97 33 68 3d
       0.039141487 0.038172785 -0.09462807 0.056689825
000050 8c 76 84 bd dc 3e 36 bd db 9c ed 3d 44 de ac 3d
       -0.064679235 -0.04449354 0.116021834 0.08440831
000060 98 4b ea 3d 79 0e e4 3c 12 50 68 3d c3 2a d1 3c
       0.114401996 0.027838932 0.056716986 0.025533086
000070 25 0e 92 bd 06 47 f1 3d 3d 76 a4 bd ab 86 10 bd
       -0.07131604 0.11781125 -0.08030365 -0.03528468
000080 82 8e 37 bd a8 90 1d bd 69 42 30 3d 59 72 de 3d
       -0.04481364 -0.038468033 0.043032084 0.10861654
000090 f2 66 b6 bb db cd 97 3b 87 ef 38 bd 72 6a c8 bc
       -0.0055664713 0.004632694 -0.045150306 -0.02446482
0000a0 5f b2 3a 3c 54 01 e0 3c 84 e4 0e 3d 3c c4 0e 3e
       0.011395066 0.027344383 0.0348859 0.13942045
0000b0 7f b9 6c 3e f1 cc b9 3d a4 d2 28 bd a7 c0 70 3b
       0.23117636 0.090722926 -0.041216508 0.0036735923
0000c0 d8 d4 cd 3d fa 2d 3f 3d 72 81 97 3c f0 22 00 be
       0.10050362 0.046674706 0.018494342 -0.12513328
0000d0 38 c4 37 3d 88 7b 08 be 87 2d b4 bd 7c 20 79 3d
       0.044864863 -0.13328373 -0.08797746 0.060821995
0000e0 a0 27 97 3d 07 71 f0 bc 6d e5 d9 bd 74 8b 55 bd
       0.07380605 -0.02935077 -0.106394626 -0.052134946
0000f0 10 ec 8d bc d2 6e 34 3d d6 f1 f2 3d 02 7b 0d bc
       -0.017324477 0.044051 0.11862533 -0.008635284
000100 88 0e 58 bd 21 d9 32 3c 71 66 ab 3d 73 16 ef 3d
       -0.052748233 0.010916025 0.083691485 0.11674204
000110 be a6 06 3e fa a4 86 3b 00 c1 a7 3b 46 f3 a1 3c
       0.13149545 0.004109022 0.005119443 0.019769322
000120 e2 5c b8 3c 59 98 0a 3e b3 59 fa bb c8 ab 30 3d
       0.022505227 0.13534679 -0.0076400875 0.043132573
000130 a7 38 41 bd 8b d5 a5 3c 37 f7 e8 bd 4d e2 33 3b
       -0.04717317 0.020243427 -0.113752775 0.0027448118
000140 17 c5 2e bd eb 9b 26 bd c7 a3 d0 bd bc eb dd bd
       -0.04266843 -0.04067604 -0.10187488 -0.108359784
000150 fe 2b e8 bd c9 92 94 3d 68 20 18 3d d4 f0 c1 3d
       -0.11336516 0.072545595 0.03714028 0.094697624
000160 1c 2b 89 3b 2a de d2 bc dc dd a9 bd 80 fb a3 3c
       0.0041860472 -0.025740702 -0.082942694 0.020017385
000170 f4 73 90 bd 06 4d d0 bd 56 bf ba bc 70 d6 01 3d
       -0.07053366 -0.10170941 -0.022796314 0.031698644
000180 ed 9c 31 bd 41 4a 27 bd f4 08 d8 bc 68 40 b7 3d
       -0.043362547 -0.0408423 -0.026371457 0.089478314
000190 f2 c3 cc 3d d9 7d b3 bd d7 57 d2 3d 34 ca 38 3d
       0.09998311 -0.08764238 0.1027066 0.04511471
0001a0 69 c7 8b 3d cb 76 2c bd 84 62 15 bd 30 db cc bd
       0.06825144 -0.042105477 -0.036470905 -0.10002744
0001b0 b8 fb 78 3d 7d ec 20 be a4 63 fa 3d 98 8d f4 bd
       0.060786933 -0.15715213 0.12226036 -0.11941069
0001c0 59 88 44 bd 32 ae 64 3d e2 55 93 3d 52 1c da 3b
       -0.047981594 0.055830188 0.07194115 0.006656208
0001d0 d8 c9 60 bd a4 ce e5 bd be ca ad bd 21 f6 f1 bd
       -0.054879993 -0.11221054 -0.08485936 -0.118145235
0001e0 51 32 eb bd f4 48 0a 3e 63 72 40 3d f1 35 a8 3c
       -0.114842065 0.13504392 0.046984088 0.020533534
0001f0 55 a3 82 bd cb 44 86 bd 12 60 1b be af 41 fd 3d
       -0.06378809 -0.0655609 -0.15173367 0.12366044
000200 ba 89 3e bd 22 6f 44 bd 5c 8d 6e bd c8 da 75 bd
       -0.046518065 -0.047957547 -0.05824028 -0.0600231
000210 61 e5 a8 bd 01 92 df bd 02 53 8c 3c 00 60 8e 3c
       -0.082468756 -0.1091652 0.017129425 0.01737976
000220 c3 c1 bb 3d 16 27 b9 3d 43 31 97 bd 88 ae d2 3c
       0.091678165 0.09040658 -0.07382443 0.025717989
000230 49 43 ff bc 14 87 a9 bd c8 65 b5 3d 02 0d 95 3d
       -0.031160014 -0.08277717 0.08857304 0.07277872
000240 9e 35 d0 bd 19 21 a4 bd 15 e1 59 bd a5 9b 38 bd
       -0.10166477 -0.080141254 -0.05319317 -0.04507031
000250 40 10 6d 3d fd 1a e5 bd 4c 9f 78 bd 47 6a 21 3d
       0.057876825 -0.11186788 -0.060698792 0.039407995
000260 62 cc 83 3d 68 20 c0 3a 2c d9 14 3d 7c 8c c6 bd
       0.06435467 0.0014658095 0.036339924 -0.09694764
000270 c8 46 f7 3b d2 5c 36 bc 8c 11 a3 3d 2a 37 05 bd
       0.0075462796 -0.0111305285 0.07962331 -0.03252331
000280 1b 3e 00 bd f4 c0 ec 3c e3 9c a1 3d 45 fc 22 3d
       -0.03130923 0.028900601 0.07891252 0.039791364
000290 6a 81 b4 bd f0 c8 fa 3c 8d 11 ca 3c 35 d7 bb 3d
       -0.08813746 0.030613393 0.024666572 0.09171907
0002a0 87 04 82 3d 15 d8 73 bd b2 0f 1a bc 0e 02 f8 bd
       0.0634852 -0.059532244 -0.009403156 -0.12109767
0002b0 2c 0d 00 bd a1 1e 6a 3c f1 cd 1c bc ae 21 da bb
       -0.03126256 0.014289529 -0.009570585 -0.006656847
0002c0 d9 96 17 3d 6d 29 8b 3c ea 7f 4d 3d 73 f5 0a bc
       0.037009094 0.016987527 0.050170816 -0.008481371
0002d0 ca 74 a7 3c db 31 b3 3d e2 68 b4 3b 9d f1 62 3d
       0.020441432 0.087497436 0.005505667 0.0554062
0002e0 14 08 9e 3d 97 60 8c 3d 33 7b f4 bc dc 53 c4 bc
       0.077163845 0.068543606 -0.029843902 -0.023965769
0002f0 2d 1f 13 bd 2b 8b b3 bc 40 48 8e bc e4 95 bd 3d
       -0.035918403 -0.021916946 -0.017368436 0.09257105
000300 1a 71 9a bc 9a 89 91 bc a4 ff 44 bb 59 ec c4 bd
       -0.01885276 -0.017765809 -0.00300596 -0.09615392
000310 ee 91 32 bd bb 6b ae bd 14 66 83 bc e8 52 2a 3d
       -0.0435962 -0.08516642 -0.016039886 0.04158297
000320 a3 9a ed 3c 8b 56 e6 3c 65 13 76 3c 76 d9 44 bc
       0.0290044 0.028117439 0.015019272 -0.012014737
000330 f7 b3 89 bd 9e 29 e2 ba 47 a8 ab 3d 36 e2 44 bc
       -0.06723779 -0.0017254835 0.08381706 -0.0120168235
000340 64 ba cc bc 05 ea d7 bd 54 b2 b1 3d c1 49 49 bb
       -0.024991222 -0.105426826 0.086765915 -0.0030714127
000350 11 56 71 3b 8a fc 3a 3d 05 44 c6 ba bc 82 00 3d
       0.0036824981 0.045650996 -0.0015126473 0.031374678
000360 1d ad 8b 3d 33 bd f1 3d 87 05 97 3d 6a bc d8 bc
       0.06820128 0.11803665 0.07374101 -0.02645703
000370 df be c5 bc 7d d4 f9 3d a2 26 2b bd c4 8d 1c 3d
       -0.024138866 0.12198732 -0.04178489 0.038221136
000380 90 cf 90 3c 72 5b e8 bc 69 47 5d 3d 94 60 77 bd
       0.017677099 -0.028363917 0.05402318 -0.06039484
000390 eb 25 8e 3d 12 14 00 3d a7 b9 9f bc 49 9c 10 bd
       0.06940826 0.03126914 -0.019497706 -0.035305295
0003a0 77 74 75 bb c3 be 1d be 0e 61 39 3d fc fc c3 bd
       -0.0037453452 -0.15404801 0.045258574 -0.09569737
0003b0 1b cd 44 3d 19 3d 20 3d 45 0b 05 3d 5c b8 a6 bd
       0.048047166 0.039120767 0.03248145 -0.081406325
0003c0 ce ac 98 3a 25 7d 6a 3d 7d 20 a4 3c 6b 68 99 3d
       0.001164818 0.057248253 0.020035023 0.07490619
0003d0 33 4a c3 3d 55 45 50 bc 65 f2 4b bc 11 1f a0 3c
       0.09535637 -0.012711843 -0.012447928 0.019546064
0003e0 f2 f7 de 3d 8a 1f 09 3d f3 b7 97 bd ad 31 fb bd
       0.108871356 0.033477344 -0.074081324 -0.12265334
0003f0 d4 0c 6b 3c 85 74 84 bd 57 68 ed 3c 40 0d 5c 3d
       0.01434632 -0.06467537 0.028980417 0.053723574

RNN.bias_ih_l0 f4 [128]
000000 07 10 b1 3c fa bb d0 3c 98 af c5 3d ac e2 b8 3d
       0.021614088 0.02548026 0.096526325 0.09027609
000010 bb 77 87 bd 91 f6 3f 3c f1 2f a7 3d 96 d4 b3 bc
       -0.06614634 0.011716501 0.08163441 -0.021951955
000020 8b 95 80 bd 86 c9 9e 3b a9 8e c4 bb 9f ac ab 3c
       -0.06278523 0.004845801 -0.0059984517 0.020956336
000030 81 68 8b 3d d8 70 16 3d 63 9e 4d bd 20 ed b4 bd
       0.06807042 0.03672871 -0.050199877 -0.088342905
000040 b1 52 b9 3d 75 6a 07 bd 4f da ef 3d 00 48 80 ba
       0.09048975 -0.03306051 0.11711561 -0.0009787083
000050 76 c0 1d bd de e3 20 3d cf f0 98 3d f0 bb 9d 3d
       -0.038513623 0.03927981 0.074678056 0.07701862
000060 d8 6d a2 3a f4 c4 2c bc dc c0 34 3d 83 00 c3 3d
       0.0012392355 -0.010545004 0.044129238 0.09521582
000070 1f 5c c5 3d 75 af 0e bd c5 18 e5 3c d1 58 f2 3d
       0.09636711 -0.034835298 0.027965913 0.11833347
000080 82 b9 6f bd bf d7 ac bd 01 7a 40 bd 62 fb dc bc
       -0.058526523 -0.08439588 -0.046991352 -0.026975337
000090 70 5d 0d 3e bc 46 fc 3d 14 88 53 3d 19 3c e7 bb
       0.13805175 0.12318179 0.051643446 -0.0070567247
0000a0 95 22 db bd f0 48 92 bd d6 10 e8 bc f7 cc 28 3c
       -0.106999554 -0.07142818 -0.02832834 0.010302774
0000b0 ec 5b 36 3d 83 32 91 bd 0d e4 cb bd ab c3 7e 3d
       0.044521257 -0.070897125 -0.099556066 0.062198322
0000c0 38 a0 2a 3d 0d c4 aa 3d e0 4b 87 3d df cc ab 3c
       0.041656703 0.08338175 0.06606269 0.020971714
0000d0 6b 22 0d 3d 2d 6c 02 bc de ad 2c bd ef 39 f6 3c
       0.03445665 -0.007960361 -0.042158 0.030056922
0000e0 ae 8d 93 3d 9a 86 6f bd 80 4d e1 bb 55 71 0b bd
       0.07204758 -0.058477975 -0.006875694 -0.03404363
0000f0 b0 34 59 b9 65 2c 4f 3c 54 22 4d 3b a1 df 23 3d
       -0.0002071436 0.012644862 0.0031300979 0.04000819
000100 0b 24 42 3c 2f 51 9c 3d 1d 7d f4 bc 30 71 64 3c
       0.011849414 0.07632672 -0.029844815 0.013943002
000110 43 d4 ae 3d 2c 25 ad 3d 50 23 c7 3c e4 47 bf 3a
       0.085365795 0.084543556 0.02430883 0.0014593569
000120 ed b2 9d bd f5 89 4e bd eb 5f 30 bd a3 5c 98 3c
       -0.07700143 -0.050424535 -0.043060225 0.01859886
000130 8c de b8 bc 51 87 3b bd 4d b9 b0 bd 0c 74 be 3d
       -0.022567056 -0.045783345 -0.08629093 0.09299478
000140 df af ed 3d 81 4c 89 bb 15 ca 21 3d 93 60 73 3d
       0.116058104 -0.004190028 0.03949936 0.059418272
000150 97 f2 1c bd ae af 61 3d 52 61 3e bd 72 06 42 3c
       -0.03831729 0.05509918 -0.04647953 0.011842357
000160 b9 da c3 3c 7b 8f 4b bc 77 4a b6 3d 75 bb 8c bb
       0.023908006 -0.012424345 0.08900922 -0.0042948076
000170 6b 6f be 3d 87 06 62 3c 8a 03 22 bd c8 00 83 bd
       0.09298595 0.013795502 -0.039554156 -0.063966334
000180 f0 79 f4 bc c0 9b 44 bd dd b8 10 3d 68 a7 6a 3d
       -0.0298433 -0.048000097 0.03533255 0.057288557
000190 18 fb 8c 3d 31 0e 8d 3d 8c b5 c2 3d 1d d9 df bc
       0.0688383 0.068874724 0.095072836 -0.027325207
0001a0 cd fb c4 bd 9d 5d b4 3d 28 f8 33 bd 7b 91 9f 3d
       -0.0961834 0.08806918 -0.043937832 0.0779142
0001b0 53 48 85 3d 9a 96 c4 3c e9 74 2d 3c d4 19 99 3d
       0.065079354 0.023997594 0.010586956 0.074756294
0001c0 13 b2 01 3a 62 e9 a6 bc 65 4a 03 bd db 99 be 3c
       0.00049474946 -0.020374957 -0.03205337 0.023266723
0001d0 b3 6b 21 3d f1 f8 aa 3d 1a 15 a0 3d fe 83 d4 3d
       0.03940935 0.08348263 0.07816525 0.10376738
0001e0 de f8 49 3c 38 2b 14 bc 1a 86 29 3c 66 66 c4 3c
       0.012327401 -0.009043507 0.010346914 0.023974609
0001f0 57 83 3e bd b9 92 87 3b c8 34 c2 bd 70 2e d7 3d
       -0.046511974 0.0041373638 -0.094827235 0.10506904

RNN.bias_hh_l0 f4 [128]
000000 1d 02 a8 3d 3f 46 df 3c 02 fb a0 3d 68 96 29 bd
       0.08203528 0.027255176 0.07860376 -0.041403204
000010 0c 2b 7e 3a 5e 99 a0 3d 83 b3 58 bd c2 4f 74 3d
       0.00096957455 0.078417525 -0.05290557 0.059646375
000020 3e fb d1 3c 4a bc de 3c 7e 97 01 3d 6b 99 da 3d
       0.025632497 0.027189393 0.031638615 0.106737934
000030 44 5c 41 3d 46 86 19 bd da 0a 97 3d 08 d7 4c 3d
       0.047207132 -0.03748157 0.07375117 0.050009757
000040 f5 d6 a9 bd 32 96 03 bd 45 62 d7 3d a6 cc 6f 3d
       -0.08292953 -0.03212566 0.1051679 0.058544777
000050 3b 97 6b 3b 52 d9 8e 3d c3 1e bd bd 20 a3 12 3d
       0.0035948295 0.06975044 -0.09234383 0.0358001
000060 61 67 1d 3b d0 1a aa 3d ec 39 3f bd dd db 8e 3a
       0.0024017917 0.08305895 -0.046686098 0.0010899265
000070 a0 0c cf 3d 6b 46 87 bd 32 a7 52 3c 79 6e 18 bd
       0.1010983 -0.06605228 0.012857245 -0.03721473
000080 1f e7 b8 3d 7b 13 c9 bd 64 6d 90 bd ae d3 93 3d
       0.09028458 -0.09818169 -0.070521146 0.07218109
000090 a1 00 72 3d 2e 24 41 3c 38 6f a8 3b 00 5b b3 3d
       0.05908263 0.011788411 0.0051402114 0.08757591
0000a0 30 4b e4 bb f2 ae 31 3c 9b 1b d6 3a cc 4a 8f bd
       -0.006966971 0.010844933 0.0016335131 -0.06996688
0000b0 a4 3c 3b bd 77 b7 a1 bd 03 05 7b bd 33 c8 94 3c
       -0.04571213 -0.07896321 -0.061284076 0.018161869
0000c0 2b a9 b7 3c 32 d1 be 3d d8 b7 57 bd 2c 64 f8 3c
       0.022419533 0.093172446 -0.05266556 0.030321203
0000d0 8a 80 81 3d 73 b9 a0 bd 9e ff 96 3d 6f 2e 09 3d
       0.06323345 -0.07847872 0.07372974 0.03349155
0000e0 21 7d b7 3d 9b 68 9a bc bd 4c 6f 3d f2 9a 08 3d
       0.08959413 -0.018848708 0.058422793 0.033350892
0000f0 fe 91 c7 3c f7 12 42 bd 78 14 87 3c 85 92 43 3c
       0.024361607 -0.047381368 0.016489252 0.011936788
000100 fb 3c 86 3d 31 47 50 bc c4 23 62 3d 40 9a 25 bd
       0.065546 -0.012712286 0.05520989 -0.040430307
000110 88 24 8a 3d a6 f5 c0 3c f5 a6 2f 3b 6c db 1a bb
       0.06745249 0.023554634 0.0026802395 -0.002362932
000120 69 98 ac bc 92 cc 03 bc 0f 63 54 3d 79 01 1c 3d
       -0.021068769 -0.008044379 0.051852282 0.038087342
000130 68 4c 88 3c f7 42 56 3d 9f 71 df bd 2a aa c9 3c
       0.016637996 0.052309956 -0.109103434 0.024617273
000140 7c f0 d8 3c c7 4a e7 3c 7a 1f 88 3d 37 61 c9 3d
       0.02648186 0.028233899 0.06646629 0.098329954
000150 a6 f6 d8 3d a4 d8 a7 3d 42 1b 8a bd aa d3 38 3d
       0.105939195 0.08195618 -0.0674348 0.045123734
000160 fd 93 0f bd 90 8f e4 bc a3 9f 2b bd 51 b7 86 bb
       -0.035053242 -0.027900487 -0.04190029 -0.0041112085
000170 38 a1 76 3d e6 84 ac 3d 8a 4c a8 bd f3 35 78 3d
       0.060212344 0.08423786 -0.08217724 0.060598325
000180 80 59 9f 3d 52 9c 84 bc 4d 38 0c bd a3 aa a3 3c
       0.07780743 -0.01618782 -0.03423338 0.019978827
000190 0a 33 af 3d e2 49 e3 3d 79 ee 18 3d b0 89 3c bd
       0.08554657 0.110980764 0.0373368 -0.046029747
0001a0 0d 73 43 bc 73 ce 53 bd 3a 2e b6 bc 9a 14 90 3d
       -0.011929286 -0.051710557 -0.02223884 0.070351794
0001b0 27 60 7b 3d cd ec 8d 3c 73 99 5a 3d 62 ca 3a 3d
       0.061370995 0.01732483 0.053368997 0.045603164
0001c0 df f4 e0 3c 4d 69 18 bc ce f8 7f bd 40 f1 73 3d
       0.027460514 -0.009302449 -0.062493138 0.059556246
0001d0 5a 8b 93 3c 7e 3a 98 3c 06 a7 cd 3d a5 60 22 3d
       0.018010784 0.018582579 0.10041623 0.03964295
0001e0 aa 9f fa 3c 6f 70 57 3d 32 4f 8e 3c d3 68 47 bd
       0.030593712 0.05259746 0.017371748 -0.048683953
0001f0 b9 e9 bc bc e4 eb 30 3b 5d 28 9a bc 23 05 e9 3d
       -0.023060666 0.002699607 -0.018818075 0.11377933

actor.weight f4 [3, 128]
000000 6d 9f b6 bd 0d aa 8f 3e 07 c6 32 3f 65 7e a7 3e
       -0.08917127 0.28059426 0.69833416 0.3271362
000010 eb 37 cc be 4c 17 92 3e 12 85 a2 bd 16 f8 28 3e
       -0.39886412 0.285334 -0.079355374 0.16500887
000020 6f d0 1a be 01 d1 e3 3d 71 40 a1 bd 48 2b 7a 3d
       -0.15118574 0.11123849 -0.07873619 0.061076432
000030 60 9f 04 3f b2 de 01 bf 82 ec 50 3e f2 d4 3f be
       0.51805687 -0.5073043 0.2040272 -0.18733576
000040 6c 4a 55 3a d2 db 79 be 7e 40 68 3e 29 84 e4 3e
       0.0008136395 -0.24400261 0.22680852 0.4463208
000050 5c 20 3b be 45 e2 50 3e 09 a7 c3 bd 84 6e 8f be
       -0.18274063 0.20398815 -0.09553344 -0.28014004
000060 31 d3 61 bd ef 87 42 3e 6d 53 95 3e fd f1 b2 3e
       -0.05513305 0.18997167 0.2916521 0.34950247
000070 1b db a1 3e d4 af 74 bd 8a db 1e bd 1d 81 32 bf
       0.31612477 -0.059737995 -0.038783588 -0.6972826
000080 29 a4 e7 3e 69 ab 03 bc c8 08 01 3e 0d b0 0a 3f
       0.45242432 -0.008036473 0.12601006 0.5417488
000090 4f 5d 1e be 48 69 c1 39 f2 ac 80 3e d9 53 82 3e
       -0.15465282 0.0003689027 0.25131947 0.25454596
0000a0 b6 17 73 3d 9a 64 cb 3c 60 fe a9 be ed 38 7f 3d
       0.059348784 0.024828244 -0.33201885 0.062310148
0000b0 ad 1d 30 3e cf bf 13 3a b9 53 16 3c 93 ff 0d 3f
       0.1719882 0.00056361867 0.0091752345 0.554681
0000c0 a5 09 93 3e e8 5e 1e 3f e6 a3 f0 3e 17 8a b0 bd
       0.28718296 0.61863565 0.47000045 -0.086200885
0000d0 2e a4 36 be a6 56 9d 3d e3 c0 92 3e d3 f3 e4 be
       -0.17836067 0.076825425 0.28662786 -0.44717273
0000e0 db aa 0f 3f eb f4 00 be c1 d0 ca 3d bd b9 31 be
       0.5612008 -0.12593429 0.09903098 -0.1735601
0000f0 d2 0a 2b 3f 01 64 10 bf a5 09 ef be 8e 71 02 3f
       0.66813385 -0.56402594 -0.46687046 0.5095452
000100 1c 0b cd bd b7 62 43 be 5c 63 f3 bd 67 d2 21 bd
       -0.100118846 -0.19080625 -0.11884186 -0.039507296
000110 2d 3f 82 3e 8a 91 1b bd 8f 02 7a 3c 9c b0 10 bf
       0.25438824 -0.037980594 0.015259399 -0.56519485
000120 d2 b7 81 be 81 e1 92 3b 75 64 9a 3b e9 95 22 3e
       -0.25335556 0.0044824486 0.0047116824 0.15877499
000130 20 cf 0a be 4a c5 2a 3e 29 c9 0c be 83 f0 ef 3d
       -0.13555574 0.16676822 -0.13748612 0.11715796
000140 4d cb a5 3e 08 18 a4 be 9f 4f e2 3d 16 4f ae bd
       0.3238167 -0.32049584 0.11050343 -0.08511178
000150 f4 3a 86 3e 12 8a 16 bd 1c 91 5c bc a3 ec 06 be
       0.26216853 -0.036752768 -0.013462331 -0.13176207
000160 a1 0f c4 3e 76 69 86 3e e4 f2 f7 bc 3a 04 11 be
       0.38293174 0.26252335 -0.030267186 -0.14161769
000170 ee c4 dc 3e 39 da d2 3c df 7f 66 3d a8 b5 1f 3d
       0.43118995 0.025738822 0.05627429 0.0389916
000180 e2 b3 04 3f 57 87 b4 3e 28 10 55 be 65 7b a9 3e
       0.5183698 0.35259506 -0.20806944 0.33101955
000190 b6 97 a1 bb e0 67 a0 3c a4 3c 24 3f e1 4d 79 3d
       -0.0049314154 0.019580781 0.6415503 0.060865287
0001a0 0d 4e 14 3d fb 8e 68 be 83 4d 76 3e 3b 19 64 3e
       0.036207248 -0.22710793 0.24053006 0.2227525
0001b0 25 33 50 bd 37 c0 eb 3d c3 b4 00 3d 8c bf 37 3e
       -0.050830025 0.115112714 0.031422388 0.17944163
0001c0 38 d0 07 3f 58 43 ce be f6 a8 cc 3e 40 5a 15 be
       0.5305209 -0.40285754 0.39972657 -0.14585209
0001d0 8a 6e e2 bd a7 5f 4b bd f8 34 72 3e 45 0c 9e 3e
       -0.1105624 -0.049651768 0.23653018 0.30868736
0001e0 3a d0 1a 3d 6e 56 3b 3e 4e 0c 13 3f c8 70 84 be
       0.037796237 0.18294689 0.5744065 -0.25867295
0001f0 27 0d eb 3e 36 a4 c2 bc 31 95 81 3c ba cf 1d bd
       0.45908472 -0.023759943 0.01581821 -0.03852818
000200 ab 93 ff 3e 6b 58 c0 be 52 20 30 bf be 32 b8 be
       0.4991735 -0.37567458 -0.68799317 -0.35976213
000210 7d cd a0 3d 5e 7d 8e be df 42 92 3e 78 5a 83 bc
       0.07851694 -0.27830023 0.28566644 -0.01603435
000220 75 58 80 be 10 10 34 be 79 11 a9 bd 92 1c 87 be
       -0.25067487 -0.17584252 -0.08255286 -0.26388985
000230 bd a7 a7 be cb 1b 55 3e 5d 9a 89 be bd 29 b0 bd
       -0.32745162 0.20811383 -0.26875582 -0.08601711
000240 b4 fb b7 3d 06 05 4d 3e 44 c8 dd bc da f8 0f be
       0.089835554 0.20021448 -0.027073033 -0.14059773
000250 25 c0 c2 3e b2 58 78 3d 2f 8f e1 3d 87 ca 2e 3d
       0.3803722 0.06063146 0.11013638 0.042673614
000260 7f 05 38 3e 82 e7 88 be 7e 5c 89 bd 5c f7 c1 be
       0.17970847 -0.26739126 -0.067070946 -0.37884033
000270 32 ef c3 be 25 e3 c9 3d 75 1f b6 bd 91 3b b2 3e
       -0.3826843 0.098577775 -0.08892719 0.3481107
000280 f5 00 9d be 6a 37 c7 3d 8b 27 0c 3e 95 79 e4 be
       -0.30664793 0.09727366 0.1368696 -0.4462401
000290 a2 50 b4 3e 18 1f 6d 3e 3a 4d 45 be 20 e0 6f 3c
       0.35217768 0.23156393 -0.19267741 0.014640838
0002a0 7d 42 bb 3d 03 d1 99 3d e1 87 d5 3e 68 3a 59 3e
       0.09143541 0.07510569 0.4170523 0.21213686
0002b0 ac c5 76 be 54 e5 c4 bd 59 2a 9c bd b7 02 ba be
       -0.24098843 -0.09614053 -0.07625265 -0.36330196
0002c0 22 45 78 be d8 a9 ce be 14 cf 21 be bb 59 9c bd
       -0.24245122 -0.40363955 -0.1580165 -0.07634302
0002d0 f5 b7 36 3e 36 71 e9 3d b2 ba 20 3e a0 f6 f5 bd
       0.17843612 0.113985464 0.15696219 -0.120099306
0002e0 da 48 ca be c1 75 46 be 31 6a f6 bd 03 8e 38 be
       -0.39508706 -0.19380857 -0.12031973 -0.18022923
0002f0 ce 50 0d bf fe 4a 4d 3e 1d 21 99 3e b4 79 a2 be
       -0.55201423 0.20048138 0.29908076 -0.31733477
000300 c7 53 85 bd 7b 6a 82 3e a4 81 58 3d 26 45 b1 bd
       -0.0651012 0.25471863 0.05285801 -0.08655767
000310 54 27 a3 be 9c 9e 55 3d f5 74 b5 3c 4f bf e8 3c
       -0.31865942 0.052153215 0.022150496 0.028411536
000320 64 7c eb 3d fe b1 b8 bd 24 03 ed 3c e3 9e 82 be
       0.11498335 -0.09018324 0.028932162 -0.25511846
000330 28 ae ef 3c 5d 42 d4 bd 4a 2a 21 3c c0 22 b7 be
       0.029257849 -0.1036422 0.009836743 -0.357687
000340 93 7d 85 be ce ed 5b be 9d 4d d9 be a3 f8 4c 3e
       -0.26072368 -0.21477434 -0.42442027 0.20016722
000350 7c 12 12 3e 72 81 06 3e 82 e8 c7 3d f9 f4 4e 3e
       0.14264864 0.13135317 0.09761144 0.20210637
000360 4b cb aa be 55 9e 92 be f8 bc d8 3d 4c c8 d4 bd
       -0.33358225 -0.28636423 0.10582918 -0.10389766
000370 c3 48 a6 be 24 ef 6b be a0 94 d3 3d 36 96 d7 be
       -0.32477388 -0.23040444 0.10331082 -0.4210679
000380 3b a4 fd be dc 79 8c be 4a f3 fa 3d d0 a2 1c be
       -0.4953936 -0.2743672 0.12253435 -0.15296483
000390 b6 f6 97 be dd 42 8d bd a2 30 e4 bc 8f fd fa bd
       -0.29680413 -0.06897519 -0.027855221 -0.12255394
0003a0 ca 98 b3 bd 1a 05 4a 3e 28 46 47 be 7e d2 b7 bd
       -0.087693766 0.19728509 -0.19460356 -0.08975695
0003b0 99 5a 0b 3e d8 f4 9b bc 54 ed 48 3c 38 8c 48 3e
       0.13608779 -0.019037649 0.012263615 0.19584739
0003c0 6f d3 8a be 2b d7 70 3e b1 95 6c be df 45 2d be
       -0.27114436 0.2351958 -0.23103978 -0.16921185
0003d0 49 67 d1 3c 4c e1 11 3e 5a f6 50 be cd c3 65 be
       0.025561946 0.142461 -0.20406476 -0.22437973
0003e0 b6 35 8c be 20 41 0f be 4c 15 82 be a3 7a f7 3e
       -0.27384728 -0.13989687 -0.25406873 0.48335752
0003f0 c5 40 77 be cf 76 82 bc 6c 46 77 3d 42 b3 90 be
       -0.24145801 -0.015925793 0.060369894 -0.28261763

actor.bias f4 [3]
000000 90 85 8e 3c f4 bd 2a bd f3 fd 93 3c
       0.017397672 -0.04168506 0.018065428

critic.weight f4 [1, 128]
000000 a3 0a 0c bd e0 6b 92 3d 86 36 c8 3d 9e 74 c5 3d
       -0.03418983 0.07149482 0.097760245 0.096413836
000010 41 10 85 3d 0c 44 b6 3c 83 df e9 3d 63 23 cd 3d
       0.06497241 0.022249244 0.114195846 0.10016515
000020 0e 50 1c bc 60 c1 2f 3d 97 a0 3b 3e 5b 03 91 3c
       -0.009540571 0.042909026 0.18322979 0.017701795
000030 35 f7 4e 3e d3 1d 4c bd 3f 90 6f 3d 72 f1 11 bd
       0.2021149 -0.04983313 0.058487173 -0.03563065
000040 d6 72 da bc d6 4b 08 be 85 cb 94 bd 11 5c b4 bd
       -0.026666086 -0.13310179 -0.07265381 -0.08806623
000050 f4 dd be 3d a1 96 40 3d 74 11 82 3d b0 01 c0 bd
       0.09319678 0.04701865 0.06350985 -0.09375322
000060 bd ca f9 bd 8f 7f 06 be 49 f0 20 bc fb d9 7f 3d
       -0.121968724 -0.13134597 -0.009822913 0.06246374
000070 b2 23 6d 3d 49 b3 10 bd 73 39 f9 bd 66 73 ac 3e
       0.05789537 -0.03532723 -0.12169161 0.33681792
000080 fb fc 3f 3e 1f 31 24 be 39 ba ac 3d fc 6d 03 bd
       0.18748848 -0.16034363 0.08433957 -0.03208731
000090 d9 7a c5 bc 39 70 67 3e 97 b2 c1 3c 04 a9 e4 3d
       -0.02410643 0.22601403 0.023644729 0.1116505
0000a0 96 94 5c be 68 58 81 3e 1d 4c 25 3d 87 cc e3 3d
       -0.21541056 0.2526276 0.04035579 0.11122995
0000b0 e5 c3 7d 3e b7 b0 87 be 94 39 87 3e cd c9 00 3d
       0.24781759 -0.2650201 0.26411116 0.031442452
0000c0 89 62 2a bd 21 f7 77 3e e4 ad ea 3a ad e7 3b bd
       -0.041597877 0.24215366 0.0017904607 -0.04587524
0000d0 e5 93 23 be b7 85 ab 3d bb e2 b9 3d 56 cb 7f bd
       -0.15974386 0.083751135 0.090764485 -0.062449776
0000e0 0e 3b 74 3d 6a 7d dd 3d ce 2e 56 3e 7e 24 11 bd
       0.05962663 0.108149365 0.20916292 -0.035435192
0000f0 83 ae d2 3c f9 65 09 be fd dd ba 3d a8 c2 94 3d
       0.02571798 -0.13417806 0.09124372 0.0726369
000100 91 d4 a5 3e f3 fe 37 3d 46 3f ca bd 3a 7e 97 3b
       0.32388738 0.044920873 -0.0987535 0.0046232017
000110 b0 66 06 bd 70 35 99 be 08 29 ec bb 07 fa 29 3d
       -0.032812774 -0.29923582 -0.0072070397 0.04149821
000120 7e 32 3a 3d d2 87 8f bc fd 51 f2 bc 53 b7 c0 bd
       0.04545831 -0.017520819 -0.02958011 -0.09409966
000130 5c 06 3e 3e 05 d4 30 be c6 9c 87 3d 60 85 f8 bd
       0.18557113 -0.17268379 0.06621699 -0.12134814
000140 d8 b8 d7 bd 58 1e 83 3e a0 c2 14 3e 1f 78 4f 3e
       -0.10533303 0.25609088 0.14527369 0.20260666
000150 41 ee 08 3c ae 66 fa bd 20 98 b9 bd 43 d7 a0 3d
       0.008357585 -0.12226616 -0.09062219 0.07853558
000160 f4 f3 b4 3c 8a 72 82 bd fc 16 41 bd 8e 2e a1 bd
       0.022088982 -0.06369503 -0.04714106 -0.07870208
000170 d5 15 bc 3d 2c 11 5a 3e 7b 0f 9d 3e 95 7b 56 3d
       0.09183852 0.21295613 0.30675873 0.05236395
000180 12 32 68 3d f0 f2 6a 3d e3 66 b6 be 3d 7a cd 3c
       0.056688376 0.05736059 -0.3562537 0.025082702
000190 fa ad b9 3d 6d e5 f2 3e 53 ff 0f bc 1d 8c 05 3d
       0.090663865 0.47440663 -0.008788901 0.032604326
0001a0 09 80 e7 3d c8 16 c5 bd 13 37 24 3e a9 3e 78 be
       0.11303718 -0.09623486 0.16036634 -0.24242653
0001b0 0d da 96 3b c9 d5 6e bd e7 3e 15 be 3a c5 2e 3e
       0.0046036304 -0.05830935 -0.14574777 0.17067423
0001c0 a7 de 0e be ed 6f 40 be b9 5c 36 be 58 e7 d2 3d
       -0.13952123 -0.18792696 -0.17808808 0.102980316
0001d0 ca 7f d2 3c b0 e1 ab 3d ca b8 b8 bc 89 f8 8f 3e
       0.0256957 0.08392656 -0.022549052 0.28119305
0001e0 e1 8b b3 3d 1b 57 95 bc 86 54 b0 bd a5 81 82 bc
       0.08766914 -0.018230012 -0.086098716 -0.01593096
0001f0 e3 79 a4 3d f6 0c 94 3d 85 07 dd 3d c8 aa 7d bd
       0.080310605 0.072290346 0.1079245 -0.061930448
