W__RNN/W_RNN/md2/v_3/train_iter_0800.pt (torch, 79699 bytes, 6 tensors)

h0 f4 [128]
00000000: 50c4 d5bf 0410 55bf fc18 0dbf 8501 1bbe
00000010: 398f 46be 823d e23e d74a 59bf bafa 733f
00000020: 1615 a23d 1ce5 d73f d8e7 1340 b7b1 efbf
00000030: 079b e73d eae8 073e 0eb1 be3f 492f 873f
00000040: 4823 543f 300e babf eb8c 923e 1918 a83f
00000050: 4019 8f3d af6a b1be 2e25 42be 3ca1 2f3f
00000060: f87d f23e 4594 96bf 39f6 a03f 9a81 473f
00000070: 1a55 0140 e946 8b3c e3a6 243f ad83 ad3e
00000080: 4c81 24bf 8689 d03e 1a06 6e3f 893c c3bf
00000090: 4f2b a2be b8e7 703e 7152 6e3e ad03 75bf
000000a0: 2e25 9e3f c107 d33e 6da7 eebd 8124 0a3e
000000b0: 7f6d c4bd 553f 1cbf c3a1 933e c75c 8a3f
000000c0: 1b27 d23e ce92 1abf 87bb fb3f 2a7e 8c3e
000000d0: 7939 153f 8f93 23bf 0a52 53be 01bf 84bf
000000e0: 857d 473e 6230 30bf 7fd1 0bbf d9ec 13bf
000000f0: 260c 8abf e951 483e acbd d3be 9596 9e3b
00000100: 13f0 c5be 56c2 8ebf 3761 193f 8218 bf3f
00000110: 74b7 1e3f 6da5 d63f 07ca 3bbf e0e2 273e
00000120: 3015 02be bcd9 aabf 9f85 8bbf 40e6 c3bf
00000130: b8d9 adbe 7e13 2d3f cb57 db3f 1bef a03e
00000140: 0b9d d53f b5ab 5abf c7b2 603e 8bf0 54bf
00000150: 80cb 11bf 7d65 1340 ad05 7dbe 34c0 853f
00000160: f9d5 903f 69f4 c8bf 0545 9fbf 245b d0bd
00000170: 2812 bd3e 47b4 ab3f f133 c23e 9e3d d23f
00000180: 2c3d 6b3e ae7a 483f 4561 723f 68c1 a93f
00000190: ade4 493f 5cf0 38bf 902e 3bbf e949 fa3e
000001a0: 6cd7 48bf e020 63bf 46a6 e7be 742b a8bd
000001b0: 563b 57be a941 93be dd33 103f dedb 173f
000001c0: a29b c5be a98e 54bf 8661 603f c60f 8b3e
000001d0: c1b6 c2bd eddb 6abf 2e0a 37bf 16f6 3a3f
000001e0: df04 b4bf f5ad 8a3f 8b07 f43d f575 21bf
000001f0: 082e 14bf 41ad 813f e83d edbe 748c 90be
-1.6700535 -0.8322756 -0.5511625 -0.15137298 -0.19390573 0.44187552 -0.8487982 0.95304453
0.07914178 1.6866794 2.3110256 -1.8726109 0.11308866 0.13272443 1.4897783 1.0561305
0.82866335 -1.453558 0.28623137 1.3132354 0.06987238 -0.34651706 -0.18959495 0.686054
0.47361732 -1.1763998 1.2575141 0.7793213 2.0208192 0.017001586 0.6431715 0.33889523
-0.6425979 0.40729922 0.9297806 -1.5252849 -0.31673667 0.23525894 0.23273636 -0.95708734
1.2355096 0.41216853 -0.11653028 0.13490488 -0.09591197 -0.61034137 0.28834352 1.0809563
0.4104546 -0.60380256 1.9666604 0.27440006 0.5829082 -0.6389703 -0.20636764 -1.037079
0.19481476 -0.68823826 -0.5461654 -0.57783276 -1.0784957 0.19562496 -0.41355646 0.004839728
-0.38659725 -1.1153057 0.59913963 1.4929354 0.6199868 1.6769234 -0.73355144 0.1639514
-0.12703395 -1.3347697 -1.0900153 -1.5304642 -0.3395517 0.6760787 1.7136167 0.31432423
1.6688551 -0.85418254 0.21943198 -0.8317954 -0.5695114 2.3030694 -0.24709196 1.0449281
1.1315299 -1.5699588 -1.2442938 -0.10173634 0.36927915 1.3414391 0.37930253 1.6425054
0.22972554 0.78312194 0.9467967 1.3262148 0.78864557 -0.7224176 -0.73117924 0.48884514
-0.7845371 -0.8872204 -0.45244044 -0.08211413 -0.21018729 -0.28761032 0.5632914 0.59319866
-0.385953 -0.8303018 0.8764881 0.27160472 -0.09507514 -0.9174183 -0.7149991 0.7303175
-1.4063987 1.0834337 0.11915501 -0.63070613 -0.5788274 1.0130998 -0.46336293 -0.28232157

RNN.layer_encode.weight f4 [128, 145]
00000000: 261f 24bb 2668 84bb b413 083d 39a6 9f3d
00000010: 608c 473d 739f 30bd 7420 73bd ff68 f73c
00000020: 1876 983c 3ec5 263d a535 433d cb88 0b3d
00000030: 59cf ca3c 0747 89bb c59f 893d 1ff2 943d
00000040: 47f8 5d3c 0da4 cabc e735 9bbc 8d52 2dbd
00000050: bc5f 83bd 40e1 5f3c 3c1b 53bd fa0b 133d
00000060: 15d3 353d fb61 8b3d fe7f b5bc efac a33b
00000070: 0ad2 b03d 592c 053d 183c 4abd 8bc9 e8bc
00000080: 6981 38bd 4015 273c 8b59 4cbc 0287 cebc
00000090: d7d8 a4bd edef 0e3d 85cf 063d 7988 2a3d
000000a0: 36ba 0c3d bf77 813d a7d1 483d f433 85bb
000000b0: c921 41bd 0711 d93c 43a6 c9bc 70e0 0e3a
000000c0: f42e d03d 450c 9fbb 5a2a 23bc 2c60 71bc
000000d0: 16a3 cfbc 47a7 f93c 56cc 36bd f40f 583c
000000e0: 67cd 493d a119 af3c 604b 3fbd 94af ac3a
000000f0: 333e a53c bbc9 00bd cd2f e2bc 08d2 47bd
00000100: 67f1 a23d d632 94bd 8ad8 203d cad9 87bc
00000110: a033 5b3b e7cd 303d 4613 4abd 5d71 1b3d
00000120: 3cdc 48bd 1d6b 8c3d 6d17 023d cb1d b73d
00000130: 24ce 95bb 37d6 35bd 5ff8 a23c 6bbd 3e3d
00000140: 3faf 583d ce0d 3bbd b519 4f3d 9806 963d
00000150: f334 18bd fc9f 693d e442 4bbd 2984 21bd
00000160: 3fed 95bd b282 8b3d 649f e63b 9eb7 a73d
00000170: 5d37 543d 8c22 70bd e07f 893d c6f1 073c
00000180: 797f 2abc a589 09bd d24c ea3c 2212 5abd
00000190: e211 0e3d 6633 69bd ec0a a3bd fe63 1ebd
000001a0: a46a 5dbd 5ca9 34bb eb7d 15bd 3769 153d
000001b0: ce2c 3b3d a3ee 933d 9d58 093d 5134 2abd
000001c0: 88c5 4dbd 184d ec3c 2a11 a63d dbfb 0f3d
000001d0: da22 6d3d 13e8 213c 9409 15bd 2af9 563c
000001e0: 0865 77bc 9371 88bc 1f87 a43d 0c02 eabb
000001f0: 785e 0ebd 89e2 cd3c 000d e1b7 2eba e93c
00000200: f594 17bd 648a 5ebd 631e 513c 5add a7bd
00000210: 47d5 3f3d 7818 2b3d f8f0 eebc 9394 1cbd
00000220: 108d d3bc 1bd8 8cbd 0e0c af3c 0853 03bd
00000230: 3a46 ab3d d70a b5bc 5bf2 a1bd 5825 9bbb
00000240: cdf6 73bd cc45 57bd 6052 5b3d 7136 2d3d
00000250: 922e 02bb 6cc7 873c bc02 d93c a426 98ba
00000260: 36a5 683d c102 0cbd d8cc a6bc dc1a 4e3d
00000270: c04c 34bd 3496 98bc bc2d 78bd a060 713b
00000280: 52ab 25bb d9e3 fb3c 621d e23c 2a75 713c
00000290: aabd 8bbc 05db 4c3c 02e1 8fbc 3e55 083d
000002a0: 8ef7 32bd 4e12 88bd 2703 43bd 232a ed3c
000002b0: bc78 10bd daab 72bd 8fa7 60bd 3f5e 6a3d
000002c0: c9d1 9b3c 3c4a 82bb 933c 893d 63bd e33c
000002d0: 5e4c 41bb 729f 0cbd dc82 8abd 900c 8a3d
000002e0: 72c8 3bbd b011 003d e1b6 113d 88f4 60bd
000002f0: a11d 1dbc c512 2ebc 91fb 7e3d 5497 8b3c
00000300: 6cbe 743d dc6f 293d fc81 3d3d 987d 37bd
00000310: 264e 683d b89d 403a dd31 e1bb 9e68 3c3d
00000320: fdbf c73a f38e a3bc eb4c 213d 6650 20bd
00000330: 86f7 adbd 50b2 a63c e9c8 a3bd 08f8 f1bc
00000340: 1afd 1cbd 5e55 8dbb dae2 b4bd b4af bf3d
00000350: 8426 81bc c904 003d ce27 53bd 7668 8fbc
00000360: 8ab9 55bd 97ab 673d d488 9dbc 447e 6ebb
00000370: 9b3f cd3c 3006 8cbd 60b2 a03d e7bf a6bc
00000380: e055 123d 16ed d13c 11fe 7d3d 56df 9e3c
00000390: eef0 2a3d d0f5 f8bb ca2d 25bd e9fb de3c
000003a0: ecf9 273d e819 263c 639b a9bc 808d cfb8
000003b0: bd37 283d bdb1 bdbc 1683 bfbb ecf4 883d
000003c0: 56c9 b03c 2ed0 533d 334e 033b d2a4 7cbd
000003d0: aaa3 9e3b 171b 05bd b88b d83c 11a3 5c3d
000003e0: 958b 4cbd db14 bbbd d494 74bd bb3a 63bd
000003f0: a9f6 873d 5d61 99bd 36a3 0e3d de29 623d
-0.002504298 -0.004040736 0.033221915 0.07795376 0.048717856 -0.043120813 -0.05935712 0.030201433
0.018610999 0.04071545 0.04765858 0.034066003 0.024757074 -0.0041893753 0.06719927 0.072727434
0.013547963 -0.024736429 -0.018946601 -0.042315055 -0.06414744 0.013664544 -0.051539645 0.035900094
0.044390757 0.06805798 -0.022155758 0.0049949805 0.08633812 0.032512996 -0.049373716 -0.028416416
-0.04504529 0.0101979375 -0.012472521 -0.025210861 -0.080491714 0.03489678 0.03291275 0.041634057
0.034357272 0.06321668 0.049028065 -0.004065031 -0.04715136 0.026497377 -0.024615413 0.0005450314
0.101652056 -0.0048537576 -0.009958828 -0.014732402 -0.02534632 0.030475272 -0.044628464 0.013187397
0.049268153 0.021374526 -0.046702743 0.0013174885 0.02017126 -0.031442385 -0.027610684 -0.048784286
0.079562 -0.07236259 0.039269008 -0.016583342 0.003344752 0.043165114 -0.049334787 0.03794991
-0.049038157 0.06856368 0.03176062 0.089412294 -0.004571693 -0.044393744 0.019893823 0.04656736
0.052901503 -0.045667462 0.050561626 0.073254764 -0.03715987 0.05703734 -0.04962434 -0.03943268
-0.07320642 0.068120375 0.007038044 0.08189319 0.05181061 -0.058626696 0.06713843 0.008297389
-0.010406368 -0.033578534 0.028601084 -0.05323995 0.034685023 -0.056933783 -0.079610676 -0.03866958
-0.05405678 -0.0027566766 -0.036497038 0.036477294 0.045697026 0.07223251 0.033531774 -0.0415538
-0.05023721 0.028845355 0.081087425 0.035152297 0.057894565 0.009881991 -0.036386088 0.013120929
-0.015099771 -0.016655719 0.08033585 -0.0071413573 -0.03475806 0.025132434 -2.6828144e-05 0.02853116
-0.03700729 -0.0543312 0.012763592 -0.08196516 0.046834257 0.041771382 -0.029167637 -0.03822763
-0.0258241 -0.06877156 0.021368053 -0.032061607 0.08363004 -0.022099895 -0.07907554 -0.0047346763
-0.05956154 -0.052556798 0.053545356 0.042288247 -0.0019864184 0.016574584 0.026490562 -0.0011608195
0.056798182 -0.034182314 -0.020361349 0.050318584 -0.044018507 -0.01862631 -0.06059049 0.0036831275
-0.0025279117 0.030748295 0.027601901 0.014737407 -0.017058212 0.01250339 -0.017563347 0.03328442
-0.043693118 -0.06644116 -0.04761043 0.028950756 -0.03527139 -0.05924592 -0.054847296 0.057218786
0.019020932 -0.0039761346 0.06701007 0.027800268 -0.0029494981 -0.034331746 -0.06763241 0.06740677
-0.045845456 0.031266868 0.035574798 -0.054920703 -0.009589584 -0.010624592 0.06225163 0.017039932
0.059751913 0.041366443 0.04626654 -0.04479751 0.056715153 0.00073477207 -0.0068723992 0.04599821
0.0015239712 -0.019965624 0.039379995 -0.039139174 -0.08494477 0.020348698 -0.07997305 -0.029537216
-0.038327314 -0.004313155 -0.08832331 0.093596846 -0.015765436 0.031254563 -0.051551633 -0.017505866
-0.052178897 0.056560125 -0.019230284 -0.0036391178 0.025054744 -0.06837118 0.07846522 -0.020355178
0.035726428 0.025625747 0.062009875 0.019393604 0.041733675 -0.0075976625 -0.04032687 0.02721973
0.04100983 0.0101380125 -0.020703977 -9.8968856e-05 0.04106878 -0.023156041 -0.005844484 0.0668734
0.02158038 0.051712207 0.0020035624 -0.061680622 0.0048412876 -0.032496538 0.02643381 0.05386645
-0.049937803 -0.09134837 -0.059712246 -0.05547593 0.066388436 -0.07489274 0.03482362 0.05521571

RNN.layer_encode.bias f4 [128]
00000000: 76b0 923d aae3 a9bd e4c2 723c ad1f a33d
00000010: 0714 093d c6ba c4bc 8526 5f3d 30ca f4bc
00000020: 0d49 433d 38ad e2bc 58fa 0a3d 6c0a 98bd
00000030: 2a74 c83d 0adb 193d 0046 e137 323e 4d3b
00000040: eee0 733c c0d7 e03c 45d5 9b3d d87a 893d
00000050: e144 53bd b834 05bd 19fd b3bc 4b7e 56bd
00000060: 6899 0a3d b374 323d 6a3d 573d ca02 093d
00000070: d62a b73d fbb6 30bd 5651 a0bc a9ad f93c
00000080: 0502 cb3d 2fa2 583d 4f04 a03d dc1f 713d
00000090: 5ffd 32bd ea56 fcbc c112 87bc b60a 4f3d
000000a0: 7dc3 b0bd 1e77 5dbc cd07 c03d 3db3 4cbd
000000b0: 8636 24bc f96d 9b3c cfd5 80bd 0006 9c3d
000000c0: 8c2f f83c 4c09 8cbd 4aa6 cd3d a579 70bc
000000d0: 13fc a73c 429b 68bc d4b5 2a3d 2466 ba3d
000000e0: 94be 18bd d9cb b63c 0917 89bd 0ef7 6b3d
000000f0: 2fd6 bcbc 5a64 813d 5d4d 6b3d 7a6d 643c
00000100: 5163 8e3d af0f c53d 8dd9 f2bb 9c7e 6e3d
00000110: 0414 b53d c8b9 4abc 935a 37bd 7a78 0fbd
00000120: 7759 8ebb 6e4a 773c d3b2 78bd febd edbb
00000130: 9a19 6e3d 8f12 103d bd95 75bc 6cf1 d6bc
00000140: 46a0 073d 9540 9e3d e23c 353d 3049 61bd
00000150: 4b48 68bd 199d 693d 6b4e 36bd c855 a3ba
00000160: c600 6dbd a659 9abd 85c8 8fbc 88d7 ce3d
00000170: b1e3 5a3d aed4 db3c e4c0 85bd 756d f2bc
00000180: 6633 b2bc 1a69 c73b 6639 ad3d 6de2 713d
00000190: 2e2f 733c 1ec0 033d 41ba 9f3d 5071 0a3d
000001a0: 3f21 913d 8ce5 cc3b c005 0abd 98e5 64bd
000001b0: 3eeb aabd b92b 73bd 2d6c 9c3d e6e0 f73c
000001c0: 9d43 703d 0e54 e53c 6d1a 95bd cde1 aebd
000001d0: 4d03 43bd 6e7f dd3c 47b4 743d 6662 483c
000001e0: 0943 a5bd 919d a83d 9ba7 cc3c 6160 e8bc
000001f0: b28d 7fbd 385f 4abc 6b37 843d a886 91bc
0.071625635 -0.082953766 0.014816973 0.07965026 0.033466365 -0.024014842 0.054480094 -0.029881567
0.04767709 -0.027670488 0.033930153 -0.07423863 0.097877815 0.037562408 2.6854686e-05 0.003131759
0.01488517 0.027446628 0.07609037 0.06712884 -0.05157936 -0.03252098 -0.021971272 -0.052366536
0.033837706 0.043568324 0.052548803 0.033449925 0.08943717 -0.043143254 -0.019570034 0.030478315
0.099124946 0.052889045 0.07813322 0.058868274 -0.043698665 -0.030803163 -0.016488435 0.050547324
-0.086310364 -0.013517169 0.09376488 -0.049975622 -0.010022765 0.018973337 -0.06290781 0.07618332
0.03029611 -0.06837711 0.10041483 -0.01467744 0.02050594 -0.014197173 0.04167731 0.09101513
-0.037291124 0.022313999 -0.06693847 0.057608657 -0.02305135 0.06317969 0.057446826 0.013942117
0.06952537 0.09622132 -0.007411188 0.058226213 0.08841708 -0.012373395 -0.044764113 -0.035027005
-0.004344161 0.015093429 -0.060717415 -0.007255315 0.058129884 0.03517395 -0.014989314 -0.026238166
0.033111833 0.07727162 0.044247515 -0.055001438 -0.05670957 0.057034586 -0.04450838 -0.0012461478
-0.057862066 -0.0753663 -0.01755167 0.10099703 0.0534398 0.026834812 -0.065309316 -0.029593209
-0.021753024 0.006085527 0.084582135 0.059053827 0.0148427915 0.03216564 0.07799197 0.03379947
0.07086419 0.00625295 -0.03369689 -0.05588302 -0.0834565 -0.05936787 0.076378204 0.030258607
0.05865823 0.027994182 -0.07280431 -0.08539162 -0.04761057 0.027038302 0.05974224 0.012230491
-0.080694266 0.082331784 0.024982264 -0.02836627 -0.06239099 -0.0123518035 0.06455883 -0.017764404

actor.weight f4 [3, 128]
00000000: 563b e63c 95bf 94bc eb58 c43d 4d21 093d
00000010: 1bca 4b3e 16db 91bc 6053 2bbc 4e41 d03d
00000020: 069f 27bd bc40 28bd 4709 abbc 6ebf a1bc
00000030: 7b4b 97bd 10e6 93bc 9748 97bd 911a f03c
00000040: 1f00 f53d c1e9 1abd c380 bcbd f787 f93b
00000050: 9c82 cd3c 2828 a93d ce5f 003d f2e9 35bc
00000060: 8be7 a63d e891 22be 5fad 553c 1fde d3bd
00000070: 87da e13d f76c 3d3c 8988 9c3d ebba 6e3d
00000080: 03c7 1e3e 49c6 6a3d dca2 d13d bd3d f7bb
00000090: 0b04 1fbc 1911 3bbe efff 8c3d 7423 643d
000000a0: 4cb6 6c3d bce9 febc 12e5 0e3d 4fd8 fa3d
000000b0: 2488 b23c db5a d8bb c8e0 133e c4f0 75bc
000000c0: 7bf5 703d cfff b3bb afaa 033e c02c ba3c
000000d0: 9380 b5bb c01f 303c fa5a 6bbd 8a56 3e3e
000000e0: fb06 96bc 6302 c43d 4f18 abbc 9055 793c
000000f0: 02c8 47be 2ffa 3e3d b8aa 9ebd 94c4 e63d
00000100: ef91 97be 50ff dcbd 9879 88bd 2c6a 833c
00000110: 7649 323d 8ed1 be3d 748a b6bc b03a 113d
00000120: 7184 e1bc 2fad 89bd 83ec 11be e999 e2bc
00000130: 4c1e 1c3e dd94 2cbe 5d41 0c3c 4928 073e
00000140: 3c1b 8abc 990c 0c3d 3358 ff3d e2df f6bc
00000150: 11ef 24be 1789 653d 66b8 e5bd 59ea 3abe
00000160: c2cf 123e 2c1f 1fbe 3a29 193d af31 eebc
00000170: 53ec 6b3d bf01 a4bc 117a f1bd e178 e53c
00000180: 3411 59bb 7e4c 70bb d17e f03c 3d97 b0bd
00000190: b93f b2bd a9fd b6bd fcb9 183c 4013 1b3e
000001a0: 35d8 c63d b4d3 f43d 5a89 6c3d 5b5c f5bc
000001b0: 9681 efbd 528c 183e 6cba 1e3d 65ad ca3d
000001c0: 8d40 55bc eb80 ab3c 173b 1bbe e03b 4d3e
000001d0: d7e6 c13d 82d7 043e 1268 353c ba24 babc
000001e0: 2c16 0e3d 798e 5fbd 0667 793d bc6f f1bc
000001f0: f5e1 803d bdc5 86bd b0c0 45be c7d1 45bd
00000200: f159 e83d 1b0a 9b3a 2a71 49be ae94 56be
00000210: 972e 54bd 33a1 99bc 7909 98bd 480c 4abd
00000220: 2624 5abd 6401 f33c f3d9 e7bc 6d08 0d3e
00000230: 5a3d 1a3e fca7 a3bd 5eaf d03d 4aac b2bd
00000240: 8687 9e3d 81eb 3dbd 0019 803a 8006 1c3c
00000250: 7eca c9bc 53f3 30bc 5cb7 803d 5656 223d
00000260: c030 1e3c ef54 b73d 84ef 853d eae6 e4bc
00000270: 1d0c b1bd c856 813d 17de dcbd 34d6 233d
00000280: 2751 25bd 4ba1 8cbd e9a9 32be d310 53bd
00000290: 7b42 803d 5713 82bd 8bde ffbc 9315 c83d
000002a0: d721 a33b da69 0cbe 58e0 c93a 44f5 2b3d
000002b0: e02d fdbc 0446 31be e517 01be d0ce cab9
000002c0: a613 633d e911 063e 7a51 b0bd a368 30bd
000002d0: c508 f7bd 34ae 5cbc 7927 1cbd 0d80 25bd
000002e0: c837 953d a1f1 843d 75b9 173e ce33 983b
000002f0: 923e b3bd a2ea 563d e0aa c1bd b63e 4cbd
00000300: 0bda f03d 87c4 d53d 06a1 d1bd 6c3f 08bd
00000310: 07f1 88be 0f68 12be a427 13be c59a 85bc
00000320: 77e5 49be 64a6 d03b 6c69 31bc d40a 5a3d
00000330: 9e5e ad3c 9ec8 fabd 3578 bdbd 81d0 013e
00000340: e437 94bc 9fa8 25be 53ef bd3d 299d 91bd
00000350: 15a4 dfbd 3d9f 853c 5ff8 98bc 2138 e1bd
00000360: 00d8 d63c fadc e2bd daee 6fbc ddbf 0bbe
00000370: 840d e23c cddd 0c3e 9601 593e 2c15 6abd
00000380: 795b f13d f98b 15bd 053e 483d 1da4 2cbe
00000390: af6b 6abd 7081 08be 83a1 8c3b 31f6 bebb
000003a0: 9459 89bd 337b b1bd e1e8 db3c 0cea 623d
000003b0: e4f5 a9bd 1a2f 18be d3d1 42be 78f3 54bd
000003c0: fee6 bebd 0954 67bd 1355 bb3d adc2 95bd
000003d0: a416 e2bc 1450 95bd 3b8a da3c 62bb 673d
000003e0: a1a7 5dbd 2e56 a8bd af8d 82bc 00da 2f3e
000003f0: 5f41 f5bc 8d8f c0bd 143d a7bd 6cf1 a5bc
0.028104465 -0.01815776 0.09587272 0.033479024 0.19901316 -0.017804664 -0.01045689 0.10168706
-0.04092314 -0.04107736 -0.020878447 -0.019744601 -0.07387444 -0.018054038 -0.07386892 0.029309543
0.11962914 -0.03782058 -0.09204247 0.007615085 0.025086693 0.08259612 0.031341366 -0.01110314
0.08149632 -0.15875971 0.013041823 -0.103451006 0.11028009 0.011561624 0.076432295 0.058283728
0.15505604 0.057318006 0.10236141 -0.0075452016 -0.009705554 -0.18268241 0.06884753 0.055697873
0.05779104 -0.031117313 0.034886427 0.12248289 0.021793433 -0.0066026277 0.14441216 -0.015011016
0.05882786 -0.0054931412 0.1285808 0.022726417 -0.005539009 0.010749757 -0.05745981 0.185877
-0.018313875 0.09570768 -0.020885615 0.015218154 -0.1950989 0.046625312 -0.07747406 0.11267963
-0.29603526 -0.107908845 -0.06663817 0.016041838 0.04352709 0.09317313 -0.022282816 0.03545636
-0.027528973 -0.06722485 -0.14250378 -0.02766128 0.15245932 -0.16853662 0.008560506 0.13198961
-0.01685869 0.0341917 0.124679945 -0.030136053 -0.16106822 0.056038942 -0.11216812 -0.18253459
0.14337066 -0.15539235 0.037392832 -0.029076425 0.057598423 -0.020020364 -0.117908604 0.028011741
-0.0033121826 -0.0036666687 0.029357346 -0.086225964 -0.087035604 -0.089351006 0.009321686 0.15144062
0.09709207 0.11954442 0.057748176 -0.029951265 -0.116946384 0.14897278 0.038752005 0.09896354
-0.013015878 0.020935496 -0.1515926 0.20042372 0.09467857 0.12972835 0.011072176 -0.02272259
0.034689113 -0.054579232 0.060889266 -0.029472224 0.06293098 -0.06580684 -0.19311786 -0.048295762
0.1134528 0.0011828573 -0.19672075 -0.20955154 -0.051802244 -0.018753624 -0.07423682 -0.04932812
-0.05325713 0.029663749 -0.028302168 0.13772745 0.15062466 -0.07991025 0.10189699 -0.08724268
0.07740693 -0.046367172 0.0009773076 0.009523034 -0.024632689 -0.0108002005 0.06284973 0.039633118
0.009655178 0.08951747 0.065398246 -0.02794214 -0.086448886 0.0631538 -0.10784548 0.039999202
-0.040360596 -0.06866702 -0.17447628 -0.051529717 0.0626268 -0.06351345 -0.031234046 0.0976974
0.0049783993 -0.13712254 0.0015401943 0.04198195 -0.030905664 -0.17311865 -0.12606771 -0.0003868253
0.05543866 0.1309277 -0.086092904 -0.04306854 -0.120622195 -0.013469268 -0.03812358 -0.040405322
0.0728603 0.064913996 0.1481684 0.0046448475 -0.08752169 0.052469857 -0.0945642 -0.049864493
0.117603384 0.10437875 -0.10235791 -0.03326361 -0.2674639 -0.14297508 -0.1437059 -0.016309151
-0.1971644 0.0063674916 -0.010828357 0.053232983 0.021163281 -0.12245296 -0.09251443 0.12677194
-0.018093057 -0.16177605 0.09274163 -0.07110054 -0.10919968 0.016311282 -0.01867312 -0.10997034
0.026226044 -0.11077304 -0.014644349 -0.13647409 0.027594335 0.13756485 0.21192011 -0.057149097
0.11785025 -0.03651044 0.04888727 -0.16859479 -0.0572316 -0.13330626 0.0042917146 -0.005827688
-0.06706539 -0.086660765 0.026844444 0.055398986 -0.08298853 -0.14861718 -0.19025354 -0.051990002
-0.09321402 -0.056476627 0.09147086 -0.07312522 -0.027598687 -0.07290664 0.026677242 0.056575187
-0.05411494 -0.082195625 -0.0159367 0.17173004 -0.029938398 -0.0940238 -0.081659466 -0.02025672

actor.bias f4 [3]
00000000: fc58 7b3c 61e8 76bc 9db7 7dbc
0.01534104 -0.015070052 -0.015485671

critic.weight f4 [1, 128]
00000000: 7336 55bd 6a61 6b3d 4f27 37be 868b acbb
00000010: d56c 97bd e0ae ddbd 84ec 40bc 1216 3abd
00000020: c3ed ddbb 2c76 9a3d d6c1 d43d c458 5f3d
00000030: a479 a9bd 29d5 033e 6ebd e4bd 9eee 22be
00000040: 770b e4bd c0ab 55bd 0146 6a3d 842b d33d
00000050: f323 d2bd 41fe fc3c 46a7 6e3e 8c43 843d
00000060: 8a0e 003d c18b c63c 29fc fa3d 57d6 ee3d
00000070: b20e 31bd 5b07 9c3d 03d6 99bd b966 f3bc
00000080: 39b6 513c d485 ba3c 403e 263d 6ac3 3b3d
00000090: 5d9e 1bbd c1cc b93b 98dd d8bd 99e1 283d
000000a0: 51d2 0b3e 1072 173e 311d 82be 0f15 d9bd
000000b0: f84d 3b3d bbb2 ae3d 86ab 0abd 3249 c0bc
000000c0: ac49 393d f63f 7f3d ad4a a0bd 7d80 c3bd
000000d0: a57a acbd 29d7 843d 79a0 27be 1b82 993d
000000e0: 7535 ca3d 6989 ec3d 87c7 553e 17cf 813d
000000f0: 887c a6bd 9b39 0cbd d206 9e3d 5a8c abbc
00000100: 1c1a 09bc 2513 4bbd 4911 bdbc c447 24be
00000110: d102 c4bc ba7f 2dba 064c ea3c 3af5 70bd
00000120: 2aa9 f23d 2945 7e3d 0a42 13be 7da1 de3b
00000130: 8908 633d 0a4a e33d 24b1 aa3c 4054 59bd
00000140: e172 c5bd 6ecd efbd 2467 313d 106c e7bc
00000150: 888d 41bd 904e 993d ac72 d5bc fef8 babb
00000160: caf8 5abe 1114 7abc d4c0 4ebd 3b1e debb
00000170: 2005 03bc 80f6 37be fb5d e83d 864e 35ba
00000180: 9898 10be 88a6 423c eb82 953c 14f3 01be
00000190: 48e8 28bd e55d 29bd 930e 06bd d7e9 783d
000001a0: 133b c6bd 73d0 023d 15cb fb3d febd 6a39
000001b0: 2d17 4abd ee8f aabc d8cb 05bd 3413 c43b
000001c0: 13f3 1b3d f07d 603d 5882 b5bd 5daa 2abe
000001d0: 52c3 693d 999b 9e3d 2212 48be 5493 ebbc
000001e0: 31f9 143e 824a 0bbd dc26 763e 424d 16bd
000001f0: d3e2 87bd 861e 5f3d 1fb3 cfbc f3b3 7abc
-0.05205388 0.05746595 -0.17886089 -0.005265656 -0.07393805 -0.108243704 -0.01177514 -0.045431204
-0.006772728 0.07542071 0.10388534 0.054528013 -0.08275154 0.12874283 -0.11168943 -0.15911338
-0.11134999 -0.052165747 0.057195667 0.10311034 -0.10260763 0.030882956 0.23305997 0.06458196
0.031263866 0.024236562 0.12255127 0.11661976 -0.043226905 0.076185904 -0.075115226 -0.029712068
0.012799793 0.022768892 0.04058671 0.04584066 -0.037992824 0.0056701605 -0.10589141 0.04123077
0.13654448 0.14789605 -0.25412896 -0.1059972 0.045728654 0.08530184 -0.033854984 -0.023472402
0.045236275 0.062316857 -0.07826743 -0.095459916 -0.0842183 0.06486351 -0.16369809 0.07495519
0.09873477 0.115496464 0.20876895 0.063383274 -0.08129221 -0.034234624 0.077161446 -0.020940948
-0.008368041 -0.049578805 -0.023079531 -0.16043001 -0.023927124 -0.0006618459 0.028600704 -0.058827616
0.11848672 0.062077675 -0.1438066 0.0067941532 0.05542806 0.11098106 0.02083642 -0.053058863
-0.09641052 -0.117091045 0.043311253 -0.02824977 -0.047254115 0.07485688 -0.026055656 -0.0057059517
-0.21383968 -0.015263573 -0.050476864 -0.006778506 -0.007996827 -0.17965126 0.1134605 -0.0006916303
-0.1412071 0.011880524 0.018250903 -0.12690383 -0.041237146 -0.04134931 -0.032728743 0.060769882
-0.09679236 0.031937074 0.12294594 0.00022386757 -0.04933851 -0.020820584 -0.032665104 0.0059837345
0.03807361 0.054807603 -0.08862752 -0.16666551 0.057071038 0.07744522 -0.19538167 -0.028756775
0.14548184 -0.034006603 0.24038261 -0.036694773 -0.0663506 0.05447247 -0.025353966 -0.015301692
