W__RNN/W_RNN/md2/v_3/train_iter_1500.pt (torch, 80523 bytes, 8 tensors)

h0 f4 [128]
0	0x3e94d0e1	0.29065612
1	0xbf6523d3	-0.8950779
2	0xbfb38d0d	-1.402742
3	0xbe7d23bf	-0.24720667
4	0xbf38b1c4	-0.7214625
5	0x3daca9de	0.08430837
6	0x3f53ca6c	0.82730746
7	0xbe1602ff	-0.1464958
8	0x3f3e44a3	0.7432348
9	0xbf04b468	-0.5183778
10	0x40351b95	2.8298085
11	0xbe2517df	-0.16122387
12	0x3fcd0a2e	1.6018732
13	0xbf90b031	-1.1303769
14	0x3fd953f7	1.6978749
15	0xbfbbbd2a	-1.4667103
16	0x3fbd7118	1.4800138
17	0xbef043f5	-0.46926847
18	0x3fcb37aa	1.5876362
19	0xbf2e404a	-0.6806685
20	0x3ef45ace	0.47725528
21	0x3fadc9fa	1.3577263
22	0x3e1403f4	0.14454633
23	0x3fc75f74	1.5576005
24	0x3f9cb7c0	1.2243576
25	0x3e9179e6	0.28413314
26	0xbf86777a	-1.0505211
27	0xbf172ee1	-0.59055907
28	0xbebb86f5	-0.36626402
29	0xbecedbe0	-0.40402126
30	0xbfcf589f	-1.619892
31	0x3f9d669e	1.2296941
32	0xbda50de8	-0.08059293
33	0x3f73b34a	0.9519545
34	0xbd5f3d4f	-0.054501828
35	0xbd79b988	-0.060967952
36	0x3fbbfa6a	1.4685795
37	0xbf4bf2d0	-0.7966738
38	0x3f9e9087	1.2387856
39	0xbf1bfbe3	-0.60931224
40	0x3f1ea390	0.61968327
41	0xbe6ddf2a	-0.23229662
42	0x3fa83d59	1.3143722
43	0xbedeb5fa	-0.43498212
44	0x3d4878b6	0.048943244
45	0x3f900ae4	1.1253324
46	0xbf6035d4	-0.87582135
47	0xbf013d72	-0.50484383
48	0xbf987d02	-1.1913149
49	0xbf17c4ba	-0.59284556
50	0x3f68b57d	0.9090193
51	0x3fce9da4	1.6141858
52	0xbf340b4a	-0.70329726
53	0x3ea2011e	0.31641477
54	0x3eac31a4	0.33631623
55	0xbe430425	-0.1904455
56	0xbd32824d	-0.043581296
57	0xbf44180b	-0.76599187
58	0x401c2990	2.4400368
59	0xbf8229f1	-1.016905
60	0xbf723351	-0.9460955
61	0x3f3c3591	0.73519236
62	0x3f6fb12d	0.93629724
63	0x3f6d1c23	0.9262106
64	0x3f37bb86	0.71770513
65	0x3d5790b1	0.052628223
66	0xbf205c50	-0.6264086
67	0x3e2c4379	0.16822614
68	0x402b4199	2.6758788
69	0x3d922ea3	0.071378015
70	0xbf989f6d	-1.1923653
71	0xbe90f35a	-0.28310663
72	0x3f9d9372	1.2310622
73	0xbd97ffe1	-0.07421852
74	0xbf84b564	-1.0367856
75	0x3f83cbf0	1.0296612
76	0x3ec17cd9	0.37790564
77	0xbf21fea3	-0.6327917
78	0x3f99bbaa	1.2010396
79	0x3c5129e3	0.012766334
80	0x3ec43af9	0.38326243
81	0xbf871d74	-1.0555863
82	0x3ea0e96d	0.3142809
83	0x3e8be6a6	0.27324408
84	0xbf229248	-0.6350446
85	0x3f35758b	0.7088248
86	0xbf12e7fa	-0.5738522
87	0xbe272dd3	-0.16326074
88	0xbfd8c40c	-1.6934829
89	0x3e0ffc15	0.14061005
90	0x3f143f30	0.57908916
91	0xbfef4b2d	-1.8694817
92	0x3e1de2c1	0.15418531
93	0xbf93b887	-1.1540688
94	0x3f1d8d97	0.61544174
95	0xbece6cbb	-0.4031733
96	0xbf620765	-0.88292533
97	0xbf03e86a	-0.5152651
98	0x3f675cf2	0.903762
99	0x3f393762	0.7235013
100	0xbf579bfa	-0.84222376
101	0x3f3db832	0.74109185
102	0xbf92f551	-1.1481115
103	0x3f5d9fb7	0.8657183
104	0xc00ab859	-2.1675017
105	0x3f2fdbeb	0.68694943
106	0x3f63ac9f	0.88935274
107	0xbed72648	-0.42021394
108	0x3f0f1c33	0.55902404
109	0xc01e07d1	-2.469227
110	0xbe2c7e6c	-0.16845101
111	0x3e257186	0.16156587
112	0xbe47e543	-0.1952105
113	0x3e8801a3	0.2656375
114	0xbe0adff6	-0.13561997
115	0x3f2da339	0.67827183
116	0x3e82364d	0.25432053
117	0x40221568	2.5325565
118	0xbf7dccf6	-0.9914087
119	0xbef7b778	-0.48382163
120	0xbde1c998	-0.11024779
121	0xbfaf5e51	-1.3700658
122	0xbd67e06a	-0.056610502
123	0xbfa04170	-1.251997
124	0xc03b571a	-2.9271913
125	0xc00335f5	-2.0501683
126	0x3fbb086c	1.4611945
127	0x3edbaecb	0.42906794

RNN.weight_ih_l0 f4 [128, 17]
0	0x3d2e0f19	0.042494867
1	0x3e85c48a	0.2612651
2	0x3d90bc92	0.07067217
3	0x3e7b5d2a	0.24547258
4	0xbe3d77b8	-0.185027
5	0xbc828602	-0.01593304
6	0x3cc2af52	0.02376524
7	0xbea83d86	-0.3285944
8	0xbeaf49d1	-0.34236005
9	0xbe91ed62	-0.2850142
10	0xbe0794ae	-0.1324031
11	0x3e47e28a	0.19520012
12	0x3e0337fb	0.12814324
13	0x3bb37c75	0.005477483
14	0x3d981101	0.07425118
15	0x3cfd5a26	0.030926775
16	0x3e631edf	0.22179745
17	0xbd71ba33	-0.059015464
18	0xbd7ebd9f	-0.062192556
19	0xbe125f39	-0.14294137
20	0xbe5da722	-0.21645787
21	0x3d5ceeea	0.053938784
22	0xbe14a9ad	-0.14517851
23	0x3cdc8bbe	0.026922103
24	0x3ed8b635	0.42326513
25	0x3e62919e	0.22125861
26	0x3e7805fa	0.2422103
27	0xbc839b90	-0.016065389
28	0x3d25602e	0.040374927
29	0x3e06b532	0.13155058
30	0xbd83e6d3	-0.064405106
31	0x3d7c53e0	0.061603427
32	0xbd8a299d	-0.06746218
33	0xbd18caf8	-0.03730294
34	0x3c3109ea	0.010805586
35	0x3d77702d	0.060409714
36	0xbb6dc987	-0.003628345
37	0xbdd0f428	-0.10202819
38	0x3d9389cd	0.07204018
39	0x3d2d3cf9	0.042294476
40	0x3ca0b3af	0.01961693
41	0x3ca7ea88	0.020497575
42	0x3d957f12	0.07299627
43	0x3d80f4d4	0.06296697
44	0xbe03f0e7	-0.12884866
45	0xbdcae8a9	-0.09907658
46	0x3eb45849	0.35223606
47	0xbe0c3114	-0.13690597
48	0x3d791b3b	0.060816985
49	0x3d086b34	0.033305362
50	0xbdc60afa	-0.09670062
51	0xbdaa7f42	-0.08325054
52	0x3c0cc734	0.008592416
53	0x3e3a7180	0.1820736
54	0x3ef204be	0.47269243
55	0xbcc01323	-0.023446625
56	0x3d8b8c63	0.06813886
57	0x3e74998d	0.238867
58	0xbdc1d67c	-0.09464738
59	0xba9751ef	-0.0011544804
60	0xbd789eb5	-0.06069823
61	0xbd1d7ed9	-0.03845105
62	0xbd726900	-0.059182167
63	0xbdf7703c	-0.12081954
64	0xbbcbad64	-0.006215738
65	0x3d76f901	0.060296062
66	0xbdc2ceb7	-0.09512084
67	0xbd0f63db	-0.03500734
68	0xbe6658a7	-0.22494756
69	0xbd167f64	-0.036742583
70	0xbbf943aa	-0.007606943
71	0x3cadbd76	0.021208506
72	0xbb5ab92f	-0.0033374538
73	0xbdb003ae	-0.08594452
74	0xbe035982	-0.12827113
75	0x3dabeabe	0.08394383
76	0x3a29038c	0.0006447367
77	0xbb6db316	-0.0036270074
78	0x3e781ebc	0.24230474
79	0x3dea36f1	0.114362605
80	0xbda50938	-0.08058399
81	0x3d7c8214	0.06164749
82	0x3d590d66	0.052991293
83	0xbdb815cf	-0.08988535
84	0x3d8da446	0.06916098
85	0xbd95595a	-0.07292433
86	0xba88283a	-0.0010387965
87	0x3d85c566	0.065317914
88	0x3f03dacf	0.5150575
89	0xbdadf17c	-0.08493325
90	0xbc7aaec3	-0.0153004555
91	0xbb96d03e	-0.004602461
92	0xbd92bb1b	-0.07164594
93	0xbd60466b	-0.054754656
94	0xbd6c3211	-0.057664935
95	0xbcfaa217	-0.030594869
96	0xbeaed289	-0.34145
97	0x3e78d233	0.24298935
98	0xbe321a45	-0.17392834
99	0x3d3bf445	0.04588725
100	0x3d36bcbe	0.044613592
101	0xbe67de1b	-0.2264332
102	0x3d778ab5	0.060435016
103	0x3d242e53	0.04008324
104	0x3e90ca6e	0.28279442
105	0xbd713ca3	-0.05889572
106	0xbe20c41e	-0.15699813
107	0xbc322518	-0.010873102
108	0xbca77492	-0.020441327
109	0xbde29637	-0.110638075
110	0xbda0812f	-0.0783714
111	0xbdd004ee	-0.1015719
112	0x3daed38e	0.085364446
113	0x3e80b378	0.25136924
114	0xbdfc6a1c	-0.12324926
115	0xbdb8b65e	-0.09019159
116	0x3c315cd2	0.010825353
117	0xbd0e0056	-0.03466829
118	0x3dd68f3c	0.104765385
119	0xbc0cdd72	-0.008597719
120	0xbddbe4fe	-0.10737036
121	0x3e08c8a3	0.13357787
122	0x3eab2356	0.33425397
123	0xbe533611	-0.20626093
124	0xbe9f2808	-0.3108523
125	0xbe08ca7c	-0.13358492
126	0xbd9aaa2d	-0.0755199
127	0xbda9e415	-0.08295456
128	0xbd63d268	-0.05562058
129	0xbd21b504	-0.03947927
130	0xbc39dcbf	-0.011344134
131	0x3de4988b	0.11161908
132	0xbdaf3b46	-0.085562274
133	0xbc866e77	-0.016410096
134	0x3dcbc7e2	0.09950234
135	0xbdeea00b	-0.116516195
136	0x3e6df4ae	0.23237869
137	0x3d42992b	0.047509354
138	0x3b6b59dc	0.0035911715
139	0x3be390a5	0.006944733
140	0xbb575a80	-0.0032860339
141	0x3e007f39	0.12548532
142	0x3e188282	0.14893535
143	0xbe04e005	-0.12976082
144	0xbd9abfba	-0.075561
145	0xbdf42ece	-0.1192299
146	0xbd42abd6	-0.047527157
147	0xbe618c00	-0.22026062
148	0xbe80e4e1	-0.2517462
149	0x3cd55512	0.026041541
150	0xbd8e31ba	-0.06943078
151	0x3da837c2	0.0821376
152	0x3afd9ce7	0.0019349129
153	0x3db4b025	0.088226594
154	0xbdab0c60	-0.0835197
155	0xbda49294	-0.0803577
156	0xbca6545c	-0.020303898
157	0x3d1e58f7	0.038659062
158	0x3c853ba5	0.016263792
159	0xbd180f4f	-0.037123974
160	0xbc2055dd	-0.009786096
161	0x3c80e443	0.015733844
162	0xbd5e8d56	-0.054334007
163	0xbd28d83b	-0.04122184
164	0xbde87df1	-0.113521464
165	0x3dfecc5b	0.124413215
166	0x3c542666	0.012948608
167	0x3d970f67	0.07375985
168	0x3d96df6c	0.07366833
169	0xbd0c89da	-0.034311153
170	0xbd9ecf16	-0.07754342
171	0xbe45d7f2	-0.19320658
172	0xbd882af5	-0.066488184
173	0xbdcb8dbf	-0.09939145
174	0x3de6a448	0.11261803
175	0x3c8337e7	0.016017867
176	0xbe3de1d1	-0.18543173
177	0x3dc61459	0.0967185
178	0x3e11905d	0.14215226
179	0x3db811b8	0.089877546
180	0x3d9f99ef	0.077930324
181	0x3d68396f	0.056695398
182	0xbd284572	-0.041081853
183	0xbd9dd6a7	-0.07706957
184	0x3d20c8c0	0.03925395
185	0x3bffcfd2	0.0078067565
186	0xb9924ca8	-0.00027904403
187	0x3d9d1c12	0.076713696
188	0x3a73b5f7	0.0009296829
189	0x3ca3abe7	0.01997943
190	0x3c99e06c	0.01878377
191	0xbd4b6075	-0.049652535
192	0xbdcc3cd0	-0.099725366
193	0x3da69669	0.08134157
194	0x3d0d94a5	0.034565587
195	0xbcadcdf0	-0.021216363
196	0xbd5dcee0	-0.05415237
197	0xbdccec37	-0.10005992
198	0xbe532206	-0.20618448
199	0x3d887a14	0.066639096
200	0xbdda24b6	-0.10651533
201	0x3e18aa72	0.1490877
202	0x3c139ceb	0.00900958
203	0x3ce4e8ad	0.02794298
204	0x3e15456a	0.1457726
205	0xbda714f7	-0.081582956
206	0x3e9407b4	0.28912127
207	0x3f06ae93	0.5261013
208	0xbe14c9cc	-0.14530104
209	0xbe77484e	-0.24148676
210	0x3e00ed79	0.12590589
211	0xbd228421	-0.03967679
212	0xbdca09e5	-0.098651685
213	0xbd950447	-0.072762065
214	0xbe7b4b18	-0.24540365
215	0xbdcf6298	-0.10126227
216	0x3e491e3d	0.19640441
217	0xbe529647	-0.20565139
218	0xbce87ff6	-0.028381329
219	0x3d62375a	0.05522857
220	0xbe025e0b	-0.12731187
221	0xbda65c76	-0.08123104
222	0x3d4f8646	0.050665163
223	0xbe078edd	-0.13238092
224	0xbed41f3d	-0.41430083
225	0x3e5218cd	0.20517273
226	0x3d675240	0.056474924
227	0x3ddd004e	0.10791074
228	0x3d8d0a4b	0.06886729
229	0x3e1fdf40	0.15612507
230	0x3e4656cb	0.19369046
231	0x3ded0c91	0.115746625
232	0x3e65e7c5	0.22451694
233	0xbdedb260	-0.11606288
234	0x3d85ef15	0.06539742
235	0x3c64f4ef	0.013974412
236	0xbe0c271e	-0.13686797
237	0x3e7177d0	0.23580861
238	0xbb092cce	-0.0020931247
239	0x3e0119f9	0.12607564
240	0x3d85d139	0.06534047
241	0x3eea14a5	0.45718876
242	0x3ca251db	0.019814422
243	0x3e816e3a	0.2527941
244	0x3c179cee	0.009253724
245	0xbe09e323	-0.13465552
246	0xbd8bdd72	-0.06829347
247	0xbe0032fe	-0.12519452
248	0xbdbdf871	-0.09275902
249	0xbda4a5ed	-0.0803946
250	0x3e23eebe	0.16009042
251	0x3cb5d63e	0.022196885
252	0x3d36f66f	0.04466861
253	0xbcc9d97a	-0.024639834
254	0xbcf4ab68	-0.02986689
255	0x3cdffc60	0.027342021

RNN.weight_hh_l0 f4 [128, 128]
0	0xbd901668	-0.07035524
1	0x3e03682c	0.12832707
2	0x3d7c60ec	0.06161587
3	0xbd08e946	-0.033425592
4	0xbd01aa7c	-0.031656727
5	0xbd153036	-0.03642293
6	0xbd707b64	-0.058711424
7	0x3d40fdcd	0.047117043
8	0xbd4252de	-0.04744231
9	0x3d8036f9	0.06260485
10	0xbd30f488	-0.043201953
11	0x3dc7a653	0.09748521
12	0xbd80ecdb	-0.062951766
13	0x3c2ad336	0.010426333
14	0x3d6a9390	0.057269633
15	0xbd63ae76	-0.0555863
16	0x3c97819e	0.018494423
17	0x3d8a1fb7	0.067443304
18	0xbe00096c	-0.12503594
19	0x3d6e2363	0.058139216
20	0xbcf4f46d	-0.029901708
21	0xbce90584	-0.028445013
22	0x3e070128	0.13184035
23	0x3dc7cee8	0.09756261
24	0x3dddd3d4	0.10831419
25	0xbc75bf14	-0.01499917
26	0x3cbf7980	0.023373365
27	0xbc7c49b7	-0.015398434
28	0xbd8642a0	-0.065556765
29	0x3d8c282e	0.06843601
30	0xbd54b5db	-0.051931243
31	0xbcdffe05	-0.027342806
32	0xbd30125c	-0.04298626
33	0xbc5ee598	-0.013604544
34	0x3cbf6bcf	0.023366837
35	0x3ddba17f	0.10724162
36	0x3c513eef	0.012771352
37	0x3ca1e883	0.01976419
38	0xbd2fa385	-0.042880554
39	0xbbff915a	-0.0077993097
40	0x3d8063e8	0.062690556
41	0x3b088b32	0.002083492
42	0x3d611b58	0.054957718
43	0x3df17a5b	0.117909156
44	0x3e8ffffe	0.28124994
45	0x3d7e375f	0.062064525
46	0x3c5507c7	0.013002343
47	0x3b44bdf4	0.0030020447
48	0x3d98a15a	0.0745265
49	0x3d853b88	0.06505495
50	0xbafac1c8	-0.0019131238
51	0xbdf32b2f	-0.11873471
52	0x3db89607	0.090129904
53	0xbdd41cac	-0.10357031
54	0xbdb3ad06	-0.08773236
55	0x3dbd42ff	0.09241294
56	0x3d569b41	0.052394155
57	0xbc84ed24	-0.016226359
58	0xbd3d1f32	-0.04617233
59	0xbd4b4f4e	-0.049636178
60	0xbd2c6c27	-0.04209533
61	0x3d3341fd	0.043764103
62	0x3df96571	0.121775515
63	0xbcb76e12	-0.022391353
64	0xbc37a5a2	-0.0112089235
65	0x3cd31922	0.02576882
66	0x3dc57ec2	0.09643318
67	0x3e1b74ee	0.15181324
68	0x3e06d66c	0.13167733
69	0x3d851302	0.06497766
70	0xbc180d07	-0.00928045
71	0x3d0ef87e	0.03490495
72	0x3d400701	0.04688168
73	0x3e238587	0.15968905
74	0x3c48d2d1	0.012257294
75	0x3d58b82b	0.05291001
76	0xbc98d794	-0.018657483
77	0xbc14464a	-0.009049961
78	0xbdb62cff	-0.08895301
79	0xbb24fac5	-0.0025173884
80	0xbd409ef5	-0.047026593
81	0xbd06dbb9	-0.032924388
82	0xbd7f5cea	-0.06234447
83	0xbd62b035	-0.055343825
84	0xbdd3824f	-0.10327589
85	0x3dc1eec1	0.09469367
86	0x3c8ebeeb	0.017425021
87	0x3de627b8	0.112380445
88	0xbcbf0aeb	-0.023320636
89	0xbd6f7163	-0.058457743
90	0xbdd24611	-0.1026727
91	0x3c0ecd6f	0.008715971
92	0xbd49de47	-0.049284246
93	0xbd8dd084	-0.06924537
94	0xbc532f8d	-0.012889755
95	0xbcaba252	-0.020951424
96	0xbd994484	-0.074837714
97	0xbb7184e1	-0.0036852884
98	0x3d45099b	0.048104864
99	0x3db640a5	0.08899049
100	0x3db0fd93	0.086421154
101	0xbd90b220	-0.07065225
102	0x3d98ab74	0.07454577
103	0x3c5bf588	0.013425238
104	0x3d318578	0.043340176
105	0xbc3d6949	-0.0115607465
106	0x3cf1487f	0.029453514
107	0xbdc5ac2e	-0.09651981
108	0x3d0b486b	0.03400461
109	0xbe18e498	-0.14930952
110	0x3e09197a	0.13388625
111	0xbd8876ab	-0.06663259
112	0xbd812937	-0.06306689
113	0x3d2f67ad	0.042823482
114	0x3d8a8f08	0.06765562
115	0x3d520224	0.051271573
116	0x3bb44d7e	0.005502402
117	0xbdbad709	-0.09123046
118	0xbdbadd22	-0.09124209
119	0xbdbe0c93	-0.09279742
120	0xbd7d2c09	-0.061809573
121	0x3e2118e2	0.15732148
122	0x3d2c6107	0.04208472
123	0x3c356a27	0.011072672
124	0xbd875aca	-0.066091135
125	0xbd139549	-0.03603104
126	0xbda5cb0d	-0.080953695
127	0x3de7d7e2	0.11320473
128	0xbd5b3b53	-0.053523373
129	0xbbf3a0bb	-0.007434932
130	0xbd52396f	-0.051324304
131	0xbd8b5371	-0.068030246
132	0xbd963e05	-0.07336048
133	0xbda04010	-0.07824719
134	0x3c98a46c	0.01863309
135	0x3ca82a21	0.020527901
136	0x3db30c0a	0.08742531
137	0x3d8258bb	0.0636458
138	0xbd907b6e	-0.07054792
139	0x3d27a323	0.040927064
140	0xbd189258	-0.03724894
141	0xbdcba1bb	-0.09942957
142	0x3db306b0	0.0874151
143	0x3d6c9a5b	0.057764392
144	0xbda5bf68	-0.080931485
145	0xbddd9a0f	-0.108204
146	0xbc9c4c39	-0.019079315
147	0xbd66a022	-0.05630506
148	0x3d4fa1ae	0.0506913
149	0xbdbf74a7	-0.093484215
150	0xbd9221b8	-0.071353376
151	0x3d0a56ce	0.03377419
152	0x3d395f94	0.045257166
153	0x3ccf62b5	0.025315622
154	0x3d0f896b	0.03504316
155	0xbd71c56c	-0.059026167
156	0x3c4b4357	0.012406192
157	0xbcc92f54	-0.0245587
158	0x3da04219	0.07825107
159	0x3c48d4a5	0.01225773
160	0xbcef6725	-0.029223988
161	0x3cc37d5f	0.023863493
162	0x3dcd4c13	0.10024276
163	0x3d4bcf84	0.04975845
164	0xbdbd092a	-0.092302635
165	0x3d8063bc	0.06269023
166	0x3cc07214	0.023491897
167	0x3dc57ea7	0.09643298
168	0x3d83ee83	0.06441977
169	0xbd5fb8b9	-0.054619525
170	0x3a734fad	0.0009281587
171	0xbddb77df	-0.10716223
172	0xbcb78bf8	-0.02240561
173	0x3c86963b	0.016429057
174	0xbd6c0930	-0.05762595
175	0xbc44e5b2	-0.012017654
176	0x3cb91c15	0.022596398
177	0x3ce123ee	0.027482953
178	0x3d7b69c4	0.061380163
179	0xbb27e69c	-0.0025619632
180	0x3d5d4d55	0.054028828
181	0x3d911b1f	0.07085251
182	0x3cc479ed	0.02398392
183	0x3cd0ec13	0.025503194
184	0x3d938bb3	0.0720438
185	0x3d9cf926	0.07664709
186	0xbcec44fc	-0.028841488
187	0xbd0f5bf0	-0.034999788
188	0xbd25d998	-0.040490717
189	0xbc907cc2	-0.017637614
190	0x3c1e4230	0.009659335
191	0x3daa2097	0.08306997
192	0xbc91b910	-0.01778844
193	0xbd1cc391	-0.038272444
194	0xbd170f1c	-0.036879644
195	0xbd7a7105	-0.06114294
196	0xbd1ecc9f	-0.03876936
197	0xbd9b1692	-0.07572664
198	0xbc2a2142	-0.010383906
199	0x3cf58ac7	0.0299734
200	0x3c56a4d2	0.01310082
201	0xbc04a68c	-0.0080963485
202	0x3cbb3182	0.022850756
203	0xbc6f7250	-0.014614657
204	0xbd75b853	-0.05999024
205	0xbb6a07a4	-0.003571012
206	0x3da156ab	0.07877859
207	0x3c027e1b	0.007964636
208	0xbbd137d1	-0.0063848277
209	0xbddbd2d3	-0.10733571
210	0x3d89a73a	0.06721349
211	0x3c89b4b8	0.016809806
212	0xbb1b9df7	-0.0023745277
213	0x3d468dd1	0.04847509
214	0xbd2127f0	-0.039344728
215	0x3d51ce78	0.051222295
216	0x3d9cf8ae	0.076646194
217	0x3de10026	0.109863564
218	0x3db762b2	0.089543715
219	0xbc9e6f69	-0.019340234
220	0xbd568280	-0.05237055
221	0x3dc557bc	0.09635875
222	0xbcd8606c	-0.026413165
223	0x3cfaeac7	0.030629529
224	0x3ccf3698	0.025294587
225	0xbd46e4eb	-0.048558157
226	0x3d237772	0.039908834
227	0xbd9d9167	-0.07693749
228	0x3d90bad2	0.07066883
229	0x3ccf9e51	0.025344046
230	0xbd435512	-0.04768855
231	0xbd5445bb	-0.051824313
232	0xbadbb6f2	-0.0016762896
233	0xbdf778cc	-0.12083587
234	0x3d824c6d	0.06362233
235	0xbd5defa8	-0.054183632
236	0x3d91b9b1	0.07115496
237	0x3d16a081	0.036774162
238	0x3d13b1e8	0.036058336
239	0xbd7c2831	-0.061561767
240	0x3b2bcd39	0.0026214852
241	0x3cb3a24b	0.021927973
242	0x3d1824dd	0.03714453
243	0x3ce530ee	0.027977433
244	0x3d6b762d	0.057485748
245	0xbc4484bd	-0.011994538
246	0x3b2aad00	0.0026043057
247	0x3d0b5d1a	0.034024335
248	0x3dec4bd8	0.115379035
249	0x3d354c08	0.044261962
250	0xbd5665d8	-0.05234322
251	0xbce8144f	-0.028329996
252	0x3cb796ab	0.022410711
253	0xbd1178e5	-0.035515685
254	0x3d486054	0.04891999
255	0x3cd281a3	0.025696581

RNN.bias_ih_l0 f4 [128]
0	0x3d412530	0.047154605
1	0x3d28556c	0.04109709
2	0x3d8b745e	0.06809305
3	0x3dad5a48	0.084644854
4	0xbd55753e	-0.052113764
5	0xb9ede58a	-0.00045375183
6	0x3d8e01e3	0.069339536
7	0xbcbf43fe	-0.02334785
8	0xbd8a7b67	-0.067618184
9	0xbc9757de	-0.018474516
10	0x3bdd4da0	0.0067536384
11	0x3d20c049	0.039245877
12	0x3d627be4	0.055293933
13	0x3d492721	0.04910958
14	0xbd30100b	-0.04298405
15	0xbd9a51bf	-0.07535123
16	0x3dbf9902	0.09355356
17	0xbd237bc6	-0.03991296
18	0x3de9a581	0.114085205
19	0xbc933603	-0.01797009
20	0xbd1dc6a1	-0.038519505
21	0x3d706206	0.058687232
22	0x3da6e918	0.08149928
23	0x3d84b41f	0.06479668
24	0x3c9582f1	0.018250914
25	0xbbdd0167	-0.006744552
26	0x3d0202bd	0.031740893
27	0x3dbfbd46	0.09362273
28	0x3dbbc801	0.09169007
29	0xbc1b7655	-0.009488662
30	0x3cfae52e	0.03062686
31	0x3e04789c	0.12936634
32	0xbd5ada11	-0.05343062
33	0xbdacd7bf	-0.08439588
34	0xbd3c25f5	-0.045934636
35	0xbd1c3a69	-0.03814164
36	0x3e152821	0.14566089
37	0x3e0fcd09	0.14043058
38	0x3d88fad7	0.06688469
39	0x3bc1dd33	0.0059162616
40	0xbd93404c	-0.07189998
41	0xbd84bd1d	-0.06481383
42	0xbcb5ea84	-0.022206552
43	0x3cafcf08	0.021461025
44	0x3d4fb99c	0.05071412
45	0xbd819a0a	-0.06328209
46	0xbda7adab	-0.081874214
47	0x3d538d92	0.051648684
48	0x3d565a38	0.052332133
49	0x3d8b2881	0.06794835
50	0x3da37340	0.079809666
51	0x3ca216cc	0.019786261
52	0x3d3a2609	0.04544643
53	0xbc1102b6	-0.008850744
54	0xbd428c3f	-0.04749703
55	0x3ce6086a	0.028080184
56	0x3d8b1d1a	0.0679266
57	0xbd378d94	-0.044812754
58	0xbc2986b9	-0.010347062
59	0xbd155369	-0.0364565
60	0xbcbece1d	-0.023291642
61	0x3c244957	0.010027251
62	0x3c0a6fba	0.008449489
63	0x3cc0d0e5	0.023537109
64	0x3c75cc4e	0.015002323
65	0x3db14615	0.08655945
66	0xbcb8a17a	-0.022537936
67	0x3d488a25	0.04895987
68	0x3dbd671c	0.09248182
69	0x3daa231e	0.08307479
70	0x3ce509f8	0.027958855
71	0x3b4a1dd7	0.003084054
72	0xbd4a9b2a	-0.049464382
73	0xbd32d28c	-0.043657824
74	0xbd908b25	-0.0705779
75	0x3d726ac3	0.059183847
76	0xbcdaa75d	-0.026691133
77	0xbd0ca8e4	-0.034340754
78	0xbdb0b94d	-0.08629093
79	0x3dd120bf	0.10211324
80	0x3ddc677e	0.10761927
81	0xbc362acf	-0.011118605
82	0x3d069294	0.03285463
83	0x3d843e9a	0.06457253
84	0xbd50f9c4	-0.051019445
85	0x3d8b246c	0.06794056
86	0xbcc40ecd	-0.023932839
87	0x3d0b5c53	0.034023594
88	0x3cc48c91	0.023992809
89	0xbcd092d4	-0.025460638
90	0x3daa7474	0.08322993
91	0x3bb01dbd	0.005374639
92	0x3dae0b24	0.08498219
93	0x3b2d601c	0.002645499
94	0xbd483640	-0.04887986
95	0xbd964c90	-0.07338822
96	0xbd68d275	-0.056841332
97	0xbd5f34ae	-0.0544936
98	0x3d6f9102	0.0584879
99	0x3da4da12	0.08049406
100	0x3db50e1c	0.08840582
101	0x3b878e8f	0.0041368674
102	0x3d942009	0.07232673
103	0x3b04f9b8	0.0020290446
104	0xbdb33dcc	-0.08752021
105	0x3db3076f	0.08741652
106	0xbd248290	-0.040163577
107	0x3dc4a4aa	0.0960172
108	0x3d935365	0.071936406
109	0x3cbf0cbe	0.023321506
110	0x3d07c415	0.033145983
111	0x3d979029	0.07400543
112	0xbcdb6acb	-0.026784321
113	0xbc92f9fa	-0.017941464
114	0xbd303b5d	-0.043025363
115	0x3d3a4fca	0.04548625
116	0x3d62dd9e	0.055387132
117	0x3da706bf	0.081555836
118	0x3da9e914	0.08296409
119	0x3db80b1d	0.08986495
120	0x3c615922	0.013754161
121	0x3c554b67	0.013018466
122	0x3bd495c7	0.0064875814
123	0x3ce1e4e5	0.027574966
124	0xbd4ee8f6	-0.050515138
125	0x3c2c1136	0.01050215
126	0xbd9e6c12	-0.077354565
127	0x3dd774fd	0.105203606

RNN.bias_hh_l0 f4 [128]
0	0x3ddc50ba	0.10757585
1	0x3d2f9a92	0.04287202
2	0x3d4d7f81	0.050170425
3	0xbd40a713	-0.047034334
4	0x3c75cbb7	0.015002183
5	0x3d87ac9c	0.066247195
6	0xbd8587d4	-0.06520048
7	0x3d6e9824	0.05825056
8	0x3caa640e	0.020799663
9	0x3b7d9230	0.003869187
10	0x3d35d2f6	0.04439064
11	0x3e000737	0.12502752
12	0x3d0d073a	0.03443072
13	0xbccd9ff9	-0.025100695
14	0x3da5d206	0.080966994
15	0x3d8106f3	0.063001536
16	0xbda390b2	-0.07986583
17	0xbd1fa77f	-0.038978096
18	0x3dd12d7a	0.10213752
19	0x3d2a33d0	0.04155332
20	0x3b6b3594	0.003589009
21	0x3db6986d	0.08915792
22	0xbdaf2678	-0.08552259
23	0x3cc126c6	0.023578059
24	0x3c9f08f6	0.019413453
25	0x3db1e354	0.086859375
26	0xbd71f804	-0.059074417
27	0xba03d580	-0.00050290674
28	0x3dc5787b	0.096421205
29	0xbd26bae9	-0.040705595
30	0x3c7e401e	0.015518216
31	0xbcd67b63	-0.026181882
32	0x3dc356d2	0.09538044
33	0xbdc9137b	-0.09818169
34	0xbd8e434d	-0.0694643
35	0x3d79ea7d	0.06101464
36	0x3d8895a4	0.06669167
37	0x3ceddfc8	0.029037371
38	0x3ca6f6d6	0.020381372
39	0x3dcdec7a	0.1005487
40	0x3ce67661	0.02813262
41	0x3c8f06c6	0.017459285
42	0x3bfe2036	0.0077553047
43	0xbd70e16b	-0.058808725
44	0xbd21df04	-0.039519325
45	0xbd921eff	-0.07134818
46	0xbd329807	-0.043602016
47	0x3bf9717f	0.0076124067
48	0x3d078e97	0.03309497
49	0x3d9f359a	0.077738956
50	0xbd1f6913	-0.038918566
51	0x3ceeae14	0.029135741
52	0x3d980269	0.07422335
53	0xbda28c45	-0.079369105
54	0x3d8c1067	0.06839066
55	0x3d0115ac	0.03151481
56	0x3daf0c93	0.0854732
57	0xbba9dab9	-0.0051835445
58	0x3d6114aa	0.054951347
59	0x3cfd71b7	0.030938013
60	0x3aa7645c	0.0012770998
61	0xbd4ccbc3	-0.04999901
62	0x3cb2a808	0.02180864
63	0xbb949530	-0.004534386
64	0x3d8cb1ef	0.06869876
65	0xbb22825f	-0.0024796946
66	0x3d8008d4	0.06251684
67	0xbbb1642a	-0.005413552
68	0x3d98b753	0.07456841
69	0x3cb4ed47	0.022085799
70	0x3bcf6e24	0.0063302685
71	0xba41846d	-0.00073820987
72	0x3bd3f346	0.0064682094
73	0xbaa778ba	-0.0012777068
74	0x3cc75921	0.024334492
75	0x3da11efb	0.07867237
76	0x3c4d070e	0.012513889
77	0x3d8290b0	0.06375253
78	0xbddf719f	-0.109103434
79	0x3d0a2e7a	0.03373573
80	0x3c93ce8b	0.018042823
81	0x3cae886e	0.02130529
82	0x3d750781	0.05982161
83	0x3dd3ef8b	0.103484236
84	0x3dbef344	0.09323743
85	0x3dc22536	0.09479754
86	0xbd37dc92	-0.044888087
87	0x3d89d733	0.06730499
88	0xbd0f3b29	-0.03496853
89	0xbd27ad50	-0.040936768
90	0xbd434be7	-0.047679808
91	0x3bb621e3	0.005558239
92	0x3d55d859	0.05220828
93	0x3d95af1e	0.073087916
94	0xbdbb65fd	-0.09150312
95	0x3d519ea2	0.051176675
96	0x3d501d7c	0.05080937
97	0xbcb9ce27	-0.022681309
98	0xbc358064	-0.011077974
99	0x3d30e1bd	0.04318403
100	0x3dd7460f	0.105114095
101	0x3d3d694b	0.046242993
102	0x3c6f0e76	0.01459085
103	0xbc889b24	-0.01667554
104	0xbb560beb	-0.0032660912
105	0xbd567abd	-0.052363146
106	0xbc974332	-0.018464658
107	0x3db527cb	0.088454805
108	0x3d8bbb15	0.068227924
109	0x3c8862f5	0.016648749
110	0x3d9b8008	0.075927794
111	0x3d37b7a2	0.04485286
112	0x393e4170	0.0001814419
113	0xbbe114c9	-0.006868933
114	0xbd9674e3	-0.07346513
115	0x3da77a13	0.08177581
116	0x3d0b37b8	0.033988684
117	0x3c887212	0.016655955
118	0x3dd77af5	0.10521499
119	0x3cd2ddcd	0.025740528
120	0x3d0327e8	0.03202048
121	0x3d98e717	0.07465952
122	0x3c5d62f4	0.013512362
123	0xbd38a98a	-0.04508356
124	0xbcddb4f4	-0.027063824
125	0x3c1482b9	0.00906437
126	0xbab059a9	-0.0013454455
127	0x3de94bb8	0.11391395

actor.weight f4 [3, 128]
0	0x3da547dc	0.08070347
1	0x3e244236	0.16040882
2	0x3ea26573	0.31718025
3	0x3e74f116	0.23920092
4	0xbe97b5dd	-0.29630938
5	0x3e76e759	0.2411169
6	0x3c4f66f4	0.012658823
7	0x3e18974e	0.14901468
8	0xbdf9c526	-0.12195806
9	0x3dd8cf0a	0.105863646
10	0xbdfef6ee	-0.12449442
11	0x3c0b32be	0.008495985
12	0x3e8298df	0.25507256
13	0xbea34f25	-0.3189632
14	0x3e450486	0.19240007
15	0xbe175c41	-0.14781286
16	0xbd057d9b	-0.03259049
17	0xbe7639ab	-0.24045436
18	0x3e5a4dae	0.21318695
19	0x3e843f5c	0.2582959
20	0xbd233865	-0.039848704
21	0x3dfd3532	0.12363662
22	0xbdfb960b	-0.12284478
23	0xbe804a2c	-0.2505659
24	0x3be4329b	0.0069640405
25	0x3da273d6	0.0793225
26	0x3e25bd45	0.16185482
27	0x3e4f7e99	0.20263137
28	0x3e770036	0.24121174
29	0xbd043456	-0.032276474
30	0xbc3645f2	-0.011125075
31	0xbedca6d5	-0.43096033
32	0x3e85467a	0.26030332
33	0xbc03ab69	-0.008036473
34	0x3d8bd8df	0.06828474
35	0x3e8c5017	0.27404854
36	0xbdff410e	-0.1246358
37	0x3b9450ac	0.0045262184
38	0x3e92bb64	0.28658593
39	0x3e8d5eb4	0.27611315
40	0x3d8a23d7	0.06745117
41	0x3ccb649a	0.024828244
42	0xbe2ad042	-0.16681007
43	0x3dcaed15	0.09908501
44	0x3dc911a8	0.09817821
45	0xbc7665aa	-0.015038887
46	0xbac67bb8	-0.0015143072
47	0x3ea74f23	0.32677564
48	0x3cafb2e6	0.02144761
49	0x3ec07ae3	0.37593755
50	0x3e91e632	0.28495938
51	0xbd49fff6	-0.04931637
52	0xbd83f0ca	-0.06442411
53	0x3de7c7e8	0.11317426
54	0x3e3c9d2c	0.18419331
55	0xbea08744	-0.313532
56	0x3e8318f2	0.2560497
57	0xbdca9717	-0.09892099
58	0x3dc229d9	0.09480638
59	0xbe18afdd	-0.14910837
60	0x3e990be2	0.29891878
61	0xbe7315a9	-0.23738731
62	0xbe91c6f1	-0.28472093
63	0x3ea71ee7	0.32640764
64	0xbdaa9104	-0.08328441
65	0xbe12178a	-0.14266792
66	0xbc8ac79f	-0.01694089
67	0xbd674618	-0.05646333
68	0x3e938b90	0.28817415
69	0xbd8169fd	-0.06319044
70	0x3bbe4171	0.005806141
71	0xbe8fa99a	-0.28059083
72	0xbe4fddd0	-0.20299459
73	0x3c4e6efc	0.012599703
74	0x3d8e1362	0.06937291
75	0x3cb4cb1e	0.02206951
76	0xbe3bd12d	-0.18341513
77	0x3dfd814e	0.123781785
78	0xbe0cc929	-0.13748612
79	0x3dc9acb6	0.09847395
80	0x3dc7bb25	0.09752492
81	0xbeaa3da3	-0.3325015
82	0x3de2e686	0.11079125
83	0xbdab23a7	-0.083564095
84	0x3e4d7298	0.20063245
85	0xbd1451c6	-0.036210798
86	0xbd7cb6ee	-0.061697893
87	0xbdf2297f	-0.11824321
88	0x3dfc0c32	0.123070136
89	0x3d839aab	0.06425985
90	0xbbf5e42a	-0.007504006
91	0xbe25eb7f	-0.16203116
92	0x3e6b59a7	0.22983418
93	0x3ca8b21b	0.02059274
94	0x3cb4c215	0.022065202
95	0xbcaa1f46	-0.020766865
96	0x3e3e7c35	0.18602069
97	0x3ea7c830	0.32769918
98	0xbe2b66ba	-0.16738406
99	0x3e028b30	0.12748408
100	0x3cef89cf	0.029240517
101	0x3ca8b16e	0.020592418
102	0x3ea19848	0.31561494
103	0x3da8456c	0.08216366
104	0x3d2b4a3e	0.04181885
105	0xbe694674	-0.22780782
106	0x3dbc9e66	0.092098996
107	0x3e63c94f	0.22244762
108	0xbd0f6fe5	-0.03501882
109	0x3e153a81	0.14573099
110	0x3d3c9efd	0.04605006
111	0x3e384169	0.17993702
112	0x3ea7d729	0.32781342
113	0xbe026808	-0.12734997
114	0x3e66d3da	0.22541752
115	0xbe20d167	-0.1570488
116	0xbdb907ee	-0.090347156
117	0xbc8d0edb	-0.017218998
118	0x3e74a643	0.23891549
119	0x3e93da15	0.2887732
120	0x3c9646b5	0.018344263
121	0xbbf4c0e0	-0.0074692816
122	0x3ea16f09	0.31530026
123	0x3c9e5bd0	0.019330889
124	0x3e8f94e9	0.28043297
125	0xbd754602	-0.059881218
126	0x3c8f8808	0.01752092
127	0xbd0237cb	-0.03179149
128	0x3e96ab0a	0.29427367
129	0xbe81dcdc	-0.25363815
130	0xbed96e29	-0.42466858
131	0xbe197b26	-0.14988384
132	0x3d735bb6	0.059413634
133	0xbe73d426	-0.23811397
134	0x3e26d503	0.16292195
135	0xbac298c2	-0.0014846551
136	0xbe4f78c8	-0.20260918
137	0xbe0d9718	-0.13827169
138	0xbd87c533	-0.0662941
139	0xbe4b840b	-0.19874589
140	0xbdd2c567	-0.10291558
141	0x3d709803	0.05873872
142	0xbe97d65f	-0.2965574
143	0xbe0650ff	-0.13116835
144	0x3d97f351	0.07419456
145	0x3e3966b8	0.1810559
146	0xbd1df1bf	-0.038560625
147	0xbd6a4968	-0.057198912
148	0x3e488df5	0.19585402
149	0x3da7406b	0.081665836
150	0x3dbaea81	0.09126759
151	0x3c48ced7	0.012256346
152	0x3de51cad	0.1118711
153	0xbe3b3f70	-0.18285918
154	0x3d8476bc	0.06467959
155	0xbe6f8209	-0.23389448
156	0xbeabd716	-0.33562535
157	0x3d34837c	0.044070706
158	0xbdd55ca8	-0.104180634
159	0x3e5bf352	0.21479538
160	0xbe683bc0	-0.22679043
161	0x3dc7376a	0.09727366
162	0x3e0a92b8	0.13532531
163	0xbe75df15	-0.2401088
164	0x3ead6d96	0.3387267
165	0x3e36db2e	0.17857048
166	0xbe414709	-0.18874754
167	0x3cbca311	0.023026975
168	0x3dd73259	0.1050765
169	0x3d99d103	0.07510569
170	0x3e26a26a	0.16272894
171	0xbcb138b9	-0.021633493
172	0xbda1eeda	-0.079068854
173	0xbd8fab37	-0.070150785
174	0xbdaeb3a0	-0.085303545
175	0xbe40d561	-0.18831398
176	0x3bb15cd3	0.005412677
177	0xbe6a6401	-0.22889711
178	0x3c674067	0.014114476
179	0xbd792378	-0.06082484
180	0x3d9f10ab	0.07766851
181	0x3c7e1410	0.015507713
182	0x3d24690c	0.040139243
183	0xbe05635a	-0.13026181
184	0xbe3685b8	-0.17824447
185	0xbe0523d8	-0.13001955
186	0xbdfca359	-0.123358436
187	0xbe631fa3	-0.22180037
188	0xbe86931c	-0.2628411
189	0x3e0c9810	0.13729882
190	0x3e122a87	0.14274035
191	0xbe2bf758	-0.16793573
192	0xbcd288e6	-0.025700044
193	0x3e3b996d	0.18320246
194	0x3cd039e9	0.025418239
195	0xbdbfce40	-0.09365511
196	0xbeb85596	-0.36002797
197	0x3d3cd102	0.046097763
198	0xbd19c5a6	-0.037542008
199	0xbc7b62b2	-0.015343355
200	0x3d4bf64f	0.049795445
201	0xbe12b033	-0.14325027
202	0xbcc383f3	-0.02386663
203	0xbe38df3d	-0.18053909
204	0x3d70705f	0.058700915
205	0xbd83efab	-0.064421974
206	0x3c212a4a	0.009836743
207	0xbeafb2fd	-0.34316245
208	0xbe01466b	-0.12624519
209	0xbe5d0e22	-0.21587422
210	0xbece24b8	-0.4026239
211	0x3e3f1f3d	0.1866426
212	0x3ccbdd84	0.0248859
213	0x3dee2d1a	0.11629696
214	0x3d9348fa	0.071916535
215	0x3e58495d	0.21121736
216	0xbdf0c838	-0.11756939
217	0xbdf47eeb	-0.1193827
218	0x3de52c21	0.111900575
219	0xbdeee2f9	-0.11664385
220	0xbe620a11	-0.22074153
221	0xbe08ac86	-0.13347062
222	0x3dd27b2e	0.10277401
223	0xbe3130f8	-0.17303836
224	0xbe85f9b4	-0.2616707
225	0xbe887d63	-0.26658162
226	0x3da42668	0.08015138
227	0x3ce5861a	0.028018046
228	0xbe3ff9c2	-0.18747619
229	0xbd2cf1b9	-0.042222712
230	0x3dcb75c6	0.09934573
231	0xbdc09fef	-0.09405505
232	0xbdbab318	-0.09116191
233	0x3e4f9053	0.20269899
234	0xbd41724c	-0.047228143
235	0xbdedc843	-0.116104625
236	0x3df54d99	0.11977691
237	0xbc951709	-0.01819946
238	0x3d680158	0.056641906
239	0x3e626158	0.22107446
240	0xbe68b691	-0.22725894
241	0x3e19bdb8	0.15013778
242	0xbe7493ec	-0.23884553
243	0xbe1fbb68	-0.15598834
244	0x3c598805	0.0132770585
245	0x3e18c805	0.14920051
246	0xbe4cb6e6	-0.19991645
247	0xbe5cc99f	-0.21561287
248	0xbea9f7e1	-0.3319693
249	0xbd5cc3ee	-0.05389779
250	0xbe13e50d	-0.14442845
251	0x3e59c86f	0.21267866
252	0xbe275e90	-0.16344666
253	0xbcab21cb	-0.020890137
254	0x3d8a5148	0.067537844
255	0xbe86201d	-0.26196375

actor.bias f4 [3]
0	0x3d02674f	0.031836804
1	0xbd5a6833	-0.05332203
2	0x38a2e580	7.76751e-05

critic.weight f4 [1, 128]
0	0xbcf6fc01	-0.030149462
1	0x3cd0dcbc	0.02549588
2	0x3d58d828	0.052940518
3	0x3d421f11	0.04739291
4	0x3da42a6b	0.08015903
5	0x3bebc3c3	0.0071949675
6	0x3db5e74a	0.088820055
7	0x3da091c2	0.07840301
8	0xbcce4bfb	-0.025182715
9	0x3d7ee0d8	0.062226146
10	0x3e0d8fdd	0.1382441
11	0x3b9573b8	0.004560914
12	0x3e20aaf5	0.15690215
13	0xbd48f455	-0.04906114
14	0xbc2e9dac	-0.010657709
15	0xbce576f8	-0.02801083
16	0xbd0f0924	-0.034920827
17	0xbe1c1186	-0.1524106
18	0xbd81554a	-0.06315096
19	0xbdb48d39	-0.088159986
20	0x3d9ed64c	0.07755718
21	0xbc068af1	-0.008211837
22	0x3d058fa3	0.032607686
23	0xbddaa203	-0.106754325
24	0xbe0a4b09	-0.13505186
25	0xbdd0139b	-0.101599894
26	0x3cd5eb96	0.026113313
27	0xbbdbf9a4	-0.006713109
28	0x3cebe28e	0.028794553
29	0xbd80fc22	-0.062980905
30	0xbe17d690	-0.14827943
31	0x3eb21b23	0.3478633
32	0x3e006a81	0.12540628
33	0xbe24311f	-0.16034363
34	0x3c67681d	0.014123944
35	0xbd713822	-0.058891423
36	0xbd39dc3a	-0.04537604
37	0x3e4cc4eb	0.19996993
38	0x3c5556db	0.013021196
39	0x3dc3c227	0.09558516
40	0xbe7ee887	-0.2489339
41	0x3e816cbc	0.2527827
42	0x3d4f811a	0.05066023
43	0x3dcd2097	0.10015982
44	0x3e3f060e	0.18654653
45	0xbe395543	-0.18098931
46	0x3e44c216	0.19214663
47	0x3a2a2f1d	0.0006492006
48	0xbd74a5ff	-0.05972862
49	0x3e398d70	0.1812036
50	0xbcb9c313	-0.022676026
51	0xbda4bc1b	-0.08043691
52	0xbdf94af7	-0.121725015
53	0x3db8babf	0.09019994
54	0x3d611c9b	0.05495892
55	0xbdac9c26	-0.084282205
56	0x3ccb3b12	0.02480844
57	0x3db64a03	0.08900835
58	0x3e289ab2	0.16465262
59	0xbd057f47	-0.032592084
60	0x3cb7b988	0.022427335
61	0xbdec7f1c	-0.11547682
62	0x3ddfd893	0.1092998
63	0x3d32ca7c	0.043650135
64	0x3e78f345	0.2431155
65	0x3d333a8f	0.043757018
66	0xbdda0ea5	-0.106473245
67	0x3a9e1b44	0.0012062569
68	0xbd3d5598	-0.046224207
69	0xbe827939	-0.2548311
70	0xbc1af13c	-0.009456929
71	0x3d6c08a7	0.05762544
72	0x3d32bf1d	0.04363929
73	0xbc6ee7a1	-0.014581592
74	0xbcc77c5b	-0.02435129
75	0xbce90869	-0.028446393
76	0x3e1a0bbc	0.15043539
77	0xbdfc5b73	-0.1232213
78	0x3d879cc6	0.06621699
79	0xbde5d26c	-0.112217754
80	0xbda58eea	-0.08083899
81	0x3e6d551a	0.23176995
82	0x3df06a23	0.11738994
83	0x3e298b6e	0.16557094
84	0xbc1bdcaf	-0.009513064
85	0xbde0b7c0	-0.109725475
86	0xbd9c7704	-0.07639888
87	0x3dc5ccba	0.09658189
88	0x3cc5baca	0.02413692
89	0xbd7d57f6	-0.061851464
90	0xbd4c9011	-0.04994208
91	0xbd89f3aa	-0.06735928
92	0x3d0236ec	0.03179066
93	0x3dfd7310	0.12375462
94	0x3e7acd85	0.24492462
95	0x3cb9033e	0.022584554
96	0x3d1eba6c	0.038752005
97	0x3d25689f	0.040382978
98	0xbe89ac06	-0.26889056
99	0x3caad148	0.020851746
100	0x3dc24796	0.0948631
101	0x3eda8419	0.42678908
102	0x3c426ff5	0.011867513
103	0x3afa3d58	0.0019091768
104	0x3dee0721	0.116224535
105	0xbe06699d	-0.13126226
106	0x3d790d40	0.06080365
107	0xbe446549	-0.19179262
108	0xbd380e9b	-0.044935804
109	0xbd8039e1	-0.062610395
110	0xbe3b0ba2	-0.18266156
111	0x3e122785	0.14272888
112	0xbe26f929	-0.16305985
113	0xbe279eb3	-0.16369133
114	0xbde4e0a8	-0.11175662
115	0x3dc48350	0.09595358
116	0x3d22d2a9	0.039751682
117	0x3d744f10	0.059645712
118	0xbc955320	-0.018228114
119	0x3e84ab4e	0.25911945
120	0x3db6238f	0.08893501
121	0xbcd267fb	-0.025684347
122	0xbd6b17d6	-0.05739578
123	0x3c93a4d7	0.018022938
124	0x3d01fe95	0.03173693
125	0x3d73b814	0.059501722
126	0x3d8a3bab	0.06749662
127	0xbd8ec02b	-0.06970247
