W__RNN/W_RNN/md2/v_3/train_iter_3500.pt (torch, 80523 bytes, 8 tensors)

h0 f4 [128]
00000000: f58d 8b3e 22e7 62bf 5dae aebf ada5 70be
00000010: e5d1 33bf 7822 9a3d acfc 4d3f f891 18be
00000020: d387 313f 61d9 06bf 845c 3440 75b8 32be
00000030: 74ec c63f ead0 84bf 9fe7 d93f 8c24 b9bf
00000040: 1357 bb3f fb85 f7be 4e01 c93f 2b0c 30bf
00000050: 9925 ef3e a3c2 ad3f 74d4 1d3e a9e5 c43f
00000060: a8aa 943f 57a3 823e 0a15 86bf ee05 0fbf
00000070: 5c35 c9be 3873 c8be 588d cdbf 986e 9d3f
00000080: f4df a7bd 9af3 703f 1310 0ebd 8014 6cbd
00000090: 6bec b83f cb4f 4cbf 2ea2 9d3f 67e3 16bf
000000a0: be65 1c3f a4ad 80be a135 a83f 36f5 dfbe
000000b0: 2e8a 873c 4d82 863f 9c1b 4abf 1671 eebe
000000c0: 60ea 96bf b964 15bf 4958 5e3f a8dd c83f
000000d0: 884f 2fbf 0c41 923e 7cc9 9f3e 4d95 36be
000000e0: a01c e0bd 94ae 3fbf f215 1940 a108 78bf
000000f0: fdf3 65bf 199c 3c3f 4f2d 723f 9105 683f
00000100: 2836 363f 2c1a 0e3d 87d0 11bf 336a 3a3e
00000110: d628 2940 3010 9f3d 9918 96bf 4834 86be
00000120: 8eaa 973f 040f c9bd d64f 83bf 0aa8 843f
00000130: 5a1e aa3e 5dbd 21bf 1ec5 973f 9c66 7c3c
00000140: 371e 9b3e 725a 83bf 50a8 963e b2e6 8a3e
00000150: 239d 1fbf bdec 293f 6bcd 11bf 5f9f 2cbe
00000160: 78a0 d8bf 74ab 183e 4762 0d3f 659c ebbf
00000170: 9071 293e 4cd0 96bf 23e3 173f d361 bdbe
00000180: 3661 5fbf 3269 02bf b1c0 5a3f abfb 333f
00000190: 55fa 57bf beed 2a3f 82f8 8ebf 8b5b 5c3f
000001a0: 6cbc 09c0 b50e 2a3f 0fcc 613f 02e4 bbbe
000001b0: d8a0 023f 3ad1 1bc0 ecce 4dbe 3184 033e
000001c0: 5fc9 4bbe c860 8d3e be45 07be a622 273f
000001d0: ea88 3f3e 6180 1c40 4c8e 75bf f707 e8be
000001e0: f2ab 10be 3c56 adbf 578d b4bd 3fef 99bf
000001f0: d493 37c0 7697 01c0 e415 b93f c83e c43e
0.27256742 -0.8863393 -1.3646961 -0.235007 -0.7024215 0.07526106 0.8046367 -0.14899433
0.69347876 -0.52675444 2.8181467 -0.17453177 1.554091 -1.0376256 1.702381 -1.4464278
1.4635948 -0.48344406 1.5703523 -0.68768567 0.46708372 1.3575023 0.15413076 1.5382587
1.161458 0.25515243 -1.0475171 -0.55868423 -0.39298522 -0.39150405 -1.605876 1.2299376
-0.081970125 0.94121706 -0.0346833 -0.057636738 1.4447149 -0.79809254 1.2315118 -0.5894074
0.61092746 -0.25132477 1.3141366 -0.4374177 0.016545381 1.0508515 -0.7894838 -0.46570653
-1.1790276 -0.58356816 0.8685346 1.5692644 -0.6848073 0.28565252 0.31208408 -0.17830391
-0.1094296 -0.7487576 2.3919644 -0.96888167 -0.8982542 0.73675686 0.94600385 0.90633494
0.71176386 0.03469293 -0.5695881 0.18204574 2.6431174 0.077667594 -1.1726257 -0.26211762
1.1848924 -0.09817317 -1.0258739 1.0363781 0.3322628 -0.6317957 1.185703 0.015405323
0.3029649 -1.0261977 0.29425287 0.27129132 -0.62349147 0.6637686 -0.5695407 -0.1685767
-1.6923971 0.14909154 0.55228084 -1.8407103 0.16547227 -1.1782317 0.5933096 -0.36988696
-0.8725771 -0.50941765 0.85450274 0.7030589 -0.8436635 0.66769016 -1.1169589 0.86077183
-2.1521254 0.6642869 0.88201994 -0.36697394 0.5102668 -2.4346452 -0.20098466 0.12843396
-0.19901036 0.276129 -0.13210198 0.65287244 0.18704572 2.4453356 -0.9592025 -0.45318577
-0.14128092 -1.3541942 -0.08816021 -1.2026137 -2.8683977 -2.0248694 1.4459805 0.38329148

RNN.weight_ih_l0 f4 [128, 17]
00000000: 6fb1 f4bc 90cf 923e b428 b13d 931c c33e
00000010: c9f0 04be 0559 7d3c b98e 133d d4df cfbe
00000020: c495 c9be 52d7 abbe 1911 1dbe 3544 bc3e
00000030: f418 1d3e 5f05 2fbd 1b4c 9e3d b4bf d2bc
00000040: b84a ab3e 4a5e b1bc dc33 d3bd 93a7 50be
00000050: 9303 9cbe ed16 8b3c 3f78 63be ae7b c33a
00000060: ba36 093f 9df8 af3e 86ed a23e bdf8 a7bc
00000070: aa4e 003d 2f22 1e3e 4289 60bd 7e6b 773d
00000080: 767c 02be 60df 15bd 5154 073e 72e7 853d
00000090: 465f 4dbd 49c5 5fbe 82cd 153e d4cb f83c
000000a0: 5a15 d33c 1bf2 36bb 618a c23d 3c7e 4c3d
000000b0: 8c6c 43be 1905 b2bd 09a8 e53e 98ee 5ebe
000000c0: af41 563d 9365 99bb 2810 813d dbb0 ebbd
000000d0: b655 4cbb 1b3b 813e d179 0f3f 6afc 49bc
000000e0: a210 403d 4388 a33e 3da1 bfbd 0365 debb
000000f0: 1519 a0bd 3a95 4abd a65d 89bd 094e 15be
00000100: 7cf0 223e b037 9b3d d827 40be 64a2 04bd
00000110: f1ed b1be 2c7a acbc cee6 453c bd63 0fbc
00000120: c30a 883c 7e53 d5bd 450e 4cbe 835a 983d
00000130: 7de8 6a3d 20d7 cbbc db0d aa3e b979 d13d
00000140: 43c6 05be 7a83 523d da34 5e3d 5f2e 15be
00000150: 4ece 4a3d 9301 10bd 91bf 2c3d 47a7 2a3e
00000160: 9e9f 203f c3bc ffbc 432f 9cbd 34e2 18be
00000170: 71ce fabd 72e9 7fbd 3afd 9cbd baf9 c4bc
00000180: 4551 f9be 9e1e 883e fc40 68be 2e06 573d
00000190: ccc5 113d 0be3 19be cbe4 813d 0203 4d3d
000001a0: 2e9e 863e 8544 93bd f6ac 26be 99be da3b
000001b0: a454 aebc dede dbbd f247 b9bd 5adc f5bd
000001c0: 3dc8 a33d 4b16 c33e 7f8b 21be 2c8a a2bd
000001d0: 7e50 373b 6d39 93bd df15 553e 16fd 903d
000001e0: f67c 26be 5a1f 6b3e a751 ba3e 267d 7ebe
000001f0: 0e8b b3be fd45 4fbe b4ca e4bd 4945 dbbd
00000200: 1664 b5bd 3d0a c8bc 655c 06bd 863e ee3d
00000210: 944f 08be f4bd 3dbc a1a9 5c3c 14fc 5cbd
00000220: 55ce 4d3e 7f4a 663d d41b 5cbc c34c 063d
00000230: 9ef6 68bc 7eb2 103e f8b5 693e aed1 efbd
00000240: f653 cebd 3a34 29be 3b79 3d3c 97fc 9cbe
00000250: 0d74 8ebe f550 d13c 835c 38bd 361b f63d
00000260: 1ab8 6fbd c33c fd3d 4ed9 dfbd bdcf e8bd
00000270: 8390 90bd 63dc 253c 3cfc 2fbb 768d 88bd
00000280: 12fa 5abc 242e 863c e2ae 6dbd 40fb 98bd
00000290: 6f72 7ebe 207a 053e 6354 a03c 9afb a33d
000002a0: e9b1 d13d 37fc 9dbd 1421 09be d820 33be
000002b0: 1af2 cabd ce59 fcbd ac0b e13d 2803 49bd
000002c0: 7bec 4abe 02b0 de3d ce06 3b3e 2119 db3d
000002d0: 1b6b f43d 3c5c 323d 762d 14bd 2cd5 b6bd
000002e0: 4501 e23c 92cd 423d 8f56 babd 0209 123e
000002f0: 8ab1 a5bd 02c3 b2ba 6e81 dc3c 1343 debd
00000300: a9c0 41be 9b19 b73d 5bb0 483d 760b 373c
00000310: 315d a7bd b6f1 28be fa15 96be 23b3 c23d
00000320: f623 15be 8de4 0e3e dd3a 383d 6ba1 88bc
00000330: e76f 873e 1944 23be 4d41 963e 7bdb 153f
00000340: e615 68be 8eb0 a5be 7f7a 453e d718 963b
00000350: 2c8c 29bd bfa6 4fbd ef20 99be 2932 25be
00000360: 1871 753e 8723 96be 7c01 57bc 8ab3 043d
00000370: ec27 69bd 26ff 39be 8118 ec3b 50e7 6cbe
00000380: c6ce c3be 32bb ad3e df5d be3d 817c 033e
00000390: ea6b 1b3d a1c5 b33d 55ed 593e ad02 373e
000003a0: 9548 963e ecf9 4bbe 13ec 263d 30a7 893b
000003b0: e2b0 4fbe 9f68 8e3e f072 8bbd d642 473e
000003c0: 9bb2 423e c609 fc3e cffc 973d 9a6f e33e
000003d0: 2ccd 19be d456 55be d101 f1bd 38f6 1ebe
000003e0: dc21 15be 6105 b2bd c57c 473e 5697 743c
000003f0: cb63 8c3d a235 91bd de4b 27bd 60fc df3c
-0.029869763 0.28673983 0.08650342 0.38107738 -0.12982477 0.015463118 0.036024783 -0.40600455
-0.39372075 -0.33562714 -0.15338553 0.36770788 0.1534155 -0.04272973 0.0772936 -0.025726177
0.33455443 -0.021651406 -0.10312626 -0.20376424 -0.30471477 0.016978705 -0.22213839 0.0014914179
0.5359913 0.34369364 0.3182184 -0.02050435 0.03132502 0.15442728 -0.0548184 0.060405247
-0.1274279 -0.03658998 0.13215758 0.06538285 -0.050139688 -0.21852602 0.14629176 0.03037063
0.025767017 -0.0027915302 0.0949905 0.049925074 -0.19084376 -0.086923786 0.44854763 -0.21770704
0.052308735 -0.004681298 0.0630191 -0.11508342 -0.0031179017 0.25240406 0.5604525 -0.012328247
0.046890862 0.31939897 -0.09356926 -0.006786944 -0.07817284 -0.04945872 -0.06707315 -0.1458055
0.1591205 0.07578981 -0.18765199 -0.03238143 -0.34751847 -0.02105435 0.012078954 -0.008751807
0.016606694 -0.104163155 -0.19927318 0.07439139 0.057350624 -0.024882853 0.33213696 0.10228295
-0.13063912 0.051394917 0.054249622 -0.1456847 0.049513154 -0.03515775 0.04217488 0.16665374
0.62743556 -0.031217938 -0.07626202 -0.1493004 -0.12246407 -0.06247849 -0.07665487 -0.02404486
-0.48694816 0.2658586 -0.2268104 0.052496128 0.035589024 -0.15028016 0.06342467 0.050051697
0.26292557 -0.071908034 -0.16276917 0.006675553 -0.021280594 -0.10735868 -0.090469256 -0.12004919
0.07997177 0.38102946 -0.1577587 -0.079365104 0.002797156 -0.071886875 0.20809124 0.07079522
-0.16258606 0.22961178 0.3639042 -0.24852428 -0.35067028 -0.20241542 -0.11171475 -0.107065745
-0.088569805 -0.024418944 -0.032802958 0.11633019 -0.13311607 -0.011580933 0.013468177 -0.053951338
0.2009824 0.05622339 -0.013434369 0.03278805 -0.014218954 0.1413059 0.22823322 -0.11709915
-0.10074608 -0.16523829 0.011564548 -0.3066146 -0.27822915 0.025551299 -0.0450101 0.12016909
-0.058525182 0.12365105 -0.109301195 -0.11367748 -0.070588134 0.010123345 -0.0026853224 -0.066676065
-0.0133652855 0.016379423 -0.05802811 -0.07469797 -0.2484834 0.13034868 0.019571489 0.080069736
0.10239012 -0.07714122 -0.13391525 -0.17492998 -0.099094585 -0.123218164 0.10988554 -0.049075276
-0.19816773 0.108734146 0.18264315 0.10698152 0.11934491 0.043544993 -0.036176167 -0.08927378
0.027588496 0.04755933 -0.09098541 0.14261249 -0.080905035 -0.0013638439 0.026917186 -0.10852637
-0.1892115 0.08940431 0.04899631 0.011172166 -0.08172072 -0.16498455 -0.29313642 0.09506824
-0.145645 0.13954373 0.04497801 -0.016678533 0.26452562 -0.15943946 0.29346696 0.58538026
-0.22664604 -0.32361263 0.1928501 0.004580598 -0.041393444 -0.05069613 -0.2990794 -0.16132416
0.23968923 -0.2932398 -0.0131229125 0.032397784 -0.056922838 -0.18163738 0.0072050695 -0.23135114
-0.38243693 0.3393188 0.09295248 0.12840463 0.03794471 0.08777929 0.21281941 0.17872114
0.2935225 -0.19919556 0.04075248 0.0042008385 -0.20282319 0.27814195 -0.06809032 0.1945909
0.19013445 0.49226207 0.07421266 0.44421083 -0.15019673 -0.20833904 -0.117679246 -0.15523612
-0.14563698 -0.08692432 0.1948119 0.014928659 0.068549715 -0.07090308 -0.040843837 0.027342021

RNN.weight_hh_l0 f4 [128, 128]
00000000: 59cf abbd 5eb7 163e e192 6f3d 4d63 47bd
00000010: 7613 02bd 17ea febc c340 a0bd 7669 093d
00000020: efea 14bd 56e9 0b3d 971d 29bd 3696 ff3d
00000030: 8229 2dbd 6c9c b0ba ad69 5e3d a2db 98bd
00000040: ed45 fd3c bab3 323d d069 adbd 3d19 583d
00000050: a87c 79bd 6f14 5fbd 36de db3d fed8 b23d
00000060: 6c9e d93d ad9b 053c db37 463d 731f 543c
00000070: cfd1 83bd c86e c63d e81b abbd 8b69 e7bc
00000080: fa2c 55bd fc4d b23b 55c9 e23c cbc9 e63d
00000090: 659d 4bbb 76e9 623c c497 2abd 7b64 99bc
000000a0: e9ce 203d 6e4c 84bc 8e10 593d b208 df3d
000000b0: c2bb 773e 652e 9c3d 5b87 dbbc 1508 0c3c
000000c0: 20f1 a43d 8cec 5b3d 5dc9 9f3c 3def 06be
000000d0: c70a 863d 3b15 b8bd b0cd adbd edbf 883d
000000e0: 6ce5 963d 7dee 87bc 0b84 a1bd 2dc8 70bd
000000f0: 2507 2bbc 6a98 2d3d 0fda f43d 8c9c a43b
00000100: 99c8 0ebd d04c 6f3c 8148 bf3d dfa9 063e
00000110: 37bc 063e 63ec 9a3c c0e2 43bc d790 ae3c
00000120: 062b a73c 03e1 093e f218 9ebc ae8c 993d
00000130: 3cd1 20bd 32da 42bc e7fc 8ebd dfe8 383b
00000140: d9c0 78bd c224 fabc 593c b8bd f2fa a4bd
00000150: 22eb e1bd bf60 823d 80e7 293c 2187 d83d
00000160: 5082 6c39 0641 1dbd cd29 d2bd 7198 a53b
00000170: 4b12 9cbd cbe2 cfbd 908a 7ebc 2adc 303c
00000180: 55ee 3fbd 9297 ddbc 1c7b ba3c 547d a03d
00000190: 9c2c bd3d 2839 abbd a3c2 d03d 132b d63c
000001a0: 8e7d c73c cd9e d3bc 2666 58bc c074 c5bd
000001b0: 1539 e53c e34c 3fbe e2f0 003e f220 babd
000001c0: 7b42 83bd 40d1 703d 0f58 863d 5edb 6b3c
000001d0: 22f2 5ebc 7941 c6bd d153 8bbd 3593 d8bd
000001e0: ece7 cdbd 8c8e 073e c1a7 353d 6a1b 8e3c
000001f0: eb38 9bbd e4b2 79bd 21bd f4bd 07c2 f53d
00000200: a906 76bd 11e2 15bd fdb4 72bd f14d 92bd
00000210: 6ae6 a0bd ada2 abbd b7be 193c 595a 513c
00000220: 70ae cc3d c2a7 a13d 8639 a8bd ac39 f03c
00000230: b94d 1fbd d7a3 cabd 8d2f b13d 3dc6 523d
00000240: 45aa ccbd 51fc a3bd 69f2 4ebd f105 68bd
00000250: 8931 2b3d b90c dbbd 7a70 cdbd 7a9b 0c3d
00000260: 73cf 233d 8b82 893c dd54 ba3c 3c77 aebd
00000270: f2eb 073c bd7b 26bd d342 b03d 8231 a9bc
00000280: ce3f 10bd f4c0 ec3c bd83 a73d 8bcb 293d
00000290: ca63 cabd c958 033d 7819 b13c 5e42 d73d
000002a0: 3a95 5c3d 1f42 74bd b5d9 3dbc fb30 01be
000002b0: 974b 0fbd 61be 313b 3447 dcbc c939 4fbc
000002c0: 6b73 1b3d b330 753c 7a93 403d 4136 1a3c
000002d0: a62c 1e3d db31 b33d 49a8 413b 383e 2d3d
000002e0: f3e5 893d e20c 823d 1e4d cdbc 8ba1 00bd
000002f0: d565 0dbd d817 abbc 8054 35bc 2300 b13d
00000300: 41b2 0fbd 2003 56bd efdb f6bb 7329 b2bd
00000310: 2a73 22bd 2b05 87bd c6a3 31bc cab2 da3c
00000320: 29c5 783c 5a0c 983c ba39 f53c 37e2 d7bc
00000330: d4f6 a9bd d469 5f3b 47a8 ab3d 5702 533c
00000340: cade 85bc 991d e1bd 03a6 b63d c9ff eb39
00000350: cbff 17bc 4a0a 233d 5488 9dbc f6e0 083d
00000360: bc2b 933d 650e de3d f639 a53d 362e b1bc
00000370: 3e51 f5bc d849 f03d 85da 39bd 3d55 cd3c
00000380: 2845 783c 4bad 06bd 48ce 413d 0462 92bd
00000390: 3885 8a3d fccb c53c 7567 28bd 0738 57bd
000003a0: 7774 75bb 31a4 21be c966 6e3d f5e9 41bd
000003b0: 3e63 613d 5d11 173d b3e6 4f3c 95d9 91bd
000003c0: 6915 6bbc 714d 353d 7c73 a93c 02d1 673d
000003d0: afd7 7a3d aa7f f3bc d556 95ba 1814 a73c
000003e0: b233 e63d 3d11 443d 7654 90bd 13dd a3bd
000003f0: 470d 223c e52f 51bd c9b7 433d ecab 373d
-0.08389158 0.14718387 0.058489684 -0.048678685 -0.03175684 -0.031117482 -0.07824852 0.03354784
-0.036356863 0.034158073 -0.041287985 0.12479822 -0.042275913 -0.0013474352 0.0543 -0.07463767
0.030917132 0.04362843 -0.08467448 0.052758444 -0.060909897 -0.054462846 0.10735743 0.08732794
0.1062592 0.008154792 0.04839311 0.012946951 -0.06436502 0.096890986 -0.08354932 -0.028248569
-0.052044846 0.0054414254 0.027683893 0.11268958 -0.0031069156 0.013849607 -0.04164864 -0.01872467
0.039259825 -0.016149726 0.052994303 0.108903304 0.24192718 0.076260366 -0.026797941 0.008546849
0.080538034 0.053692386 0.019505197 -0.131772 0.06545024 -0.089884244 -0.084864974 0.06677232
0.073679775 -0.016593212 -0.07886513 -0.058784653 -0.010438715 0.04238168 0.11955654 0.0050235447
-0.034859274 0.014605716 0.09340001 0.13150738 0.13157736 0.018911546 -0.011955917 0.0213093
0.020406257 0.13464741 -0.019299004 0.07497536 -0.03926204 -0.011892842 -0.06981831 0.0028214974
-0.06073079 -0.030535106 -0.089958854 -0.080556765 -0.11031176 0.06366109 0.010370135 0.10572649
0.00022555259 -0.03839209 -0.10261879 0.005053573 -0.076206766 -0.10150679 -0.015535966 0.010794679
-0.04685815 -0.027049813 0.022763781 0.078364044 0.09237024 -0.08360511 0.10193374 0.026143586
0.024351861 -0.025832558 -0.013207948 -0.09641409 0.02798132 -0.18681674 0.1259189 -0.09088315
-0.064091645 0.058793306 0.065597646 0.014395563 -0.013607534 -0.09680457 -0.06803096 -0.105749525
-0.10054001 0.13237971 0.044349436 0.017347056 -0.075792156 -0.06096162 -0.11950136 0.119998984
-0.060064945 -0.036592547 -0.059254635 -0.071437724 -0.07856448 -0.08380637 0.009383849 0.012777888
0.09994209 0.078933254 -0.08214097 0.029324375 -0.03889248 -0.09894531 0.08651648 0.051458586
-0.09993414 -0.0800711 -0.05052415 -0.05664629 0.041795287 -0.10695786 -0.10031219 0.03432796
0.03999276 0.01678588 0.022745544 -0.08518836 0.008296 -0.04064535 0.08606496 -0.02065349
-0.0352171 0.028900601 0.08179424 0.04145388 -0.098823145 0.032067094 0.02161859 0.105107054
0.05385325 -0.05963337 -0.01158755 -0.12616341 -0.034984197 0.0027121531 -0.026889421 -0.012648054
0.037951868 0.014965224 0.047015645 0.009412349 0.0386168 0.087497436 0.0029549769 0.042295665
0.067333125 0.063501135 -0.025061186 -0.03140406 -0.034520943 -0.020885393 -0.01106751 0.08642604
-0.035082106 -0.052249074 -0.0075335423 -0.08699312 -0.03966061 -0.065927826 -0.010842269 0.026696581
0.015183725 0.018560577 0.029934753 -0.026352985 -0.08299032 0.0034090178 0.08381706 0.012878976
-0.016341586 -0.109919734 0.08918383 0.00045013268 -0.009277294 0.039804734 -0.019230045 0.033417664
0.07186076 0.10842589 0.08067696 -0.02162848 -0.029945966 0.117328346 -0.045374412 0.025065059
0.015153207 -0.03288011 0.047315866 -0.07147601 0.06763691 0.024145119 -0.04111429 -0.052543666
-0.0037453452 -0.1578529 0.058203492 -0.04734226 0.055026285 0.036881793 0.01268928 -0.071215786
-0.014348366 0.044263307 0.02068495 0.05659581 0.06124085 -0.02972396 -0.0011393676 0.020395324
0.11240329 0.047868002 -0.0704736 -0.08001151 0.009890861 -0.051071066 0.047782693 0.04484169

RNN.bias_ih_l0 f4 [128]
00000000: a0e6 0b3d bc1b 083d 6515 993d bb4b bf3d
00000010: 96db 78bd 865f d23b 27ea a23d c296 f2bc
00000020: 8492 53bd e830 92bb 86a5 23bb 510e 1d3d
00000030: 20b8 803d 6627 1c3d 7a41 eebc 5f70 a8bd
00000040: 7647 b13d db10 f1bc 45b0 ef3d fb5a 83bb
00000050: b4b2 fbbc abd6 4f3d 6c52 973d ea56 913d
00000060: 58e1 323c d704 23bc 1a47 163d 7918 ce3d
00000070: a6e2 be3d 51f2 87bc 3520 013d e111 fc3d
00000080: 698d 6bbd bfd7 acbd af15 46bd 8490 09bd
00000090: de26 1a3e 74e4 003e 895e 993d 37be 223b
000000a0: 9279 abbd 1dbd 84bd fee2 b7bc 968f fd3b
000000b0: c97e 443d 77a7 8abd 7e6d d0bd d1a8 4f3d
000000c0: dd45 613d 7342 953d 250c 963d c908 b23c
000000d0: 9e32 293d 2d6c 02bc cc4a 49bd a2aa fd3c
000000e0: 889e 933d 21ae 50bd 9a97 dabb 14dd 23bd
000000f0: 5ec9 62bc 8ef7 193c 8f69 4dbb a135 5e3d
00000100: 76d0 fb3b af4c af3d b2f2 b3bc e23d 5b3c
00000110: 2049 c33d 7e4d b73d 9e23 d23c fc99 303c
00000120: 81eb 63bd 4226 2dbd 252d 5fbd b24e 3d3d
00000130: d5d7 dabc 6db4 1bbd 4db9 b0bd 7433 b83d
00000140: 8825 e63d d5e5 58bc 6ead 073d b1f6 6d3d
00000150: 1096 c3bc 875c 7e3d 69e8 44bd 9e3b aa3c
00000160: e6ce 863c a7e2 a4bc 1a5c c03d a9e8 edbb
00000170: ea41 a43d fe9d c23b be09 34bd 58fb 83bd
00000180: e11b 28bd c413 55bd 0a6e 433d b640 863d
00000190: 8538 923d 7cc6 693d 9faf b43d 2009 ddbb
000001a0: cdfb c4bd 06c2 ba3d a8f0 4fbd 8c93 a63d
000001b0: 048f 943d 4667 ba3c 68e4 b73c 35cb a83d
000001c0: 098c fdbb 77f1 8cbc 0593 0fbd 88d4 b63c
000001d0: ec59 253d bcae cc3d 0a42 ab3d f7dc cc3d
000001e0: 98af 043c 2a3d 87bb 2da8 ec3b 3ddc f83c
000001f0: 5538 5bbd 1d8e f33b f63c 9ebd bbbe d63d
0.034155488 0.033229575 0.07474784 0.09340616 -0.06075629 0.0064200787 0.07954817 -0.029612903
-0.0516534 -0.0044613965 -0.0024970486 0.03834373 0.06285119 0.03812351 -0.029083956 -0.08224558
0.08656208 -0.029426983 0.117035426 -0.0040086485 -0.03072486 0.050741833 0.073887676 0.07096656
0.010917984 -0.009949884 0.0366889 0.100632615 0.093205735 -0.016595038 0.031524856 0.12308098
-0.057507906 -0.08439588 -0.048360523 -0.033585086 0.15053889 0.12587148 0.07488734 0.0024832615
-0.08372797 -0.06481383 -0.022447105 0.007738064 0.047972474 -0.06770223 -0.10177134 0.050698105
0.054998267 0.07288065 0.07326535 0.021732705 0.041308038 -0.007960361 -0.049143597 0.030965153
0.07207972 -0.050947312 -0.0066709043 -0.04000576 -0.013841955 0.009397401 -0.0031343435 0.054250363
0.0076847626 0.08559548 -0.021966312 0.013381453 0.09535432 0.08950327 0.02565175 0.0107789
-0.055644516 -0.042272814 -0.054486413 0.046217628 -0.026714245 -0.038013864 -0.08629093 0.08994189
0.11237627 -0.01323839 0.03312438 0.05809659 -0.023875266 0.06209996 -0.048073206 0.02078038
0.016456079 -0.020127608 0.09392567 -0.0072604013 0.080203846 0.0059392443 -0.043954603 -0.064444244
-0.041042212 -0.052020803 0.047712363 0.065553114 0.071396865 0.057074055 0.088225596 -0.0067454726
-0.0961834 0.09119038 -0.050766617 0.08133611 0.072538406 0.022754323 0.02244778 0.08241884
-0.0077376408 -0.017204983 -0.035052318 0.02231814 0.04036896 0.099942654 0.08362205 0.10003083
0.008098505 -0.0041271644 0.0072221966 0.030378455 -0.05352052 0.0074327127 -0.07726471 0.10485598

RNN.bias_hh_l0 f4 [128]
00000000: 7cb1 c13d d860 0f3d 9fc1 683d 27c4 1cbd
00000010: 5d64 d03b 81c0 953d 1c3f 61bd c0ee 543d
00000020: 3796 163d c67d 923c 02ef 0f3d 8635 fe3d
00000030: aefb 2b3d b2cf 13bd ab49 c23d a5d0 653d
00000040: 30e2 b1bd 6a68 e9bc 3938 d73d 7763 633d
00000050: 3882 3a3c b452 a63d 2dbd bebd 4eb2 f33c
00000060: 6aed 453c c352 ab3d a8b3 5dbd 3236 d53b
00000070: 2193 c83d 80d6 43bd 4b7b 863c 65fc 04bd
00000080: 35fd ba3d 7b13 c9bd 253b 93bd 3c4a 863d
00000090: 4793 923d d835 6d3c aa85 e83c ace4 c63d
000000a0: 3b91 853c c606 8f3c 443e f63b 6d8b 94bd
000000b0: d019 2dbd 712c 9bbd e80b 82bd 734a da3b
000000c0: 467a 123d 924f a93d 5137 3abd 1ca0 fe3c
000000d0: af88 8f3d 73b9 a0bd 28b1 883d c5e6 0c3d
000000e0: ff8d b73d 376f 39bc 6223 703d 795e e03c
000000f0: 62bf 2f3c 4060 4fbd 1586 273c 1175 d63c
00000100: d96a 7b3d 07ae 61bb 8434 813d 31e7 27bd
00000110: 5e99 9e3d f196 e93c 9cd4 833b 84f4 e33b
00000120: 8b04 9739 b019 e138 e295 253d ea90 863d
00000130: 6fa6 4c3c e515 763d 9f71 dfbd c7a7 b03c
00000140: 17c7 ba3c f62a 9d3c 4c22 763d 5aac c63d
00000150: 7b8a f63d 102f b63d ca5e 8dbd da6f 5d3d
00000160: f319 2ebd 47d5 11bd 597c 17bd 87e4 e7bb
00000170: 2046 423d ec6d 9c3d b04f b1bd e440 763d
00000180: 036a 883d 5a8c a5bc 3106 b3bc 8a5e e73c
00000190: 7570 b43d f91e cb3d 93c5 f93c 837c d0bc
000001a0: 0d73 43bc ab05 47bd 681f eebc af16 973d
000001b0: b2f6 8c3d 80bd 833c 3397 853d 4e2d 5a3d
000001c0: 4b84 9d3c eef2 c8bb b820 86bd 960e 703d
000001d0: c767 9b3c f288 0f3d f6d3 d83d 9612 133d
000001e0: 0efb d73c 9e93 6b3d 336c 693c ee2d 2dbd
000001f0: 9f53 f6bc 3b71 c43b 3a93 a4ba 7095 e83d
0.094576806 0.035004467 0.056825276 -0.038273003 0.0063596205 0.07312108 -0.054991826 0.051985502
0.03676435 0.01788224 0.035140045 0.124125525 0.041988067 -0.036086746 0.09486707 0.056107182
-0.0868572 -0.028492171 0.105087705 0.05551478 0.011383586 0.08121243 -0.09313426 0.029748108
0.01208053 0.08365395 -0.05412641 0.0065067047 0.097936876 -0.047811985 0.016416213 -0.032467265
0.09130327 -0.09818169 -0.07189015 0.06557128 0.07156997 0.014478169 0.028384048 0.097115844
0.016304603 0.017459285 0.007514747 -0.07253156 -0.042260945 -0.07576836 -0.06349927 0.006661707
0.03576114 0.0826713 -0.04546291 0.031082205 0.07008492 -0.07847872 0.06674415 0.034399766
0.089626305 -0.01131802 0.058627494 0.027388798 0.010726782 -0.0506289 0.010224839 0.026178868
0.061381195 -0.0034436004 0.06308845 -0.040991966 0.07744096 0.028514357 0.0040231477 0.006956639
0.0002880435 0.00010733621 0.040426143 0.06570609 0.012490853 0.060079474 -0.109103434 0.021564377
0.022800012 0.019185524 0.0600913 0.09700842 0.12038132 0.08895695 -0.06902845 0.054061748
-0.042505216 -0.035603788 -0.03698382 -0.007076803 0.047430158 0.076381534 -0.08657777 0.06012048
0.06660845 -0.020208526 -0.021853538 0.028243322 0.08810512 0.09918017 0.030489719 -0.025449997
-0.011929286 -0.04858939 -0.02906771 0.073773734 0.06882991 0.016081572 0.065229796 0.053265862
0.019228121 -0.006132475 -0.06549209 0.05860766 0.018970383 0.03504271 0.10587303 0.035906397
0.02636483 0.057513826 0.014246988 -0.04228013 -0.03006917 0.0059949434 -0.0012556084 0.11356628

actor.weight f4 [3, 128]
00000000: dc9a 1abb 80a0 943e af85 113f 2914 9a3e
00000010: 5eea 9dbe e032 8f3e 43eb 63bd 825b 253e
00000020: 031b edbd cfb9 073e a1db cbbd d475 3e3d
00000030: dce8 cf3e c143 cbbe 75a8 5e3e e9f0 17be
00000040: 3b59 e6bb 06ea 82be 7f68 6e3e fe8e b03e
00000050: 32f0 f7bd d3dc 2e3e ed86 ddbd 645b 8ebe
00000060: 78f7 72bc e03c 373e e3e2 733e 63c2 a13e
00000070: a850 973e 1d43 50bd 2716 dabc 445d 24bf
00000080: d959 bc3e 69ab 03bc 2962 923d bd6c fb3e
00000090: 2264 19be e0fd 953b 8a29 903e f6f9 8b3e
000000a0: f4dc 863d 9a64 cb3c ad25 97be 7a15 d03d
000000b0: d000 333e 80ab bf37 9f23 87bb 606e e33e
000000c0: b4be 3a3e 5b7a 083f 387a ca3e 0454 a8bd
000000d0: 00ce 08be a656 9d3d afbd 833e 9bc2 c4be
000000e0: 1213 ec3e 8879 91bd 6122 df3d c32c 26be
000000f0: 9187 0b3f 0709 e1be 17c5 c3be 6fde 093f
00000100: ad9a 95bd 55e9 3dbe de8c b2bd f8ed 28bd
00000110: 433d 903e 2cba 85bd 89a8 bc3c 7d02 eebe
00000120: 3ebb 60be 9b4a 1e3c 8833 803c 480c 203e
00000130: 09a3 16be 2a81 113e 29c9 0cbe fd3c f03d
00000140: c524 5e3e c6f6 a2be 77f0 ea3d f9d7 acbd
00000150: b591 823e 3c88 17bd cbe3 19bd 77bc d1bd
00000160: 8506 8e3e 06aa 543e dc5f a0bc b1fe 15be
00000170: 126e a43e 8e86 573d 76e6 6f3d cb8d 103d
00000180: 0e07 d93e f528 b03e a5dc 40be 1eb8 703e
00000190: 380b fd3c b3fa b13c 3e3e 063f 0829 b73d
000001a0: 0d4e 143d 7eb9 6abe 44ff 3a3e a629 673e
000001b0: 64af 69bd c6e6 103e 551d f93c bac5 403e
000001c0: e1af fa3e c64c 9fbe 2110 b13e 41e2 18be
000001d0: cc8d babd 0396 86bc d5c2 803e 74ed a43e
000001e0: 5e73 423d 483d d03d f8b9 003f a227 47be
000001f0: 9a16 d03e 5fee 00bd 4d33 b63c 13ae 04bd
00000200: ce08 d43e aac7 bebe 266e 15bf 2acc a2be
00000210: a81f 823d f2e4 88be 7af2 853e d9af 02bc
00000220: a833 7abe ec0d 3dbe 83ac bebd d9f7 73be
00000230: 55e6 6bbe 86dd 0b3e 2f30 82be 391a 06be
00000240: e751 bc3d 5e0d 533e 9f66 20bd c1f5 bdbd
00000250: 84c2 a13e 64cd a53d fc92 d73d 43e8 0f3d
00000260: 2f34 103e bc27 80be 76ab 67bc 50a3 b7be
00000270: 50fb bbbe 3d1d a13d 5869 c2bd 4cab a13e
00000280: 215f 8bbe 6a37 c73d c8f3 333e cb09 c6be
00000290: 9972 b83e 9199 5a3e 354c 4fbe 2f7e f73b
000002a0: a9d3 c63d 03d1 993d 6e6d b53e 8800 ee3d
000002b0: 01ec 4fbe 9453 c9bd ebf3 a2bd 7e87 8cbe
000002c0: 206b 1abe 5d98 abbe 817b 95bd 1e37 9bbd
000002d0: cab2 163e 3671 e93d e93c f53d 4d2c 06be
000002e0: 3a40 9abe ba1c 2dbe 02c6 06be c349 5bbe
000002f0: b4d3 dfbe ff48 393e ac9e 6a3e 00bb a0be
00000300: 3447 32bd c991 7f3e a552 353d 89b0 abbd
00000310: e7ef b3be 931d 9b3d 30c2 00bd bc5f 193c
00000320: d2b8 b73d 4f30 00be 0007 233c e7f7 87be
00000330: 61c2 183d 1290 9dbd 4a2a 213c f070 b5be
00000340: 33bb 2cbe 5216 6abe 1f87 dabe 9215 513e
00000350: 8650 aa3d e07d 0f3e 0aa7 8d3d 1538 563e
00000360: 573c 75be 7933 6cbe 21ea e63d 290a eebd
00000370: 7d9e 85be e41e 4fbe 9a44 e13d 2255 babe
00000380: d202 ddbe 7610 89be f312 de3d 8d4e 9dbd
00000390: 00e3 83be 29a9 74bd 0b07 f13c 760b edbd
000003a0: ca98 b3bd 403a 4d3e 9d4e 0fbe 6b63 c5bd
000003b0: f916 143e 9675 d0bc e21e 143d 90e4 583e
000003c0: cbf5 8dbe 7a31 513e 06c7 64be 8c1b 28be
000003d0: f88d 003d 76d5 0d3e 5067 59be ac25 6dbe
000003e0: a1a4 9fbe 6ad9 dbbd 7ea5 48be 5406 d33e
000003f0: 6a7d 5bbe d42b d2bc a874 823d a102 90be
-0.0023590839 0.29028702 0.5684461 0.30093506 -0.3084287 0.27968502 -0.055644285 0.16148189
-0.11577418 0.13254474 -0.09954 0.04649909 0.40607345 -0.3970013 0.21743949 -0.14837994
-0.00702968 -0.2556917 0.2328205 0.34484094 -0.121063605 0.17076425 -0.10816751 -0.278041
-0.014829509 0.17894316 0.23817019 0.31593618 0.29553723 -0.050845254 -0.026621891 -0.6420481
0.36787298 -0.008036473 0.07147629 0.49106398 -0.14979604 0.0045773834 0.28156692 0.27339143
0.06585112 0.024828244 -0.29520932 0.10160346 0.17480779 2.2848835e-05 -0.0041241194 0.44420147
0.1823681 0.533117 0.3954637 -0.0821915 -0.13359833 0.076825425 0.25730655 -0.38429722
0.461083 -0.07103258 0.10895229 -0.16228013 0.5450373 -0.439522 -0.38236305 0.5385503
-0.07304893 -0.1854604 -0.087182745 -0.04124257 0.2817174 -0.0652965 0.023029583 -0.46486273
-0.21946427 0.009661342 0.015649572 0.15629685 -0.1471063 0.14209428 -0.13748612 0.117303826
0.21693714 -0.31828898 0.11471646 -0.08439631 0.2550179 -0.036995158 -0.037570756 -0.10241025
0.2773935 0.20767984 -0.01957696 -0.14647938 0.32115227 0.052618556 0.058569394 0.035291474
0.42388195 0.34406248 -0.18834169 0.23507735 0.030889139 0.021725988 0.52438724 0.08943373
0.036207248 -0.22922322 0.18261439 0.22574481 -0.05705203 0.14150533 0.030409494 0.18825427
0.4896231 -0.3111326 0.34582618 -0.14930059 -0.09109077 -0.016428953 0.25148645 0.32212412
0.047473304 0.101679385 0.50283766 -0.19448712 0.40642244 -0.03147733 0.022241259 -0.032392573
0.41412967 -0.37261707 -0.583712 -0.3179639 0.06353694 -0.2673717 0.26161557 -0.007976496
-0.24433768 -0.18462342 -0.09310248 -0.23825015 -0.23037083 0.13658723 -0.25427386 -0.1309594
0.09195309 0.20610568 -0.039160367 -0.092753895 0.31593716 0.08095816 0.10526082 0.03513361
0.14082406 -0.25030315 -0.014140001 -0.35866785 -0.36715174 0.07866905 -0.09492749 0.31576002
-0.27221015 0.09727366 0.17573464 -0.38679346 0.3602493 0.21347643 -0.20243914 0.007552884
0.0970834 0.07510569 0.3543505 0.11621195 -0.20304872 -0.098303944 -0.0795668 -0.27447122
-0.15079927 -0.3351468 -0.07298947 -0.07578872 0.1471664 0.113985464 0.11974508 -0.13102837
-0.30127126 -0.1690549 -0.13161471 -0.21414857 -0.43716204 0.18094252 0.22912091 -0.3139267
-0.043524936 0.24957956 0.04426827 -0.08383281 -0.35143968 0.07574 -0.03143519 0.009361204
0.089707986 -0.12518428 0.009950399 -0.26556322 0.03729475 -0.07693495 0.009836743 -0.35437727
-0.16868286 -0.22860077 -0.42681214 0.20418385 0.0831614 0.14012861 0.06916626 0.20919831
-0.23948799 -0.2306651 0.11275125 -0.11623032 -0.2609748 -0.20226628 0.10999413 -0.36393076
-0.43166214 -0.2677037 0.10843458 -0.07680998 -0.25759125 -0.059731636 0.029422304 -0.115744516
-0.087693766 0.20041752 -0.13994832 -0.09638103 0.14461888 -0.025446694 0.036162265 0.2118094
-0.27726588 0.2042903 -0.22341546 -0.16416758 0.031385392 0.1385096 -0.21230817 -0.23158902
-0.3118029 -0.10734828 -0.1959438 0.41215765 -0.2143456 -0.025655665 0.06369907 -0.28127006

actor.bias f4 [3]
00000000: a6c8 e63c 893b 35bd eccb 933b
0.028171849 -0.04424623 0.0045103934

critic.weight f4 [1, 128]
00000000: d13d 0cbd c97c 8c3d f0b3 a83d a7d4 ca3d
00000010: 80f3 a63d 4873 bf3c bb41 df3d f9bd b33d
00000020: 6ead 46bc 31ea 943d c58e 313e fe1c 543c
00000030: 8f29 3e3e 6b2d 62bd 22c3 4a3d b847 e6bc
00000040: 199c 24bd 1681 19be 0b83 72bd d053 acbd
00000050: 6ce0 c33d 543a cc3c 09d8 6b3d 30ca d0bd
00000060: f6d3 ffbd d72c fbbd 6329 5e3c 38c8 4b3d
00000070: d6db 3e3d 8daa 78bd d1be 0ebe 0d55 ae3e
00000080: e7c7 283e 1f31 24be 91cf 4f3d a38d 21bd
00000090: f936 0dbd da3f 5c3e 230f 833c 2cc6 db3d
000000a0: 1310 76be bc6c 813e bdcc 143d 8e4c e23d
000000b0: d4bc 6b3e 425e 7ebe 62a6 783e 184a 813c
000000c0: c171 5bbd 5584 613e 609b a4bb dffa 3fbd
000000d0: eadd 1fbe b785 ab3d 052c a73d 1270 87bd
000000e0: 44c1 593d 0274 e23d 12af 423e 78b8 14bd
000000f0: 27d8 c53c ea52 09be c90c ca3d 0e41 863d
00000100: 5b4f 983e 48a0 463d ab87 d6bd d4d5 743c
00000110: 2287 1dbd 00ce 9abe 03cd afbb 06d0 3d3d
00000120: 2534 2c3d 7b83 babc d058 8bbc 940f 64bd
00000130: bbca 2d3e 8b72 07be c69c 873d 1197 febd
00000140: fbfa c3bd 24f2 7e3e d903 0b3e 041e 403e
00000150: ad7a 5d3c e71e e7bd 41b4 dcbd 8763 b53d
00000160: e8f7 b23c 5ea7 43bd dfff 5abd 1077 b5bd
00000170: 041d 953d 7184 423e fdbb 913e 32df 673d
00000180: 6019 4d3d 0249 463d 16c5 92be 2e94 a53c
00000190: 75bd cc3d 8047 f23e 218c 843b 6583 d23c
000001a0: 0980 e73d 5f90 ebbd 6d0b 013e 737e 67be
000001b0: 1258 8ebb 49f3 76bd 4fad 1ebe 1a99 243e
000001c0: e6e4 0cbe 6291 33be 980d 17be 48f3 cd3d
000001d0: 0e87 0b3d c57b 9f3d 51b7 62bc 5ede 8b3e
000001e0: 6bf0 a83d 96f9 d5bc 79e1 98bd de87 29bc
000001f0: 9fee 883d e874 863d 8eaf b53d e82d 72bd
-0.03423864 0.068597384 0.08237445 0.099038415 0.08151913 0.0233704 0.10901209 0.08776469
-0.01212631 0.07271231 0.17339619 0.012946365 0.18570541 -0.055219095 0.0495025 -0.02811037
-0.04018793 -0.14990649 -0.059207004 -0.084144235 0.095642895 0.024930157 0.057579074 -0.10194814
-0.124916 -0.12264412 0.013559672 0.04975149 0.04659637 -0.060709525 -0.13939978 0.34049264
0.16482507 -0.16034363 0.05073506 -0.039441716 -0.034476254 0.21508732 0.015998429 0.10731158
-0.2402957 0.2527827 0.036328066 0.11049758 0.23021251 -0.24840644 0.2428222 0.015782401
-0.05357528 0.22023137 -0.005023405 -0.04687011 -0.15611997 0.083751135 0.08162693 -0.066131726
0.053162828 0.11057283 0.19012097 -0.036308736 0.024150921 -0.13410535 0.0986572 0.06555377
0.29748043 0.0484927 -0.10475095 0.014943559 -0.03845895 -0.3023529 -0.0053650155 0.046340965
0.042041916 -0.022767773 -0.017010123 -0.05567892 0.16971867 -0.13227288 0.06621699 -0.124311574
-0.09569355 0.24897057 0.13575687 0.1876145 0.013518018 -0.11285191 -0.10776568 0.08856874
0.021846727 -0.047767036 -0.053466674 -0.088606 0.07280925 0.18995835 0.28463736 0.05660934
0.050073028 0.04840947 -0.2866599 0.02021226 0.099970736 0.47320175 0.004045025 0.02569742
0.11303718 -0.11502146 0.12602015 -0.2260683 -0.004343995 -0.06029061 -0.154958 0.16074029
-0.13759193 -0.17535928 -0.1475128 0.10056168 0.034064345 0.07787279 -0.013837651 0.2731809
0.08248981 -0.026119988 -0.074648805 -0.010347335 0.06686138 0.06565267 0.08871375 -0.05912581
