W__RNN/W_RNN/md2/v_4/train_iter_0400.pt (torch, 79699 bytes, 6 tensors)

h0 f4 [128]
0	0xbed9111a	-0.4239586
1	0xbdeb9c4d	-0.115044214
2	0x3eae7ede	0.34081167
3	0x40456d70	3.0848045
4	0x3fafbafb	1.3728937
5	0x3faa0a98	1.3284483
6	0x3fa38f9d	1.2778202
7	0x3ebe7589	0.37199047
8	0x3f95b88a	1.1696942
9	0x3f680dcf	0.9064607
10	0x3f891140	1.0708389
11	0xbe0a423e	-0.13501832
12	0x3ef18fc3	0.47179994
13	0x3f925140	1.1431046
14	0xbf5ce37a	-0.862846
15	0xbf960227	-1.1719407
16	0x3f4642a4	0.77445436
17	0xbeeb0a9c	-0.45906532
18	0x3ff82d32	1.9388793
19	0x3e9f1296	0.31068867
20	0x3fd26f4b	1.6440214
21	0xbf5147da	-0.8175026
22	0xbf78502c	-0.9699733
23	0xbf67f13e	-0.9060248
24	0xbd42eec8	-0.047591
25	0x3fb8d260	1.4439201
26	0x3fb26034	1.3935609
27	0xc000d9e2	-2.0132985
28	0x3ed55fa4	0.4167453
29	0xbda5b7de	-0.080917105
30	0xbfd7c62a	-1.685735
31	0xbea70ea0	-0.32628345
32	0x3f5c96b0	0.8616743
33	0xbf66fb38	-0.9022708
34	0x3f64889f	0.8927097
35	0xbfacb39f	-1.3492316
36	0xbf88b112	-1.0679038
37	0xbf5521a3	-0.8325445
38	0xbc5e6a80	-0.013575196
39	0xbe873d00	-0.26413727
40	0x3f3a5f8f	0.7280206
41	0x3dc20b1e	0.09474777
42	0x3f973f6c	1.181623
43	0x3f6c4aad	0.92301446
44	0xbea0e0af	-0.3142142
45	0x3d8a0dbf	0.06740903
46	0x3f00601b	0.50146645
47	0xc032b6c9	-2.7924063
48	0xbe921a34	-0.28535616
49	0x3f8e88a2	1.1135447
50	0xbf937340	-1.1519547
51	0x404c7675	3.19473
52	0x3f4f2cb6	0.809276
53	0x3fa0e2df	1.2569236
54	0xc004c548	-2.074541
55	0xbe7bc11c	-0.24585384
56	0xbe623213	-0.22089414
57	0xbfb3474c	-1.4006133
58	0x3ef224f7	0.47293827
59	0xbdc47575	-0.09592716
60	0xbe02960f	-0.12752555
61	0xbe9e7d7a	-0.30955106
62	0x3ddbbedb	0.10729762
63	0xbe0d4220	-0.13794756
64	0xbe66729c	-0.22504658
65	0xbffb4475	-1.9630266
66	0x3f3b5105	0.731705
67	0xbe7b213e	-0.245244
68	0xbeb7aa76	-0.3587224
69	0x3d53182d	0.051536728
70	0xbfb48bd9	-1.4105178
71	0xbf905bcb	-1.1278013
72	0xbf60aee3	-0.87766856
73	0xbf55068b	-0.8321311
74	0xbe6309fc	-0.22171777
75	0xbfbebf43	-1.4902118
76	0x3d923532	0.071390525
77	0x3d98d6a3	0.07462814
78	0x3f2969ec	0.6617725
79	0xbe8d0647	-0.27543852
80	0xbebdcf71	-0.37072328
81	0x3d8250ab	0.063630424
82	0x3f8beea0	1.0932198
83	0xbf9c2b2f	-1.2200679
84	0x3e3557ef	0.17709325
85	0x3ea06102	0.3132401
86	0x3f3bfcb8	0.73432493
87	0xbd369b53	-0.044581722
88	0x3fe5fe5b	1.7968248
89	0x3ec898d3	0.39179096
90	0xbe41ef80	-0.18939018
91	0x3e9c7ae5	0.3056251
92	0x3f6109d8	0.87905645
93	0xbee5b370	-0.44863462
94	0x3f52b90c	0.8231361
95	0x3facedb6	1.3510044
96	0xbf04e3f3	-0.5191032
97	0x3e1b48d7	0.15164505
98	0xbe0acc9c	-0.13554615
99	0xbfc48dcb	-1.5355772
100	0x3f09852b	0.53718823
101	0x3f25e161	0.64797026
102	0x3e92589d	0.28583232
103	0xbe82d733	-0.2555481
104	0x3f216547	0.6304516
105	0xbdf6c22e	-0.120487556
106	0xbf8a2f87	-1.0795754
107	0x3ebc5d96	0.3679015
108	0x3e845beb	0.25851378
109	0xbfeb6825	-1.8391157
110	0x3cf57983	0.029965168
111	0xbfdc3158	-1.7202559
112	0xbf1940e3	-0.59864634
113	0xbfa9022e	-1.320379
114	0xbf01eacb	-0.5074889
115	0x3f5ab7a8	0.8543649
116	0x3b3528b6	0.0027642674
117	0x3f264587	0.6494984
118	0xbf16516d	-0.58717996
119	0x3f671e28	0.9028039
120	0xbf9e69d1	-1.2376043
121	0x3f251547	0.6448559
122	0x4036a861	2.854027
123	0x3f636a8e	0.88834465
124	0x3ee37f6b	0.4443315
125	0x3f6a2e92	0.9147731
126	0xbe36835b	-0.17823546
127	0xbfcd0676	-1.6017597

RNN.layer_encode.weight f4 [128, 145]
0	0xbc0335dc	-0.008008447
1	0xbd90ff70	-0.07079971
2	0xbcf1f4bb	-0.029535642
3	0x3c0df8e9	0.008665302
4	0xbd74d225	-0.059770722
5	0x3cc1be60	0.023650348
6	0xbd4c2d20	-0.049847722
7	0xbd8a5ace	-0.06755601
8	0x3d940896	0.072282
9	0xbd8dd30c	-0.069250196
10	0xbd685436	-0.056720935
11	0xbbb447cc	-0.005501723
12	0x3d699619	0.05702791
13	0x3cadabbf	0.021200059
14	0x3d4c69eb	0.0499057
15	0x3d358ce4	0.044323817
16	0xbd174642	-0.036932237
17	0xbbfcb0ce	-0.0077115064
18	0x3c8c69f2	0.017140362
19	0xbd8f904f	-0.070099466
20	0xbcdeb34b	-0.027185103
21	0x3ccdb326	0.025109839
22	0xbd17c00c	-0.037048385
23	0x3d93f2bd	0.07224033
24	0xbd320219	-0.04345903
25	0x3d8a9ad7	0.067678146
26	0xbd7231b0	-0.059129417
27	0xbce8cd9f	-0.02841836
28	0x3c74413d	0.014908132
29	0xbcdc2f39	-0.026877986
30	0xbd980b67	-0.0742405
31	0xbb18ab52	-0.0023295474
32	0xbd7c106d	-0.061539102
33	0xbdadbe46	-0.084835574
34	0x3c21f0e5	0.009884094
35	0xbd945dbb	-0.0724444
36	0x3cc269ac	0.023732029
37	0xbcebab31	-0.028768154
38	0xbd5382e0	-0.051638484
39	0xbd06e78e	-0.03293567
40	0xbc8583f8	-0.01629828
41	0xbdae65fe	-0.08515547
42	0x3d0758db	0.033043724
43	0xbd122a8e	-0.035685115
44	0x3cffc511	0.031221898
45	0xbc993ce1	-0.018705787
46	0x3d841106	0.064485595
47	0xbc9e8d9e	-0.019354638
48	0xbd19b0f1	-0.03752226
49	0xbc29c30f	-0.010361447
50	0xbcc46185	-0.023972282
51	0x3d5d2032	0.053985782
52	0x3da46972	0.080279246
53	0xbdb0b9b7	-0.08629172
54	0xbd814626	-0.06312208
55	0x3d4939f6	0.04912754
56	0x3d6ba8fc	0.057534203
57	0xbd8730dd	-0.06601117
58	0xbbc7ca88	-0.0060971417
59	0x3d327cc4	0.043576017
60	0x3d62f2e4	0.05540742
61	0x3d83cf56	0.064360306
62	0xbbcf2de4	-0.0063226093
63	0x3ce40e44	0.027838834
64	0x3c294632	0.010331677
65	0x3cde012e	0.027100172
66	0xbcd15d00	-0.025557041
67	0x3d865053	0.065582894
68	0x3c26a6c2	0.010171594
69	0xbd8576b9	-0.06516785
70	0x3cb19a43	0.021680003
71	0xbd7475b5	-0.059682567
72	0xbc536ecb	-0.012904833
73	0xbcc01e0e	-0.023451831
74	0x3d1fbdc9	0.038999353
75	0xbca72ccb	-0.020407101
76	0x3d821c6f	0.063530795
77	0x3b0783c9	0.0020677915
78	0xbcd07530	-0.025446504
79	0x3d17eebb	0.037092905
80	0xbd393a03	-0.04522134
81	0x3db0b3dd	0.08628056
82	0x3d920bda	0.07131167
83	0x3d6cf5da	0.05785165
84	0x3d74152a	0.059590496
85	0x3cb39aae	0.021924343
86	0xbd095ef5	-0.033537824
87	0xbaa7b4a5	-0.0012794925
88	0xbd8ce4ec	-0.06879601
89	0xbce2375d	-0.02761429
90	0x3d127756	0.03575834
91	0xbd14513c	-0.036210284
92	0xbd87358b	-0.066020094
93	0x3cf33c5d	0.02969187
94	0x3c450926	0.012026107
95	0x3d94455b	0.07239791
96	0x3cd6a5b5	0.026202062
97	0xbd46a4ab	-0.048496883
98	0xbc3bed62	-0.011470171
99	0xbd415dd3	-0.04720862
100	0xbc6ab4a7	-0.014325297
101	0xbba193a7	-0.0049309316
102	0x3c8fb0e7	0.017540408
103	0x3c240cd5	0.010012825
104	0x3c5135be	0.012769161
105	0xbb06e786	-0.0020584776
106	0xbc803864	-0.01565189
107	0xbd83c76f	-0.06434523
108	0x3c942bc5	0.018087277
109	0xbd4fe5fc	-0.05075644
110	0xbd93aa36	-0.072101995
111	0x3da66bdc	0.08126041
112	0xbdac6e18	-0.08419436
113	0xbc443224	-0.011974845
114	0xbdab53bc	-0.083655804
115	0x3d762489	0.060093436
116	0x3b1ef5c9	0.0024255386
117	0xbda5a087	-0.08087259
118	0xbc99386b	-0.01870366
119	0xbd8f805b	-0.07006904
120	0x3d6d1470	0.05788082
121	0xbd2b0b31	-0.04175872
122	0x3c89dc67	0.016828729
123	0x3d25007e	0.040283673
124	0xbd2ed6b5	-0.04268523
125	0xbcb4d0b6	-0.022072177
126	0xbd875c10	-0.066093564
127	0xbd98872a	-0.074476555
128	0xbd051347	-0.032489087
129	0x3ccf5d66	0.02531309
130	0xbd6843eb	-0.056705397
131	0x3d40af9f	0.047042485
132	0x3cf9ea2e	0.030507173
133	0x3d5c4ee8	0.05378619
134	0xbc0385db	-0.008027519
135	0x3ca6705d	0.02031725
136	0xbd61d288	-0.05513242
137	0xbd05e5a6	-0.032689713
138	0xbda9c91d	-0.082903124
139	0x3c12580a	0.008932123
140	0x3d4f41ba	0.05059979
141	0xbdadd3eb	-0.08487686
142	0xbbacf946	-0.005278739
143	0x3d79083e	0.060798876
144	0xbd8c1e4e	-0.06841718
145	0x3c210ac2	0.009829225
146	0xba5c9b48	-0.00084154727
147	0x3cb84a9c	0.022496514
148	0x3d5ff856	0.05468019
149	0x3d85e8f3	0.06538572
150	0x3d100ce1	0.035168532
151	0xbcc49ae1	-0.023999633
152	0x3cf67732	0.030086134
153	0xbc0b8ac9	-0.008516976
154	0x3cffd966	0.031231593
155	0xbd00ff05	-0.031493206
156	0xbca0fd90	-0.019652158
157	0x3d9d3745	0.076765575
158	0xbd03803c	-0.032104716
159	0x3dcf8429	0.101326294
160	0xbbd3c2de	-0.006462439
161	0xbd8f1cae	-0.06987892
162	0xbd34bd4c	-0.04412584
163	0xbc88b80a	-0.01668932
164	0x3d9bc0d1	0.07605136
165	0xbd68b742	-0.056815393
166	0x3da672bf	0.08127355
167	0xbd079b20	-0.033106923
168	0xbd260c72	-0.040539213
169	0x3d99a94a	0.075029925
170	0x3d8f3ac5	0.06993631
171	0xbd64fda5	-0.055905957
172	0x3d975c62	0.073906675
173	0x3d424b61	0.04743517
174	0xbd1801a6	-0.037110947
175	0x3d08e5b4	0.033422187
176	0xbd2dcb37	-0.04243013
177	0x3d062b8f	0.032756384
178	0x3d356a49	0.044290815
179	0x3d044942	0.032296427
180	0x3d403168	0.046922117
181	0xbd2c85e6	-0.042119883
182	0xbd9c2b2e	-0.07625423
183	0xbd4fcce2	-0.0507325
184	0x3cdc5885	0.026897678
185	0x3d83ff69	0.064452
186	0x3c4727bd	0.01215547
187	0xbd06087f	-0.032722946
188	0xbd8db8af	-0.06919991
189	0xbce3b20a	-0.027794857
190	0x3d23e548	0.04001358
191	0x3d6eccca	0.05830077
192	0x3d175159	0.036942814
193	0xbb5a07c6	-0.0033268793
194	0x3d398fed	0.045303274
195	0x3d8e5185	0.06949142
196	0x3c884865	0.016636083
197	0x3da0761b	0.07835027
198	0x3d898a39	0.06715817
199	0x3cfa45e6	0.030550908
200	0xbc226db3	-0.00991385
201	0x3d6799cc	0.056543157
202	0x3cd63ab9	0.026151048
203	0x3d3f2b5a	0.046672203
204	0x3d8344b0	0.064095855
205	0xbca1dc6a	-0.019758422
206	0x3d5263b4	0.051364616
207	0x3c76ba58	0.015059076
208	0x3d068318	0.032839864
209	0x3ce28b48	0.027654305
210	0x3bc8d4b8	0.0061288737
211	0xbba2cc77	-0.0049682218
212	0xbca2e8c2	-0.019886378
213	0xbd7c14f2	-0.061543413
214	0x3d8e0974	0.06935397
215	0xbccc6e9c	-0.024955086
216	0xbae31210	-0.0017324109
217	0xbb0efd76	-0.0021818555
218	0xbd9560c4	-0.07293847
219	0xbaa59e70	-0.0012635719
220	0x3d135911	0.035973612
221	0xbd135b6e	-0.035975866
222	0x3d90c340	0.07068491
223	0xbbc4c625	-0.006005066
224	0x3d9d87cc	0.07691917
225	0x3d4c0ee1	0.049818877
226	0x3c8c61d8	0.0171365
227	0x3d520a2b	0.05127923
228	0xbda26007	-0.07928472
229	0x3c948ca5	0.01813347
230	0x3b1f6c5a	0.0024326057
231	0xbcb7c82f	-0.022434322
232	0x3d8f2f17	0.069914035
233	0x3db560bd	0.08856342
234	0xbd1e090f	-0.038582858
235	0xbd24a0bb	-0.040192347
236	0x3d8bf5c1	0.06833983
237	0x3d7bd810	0.06148535
238	0xbcd5b46f	-0.026087014
239	0x3dc5e49e	0.09662746
240	0xbd906450	-0.07050383
241	0x3da8f1ab	0.082492195
242	0x3cf803a8	0.030275181
243	0xbd81e81f	-0.06343102
244	0xbdba306f	-0.09091269
245	0xbadc53a8	-0.00168096
246	0xbd8de73c	-0.0692887
247	0x3c717144	0.014736477
248	0xbd5a510a	-0.05329994
249	0xbbaf0912	-0.0053416574
250	0x3d0a2fbd	0.033736933
251	0x3bae5194	0.0053197835
252	0xbc1e6a6e	-0.0096689295
253	0xbd582b60	-0.05277574
254	0x3d8a67ba	0.067580655
255	0xbc1c5aae	-0.009543104

RNN.layer_encode.bias f4 [128]
0	0x3d8100e7	0.06299
1	0x3cd33bbe	0.025785323
2	0xbcda401a	-0.026641894
3	0xbd61ff51	-0.05517513
4	0x3d69a49f	0.05704176
5	0xbb96851a	-0.0045935037
6	0xbd02141d	-0.031757463
7	0xbd1a353e	-0.037648432
8	0x3c5b5fba	0.013389522
9	0xbda3e35c	-0.0800235
10	0x3d58b760	0.052909255
11	0x3bb434f2	0.0054994756
12	0xbd3b5110	-0.045731604
13	0xbc7a96ab	-0.015294711
14	0x3d773965	0.06035747
15	0xbba4aa78	-0.0050252043
16	0x3c541c4c	0.0129462
17	0xbc937518	-0.01800017
18	0x3cb0a6af	0.021563856
19	0x3cadae7c	0.021201365
20	0xbd45b603	-0.048269283
21	0xbd552a0a	-0.052042045
22	0x3dcc31c1	0.09970427
23	0x3d1b8355	0.037967045
24	0xbd12f4b4	-0.0358779
25	0xbd400df8	-0.04688832
26	0x3d9ba4c1	0.07599784
27	0x3cd13f04	0.025542744
28	0x3d776326	0.06039729
29	0x3c15a182	0.009132745
30	0x3d603d80	0.05474615
31	0x3d8fd604	0.07023242
32	0x3c86dbc8	0.016462222
33	0xbd99f023	-0.075165056
34	0xbd0e00b2	-0.03466863
35	0xbd4e3d1f	-0.05035126
36	0x3d8c24a8	0.06842929
37	0x3d7f6e6e	0.062361173
38	0xbc2e1418	-0.010624908
39	0x3c710c41	0.014712394
40	0x3c2503bf	0.010071694
41	0xbc9efc90	-0.01940754
42	0x3d951fc8	0.072814524
43	0xbd8bb810	-0.068222165
44	0x3c1cbb44	0.009566132
45	0xbd9365a4	-0.07197121
46	0x3c0a0ce8	0.008425929
47	0xbcedfba7	-0.029050661
48	0x3d8646ff	0.0655651
49	0xbd3506fa	-0.044196106
50	0x3d914578	0.07093328
51	0xbc9cec22	-0.019155566
52	0x3dc3802f	0.095459335
53	0x3d881f80	0.06646633
54	0x3d711f9e	0.058868043
55	0x3d0e4308	0.034731895
56	0x3d9920db	0.0747697
57	0xbd9cf8c1	-0.076646335
58	0x3d529b92	0.051417895
59	0xbc130d43	-0.00897533
60	0x3d95c42b	0.07312807
61	0xbc5ef965	-0.013609265
62	0xbc2115e8	-0.009831883
63	0xbd54be43	-0.05193926
64	0xbc80eeb4	-0.015738823
65	0xbc9535c8	-0.018214121
66	0xbd4aee06	-0.049543403
67	0x3bac4326	0.005257028
68	0xbbb63591	-0.005560585
69	0x3ce564a2	0.028002087
70	0xbcf14bf9	-0.029455172
71	0x3dc053fc	0.09391019
72	0x3cbe71bc	0.023247592
73	0xbd47603c	-0.04867576
74	0x3d8dba1d	0.06920264
75	0x3cef1414	0.029184379
76	0xbdb54b2c	-0.088522285
77	0xbd50d6a4	-0.050985947
78	0xbcee5a5c	-0.029095821
79	0x3c8f5c21	0.017499985
80	0x3d8f8ae0	0.0700891
81	0x3d337056	0.043808304
82	0xbc08c0f7	-0.008346788
83	0xbd257c4a	-0.040401734
84	0xbda21a91	-0.079152234
85	0x3d8df9c9	0.06932408
86	0x3d859cf3	0.06524076
87	0xbcf1df2e	-0.029525366
88	0x3d497467	0.049183276
89	0x3d94910d	0.07254229
90	0xbd89cc90	-0.0672847
91	0xbcabbd7e	-0.02096438
92	0x3b4f9fe5	0.0031680998
93	0x3db31335	0.08743898
94	0xbdade759	-0.08491392
95	0x3dc3deeb	0.095640026
96	0x3daae3ee	0.083442554
97	0xbd7ba570	-0.06143707
98	0x3d2a3537	0.041554656
99	0xbb32cccc	-0.0027282713
100	0xbca58267	-0.020203782
101	0x3b56e75e	0.0032791714
102	0x3d8021f3	0.06256475
103	0x3cc96146	0.024582516
104	0xba98dc16	-0.001166227
105	0x3cdb0916	0.026737731
106	0x3d193ff7	0.037414517
107	0x3cd33509	0.025782125
108	0xbd900ed7	-0.070340805
109	0xbcb58d2c	-0.022162043
110	0x3c281caa	0.01026074
111	0x3d4b3740	0.049613237
112	0xbc4bfb53	-0.012450057
113	0xbc0cc2f2	-0.0085914
114	0xbd217eb0	-0.03942746
115	0xbd30675f	-0.043067332
116	0x3d10c018	0.035339445
117	0x3cb6220a	0.022233028
118	0x3c18cba9	0.0093259
119	0x3d710db6	0.058850966
120	0x3ce35750	0.027751595
121	0xbd04a611	-0.032384936
122	0x3cdf2586	0.027239572
123	0xbd076a34	-0.033060268
124	0xb8925cc0	-6.9790985e-05
125	0xbd05a75a	-0.032630302
126	0xbd8072f5	-0.06271926
127	0xbd6ee348	-0.05832222

actor.weight f4 [3, 128]
0	0xbcee7abc	-0.029111259
1	0xbd8841d2	-0.06653179
2	0x3e22978e	0.15878126
3	0x3dc4dec9	0.096128054
4	0xbdd82f35	-0.10555879
5	0x3d1bbe67	0.03802338
6	0xbdcb0c6c	-0.09914479
7	0x3d247598	0.04015121
8	0xbc191055	-0.009342273
9	0xbe1b7462	-0.15181115
10	0xbc6371ca	-0.01388211
11	0x3dc72072	0.09722985
12	0x3ccbef0c	0.02489426
13	0xbe511fb8	-0.20422256
14	0x3d6ebb28	0.058283955
15	0xbd69a986	-0.057046436
16	0x3de29080	0.110627174
17	0xbd93e08b	-0.072205625
18	0x3e2358e8	0.15951884
19	0x3d56e98a	0.052468814
20	0x3d1bc2d4	0.0380276
21	0x3dcf5895	0.101243176
22	0xbde5324c	-0.11191234
23	0xbc634e36	-0.013873627
24	0xbe029b11	-0.12754466
25	0xbd4e376e	-0.05034583
26	0xbd27ba66	-0.040949248
27	0x3cdcad07	0.026937975
28	0xbd868e4b	-0.06570109
29	0x3a97d223	0.0011583011
30	0x3e316221	0.1732259
31	0x3d48bb88	0.04900697
32	0x3df9e0c6	0.12201075
33	0xbd7b35d4	-0.06133063
34	0x3d266d30	0.040631473
35	0xbdd6931a	-0.10477276
36	0x3d004aea	0.031321444
37	0x3e272c6d	0.16325541
38	0xbbd6f3f1	-0.006559842
39	0xbe9b181f	-0.3029184
40	0xbd36652e	-0.044530086
41	0x3c8b1c6e	0.01698133
42	0xbc465017	-0.012104056
43	0x3d851ded	0.064998485
44	0x3d4ed2f7	0.05049416
45	0x3c130fe7	0.008975959
46	0xbd21ac24	-0.039470807
47	0x3d7e415a	0.062074043
48	0x3d630bb1	0.05543107
49	0xbdd8a87c	-0.10579011
50	0x3df0b1ed	0.11752687
51	0xbd3312ea	-0.04371921
52	0x3e0b1fdd	0.13586374
53	0xbd9ead06	-0.07747845
54	0xbc916f6a	-0.017753322
55	0xbc7c8462	-0.015412422
56	0xbc44fb30	-0.012022778
57	0x3d014c77	0.031567063
58	0xbe00e8af	-0.12588762
59	0x3d3518fc	0.04421328
60	0xbcecf620	-0.028925955
61	0x3cd7372d	0.026271427
62	0x3ceadb53	0.028669035
63	0xbdd94415	-0.10608689
64	0x3dd35c79	0.10320372
65	0x3c5c8da8	0.013461508
66	0xbd34c918	-0.04413709
67	0x3d46c2b7	0.04852554
68	0x3d9b7bff	0.0759201
69	0xbcb61cae	-0.022230472
70	0xbce640fb	-0.028107157
71	0xbd6c52a8	-0.057696015
72	0xbcb092cf	-0.021554379
73	0xba161c60	-0.0005726274
74	0x3d08ec27	0.033428337
75	0x3d89862f	0.067150466
76	0x3d02beec	0.03192036
77	0x3db2f151	0.08737434
78	0x3bed16db	0.0072353906
79	0x3df4c45c	0.11951515
80	0x3bca1173	0.006166631
81	0x3d6a3a74	0.05718465
82	0xbe217d72	-0.1577051
83	0x3dba61d5	0.09100691
84	0xbd8e4f40	-0.069487095
85	0x3d87e413	0.066352986
86	0xbdc70bc7	-0.09719043
87	0xbc28df18	-0.010307096
88	0x3db970e5	0.09054736
89	0x3decc354	0.115606934
90	0xbde909ec	-0.113788456
91	0x3e074aae	0.13212082
92	0x3e2070ca	0.15668026
93	0xbdd0f88f	-0.10203659
94	0xbd18f3d0	-0.037341893
95	0x3d878671	0.066174395
96	0x3e6e922c	0.23297948
97	0x3c212b15	0.009836932
98	0x3d030313	0.031985354
99	0x3c093b1b	0.008375908
100	0xbe648108	-0.22314847
101	0x3c93a64c	0.018023632
102	0xbd0d77b3	-0.034537982
103	0xbd5c8aac	-0.053843185
104	0x3cc2dfc8	0.023788348
105	0xbe3129e4	-0.17301136
106	0x3e3f927f	0.18708228
107	0x3dfc3ab4	0.12315884
108	0xbd65fac4	-0.05614735
109	0x3df48aa9	0.1194051
110	0x3d69faa9	0.057123814
111	0x3c87b30e	0.016564872
112	0xbe2fc949	-0.17166628
113	0x3c379ea4	0.0112072565
114	0xbbd947e0	-0.0066308826
115	0x3cf02ddc	0.029318742
116	0x3d7c14d6	0.06154331
117	0xbd142a2d	-0.036173034
118	0xbe0ff273	-0.14057331
119	0x3e0b48d8	0.13602006
120	0x3dd6de4e	0.1049162
121	0x3d88a6df	0.06672453
122	0xbc9c45ec	-0.01907631
123	0xbd0647a3	-0.03278316
124	0x3d2f7874	0.042839482
125	0xbde9952c	-0.114054054
126	0xbd018fa5	-0.03163113
127	0x3b343868	0.002749944
128	0x3c3dd81c	0.011587169
129	0xbe35cb44	-0.17753321
130	0xbe2d8c03	-0.16947941
131	0x3dd4ec8d	0.10396681
132	0x3c21e5a4	0.009881411
133	0xbd6a0c60	-0.057140708
134	0xbda0affb	-0.078460656
135	0x3d0e89e2	0.034799464
136	0xbba73376	-0.00510257
137	0x3da1ae12	0.078945294
138	0xbd1814c9	-0.037129197
139	0xbe316f62	-0.17327645
140	0xbbbcf07f	-0.005765974
141	0x3e08356a	0.13301626
142	0xba98df5c	-0.0011663246
143	0xbd1e5ff0	-0.038665712
144	0xbd67659a	-0.05649338
145	0xbdb371c9	-0.08761937
146	0xbdf11f1e	-0.11773513
147	0x3d1a9af3	0.037745427
148	0xbdb6b81e	-0.08921836
149	0xbd549db4	-0.05190821
150	0xbe0e6af4	-0.13907987
151	0x3bb3e474	0.00548988
152	0xbdcee59d	-0.10102389
153	0xbce720ce	-0.028213885
154	0x3d574156	0.052552544
155	0xbda39190	-0.07986748
156	0xbdbf5b1d	-0.0934355
157	0xbe3a3280	-0.18183327
158	0xbc8fd925	-0.017559597
159	0xbdc4f48e	-0.096169576
160	0x3da9f296	0.08298223
161	0xbdcd7799	-0.10032577
162	0x3e43b6ca	0.19112697
163	0xbdd60871	-0.10450829
164	0xbdf34512	-0.118784085
165	0x3cf43c38	0.02981387
166	0xbc0efed4	-0.008727748
167	0xbd93398d	-0.07188711
168	0x3dac4b49	0.08412797
169	0xbc718536	-0.014741233
170	0x3c738488	0.014863141
171	0xbb0d4a93	-0.0021559342
172	0xbdca45a1	-0.09876562
173	0x3dbf0a5c	0.09328148
174	0xbce98e5a	-0.028510261
175	0x3e1f5930	0.15561366
176	0xbdeb0d48	-0.114771426
177	0xbd378759	-0.044806812
178	0xbdbf4c42	-0.09340717
179	0xbdfaa9bd	-0.12239406
180	0xbe1e9acc	-0.15488738
181	0x3d7c1add	0.061549056
182	0xbd791352	-0.06080944
183	0x3d3760fc	0.044770226
184	0xbe006afd	-0.12540813
185	0x3ddb8dac	0.10720381
186	0x3d7a04d2	0.061039753
187	0xbe346a11	-0.17618586
188	0x3d3d86e0	0.046271205
189	0x3d69c6a9	0.057074223
190	0x3db26595	0.087107815
191	0x3b1b0983	0.0023656792
192	0x3c2f3243	0.010693136
193	0x3d830e15	0.0639917
194	0xbc8eb30f	-0.017419366
195	0xbdc64b1b	-0.09682294
196	0x3daf539e	0.085608706
197	0xbd2e315b	-0.042527538
198	0xbd498eec	-0.049208567
199	0xbb098cbb	-0.0020988423
200	0xbdd385cc	-0.10328254
201	0xbdb73875	-0.08946315
202	0xbdf06bfb	-0.11739346
203	0xbd927925	-0.07152013
204	0x3dbc920b	0.09207543
205	0xbc987a00	-0.018612862
206	0x3b14476c	0.0022625579
207	0x3d448661	0.047979716
208	0x3d435f0d	0.04769807
209	0x3c3628f4	0.011118162
210	0xbe014e92	-0.12627628
211	0xbd8be794	-0.068312794
212	0x3c8b7bb4	0.01702676
213	0xbd9e4658	-0.07728261
214	0x3d6219f9	0.05520055
215	0xbdffb4c7	-0.124856524
216	0x3d0c463d	0.034246672
217	0xbdae3aeb	-0.085073315
218	0x3df6a231	0.12042654
219	0x3d800df9	0.06252665
220	0x3a779fa4	0.00094460906
221	0xbe449da7	-0.19200765
222	0xbc7c9cd3	-0.015418249
223	0x3d1822d1	0.03714258
224	0xbd0c3d77	-0.034238305
225	0xbd16a22a	-0.036775745
226	0x3e2840c5	0.16430958
227	0xbe626ac2	-0.22111037
228	0x3d033f27	0.03204265
229	0xbd807d38	-0.062738836
230	0x3d80154f	0.06254064
231	0x3e057022	0.13031057
232	0xbda31981	-0.07963849
233	0x3ccfd13d	0.025368327
234	0x3c1b3660	0.009473413
235	0xbe296c3e	-0.16545197
236	0xbd04b037	-0.032394614
237	0xbd93479e	-0.07191394
238	0xbd919713	-0.07108893
239	0x3df174fd	0.11789892
240	0xbe0bb816	-0.13644442
241	0xbd0af5ab	-0.033925693
242	0x3d96cdbf	0.07363462
243	0xbe3d7d93	-0.18504934
244	0xbd36142b	-0.044452827
245	0x3c97d64b	0.0185348
246	0xbd37a14b	-0.044831555
247	0xbe253adb	-0.16135733
248	0x3d8dfb7f	0.06932735
249	0x3e340ce9	0.1758305
250	0xbc9a9a5f	-0.018872438
251	0x3b2c9998	0.0026336666
252	0x3d6ca3ae	0.057773285
253	0x3e380675	0.17971213
254	0x3dd20e03	0.10256579
255	0xbd9cba77	-0.07652753

actor.bias f4 [3]
0	0x3c800f30	0.015632242
1	0xbc6757ca	-0.014120052
2	0xbc852f70	-0.016257972

critic.weight f4 [1, 128]
0	0x3e35bc4e	0.17747614
1	0x3ca6d8c4	0.020367034
2	0x3c90ce36	0.017676454
3	0x3d99a306	0.075017974
4	0xbe840702	-0.25786597
5	0x3dcee232	0.10101737
6	0x3e163c91	0.14671542
7	0x3c8f84d8	0.0175194
8	0xbccec59a	-0.025240708
9	0xbdd68aa7	-0.104756646
10	0x3dd2894f	0.10280096
11	0xbc924fa7	-0.017860247
12	0x3d68c15e	0.056825034
13	0x3d3763f8	0.044773072
14	0xbda27f2f	-0.079344146
15	0xbdb1f055	-0.08688418
16	0x3ce75768	0.02823992
17	0xbd82dd2a	-0.0638984
18	0xbd551499	-0.052021597
19	0xbd4cda71	-0.05001301
20	0xbdc51ef5	-0.09625045
21	0xbd9d3bf6	-0.07677452
22	0xbe07d018	-0.13262975
23	0xbd52ffe8	-0.051513582
24	0x3dd30cee	0.103052005
25	0x3d6575b0	0.05602044
26	0xbd7ba62d	-0.061437774
27	0xbe0d5ca3	-0.1380487
28	0x3d7f3a65	0.06231155
29	0x3d705fc1	0.058685068
30	0x3cf86fb4	0.030326702
31	0xbd1e5ab3	-0.038660716
32	0x3df20f61	0.118193395
33	0xbc0d67b7	-0.008630685
34	0xbde80dfb	-0.113307916
35	0xbd846c30	-0.06465948
36	0xbd66520d	-0.056230593
37	0x3e24c686	0.16091356
38	0xbe1c275d	-0.15249391
39	0xbdb0352c	-0.08603892
40	0x3cb566d1	0.022143753
41	0x3c94f96d	0.018185342
42	0xbcd96aa4	-0.026540108
43	0x3d319ae3	0.043360602
44	0x3c6c3ed5	0.014419277
45	0x3cabda07	0.020977987
46	0xbc2d367d	-0.010572073
47	0xbdf536b6	-0.11973326
48	0xbde29437	-0.11063426
49	0x3c8d35f7	0.017237647
50	0xbe0eeae8	-0.13956797
51	0x3d8c7813	0.0685884
52	0xbcb9a272	-0.022660468
53	0xbd262213	-0.04055984
54	0x3d8ca776	0.06867878
55	0xbdb76267	-0.08954316
56	0x3ca9d305	0.020730505
57	0x3e270d03	0.16313557
58	0x3d0b822f	0.0340597
59	0x3dcb80c3	0.09936669
60	0xbdbc0fbc	-0.091826886
61	0xbe11f388	-0.14253056
62	0xbd2400e6	-0.04003992
63	0xbcb37cde	-0.021910127
64	0x3ddc3f5e	0.10754274
65	0x3c4384dc	0.011933532
66	0x3e1de081	0.15417673
67	0x3d48cb45	0.049021978
68	0x3e014773	0.12624912
69	0xbcb39baa	-0.021924812
70	0xbd3bcede	-0.04585158
71	0xbe7c2284	-0.24622542
72	0xbdecf717	-0.11570566
73	0x3d1e9606	0.038717292
74	0xbd438de7	-0.04774275
75	0xbb154f30	-0.0022782795
76	0xbde37bec	-0.111076206
77	0x3dd7dbe3	0.10539987
78	0x3c98bfb3	0.018646097
79	0xbca6d9ea	-0.020367581
80	0xbe4fe3a0	-0.20301676
81	0x3bc9e29c	0.006161047
82	0x3dd309b1	0.10304583
83	0xbe05bca8	-0.13060248
84	0xbd22841d	-0.039676774
85	0xbe074843	-0.1321116
86	0xbe0599c6	-0.13046941
87	0x3d8583ec	0.06519303
88	0xbcc1fc98	-0.023680016
89	0x3d8a282c	0.067459434
90	0x3c8c46a6	0.017123532
91	0x3e2a98dd	0.16659875
92	0x3dab5304	0.08365443
93	0xbe2726e6	-0.16323432
94	0xbd243c3a	-0.0400965
95	0xbe366b2c	-0.1781432
96	0xbccb50a8	-0.024818733
97	0xbda5de35	-0.08099023
98	0xbceb48a9	-0.02872117
99	0xbd402771	-0.046912614
100	0x3e09701d	0.13421674
101	0x3d8af959	0.067858405
102	0xbe4c9560	-0.19978857
103	0x3b95ae4a	0.004567896
104	0x3bb8fa1f	0.005645051
105	0xbd65a43a	-0.05606482
106	0x3bb9e106	0.005672577
107	0xbdd60ea4	-0.10452011
108	0x3bdd3c6c	0.0067515876
109	0xbd921ac1	-0.07134009
110	0xbd0feb3e	-0.035136454
111	0xbdbaf18d	-0.091281034
112	0xbd73b208	-0.059495956
113	0xbd1fd598	-0.03902206
114	0x3e20d2c6	0.15705404
115	0xbcefde57	-0.029280825
116	0xbd3304e5	-0.04370584
117	0xbccdbe5b	-0.025115183
118	0x3c747da6	0.014922535
119	0x3dd569e2	0.10420586
120	0xbe0eb267	-0.13935243
121	0xbd66c6aa	-0.056341805
122	0xbd52ac92	-0.051434107
123	0x3d8bfa46	0.06834845
124	0xbe20a563	-0.1568809
125	0xbd1c27e9	-0.038124
126	0xbd843b58	-0.064566314
127	0x3db3ebb0	0.08785188
