W__RNN/W_RNN/md2/v_4/train_iter_3500.pt (torch, 80523 bytes, 8 tensors)

h0 f4 [128]
0.10201982 -0.9358327 0.6036786 -0.89651227 1.1242844 -0.023749584 -0.26259765 -0.55560666
0.14036192 -1.2907281 -0.19835733 -0.35881 0.48854405 -0.64021677 -0.40041912 0.5389713
-0.81718147 -1.6447675 -0.3815874 0.74608195 0.17797321 0.029100556 0.010713573 -0.029066302
-0.021688044 0.0059171002 0.13673767 0.5766788 0.68427885 -0.1622715 1.6584183 1.1847502
-0.40664127 -0.27222157 -1.7617415 0.31949162 1.3988484 -0.48225045 -0.6296151 2.017742
0.7124313 0.2896935 0.76738214 1.1493697 -0.39295197 0.85750717 1.359341 0.27425304
-0.14311472 -0.38194296 -0.86545837 0.7017905 1.2523023 0.90280026 1.1100255 -0.1292358
-0.6145739 2.643881 0.44560912 0.3138991 -1.1442318 -1.0926262 0.7081127 -1.1679176
1.1521947 -0.9043989 -0.55535585 -2.4771318 0.11682352 -1.2422762 -0.25324848 0.56425637
-0.33975023 -2.2645686 0.12236278 -0.92591333 0.92587894 1.1264876 -1.9337839 0.09190117
0.0025891014 -0.19061312 0.10074094 0.71155614 0.42299742 0.055273917 1.3039265 1.3500988
-0.5824001 -1.2411122 1.5379832 0.51249456 0.56892663 -0.21070963 0.41165665 0.47731027
1.3770156 1.0980219 0.12052808 -0.9526435 2.3629503 1.5484126 -0.8031598 -0.19174331
-0.22726628 0.44634756 -0.54003286 0.544401 1.0931607 1.784364 1.6217245 -0.65229934
1.3071516 -0.24748471 1.1477485 0.09704793 1.8027632 -3.0098314 0.041004106 2.119969
0.46469733 0.047437526 -0.2548564 0.94818175 -1.710039 -0.08735421 -1.3378867 -2.3220532
00000000: c4ef d03d bb92 6fbf ae8a 1a3f d481 65bf
00000010: 8de8 8f3f 7d8e c2bc 3373 86be 3d3c 0ebf
00000020: 09bb 0f3e 9436 a5bf 2f1e 4bbe f2b5 b7be
00000030: 7222 fa3e 3fe5 23bf bc03 cdbe 06fa 093f
00000040: ce32 51bf be87 d2bf 6c5f c3be 3aff 3e3f
00000050: 9c3e 363e 4a64 ee3c fb87 2f3c 741c eebc
00000060: 20ab b1bc 3ce4 c13b f604 0c3e 39a1 133f
00000070: e62c 2f3f 802a 26be 0d47 d43f e5a5 973f
00000080: 4933 d0be a060 8bbe bf80 e1bf 6894 a33e
00000090: 770d b33f 88e9 f6be 752e 21bf af22 0140
000000a0: e661 363f b552 943e 2873 443f 8c1e 933f
000000b0: 0031 c9be 9785 5b3f e3fe ad3f e56a 8c3e
000000c0: aa8c 12be 078e c3be ae8e 5dbf 8ba8 333f
000000d0: 714b a03f eb1d 673f 5115 8e3f 6456 04be
000000e0: b754 1dbf 5935 2940 e126 e43e 62b7 a03e
000000f0: 3076 92bf 2ddb 8bbf e046 353f 537e 95bf
00000100: 1e7b 933f b086 67bf cd2b 0ebf 5489 1ec0
00000110: 2b41 ef3d e802 9fbf c9a9 81be 1b73 103f
00000120: bef3 adbe b1ee 10c0 5699 fa3d a808 6dbf
00000130: 6706 6d3f bf30 903f 3b86 f7bf ae36 bc3d
00000140: eaad 293b 1630 43be 4451 ce3d 8b28 363f
00000150: 1e93 d83e e766 623d 10e7 a63f 0ad0 ac3f
00000160: 2c18 15bf c4dc 9ebf a2dc c43f d832 033f
00000170: 2da5 113f 44c4 57be a9c4 d23e 0362 f43e
00000180: 0c42 b03f fb8b 8c3f 6dd7 f63d 72e0 73bf
00000190: 943a 1740 6232 c63f e19b 4dbf 5c58 44be
000001a0: 7eb8 68be ab87 e43e 983f 0abf dd5d 0b3f
000001b0: b1ec 8b3f 0a66 e43f ab94 cf3f 17fd 26bf
000001c0: be50 a73f a26c 7dbe 6ce9 923f 11c1 c63d
000001d0: f2c0 e63f 14a1 40c0 ecf3 273d 92ad 0740
000001e0: cfec ed3e da4d 423d 8a7c 82be 0abc 723f
000001f0: 8fe2 dabf c4e6 b2bd df3f abbf 859c 14c0

RNN.weight_ih_l0 f4 [128, 17]
0.08068211 -0.047114894 -0.14130186 -0.14655672 -0.07637376 0.006252919 -0.09970107 0.120146945
0.108198896 -0.060709707 -0.064567186 0.30412608 0.0072377496 -0.04441783 -0.031531993 -0.11723396
0.18801846 -0.018021042 0.01263374 0.08967553 0.06470141 0.08349149 0.05566166 -0.07952274
0.039592758 0.0073903785 -0.08043492 -0.05479013 0.023458311 -0.0755788 -0.053896636 -0.08526948
-0.05349465 0.030574609 -0.10074998 0.005037943 -0.122942664 -0.03149177 0.03108579 -0.040865153
-0.045222525 -0.03659661 -0.08175141 -0.10591467 -0.006083883 0.28387883 0.032010194 -0.029676862
-0.12418775 0.09307254 0.1029548 -0.25866488 0.021298632 0.2977576 0.4805435 0.039092157
0.081066094 0.49154618 -0.1323933 -0.08995855 -0.01278068 0.21197529 0.1248919 0.19173127
-0.08616229 0.1603038 -0.1850783 -0.027064888 -0.03400575 -0.2777692 -0.18209204 -0.015875755
-0.11925975 -0.27687743 0.077734075 0.18229757 0.02826529 0.16910808 0.14535816 -0.04054003
-0.046128884 -0.09049719 -0.018718684 0.019411312 -0.016562726 0.23444457 0.024599247 0.1191049
0.14549963 0.16199511 0.16753271 0.4686716 0.17149414 0.18115863 0.120560214 -0.045493852
-0.039124165 -0.20939305 -0.061309725 0.068006046 0.034367595 -0.08764558 -0.15412791 -0.16757792
0.21472217 0.23604617 -0.18268308 -0.2237484 -0.14838956 -0.15952012 -0.1734814 -0.0063403747
0.063822694 0.05854393 0.2502347 -0.06792952 0.025375193 0.003435127 -0.015471922 -0.18679129
-0.0064369245 -0.023093466 0.06446251 -0.09876935 0.07519005 0.07354864 -0.06287767 -0.09688387
-0.045509644 0.13543867 0.26241058 -0.09153604 0.11265775 -0.0502738 -0.11357008 0.17319682
0.34620175 0.109184995 0.3227546 0.5544424 -0.23921518 -0.10192329 -0.176702 -0.39998913
-0.41788265 -0.33699524 -0.28794503 -0.42552888 0.22137962 -0.2827391 0.010896552 0.14044395
-0.22496995 0.091866344 0.123902105 0.2289516 0.4707032 -0.20973156 -0.021606904 0.10372968
-0.4779186 -0.23532103 -0.3126714 0.06253939 -0.14125417 -0.1328844 0.04714297 0.12508906
0.044855166 -0.061230544 0.4316409 -0.03934972 -0.16979444 -0.3614305 -0.030875677 0.13413487
0.25649035 -0.0009968483 0.08635522 0.061869305 -0.22852297 -0.07712739 -0.19248375 -0.08540062
-0.07841852 0.08776128 0.011468642 0.11026121 -0.42072964 -0.23481227 -0.18767378 -0.33962357
-0.43932298 -0.4390939 0.015574181 -0.0025422217 -0.032405775 0.01772036 -0.06286599 0.09019549
-0.16403152 -0.08480501 -0.02985443 0.019596132 -0.038647853 0.005564072 -0.027882405 -0.05357411
0.032551263 0.06191166 0.01031347 -0.03779637 0.032102622 0.064934865 -0.06299832 0.056800716
-0.016816383 -0.020591754 -0.046176706 -0.026784431 -0.07161597 0.12363168 0.11963175 0.18724847
0.09871447 0.012195879 0.066540845 0.3117062 -0.15574855 -0.16367419 0.02176465 -0.14722385
-0.02798022 -0.10400863 0.0071048937 0.07853431 0.05806842 -0.030871494 0.17857677 0.368584
0.050299488 0.11601901 0.0537591 0.14254172 0.21408159 -0.23514245 -0.20010382 -0.054030173
-0.18824454 -0.19210906 0.1118754 0.06986382 0.062177286 0.02627288 0.12583221 0.26799145
00000000: a93c a53d 8cfb 40bd 6fb1 10be f712 16be
00000010: d969 9cbd 49e5 cc3b 1330 ccbd 9a0f f63d
00000020: 6297 dd3d beaa 78bd cd3b 84bd 6ab6 9b3e
00000030: a52a ed3b 78ef 35bd b127 01bd 5c18 f0bd
00000040: e987 403e dda0 93bc bffd 4e3c cea7 b73d
00000050: 2c82 843d 96fd aa3d 7bfd 633d d1dc a2bd
00000060: 042c 223d fd2a f23b 10bb a4bd 9e6b 60bd
00000070: a52b c03c 0fc9 9abd b8c2 5cbd c4a1 aebd
00000080: 351d 5bbd 9a77 fa3c 0156 cebd 5415 a53b
00000090: 5dc9 fbbd 84fd 00bd a0a7 fe3c 3862 27bd
000000a0: 413b 39bd 54e6 15bd 496d a7bd cae9 d8bd
000000b0: 4f5b c7bb 9158 913e 1f1d 033d e41c f3bc
000000c0: 2656 febd d19c be3d f7d9 d23d b96f 84be
000000d0: 787a ae3c af73 983e cc09 f63e 191f 203d
000000e0: fb05 a63d f1ab fb3e 1c92 07be 303c b8bd
000000f0: 0f66 51bc 0d10 593e 53c7 ff3d 3455 443e
00000100: db75 b0bd ae26 243e 2a85 3dbe 2fb7 ddbc
00000110: 9d49 0bbd c437 8ebe 5676 3abe df0d 82bc
00000120: 753e f4bd e1c2 8dbe 0b33 9f3d 37ac 3a3e
00000130: 9c8c e73c ab2a 2d3e c5d8 143e 4d0d 26bd
00000140: a4f1 3cbd 9756 b9bd ed57 99bc 7904 9f3c
00000150: 8eae 87bc 3d12 703e 5c84 c93c 45ed f33d
00000160: dbfd 143e 0ce2 253e b28d 2b3e b9f5 ef3e
00000170: 299c 2f3e a681 393e 46e8 f63d c357 3abd
00000180: a940 20bd 226b 56be e81f 7bbd c146 8b3d
00000190: 09c5 0c3d 877f b3bd b5d3 1dbe 8c99 2bbe
000001a0: 21e0 5b3e 16b6 713e 4611 3bbe 4d1e 65be
000001b0: 6ff3 17be 3e59 23be 1ca5 31be ebc2 cfbb
000001c0: 79b5 823d c3cb 6f3d c31e 803e a21e 8bbd
000001d0: a3df cf3c de1f 613b f27d 7dbc 3746 3fbe
000001e0: d6ec d2bb 822e bdbc ec04 843d 9647 cabd
000001f0: 3efd 993d aba0 963d 02c6 80bd 0d6b c6bd
00000200: 5268 3abd 6fb0 0a3e ae5a 863e 3f77 bbbd
00000210: 1bb9 e63d e6eb 4dbd 6e97 e8bd 825a 313e
00000220: 5b41 b13e 629c df3d 1740 a53e f0ef 0d3f
00000230: d3f4 74be 28bd d0bd 5ef1 34be 60cb ccbe
00000240: b7f4 d5be a48a acbe 886d 93be ecde d9be
00000250: 57b1 623e 2ec3 90be 7487 323c 8ad0 0f3e
00000260: 865e 66be 6c24 bc3d 63c0 fd3d 4a72 6a3e
00000270: 0300 f13e dfc3 56be f600 b1bc 3a70 d43d
00000280: bfb1 f4be fff7 70be 7716 a0be a714 803d
00000290: efa4 10be d912 08be fd18 413d 5917 003e
000002a0: 0dba 373d e1cc 7abd 0900 dd3e 2c2d 21bd
000002b0: 98de 2dbe 6b0d b9be fdee fcbc a75a 093e
000002c0: b452 833e aea8 82ba 01db b03d ab6a 7d3d
000002d0: ed01 6abe f7f4 9dbd 761a 45be 85e6 aebd
000002e0: e499 a0bd 30bc b33d f9e6 3b3c a1d0 e13d
000002f0: e069 d7be a172 70be 8e2d 40be 24e3 adbe
00000300: f1ee e0be ead0 e0be da2a 7f3c 679b 26bb
00000310: ebbb 04bd 4a2a 913c e2bf 80bd 6ab8 b83d
00000320: e1f7 27be 40ae adbd 4791 f4bc 1188 a03c
00000330: 364d 1ebd d252 b63b a469 e4bc 8770 5bbd
00000340: 7954 053d 1597 7d3d d4f9 283c 5ed0 1abd
00000350: 0a7e 033d 92fc 843d 4305 81bd dea7 683d
00000360: 83c2 89bc 0ab0 a8bc c923 3dbd 066b dbbc
00000370: 65ab 92bd 9b32 fd3d 7e01 f53d 10be 3f3e
00000380: d02a ca3d 39d1 473c 9146 883d f497 9f3e
00000390: 8c7c 1fbe 359a 27be c74b b23c d9c1 16be
000003a0: c636 e5bc 7a02 d5bd 2bd0 e83b 99d6 a03d
000003b0: 27d9 6d3d 37e6 fcbc d4dc 363e 0bb7 bc3e
000003c0: d606 4e3d 609b ed3d 8132 5c3d 75f6 113e
000003d0: 3438 5b3e 2fc9 70be 04e8 4cbe be4e 5dbd
000003e0: 2dc3 40be 3db8 44be ee1e e53d c314 8f3d
000003f0: 9cad 7e3d 393a d73c 29da 003e 2d36 893e

RNN.weight_hh_l0 f4 [128, 128]
-0.0009864154 -0.004799377 0.0022825801 -0.04894981 0.04117277 0.018032651 0.030502295 0.025292818
-0.08597968 0.04697693 -0.052312627 0.066662885 -0.03402692 -0.026017977 0.08688261 0.051506467
0.08045039 -0.022876838 0.09926775 -0.0052251015 0.0598067 0.054983705 0.013728013 0.05246369
-0.010498199 0.0042966553 0.114645556 0.07826004 0.019469311 -0.0549981 -0.08123286 -0.013373361
0.07168283 -0.100725584 -0.018443359 -0.014000124 -0.11473632 0.06568287 -0.049853757 -0.026123831
-0.060539696 -0.042622942 -0.06833584 0.08056998 -0.026171526 0.05759454 -0.025480459 0.05570193
0.06873692 0.04446758 0.003233348 -0.11188828 -0.017713936 -0.094041355 -0.10268776 0.020745667
0.0152732385 0.056405943 -0.02111446 -0.047698323 0.00085865956 -0.045301475 0.07859477 -0.06642142
0.016814923 -0.0042603384 0.094563745 0.0052047223 0.015712406 -0.015498792 0.06783788 0.027675878
0.02450925 0.08925887 -0.098238856 0.0022398261 -0.014684255 0.065085195 -0.02595319 -0.07075216
0.06436693 0.010572664 -0.035103377 -0.035811305 0.04776953 0.032789167 0.09283909 0.036203414
-0.0027215087 -0.0537048 0.10490012 -0.036025267 0.03022892 -0.0012743842 -0.05057102 0.0153743625
-0.043535043 -0.078058235 0.0064546876 -0.07864938 0.05334244 -0.007579605 0.07375376 -0.00016267312
-0.123486534 -0.04839412 0.025004016 -0.009707863 -0.04433037 -0.07107166 -0.003476473 0.03861693
-0.08926312 -0.00850492 0.05378391 -0.057523374 0.15676737 0.06786416 0.054052487 -0.021045865
-0.06796739 0.078747846 0.057785474 0.058316685 0.027819147 0.012680938 -0.039494824 0.049525045
0.07498144 0.06538996 -0.0822519 -0.049201317 0.06281408 -0.002461989 -0.0393044 -0.031368002
-0.06195126 -0.05529914 -0.0758334 0.0696078 -0.0650942 -0.05178395 0.054263446 -0.074527696
0.0200993 0.051339395 0.0045954445 0.065515704 0.024176307 -0.022910979 0.018823791 -0.047883518
-0.019372381 -0.07131847 -0.056068413 0.06303699 -0.037140515 -0.026532592 0.010551274 -0.053695273
0.017562512 0.028187804 0.061499093 -0.07380205 0.0011649267 0.0077505973 -0.024934886 0.06860461
-0.024095107 -0.042929493 -0.046759844 -0.043451607 0.075359404 -0.095638976 -0.07378004 -0.05663616
-0.087436356 -0.056359217 0.045693852 -0.008342586 -0.010430625 -0.01575581 0.049538046 -0.09635314
0.02281227 0.005629574 0.009253742 0.07596805 -0.038126867 -0.07452293 0.004455043 0.009127392
0.023230214 0.03630887 -0.040384702 -0.056249175 0.070386335 -0.048152663 -0.060906194 0.026205737
-0.096928306 0.0012032234 -0.024445105 0.030775964 -0.04687315 -0.09378519 -0.013425569 -0.053687874
-0.05614416 0.049683932 -0.02659709 0.0060537215 -0.056588303 -0.055549055 0.0071164155 -0.06082836
0.065051846 -0.096987054 -0.08201449 -0.016708985 -0.060494527 0.0017776638 0.0061206887 0.07078476
0.05531492 -0.009187908 -0.051462375 -0.06718059 0.04851074 -0.04493289 0.050892 0.07572413
-0.066593215 -0.06935452 0.060108982 -0.038332157 0.04628524 0.007587766 -0.0023298701 -0.09254571
0.00576151 0.043877784 -0.075389616 -0.07734116 0.061587997 0.035128437 -0.09018967 -0.04576038
-0.061438955 -0.08017928 -0.09585599 -0.06116761 0.070793 0.078527085 -0.030318271 -0.03076917
00000000: 9c4a 81ba 1844 9dbb 5797 153b 997f 48bd
00000010: c7a4 283d 36b9 933c f3df f93c e232 cf3c
00000020: 1d16 b0bd e26a 403d c445 56bd 8d86 883d
00000030: d05f 0bbd a723 d5bc 83ef b13d 72f8 523d
00000040: 2dc3 a43d 3568 bbbc e44c cb3d 5437 abbb
00000050: dff7 743d 9836 613d 76eb 603c 2be4 563d
00000060: a300 2cbc f5ca 8c3b 4acb ea3d cd46 a03d
00000070: 1b7e 9f3c b045 61bd 6a5d a6bd f11b 5bbc
00000080: 73ce 923d 3749 cebd 8716 97bc c760 65bc
00000090: e0fa eabd be84 863d 7433 4cbd a501 d6bc
000000a0: 79f8 77bd 6595 2ebd a9f3 8bbd e001 a53d
000000b0: ab65 d6bc 41e8 6b3d 65bc d0bc b527 643d
000000c0: f1c5 8c3d a323 363d 94e6 533b af25 e5bd
000000d0: d11c 91bc c198 c0bd f64d d2bd d1f2 a93c
000000e0: 9b3c 7a3c eb09 673d 3bf8 acbc 515f 43bd
000000f0: ab17 613a 0a8e 39bd 4bf6 a03d f407 88bd
00000100: 73bf 893c 4f9a 8bbb a3aa c13d 608c aa3b
00000110: 4eb7 803c a5ee 7dbc 96ee 8a3d 86b8 e23c
00000120: 9fc7 c83c 5bcd b63d 7431 c9bd 0cca 123b
00000130: 3b96 70bc 634b 853d c99b d4bc 82e6 90bd
00000140: cfd2 833d f838 2d3c 8fc8 0fbd e0ae 12bd
00000150: fca9 433d ef4d 063d 6c22 be3d 084a 143d
00000160: 575b 32bb 90f9 5bbd e0d5 d63d 3b8f 13bd
00000170: a4a2 f73c 3d09 a7ba 8f23 4fbd c0e4 7b3c
00000180: cd51 32bd ffdc 9fbd d881 d33b ed12 a1bd
00000190: 9a7d 5a3d 565e f8bb 360c 973d 3c93 2ab9
000001a0: 82e6 fcbd ea38 46bd 39d5 cc3c bb0d 1fbc
000001b0: c393 35bd 058e 91bd 8ad5 63bb c92c 1e3d
000001c0: 95cf b6bd 3858 0bbc 844c 5c3d a19d 6bbd
000001d0: a087 203e 5dfc 8a3d 2466 5d3d 6168 acbc
000001e0: 7d32 8bbd 8d46 a13d 76b0 6c3d 7add 6e3d
000001f0: fbe4 e33c b5c3 4f3c 53c5 21bd c6da 4a3d
00000200: df8f 993d 2ceb 853d af73 a8bd 5287 49bd
00000210: aba4 803d 5259 21bb a7fd 20bd bc7b 00bd
00000220: 9bc0 7dbd 5a81 62bd 8b4e 9bbd 898e 8e3d
00000230: 1c50 85bd 681b 54bd 5943 5e3d faa1 98bd
00000240: 4aa7 a43c 4249 523d 6295 963b 192d 863d
00000250: 640d c63c ceaf bbbc 5a34 9a3c 8221 44bd
00000260: d4b2 9ebc 6b0f 92bd fea7 65bd 8a19 813d
00000270: a720 18bd e15a d9bc 40df 2c3c 93ef 5bbd
00000280: 42df 8f3c 1cea e63c 79e6 7b3d 8725 97bd
00000290: 74b0 983a b9f8 fd3b 3f44 ccbc 9380 8c3d
000002a0: 1a63 c5bc d6d6 2fbd 4087 3fbd 50fa 31bd
000002b0: 0856 9a3d 5ede c3bd fd19 97bd 51fb 67bd
000002c0: d511 b3bd ecd8 66bd 7a29 3b3d 58af 08bc
000002d0: 36e5 2abc 5412 81bc 68e8 4a3d cc54 c5bd
000002e0: cce0 ba3c 4a78 b83b 029d 173c 2395 9b3d
000002f0: eb2a 1cbd 7a9f 98bd 9cfb 913b 0f8b 153c
00000300: 4a4d be3c 9cb8 143d 6e6a 25bd 8965 66bd
00000310: b626 903d ba3b 45bd c678 79bd 6aad d63c
00000320: 5982 c6bd 7ab5 9d3a 1a41 c8bc e01d fc3c
00000330: 0ffe 3fbd 7312 c0bd ebf6 5bbc d1e7 5bbd
00000340: 6bf7 65bd 6181 4b3d 24e2 d9bc 4c5e c63b
00000350: 23c9 67bd 6887 63bd d230 e93b 2927 79bd
00000360: e739 853d 26a1 c6bd 37f7 a7bd 48e1 88bc
00000370: 1cc9 77bd 8000 e93a 0f90 c83b 9af7 903d
00000380: e691 623d e188 16bc 36ca 52bd fa95 89bd
00000390: 33b3 463d 8d0b 38bd 2174 503d 4115 9b3d
000003a0: 0662 88bd be09 8ebd d634 763d 2e02 1dbd
000003b0: 9895 3d3d cba2 f83b bcb0 18bb 9b88 bdbd
000003c0: 0dcb bc3b 31b9 333d df65 9abd 0b65 9ebd
000003d0: b243 7c3d d6e2 0f3d 5db5 b8bd 3c6f 3bbd
000003e0: 6aa7 7bbd 0935 a4bd 2550 c4bd e38a 7abd
000003f0: ecfb 903d cfd2 a03d 065e f8bc a00f fcbc

RNN.bias_ih_l0 f4 [128]
0.05571746 -0.008687414 -0.01764965 0.1239981 0.0867074 0.0032799218 -0.013069499 -0.034188233
0.009915016 -0.0071441946 -0.034482125 0.012571672 -0.072552204 0.08988512 -0.04913226 -0.06478883
0.054135747 0.00332078 -0.06436587 -0.046946853 0.018111164 0.019607963 0.10215484 0.033111468
0.029841984 -0.056220427 -0.05166686 0.071034364 0.10498774 0.021778543 -0.046408746 0.07679943
-0.017555866 -0.031970616 0.09567789 0.036537424 -0.06911663 0.04694843 -0.064354904 -0.08517207
0.0371964 0.09757976 0.012999086 0.043081336 0.022399828 0.06772133 -0.039497413 -0.063355654
0.026626132 0.01099056 -0.008203771 -0.09006267 -0.05462748 0.07260118 0.009826271 0.043748323
-0.047526337 -0.032858964 0.011876815 -0.0406125 0.011359322 -0.06101145 -0.013480029 -0.03449146
0.032733843 -0.026716722 0.10587881 0.071975075 -0.085893236 0.08829615 0.023883123 0.044711087
0.060841184 0.0048846975 0.040013354 0.096097246 -0.020373344 0.0334763 0.03836091 0.043505765
-0.082324795 0.05700098 0.029025836 0.089394346 -0.084622085 0.048616335 -0.06913251 -0.05640107
0.054316916 -0.058703743 0.10161653 -0.051875327 -0.045200557 0.036952812 0.07906654 -0.09870486
-0.06518257 -0.002278719 0.06970188 0.04417593 -0.019641701 -0.06518031 -0.028754711 0.023197936
0.043129798 0.06285183 0.084931456 0.034235794 0.031333387 -0.08000882 0.058318127 0.0527122
-0.050090197 0.04552895 0.044577926 -0.07479272 0.06560486 -0.011644371 0.04714496 0.09771249
0.042206854 -0.014497942 -0.016014768 -0.03328334 0.02995171 -0.0064458223 0.10237626 0.02484569
00000000: fe37 643d a855 0ebc 0096 90bc b7f2 fd3d
00000010: a693 b13d f5f3 563b 7421 56bc f608 0cbd
00000020: 9772 223c d919 eabb 213d 0dbd 6af9 4d3c
00000030: 4096 94bd b115 b83d e93e 49bd 02b0 84bd
00000040: 72bd 5d3d 71a1 593b 41d2 83bd 584b 40bd
00000050: dd5d 943c e1a0 a03c 8f36 d13d e49f 073d
00000060: 2d77 f43c 6447 66bd a1a0 53bd 777a 913d
00000070: d003 d73d ea68 b23c 1917 3ebd 0549 9d3d
00000080: 52d1 8fbc 9ff3 02bd c5f2 c33d 44a8 153d
00000090: 058d 8dbd ff4c 403d 81cc 83bd b26e aebd
000000a0: 415b 183d e6d7 c73d 1efa 543c 0e76 303d
000000b0: d87f b73c 7bb1 8a3d 0ac8 21bd 9cc0 81bd
000000c0: 0c1f da3c c011 343c 1c69 06bc c772 b8bd
000000d0: 11c1 5fbd edaf 943d 5efe 203c 7131 333d
000000e0: faaa 42bd 1f97 06bd f996 423c 4b59 26bd
000000f0: 731c 3a3c 24e7 79bd 57db 5cbc eb46 0dbd
00000100: ec13 063d 07dd dabc fdd6 d83d ab67 933d
00000110: cbe8 afbd 9dd4 b43d 8aa6 c33c f922 373d
00000120: 9b34 793d d00f a03b 0be5 233d a2ce c43d
00000130: 00e6 a6bc 721e 093d 5420 1d3d 1a33 323d
00000140: e799 a8bd dc79 693d 97c7 ed3c 6214 b73d
00000150: 584e adbd ec21 473d 5895 8dbd cf04 67bd
00000160: 6a7b 5e3d 5673 70bd 541c d03d 397b 54bd
00000170: 3824 39bd d55b 173d a3ed a13d c625 cabd
00000180: 707e 85bd 9056 15bb dcbf 8e3d d2f1 343d
00000190: a2e7 a0bc 417d 85bd 008f ebbc 9909 be3c
000001a0: dfa8 303d 76b8 803d 8bf0 ad3d d53a 0c3d
000001b0: 7057 003d aadb a3bd fdde 6e3d bfe8 573d
000001c0: 612b 4dbd 907c 3a3d 5897 363d ed2c 99bd
000001d0: d75b 863d 08c8 3ebc 131b 413d 7c1d c83d
000001e0: 18e1 2c3d c788 6dbc 6731 83bc 1d54 08bd
000001f0: 4a5d f53c 7a37 d3bb a5aa d13d 3089 cb3c

RNN.bias_hh_l0 f4 [128]
0.0014001481 0.021238713 0.07073421 -0.041281458 0.103296325 0.08370242 0.023834169 0.047725607
-0.031994857 -0.01430748 -0.033220626 0.13670167 0.02777689 -0.010304616 0.0693023 -0.00036965433
-0.023216635 -0.02852897 0.0025932447 -0.08354066 0.023719136 -0.08465124 0.037144925 -0.0050275805
0.06892537 0.023248963 0.011731222 -0.038401555 0.07443689 0.071293026 0.029035982 -0.051626295
0.054761253 -0.0747321 -0.015830286 0.07981726 -0.081100546 -0.114971496 0.07804366 -0.07752208
-0.0040575997 -0.01651049 -0.014141683 0.096885584 0.069586314 0.028581435 0.053444788 -0.0150105255
0.075006284 0.088916235 0.08448834 0.030352756 -0.049788717 0.022172716 -0.042775653 0.085175276
0.07279991 -0.04223959 -0.02879031 -0.041816544 -0.023495378 0.0179408 0.0652586 0.036965106
0.04431913 0.12004439 0.10105784 0.001765994 -0.08784759 0.03510229 0.082187556 0.041833967
0.029807357 0.025341433 0.09442135 0.11908277 0.05896775 0.040600233 -0.028244687 0.056036923
-0.09863044 -0.055527844 -0.09120433 -0.047514938 -0.12568688 -0.059050653 -0.015698781 -0.0008847964
0.06548205 -0.03670094 0.0737402 -0.10800832 -0.0026716858 -0.010488512 0.04154017 0.06862357
0.08225512 0.011120718 -0.009280739 -0.040224623 -0.06389692 0.06983852 0.10074214 -0.003343464
0.042232845 0.064605124 0.04715877 0.08297664 0.05359534 -0.08668201 0.039638236 0.0717099
-0.030661495 -0.025352018 0.0038361803 -0.08102975 0.1290399 0.062450927 0.011200245 0.012697818
0.024261361 -0.029602341 0.07578476 0.054428454 0.030851895 0.028870882 0.012922969 0.024807902
00000000: 2d85 b73a cffc ad3c 19dd 903d bf16 29bd
00000010: 068d d33d 2d6c ab3d e03f c33c ed7b 433d
00000020: 0a0d 03bd ec69 6abc 5a12 08bd 86fb 0b3e
00000030: 5c8c e33c b1d4 28bc 5dee 8d3d 2ace c1b9
00000040: d030 bebc 96b5 e9bc 6df3 293b 5e17 abbd
00000050: a24e c23c a15d adbd 4725 183d 67be a4bb
00000060: bf28 8d3d 9c74 be3c 5034 403c f34a 1dbd
00000070: 5e72 983d 1402 923d dedc ed3c 1876 53bd
00000080: 564d 603d 250d 99bd 84ae 81bc 3b77 a33d
00000090: 0b18 a6bd 2d76 ebbd 5bd5 9f3d e5c3 9ebd
000000a0: 9df5 84bb 0241 87bc 84b2 67bc f36b c63d
000000b0: 4583 8e3d 9d23 ea3c ece8 5a3d b5ee 75bc
000000c0: e59c 993d b719 b63d 3908 ad3d 58a6 f83c
000000d0: 41ef 4bbd 8ea3 b53c 8635 2fbd 6070 ae3d
000000e0: 1f18 953d 6c03 2dbd a8d9 ebbc d347 2bbd
000000f0: 6179 c0bc 96f8 923c 4da6 853d b968 173d
00000100: fa87 353d d5d9 f53d 6af7 ce3d ed78 e73a
00000110: 70e9 b3bd 6bc7 0f3d f351 a83d 185a 2b3d
00000120: 8f2e f43c d698 cf3c fb5f c13d abe1 f33d
00000130: 2b88 713d 6e4c 263d 6761 e7bc f986 653d
00000140: c2fe c9bd 2a71 63bd 56c9 babd 069f 42bd
00000150: 10b4 00be 19df 71bd bb9a 80bc aef1 67ba
00000160: 741b 863d ba53 16bd 1a05 973d 7733 ddbd
00000170: 7317 2fbb 02d8 2bbc 0626 2a3d 848a 8c3d
00000180: 5f75 a83d ac33 363c 3e0e 18bc 93c2 24bd
00000190: 63dc 82bd 7f07 8f3d e551 ce3d 051e 5bbb
000001a0: 59fc 2c3d b14f 843d 8e29 413d a8ef a93d
000001b0: ca86 5b3d 5686 b1bd b45b 223d a4dc 923d
000001c0: d12d fbbc 09af cfbc 6d68 7b3b edf2 a5bd
000001d0: 0923 043e 8bcc 7f3d 3b81 373c 820a 503c
000001e0: c3bf c63c 9c80 f2bc 0a35 9b3d 5ff0 5e3d
000001f0: 1dbd fc3c a182 ec3c dcba 533c f139 cb3c

actor.weight f4 [3, 128]
0.14354831 -0.1733646 -0.20761776 -0.0050961385 -0.06001055 0.26935717 -0.019020334 -0.34405386
0.3878086 -0.030539962 0.44093975 -0.19443382 -0.10293214 0.5498464 0.45482337 0.32863024
0.059439704 -0.12269697 -0.08107081 -0.043617755 0.15722467 0.073121674 0.38433972 0.40349835
-0.074435785 0.04919327 0.50405395 0.161216 0.49155694 0.2687769 -0.13756521 -0.15095177
-0.32276928 0.3197036 0.22523285 0.41797534 0.06313022 0.07161054 0.03791931 0.3792697
-0.041085828 0.28722918 0.13068388 0.067929946 0.0037601013 -0.4193128 -0.3137387 0.25462762
-0.0053419466 0.32402843 0.4373003 0.24561614 -0.37323144 0.4724938 -0.24397132 -0.431715
0.04118971 -0.00068991643 -0.37861958 0.11923218 0.2023129 -0.045051187 0.31060252 0.0117095895
-0.04340974 0.5438439 0.36470157 -0.036582116 0.15915766 0.21423568 0.14189212 0.3129649
-0.16639352 -0.051238663 0.38064513 -0.42132512 0.49212644 -0.29389086 -0.047598828 -0.22471718
0.114658676 0.024185896 -0.004086578 0.12122159 0.08170115 0.031275447 -0.14527221 0.046463463
0.27534106 0.30533296 -0.25563097 -0.14029576 -0.06272758 -0.0911997 0.4395813 0.16738378
0.2756178 0.4435561 -0.24450696 0.614291 -0.002380687 0.31999704 -0.20801365 -0.11152147
0.12883012 -0.046116855 -0.292283 -0.27476242 0.07648317 -0.03184486 -0.054104235 -0.1414654
-0.24951462 0.33783218 -0.012295852 -0.0009251535 0.22461364 0.06928166 -0.17899482 0.47386575
0.16536829 0.36669362 -0.31642035 -0.23205517 -0.20485581 -0.2268994 0.4176586 0.29782304
0.3338711 0.04209429 0.16918676 -0.053048536 -0.45028618 -0.28765836 -0.26982376 0.33065802
-0.35923427 0.15430315 -0.03384041 0.047701392 -0.0035496275 -0.2840112 -0.26847884 -0.18781453
-0.07953907 0.22797962 0.08765973 0.1405041 -0.23873624 -0.19509411 -0.26798365 -0.34581828
0.18516485 -0.08871487 -0.27902257 0.43770584 -0.2016528 -0.42957327 0.029215395 0.0050775176
0.04049463 -0.22526228 -0.21194062 -0.26377437 -0.24916713 0.047106825 0.24822272 -0.20227411
-0.09327284 -0.24612163 0.31222343 0.10044687 0.0073788133 0.5288391 0.22843336 0.12397173
0.25500527 0.003344961 -0.22939089 0.1916455 0.111153476 -0.3391593 0.28640184 0.13327369
-0.088446714 -0.21549882 0.069570914 0.066501215 0.18053254 0.14298768 -0.19347236 0.048099652
0.042330552 -0.38596815 -0.59763366 -0.013609837 -0.27347916 -0.46161395 -0.4040701 -0.19348949
0.2712382 -0.04305091 -0.41099012 0.07364157 -0.21915594 0.12197816 0.13828477 0.45170692
0.082729414 -0.08222797 0.05238259 -0.23282497 -0.19802397 0.05706513 -0.12339185 -0.352659
0.17981318 -0.23992161 -0.13477495 0.08392877 -0.1451148 -0.16372354 -0.35769343 -0.071835674
-0.18458524 -0.3553747 0.19913185 -0.14122272 0.054013196 -0.14188814 0.048628915 0.012731266
-0.13528314 -0.12111762 0.34412962 0.094900936 -0.23586532 -0.086294994 0.2001821 0.27198786
-0.077033915 -0.53417224 -0.2178207 0.37315258 0.082382865 -0.27349937 0.23164937 -0.31600836
-0.07257444 -0.09937751 -0.13314213 0.33201653 -0.15900977 -0.051770054 -0.010033837 0.05876322
00000000: 54fe 123e 7d86 31be c099 54be 82fd a6bb
00000010: 9fcd 75bd 2fe9 893e 88d0 9bbc d427 b0be
00000020: d98e c63e f12e fabc dbc2 e13e a919 47be
00000030: 16ce d2bd bcc2 0c3f 9cde e83e 3942 a83e
00000040: 0c77 733d 8d48 fbbd 7408 a6bd 88a8 32bd
00000050: 81ff 203e d1c0 953d 2dc8 c43e 5697 ce3e
00000060: ca71 98bd e27e 493d ae09 013f cf15 253e
00000070: 5aad fb3e 209d 893e e5dd 0cbe 1a93 1abe
00000080: 0442 a5be 31b0 a33e 71a3 663e dd00 d63e
00000090: 6b4a 813d 8ca8 923d 4751 1b3d a32f c23e
000000a0: 9d49 28bd b40f 933e ffd1 053e db1e 8b3d
000000b0: 086c 763b 2bb0 d6be 5ca2 a0be 8d5e 823e
000000c0: 7f0b afbb 0ee7 a53e d3e5 df3e cc82 7b3e
000000d0: 3118 bfbe b5ea f13e 9ed3 79be c009 ddbe
000000e0: 8bb6 283d 82db 34ba 6dda c1be 0030 f43d
000000f0: 1d2b 4f3e 9887 38bd 4b07 9f3e 94d9 3f3c
00000100: 69ce 31bd 5b39 0b3f 2aba ba3e 21d7 15bd
00000110: 3afa 223e 9960 5b3e 2b4c 113e ef3c a03e
00000120: 1063 2abe a2df 51bd ebe3 c23e edb7 d7be
00000130: fff7 fb3e dd78 96be fdf6 42bd 431c 66be
00000140: 2bd2 ea3d 8021 c63c b3e8 85bb 0643 f83d
00000150: ef52 a73d af1a 003d 3dc2 14be 7950 3e3d
00000160: 81f9 8c3e 9a54 9c3e 10e2 82be b1a9 0fbe
00000170: 5177 80bd e9c6 babd cd10 e13e a766 2b3e
00000180: c71d 8d3e c919 e33e 0860 7abe 2d42 1d3f
00000190: 4d05 1cbb a7d6 a33e 8801 55be 5e65 e4bd
000001a0: 0bec 033e 07e5 3cbd 1ea6 95be a9ad 8cbe
000001b0: 35a3 9c3d c26f 02bd 679c 5dbd 4edc 10be
000001c0: c380 7fbe 57f8 ac3e 8b74 49bc 0086 72ba
000001d0: 1e01 663e 8be3 8d3d 6b4a 37be 889e f23e
000001e0: 4e56 293e 44bf bb3e d901 a2be df9f 6dbe
000001f0: b9c5 51be 5158 68be 59d7 d53e 437c 983e
00000200: 27f1 aa3e 106b 2c3d 4b3f 2d3e 6c49 59bd
00000210: e98b e6be f547 93be 5726 8abe 024c a93e
00000220: 8eed b7be a501 1e3e 3e9c 0abd 8962 433d
00000230: dea0 68bb ea69 91be 0f76 89be 7452 40be
00000240: 61e5 a2bd 7d73 693e f286 b33d 4fe0 0f3e
00000250: 4677 74be c0c6 47be 2735 89be 180f b1be
00000260: db9b 3d3e 24b0 b5bd 0cdc 8ebe fb1a e03e
00000270: 127e 4ebe 07f1 dbbe 2055 ef3c 4e61 a63b
00000280: b2dd 253d 28ab 66be f606 59be 6f0d 87be
00000290: ab25 7fbe 16f3 403d 192e 7e3e f220 4fbe
000002a0: d505 bfbd 4f07 7cbe c0db 9f3e 17b7 cd3d
000002b0: f9c9 f13b 0062 073f 6fea 693e e4e4 fd3d
000002c0: 0d90 823e 2237 5b3b 72e5 6abe b83e 443e
000002d0: 6fa4 e33d 4aa6 adbe 43a3 923e e678 083e
000002e0: 8d23 b5bd b9ab 5cbe 327b 8e3d ca31 883d
000002f0: 86dd 383e 5d6b 123e 9e1d 46be 2404 453d
00000300: cd62 2d3d 9e9d c5be 85fe 18bf cbfb 5ebc
00000310: 7605 8cbe aa58 ecbe 47e2 cebe 1c22 46be
00000320: bcdf 8a3e 2756 30bd 4c6d d2be 64d1 963d
00000330: 6a6a 60be b0cf f93d 869a 0d3e 2146 e73e
00000340: 0a6e a93d 2367 a8bd 208f 563d ab69 6ebe
00000350: ccc6 4abe 20bd 693d deb4 fcbd b88f b4be
00000360: f220 383e 03ae 75be 7202 0abe d9e2 ab3d
00000370: f998 14be 25a7 27be 9823 b7be 951e 93bd
00000380: ea03 3dbe acf3 b5be 38e9 4b3e b09c 10be
00000390: f13c 5d3d 204b 11be 1d2f 473d cd96 503c
000003a0: aa87 0abe 840c f8bd c231 b03e 6c5b c23d
000003b0: ae86 71be 6ebb b0bd 89fc 4c3e fe41 8b3e
000003c0: f5c3 9dbd 83bf 08bf 640c 5fbe db0d bf3e
000003d0: 59b8 a83d 1c08 8cbe 7e35 6d3e d9cb a1be
000003e0: e8a1 94bd 7086 cbbd 6956 08be 12fe a93e
000003f0: 75d3 22be d60c 54bd f664 24bc b4b1 703d

actor.bias f4 [3]
-0.015214754 0.034694344 -0.010035029
00000000: 4e47 79bc a81b 0e3d f669 24bc

critic.weight f4 [1, 128]
-0.058657885 0.115120195 0.019718684 -0.06164161 0.060980473 -0.04666553 0.09274192 -0.11799615
0.21925838 0.05352101 -0.07264371 0.25411028 -0.024895243 -0.12796885 -0.08622158 -0.14093076
-0.07944884 0.23508188 -0.0930266 0.019455373 -0.08771812 0.11707709 0.04973552 0.07155469
0.32351857 0.19763675 -0.029180229 -0.05942529 0.08212413 0.06034887 0.04061876 0.020281209
-0.07028668 0.11957225 -0.08168678 0.0861876 -0.020709302 0.17775115 0.010954944 0.069310494
0.07594619 0.2469526 0.11150138 0.048176724 0.54022944 -0.16833507 0.0828761 0.0110002905
-0.00030773488 -0.043194924 0.07371134 0.015075524 -0.01721234 -0.0017779723 0.14831313 0.039092652
-0.26508448 0.17140065 -0.085093975 -0.09202923 -0.07907806 0.13284491 -0.009196166 0.018986875
-0.041254375 -0.0006729272 0.0704918 0.046466284 -0.10165274 0.040972088 0.14901732 -0.028763501
-0.043165676 0.04558072 0.32047403 0.002166436 -0.083824664 -0.23182832 -0.12632142 -0.030036883
0.18688229 0.34226796 0.11199911 0.0025547706 0.050688267 0.036712833 -0.044051986 0.24772672
0.033008628 0.14369425 0.0023014308 0.0055366373 -0.0021503246 -0.12413615 0.038854167 -0.114974335
0.0728806 -0.023090597 0.13565187 0.08848438 0.30247197 0.11629733 0.10908311 0.054651696
0.16380337 -0.20023693 -0.043030553 0.24879701 -0.1211952 0.20004386 -0.07952817 -0.11338463
-0.13692072 0.20919298 0.014758477 0.07009515 0.25555587 -0.010555091 -0.12619537 -0.040441528
-0.033626538 -0.12266034 0.11916115 0.04819357 -0.07069892 -0.016588688 0.06667844 -0.012517652
00000000: 4043 70bd 23c4 eb3d 1489 a13c ea7b 7cbd
00000010: a9c6 793d 5b24 3fbd 7aef bd3d f7a7 f1bd
00000020: 4585 603e d938 5b3d 3ac6 94bd be1a 823e
00000030: 1cf1 cbbc 440a 03be f194 b0bd 2750 10be
00000040: 13b6 a2bd 4eb9 703e bb84 bebd e060 9f3c
00000050: 8fa5 b3bd 1dc6 ef3d 79b7 4b3d 448b 923d
00000060: 3aa4 a53e 4a61 4a3e 600b efbc ef67 73bd
00000070: b230 a83d 6030 773d db5f 263d c724 a63c
00000080: 76f2 8fbd 4ce2 f43d 664b a7bd 2083 b03d
00000090: 8ea6 a9bc 6604 363e 5e7c 333c a9f2 8d3d
000000a0: ad89 9b3d 24e1 7c3e d65a e43d f554 453d
000000b0: 7a4c 0a3f 0760 2cbe f2ba a93d 903a 343c
000000c0: 7a57 a1b9 29ed 30bd f9f5 963d 55ff 763c
000000d0: e500 8dbc da0a e9ba 66df 173e 9e1f 203d
000000e0: 27b9 87be a783 2f3e c045 aebd d279 bcbd
000000f0: aef3 a1bd 7f08 083e 84ab 16bc 5d8a 9b3c
00000100: 59fa 28bd 6167 30ba 015e 903d 6e53 3e3d
00000110: 502f d0bd 59d2 273d ff97 183e 6fa1 ebbc
00000120: 7ece 30bd d9b2 3a3d 2c15 a43e c4fa 0d3b
00000130: 44ac abbd 6764 6dbe 675a 01be e90f f6bc
00000140: 125e 3f3e bf3d af3e ca5f e53d f06d 273b
00000150: 809e 4f3d 3260 163d db6f 34bd 13ac 7d3e
00000160: 0e34 073d 9624 133e 9ad3 163b ae6c b53b
00000170: 76ec 0cbb 183b febd 8c25 1f3d aa77 ebbd
00000180: 6d42 953d 7e28 bdbc 53e8 0a3e 4c37 b53d
00000190: 9bdd 9a3e 4b2d ee3d f766 df3d 75da 5f3d
000001a0: 12bc 273e e90a 4dbe ce40 30bd a5c4 7e3e
000001b0: 3035 f8bd 4cd8 4c3e aadf a2bd 3336 e8bd
000001c0: f234 0cbe af36 563e 8acd 713c 0c8e 8f3d
000001d0: 38d8 823e 43ef 2cbc 5c39 01be 04a6 25bd
000001e0: fbbb 09bd 5835 fbbd c30a f43d 9f66 453d
000001f0: 98ca 90bd 00e5 87bc b58e 883d d616 4dbc
