W__RNN/W_RNN/md2/v_5/train_iter_1000.pt (torch, 79699 bytes, 6 tensors)

h0 f4 [128]
000000 6c 39 31 bf 7c 34 2e bf 59 3f 47 3e f4 cd 95 3f
       -0.69228244 -0.68048835 0.19457759 1.1703477
000010 42 e4 88 bf b9 94 1e be cc d7 75 be 33 ac 88 3f
       -1.0694659 -0.1548642 -0.24008101 1.0677551
000020 98 1a c7 3d eb 5d d3 bf 10 3a 98 3e 92 9b 15 40
       0.09721869 -1.6513036 0.29731798 2.3376203
000030 1f 26 91 bd 96 2a 19 40 26 5c 60 3f 4a 0e b1 bd
       -0.07087349 2.3932242 0.8764061 -0.086453035
000040 0c a7 d7 3e 1a 9e 80 3e d7 09 57 3f 08 70 8a be
       0.42119634 0.25120622 0.8399939 -0.27038598
000050 fe 13 a0 bb a1 e9 29 3f 37 0a 6c be 1d 2f b0 3e
       -0.0048851958 0.66372114 -0.23050772 0.34410945
000060 f3 bf fc 3c 18 96 3f bf ed e8 da 3e 62 95 eb be
       0.030853247 -0.748384 0.42755833 -0.46012408
000070 87 af 68 3e 1f 81 78 3e c3 cb df be 01 35 d3 be
       0.22723208 0.24268006 -0.43710145 -0.41251376
000080 4a 0e 8d 3e 04 41 84 3f f8 5a 2b 3f 63 64 68 bf
       0.27549964 1.0332341 0.6693568 -0.9077818
000090 80 30 07 c0 7a ab 1a 3c 8d f6 54 3f bc 30 98 bf
       -2.1123352 0.009440297 0.83188707 -1.1889873
0000a0 06 99 92 be 35 a7 02 3f f7 4a 38 bd ef b6 d0 3d
       -0.28632373 0.5103639 -0.044993367 0.10191142
0000b0 75 b8 96 bf 68 32 73 bf 9d 82 61 3f 72 f1 1d 3f
       -1.1775042 -0.9499879 0.88089925 0.6169654
0000c0 b8 ed da bf a1 1a 0f 3f dc 48 fe be 9f 7e 92 3e
       -1.7103796 0.5590001 -0.49664962 0.2861223
0000d0 a8 78 b4 be 4a eb 70 3f 87 5f 4e bf ec a3 99 bf
       -0.35248303 0.9410902 -0.80614513 -1.200315
0000e0 85 cc 47 3f 29 79 43 bf c9 5a 93 be 78 85 d5 bf
       0.7804645 -0.7635675 -0.287802 -1.6681356
0000f0 85 34 dc 3e 7a 4f 8c 3f 0e 3a 63 3e 8a a7 0a 3e
       0.4300882 1.0961754 0.22190115 0.13540474
000100 b2 34 ef 3e 61 78 5c bf 4f 78 ab bf 83 8d b2 3f
       0.4671989 -0.86121184 -1.339609 1.3949436
000110 17 7e dd 3f e8 e2 b1 bf b9 0a 39 bf f4 9e bc 3e
       1.7304105 -1.3897371 -0.72281986 0.36840022
000120 15 84 e3 bd 15 da c5 bf ce 6e f3 3f 50 c8 60 3f
       -0.11109177 -1.5457178 1.901819 0.8780565
000130 ed b1 9f bf 5b 33 29 40 41 c0 e9 3f 2b e7 73 be
       -1.2476174 2.6437595 1.8261796 -0.23818652
000140 c7 3f 39 bf 51 a9 fc 3f 29 7b 92 be 90 6e 3a c0
       -0.7236294 1.9739171 -0.2860959 -2.9129982
000150 73 60 34 bf 69 bc fb be 82 ad 01 3f c2 31 b4 3e
       -0.7045967 -0.49167183 0.50655377 0.35194212
000160 a1 aa da bc 80 19 ad 3f ba 0d 85 3d 8f 6b 20 3f
       -0.02669269 1.3523407 0.06496759 0.6266412
000170 74 64 3d bf 34 86 6b bd 2a b6 0e 3f 44 cc 1e be
       -0.73981404 -0.057501033 0.5574671 -0.15507609
000180 a7 d1 ad bf fd 92 0d bf 80 70 ab be 77 1f 23 3e
       -1.3579606 -0.5530241 -0.33484268 0.15929972
000190 1e 24 14 c0 88 74 ef 3c bc 35 2f 3e 3e c6 53 bf
       -2.3147044 0.029230371 0.17110342 -0.8272437
0001a0 96 96 18 c0 9b 5e 30 3f e2 83 ce 3d 30 0b 17 bf
       -2.384191 0.68894356 0.100837484 -0.59001446
0001b0 2f bc 87 bf 3c ad 5e 3f 5f e5 c9 3d 3f 66 0a bf
       -1.0604304 0.86983085 0.09858202 -0.54062265
0001c0 ff df 44 3f 89 8b 72 3f ee 34 a7 be c9 81 8f be
       0.7690429 0.94744164 -0.3265757 -0.28028706
0001d0 b7 a9 2f 3e 7a 2d 2a 3e c5 36 1a bf 98 db 38 bf
       0.17154585 0.1661891 -0.6023982 -0.72210073
0001e0 e3 51 74 be cc e8 61 bf f7 db a2 3f d9 ee c8 be
       -0.23859362 -0.88245845 1.2723378 -0.39244726
0001f0 33 39 06 3f ef 4e cd bc ae d2 8f 3f 6f d3 b9 bf
       0.5243103 -0.025062053 1.1236169 -1.451765

RNN.layer_encode.weight f4 [128, 145]
000000 4f 74 7d bc 2c 8b 04 bd b2 20 8c be f5 f7 d9 be
       -0.015469625 -0.032359287 -0.27368695 -0.4257199
000010 dc 66 52 3e 63 91 a6 3d 4f 21 6f be 33 0a e9 3e
       0.2054705 0.08133199 -0.2335255 0.45515594
000020 e9 ca ed 3e a0 7c 8c 3e 86 35 a4 bd 3d 1a cc bc
       0.4644387 0.2743883 -0.08018021 -0.024914855
000030 c2 87 df bc 45 4f 45 3e 84 15 18 bc 9f 53 1f 3c
       -0.027286414 0.1926852 -0.0092824735 0.009724527
000040 71 92 1b bd b8 7a 91 3b 2f af 26 3d bf 91 23 bd
       -0.037981454 0.004439678 0.04069441 -0.039933916
000050 e6 c4 6d bd 1e 87 9c bc 7d c1 e6 bb cd 2c 20 3c
       -0.058049105 -0.019107398 -0.0070421086 0.009776306
000060 0e e4 12 3d 9e 93 ee bc e4 7b 72 bd 98 9a c5 bd
       0.03586202 -0.029123124 -0.059200183 -0.09648627
000070 be b3 67 3d 7e ff 7b 3d 0a cc ba bd 4a 64 09 bd
       0.0565679 0.061522953 -0.091209486 -0.03354291
000080 78 93 05 3d 78 6c e4 3b f3 5c 88 bc dd 7e 73 3d
       0.03261134 0.0069709383 -0.016645884 0.059447158
000090 49 67 97 bc 5c 22 f0 39 50 d5 09 bc 40 10 ee bd
       -0.018481867 0.00045801967 -0.008412674 -0.11624193
0000a0 fe 1e 34 3d e2 84 fd bc 34 b4 e8 3b a6 45 d9 bb
       0.04397487 -0.030947153 0.00710156 -0.006630617
0000b0 5e 2d 88 3d e0 0c bd 3d 2d c7 b4 3d 1d 5a 37 bd
       0.06649278 0.09230971 0.08827052 -0.044763673
0000c0 13 d5 90 3d ca c3 3f 3d c5 5a bd 3c e4 08 af 3d
       0.07071891 0.04681758 0.023114571 0.085466176
0000d0 d5 a8 91 bd 51 29 16 bc 25 99 b5 3d c6 e8 ac bc
       -0.0711228 -0.009165124 0.088671006 -0.021107089
0000e0 ed 99 4c bd 29 93 20 3c 07 49 88 bd d9 e8 91 3d
       -0.049951483 0.009800711 -0.06654554 0.0712449
0000f0 3c 06 ad 3d 8f 76 89 bd 72 81 81 bb 16 41 15 be
       0.08448455 -0.067120664 -0.0039521987 -0.1457561
000100 27 7b 41 bd 4b 4e 35 bd ae d2 aa bb 6d 6e f2 3d
       -0.047236588 -0.04426412 -0.0052131033 0.11837468
000110 25 2c 52 bb a4 cb e4 bd 7e 56 a7 bd f9 5d 9b 3c
       -0.003206977 -0.11171654 -0.08170794 0.018965708
000120 1e 5b c3 bd 45 17 8c 3c ee 2e 28 bd d7 09 da 3c
       -0.095388636 0.01710094 -0.04106038 0.02661602
000130 eb 6f 92 3d bf 51 ac 3d 1c f2 a0 bd f6 49 96 bd
       0.07150253 0.08414029 -0.07858679 -0.07338326
000140 b4 af d2 bb db cd 4f bd 2b 4c cd 3d 1d 33 6e 3d
       -0.006429637 -0.05073343 0.100242935 0.058154214
000150 c6 2e 39 bd 1a 07 4e bc ef f3 9c 3d 41 6f dc bb
       -0.045210622 -0.012574935 0.07663714 -0.0067271297
000160 6d e5 9f 3d bd 9f 79 bd ef 83 25 bc 1a 4b ae 3b
       0.07807431 -0.060943354 -0.010102256 0.0053190114
000170 c3 41 82 bd 27 b7 51 3d b9 25 2b bb 14 b2 c4 3c
       -0.06360199 0.05120006 -0.0026115014 0.024010696
000180 26 97 2c bd 42 f9 ae 3d 27 e7 37 bc 1e f0 cc 3d
       -0.042136334 0.08543636 -0.011224545 0.10006736
000190 59 9f 93 3d c4 f8 b9 3d 75 f4 55 bd 9f d8 8d bd
       0.072081275 0.090806514 -0.052235086 -0.06926083
0001a0 39 e1 63 bc fc f0 ec bc 56 03 aa bd c4 10 02 bd
       -0.013908678 -0.028923504 -0.083014175 -0.03175427
0001b0 ec e4 fe 3c e3 5b ff 3c e3 5a 38 bd ec ba 05 3d
       0.031115018 0.031171745 -0.04500855 0.032648966
0001c0 cf c4 00 3d c2 d2 95 3d dc c1 a5 3c 82 12 47 3d
       0.03143769 0.073155895 0.02023404 0.048601635
0001d0 cf 0d 09 3c f3 a4 9b bc 64 1b 6e bd cb 39 01 bc
       0.008365109 -0.018999552 -0.05813159 -0.007887314
0001e0 59 41 ef 3d ca 84 91 bc 4c aa ac bd 51 58 0c 3e
       0.11682386 -0.017763514 -0.08430919 0.13705565
0001f0 7e a2 a8 3b b7 20 d7 3d 2d 48 0c bd 5a 40 02 bc
       0.0051463237 0.10504287 -0.03424852 -0.007949913
000200 d3 84 db 3d 58 0e 6d bd 59 f2 93 bd b5 91 8a 3d
       0.107186936 -0.057875007 -0.072239585 0.06766073
000210 68 3a 31 bc 50 53 0d 3d ee b9 12 3d 2e 61 c2 3d
       -0.010817148 0.03450328 0.035821848 0.09491192
000220 fd 8c 41 3d ba de 2b 3c f9 91 05 bc fc 1e d0 3d
       0.047253598 0.010490114 -0.008152478 0.1016216
000230 06 3d 5e 3d 4e 05 ec 3d 2d cd b2 bd 57 b7 f4 bd
       0.054257415 0.11524449 -0.087305404 -0.11949032
000240 05 e6 91 3d b3 0f 4e 3e a0 41 da 3c 3e 25 33 3e
       0.07123951 0.20123176 0.02664262 0.17494676
000250 4a ce bd 3e 1e 98 df bd b4 1a 8d bd 67 7f 51 3e
       0.3707145 -0.10917686 -0.06889859 0.20458756
000260 2a 8d 7c be f5 aa 6f be 9d fc b2 3b a5 0d aa bd
       -0.24663225 -0.23405059 0.0054622428 -0.08303384
000270 0d 01 10 be e9 30 fc 3d 37 3b 34 3d 07 f3 38 3c
       -0.14062901 0.12314016 0.044001784 0.011288411
000280 32 dc 4a bd f1 f9 a0 bd 24 72 6e bd 51 ff 69 3d
       -0.0495264 -0.078601725 -0.05821432 0.057128254
000290 11 02 6e bd de 47 10 3d 89 b5 8b 3c 90 47 36 3d
       -0.05810744 0.035224788 0.017054336 0.04450184
0002a0 fa e7 c8 3c fd 2c 76 bd 54 b9 6d 3c 06 86 01 ba
       0.024524678 -0.060101498 0.014509518 -0.00049409305
0002b0 2e 66 e2 39 93 16 82 3d 79 e9 5e 3d 0c 6c 81 bd
       0.0004318221 0.06351962 0.054421876 -0.063194364
0002c0 eb df 28 bd a2 83 f7 bd b3 da 28 bd 45 15 7d 3d
       -0.04122917 -0.12085654 -0.041224193 0.061787862
0002d0 fd 92 87 3d 3a ae c1 bd 2f ef f3 bc 0f 7c b6 3d
       0.06619833 -0.09457059 -0.029777138 0.08910381
0002e0 07 9f 97 3d de 83 52 bd 0b 4a 7e bd 8d 7c 38 bc
       0.07403379 -0.05139529 -0.06208233 -0.011260164
0002f0 1d a2 23 bb 67 b7 0b 3d 60 a2 6b bc 8c bd 8f bd
       -0.0024968453 0.034110453 -0.014381975 -0.07018575
000300 ad 17 0d 3d 4b 8b ab bd 77 a3 94 bd c7 83 1b 3e
       0.034446407 -0.083761774 -0.07257741 0.15186988
000310 7d fd 3c 3c 81 6c 64 3d 1a 9d 13 be 32 c8 28 3d
       0.011535046 0.05576754 -0.14415398 0.041206546
000320 05 a3 02 3c b2 5e ab bd 99 05 0f bd 22 f1 c3 bd
       0.007973437 -0.08367671 -0.034917448 -0.09567477
000330 74 2f c4 bd 72 d0 c4 3c f9 5a 99 bc 3f 47 0d 3d
       -0.095793635 0.024025176 -0.018720137 0.034491774
000340 2f 34 5b 3d 80 82 9f 3d 7b 56 a5 3d 15 59 b9 3c
       0.053516563 0.07788563 0.080731355 0.022625485
000350 02 9b a4 bd 5c dd 2f bd 62 c2 69 3d 26 07 0b bc
       -0.08037378 -0.042935714 0.057070144 -0.008485591
000360 4a f6 a1 bb f6 80 80 3d 52 6b 36 3d 0e 1a 0c 3d
       -0.00494269 0.06274597 0.044535942 0.034204535
000370 9e 3c a5 3d 87 ba 4e 3b 1d 00 40 3d ff e5 55 bd
       0.080682024 0.0031544284 0.046875108 -0.052221294
000380 10 57 48 3c 8a 4a bf bd d7 ea 87 3d ac 9f 4a bd
       0.012227789 -0.09340389 0.06636589 -0.04946868
000390 9d ee 35 3d 43 dc 6b 3d 33 75 60 bd 7d 21 49 be
       0.044417012 0.057583105 -0.05479927 -0.19641681
0003a0 4d 8c d1 bc 20 8c c0 bb ee da 4c bc ac 81 3d 3c
       -0.025579596 -0.005876079 -0.012503369 0.011566561
0003b0 f3 c0 b5 bd 24 3f 8c 3d 8d a6 43 3c c5 aa 64 3c
       -0.08874693 0.068479806 0.011941564 0.01395673
0003c0 b8 09 4a bd 6d 01 40 3d fc f6 b6 bd 86 ce f5 3c
       -0.049325675 0.04687636 -0.08933827 0.030005705
0003d0 41 5d 78 3d 82 ca 3f 3d c5 25 a6 3d ef ff 4b 3d
       0.06063581 0.046823986 0.08112673 0.049804624
0003e0 5b 22 35 bc 02 17 72 3d 92 3b 33 bd b0 d0 a8 3d
       -0.011055554 0.059103973 -0.043757983 0.08242929
0003f0 84 c8 0d bc 9d 6f 82 3d 1c fb 1e bd d7 a1 11 3d
       -0.008653764 0.06368945 -0.038813695 0.035554733

RNN.layer_encode.bias f4 [128]
000000 dd fb a5 3c d3 4c 84 3c aa 1c 12 bd 09 0f b5 3c
       0.0202617 0.016149914 -0.035671867 0.022101896
000010 e8 33 87 bd 76 b3 18 bd fe 1f 5e bd 2b 80 d8 3d
       -0.06601697 -0.037280522 -0.05422973 0.10571321
000020 51 d7 39 3d 2a fc b9 bc dd 21 b9 bc 95 f4 62 bd
       0.045371357 -0.022703249 -0.022599155 -0.055409033
000030 8e d0 dd 3b 7c 8f 9c 3d 2a 72 bd 3d 7e 67 ee bb
       0.0067692464 0.07644555 0.09250291 -0.007275521
000040 02 a8 fd bc d6 9e 6f bd 19 df fe 3d 85 0d a7 3d
       -0.030963901 -0.058501087 0.12444896 0.081568755
000050 fe 99 36 bd 91 9d ae bd d8 bc 19 bd 21 85 21 bc
       -0.044580452 -0.08526147 -0.03753361 -0.009858401
000060 d3 c6 e1 bb 21 f7 f3 bc 5a f4 94 3d 65 8d 38 3d
       -0.006890157 -0.029780926 0.07273169 0.04505672
000070 ba 5a 51 3c e7 34 54 3d 1f bb 87 bd 09 e1 6b bd
       0.012777979 0.051808264 -0.066274874 -0.057587657
000080 70 89 92 3d 5d 28 62 3d 2b 26 fd 3c c8 30 1a 3c
       0.071551204 0.055214275 0.030901989 0.009411044
000090 8e 1a 9c 3d fd de 3d 3d 0c 91 8a 3c 3b 6c 58 3d
       0.076222524 0.046355236 0.016914867 0.05283759
0000a0 01 de 9b bb 31 22 28 3d f2 08 b2 bd 72 dd 22 bc
       -0.0047566895 0.041048232 -0.086931124 -0.009940492
0000b0 82 5e a1 bd 19 b2 48 3c a6 c0 2b bc cd dc 3a 3c
       -0.07879354 0.012249493 -0.010482943 0.011405182
0000c0 b9 12 05 3d 57 04 97 3d 17 66 c7 3c 66 4f 11 bd
       0.03248856 0.07373875 0.024340672 -0.03547611
0000d0 ba c1 85 3d 9c ed 4a 3d 5b 11 da b9 48 74 24 bd
       0.06531091 0.04954301 -0.0004159313 -0.040149957
0000e0 2e b5 63 3c e5 74 af bd 0e 0e 30 ba 64 4c 83 3d
       0.013898177 -0.08567218 -0.00067159615 0.06411055
0000f0 25 05 0b 3d dd 4b f7 3c 3a 9b 40 3d 58 64 72 3d
       0.033940453 0.030187542 0.047023036 0.059177727
000100 7a 53 31 bd 67 e0 ae 3b 41 d4 a2 3d 10 58 90 bd
       -0.0432925 0.0053368094 0.079506405 -0.070480466
000110 cc ca 3a 3d 8f 9e d1 3d 39 9b cd 3c 7d 54 b0 3c
       0.04560356 0.10235321 0.02509843 0.021524662
000120 a1 8b b7 bc f9 3b 83 bc cd f4 70 3d 56 5a b0 3d
       -0.022405447 -0.016019808 0.05882721 0.0861098
000130 ae 96 0b bd 4f cf 0c bd 0f 51 be 3d 67 d8 3d bc
       -0.034079246 -0.034377392 0.092928044 -0.011587239
000140 6e 4f e7 bc 41 04 73 3d c9 71 c6 bc 26 47 35 bc
       -0.028236117 0.05933023 -0.024224179 -0.011064326
000150 0c 93 85 3d 8f 6c 43 3d 80 07 18 3d f4 1b c4 3d
       0.065221876 0.04771095 0.037116528 0.09575644
000160 29 7e 4e bd 3d 24 8a bc cf ca 7d 3d 92 c3 9a 3c
       -0.050413284 -0.016862983 0.06196099 0.018892083
000170 b0 2c 19 bc 98 fc 69 bc ae 84 5c 3d 8e f1 ea 3b
       -0.009349033 -0.014281414 0.05383747 0.007169909
000180 b0 53 27 bd 8d 42 be 3d 43 21 b1 3a 8a 5e c9 3d
       -0.040851295 0.09290037 0.0013513941 0.09832485
000190 46 97 25 3d 65 3b b0 3c e0 0b 8d bc 86 5a c7 bd
       0.04042747 0.021512697 -0.017217577 -0.09734063
0001a0 3f f8 0b 3b 4b 9b bc 3d 17 26 f5 3c 72 51 a1 bc
       0.0021357683 0.09209307 0.02992539 -0.019692156
0001b0 df 39 d8 3c b7 1e 6b 3d 75 71 15 bd 30 65 bc ba
       0.026394783 0.05740234 -0.036485154 -0.0014373418
0001c0 14 4c 74 3d a0 04 a4 bd fa 9d 57 bc 78 b3 5a bd
       0.059642866 -0.08008695 -0.013160223 -0.05339381
0001d0 9b 4f 81 3d d3 e5 0e 3d a1 2b a7 3d e2 1d 90 bc
       0.06314012 0.034887146 0.081626184 -0.017592374
0001e0 5f d0 2f 3d 34 0c ae 3d 76 a5 1b 3c 95 cd 3d bd
       0.042923328 0.08498421 0.009499898 -0.046338636
0001f0 8b ae ad bd f5 c8 87 3d 7a 62 bb bd 76 e7 43 3c
       -0.08480557 0.066301264 -0.09149642 0.01195704

actor.weight f4 [3, 128]
000000 1f 49 a0 3d c6 22 7e 3e 9b 9f b0 3d b9 f3 1e 3e
       0.07826447 0.24817953 0.08624192 0.1552266
000010 73 5c 8c 3e 34 85 aa be f8 c0 c6 bd 01 e8 8d 3b
       0.27414283 -0.3330475 -0.097047746 0.0043306355
000020 7b 95 74 bc f8 97 09 be 8e 5b 82 be a5 35 04 3d
       -0.014928217 -0.13436878 -0.25460476 0.032277722
000030 27 be 68 3e bd bd ae be 87 fd 19 3e ee 8d dc 3d
       0.22728787 -0.34129134 0.1503812 0.107692584
000040 ee 21 86 3e fa 0f d3 be fb d0 42 be f4 f2 9a be
       0.2619776 -0.41223127 -0.19025032 -0.30263484
000050 55 8e 73 bd c9 f7 15 bd 7e 42 39 3e 98 af 2a 3d
       -0.05946191 -0.03661326 0.18091771 0.041671365
000060 1b f9 93 bb 3e 14 7c 3e 1b 1b 98 bd 1c 8b 95 3e
       -0.0045157797 0.24617097 -0.07427045 0.29207695
000070 f6 e2 fc 3d 3d 80 1c 3d c3 93 c8 3d 75 de a3 be
       0.12347977 0.038208235 0.09793808 -0.3200566
000080 58 b1 8e 3e 11 5e 58 3d d8 f4 62 3e 1a a6 83 3e
       0.27869678 0.052824084 0.22163713 0.25712663
000090 36 34 9f be 90 da b4 3e 5e 7d b4 be 3a 92 60 3e
       -0.3109452 0.35323 -0.35251898 0.21930781
0000a0 f5 63 cf 3e bd d7 42 be dd c6 14 be 13 43 34 3e
       0.4050595 -0.1902761 -0.14528985 0.17603712
0000b0 48 ca 21 3e fe d8 1c be f1 9a b5 be 37 66 a0 be
       0.1579982 -0.15317151 -0.35469773 -0.31327984
0000c0 1b 07 87 3e 10 4e 2c 3e 5c d5 a2 be fa f5 81 3e
       0.2637261 0.16826653 -0.31803405 0.25382978
0000d0 8b 87 b8 be 92 b2 ad bd f5 e6 8c 3e 75 19 9c be
       -0.3604091 -0.08481325 0.27519956 -0.30488172
0000e0 0a 2d a6 3e 33 51 06 be ea 5e 32 bc a4 b4 0f bd
       0.32456237 -0.13116913 -0.010886887 -0.03508438
0000f0 73 86 3d 3c 9e be 8c be 3c 0a cd bd 09 35 3f 3e
       0.0115677 -0.2748918 -0.10011718 0.18672575
000100 44 af 87 3e 1d 4f 97 3d 39 d6 01 be ed 8c 66 3e
       0.26500905 0.073881365 -0.12679376 0.22514696
000110 f4 6f e2 3d 7a 76 a1 be ce 8a 51 3e d0 ac 6d 3e
       0.110565096 -0.31535703 0.20463106 0.23210454
000120 7d b9 5e 3e f5 8b 86 3e 4e 55 cc 3d e1 63 8e bc
       0.21750446 0.26278654 0.09977208 -0.01738161
000130 53 0a 3b 3e 75 cf 6b 3e 6a 7b 37 3e 6c 3f f8 bd
       0.18265657 0.23028357 0.17918172 -0.12121472
000140 12 8b e4 3d 2f b7 0e bd 86 cb 73 3e 0f 75 1d 3e
       0.11159338 -0.034842666 0.23808107 0.15376686
000150 29 44 ab 3e 58 e0 88 3e fd cc 07 3e 88 fc d3 3c
       0.3345044 0.2673366 0.1326179 0.025877252
000160 86 95 3c 3e 92 20 9a 3d 88 93 e9 3e 09 16 69 bc
       0.18416414 0.075257435 0.4562037 -0.014226445
000170 62 d3 0c 3e c7 3b 03 3e 4e a4 2b bc bf 46 f1 3e
       0.13752511 0.12815772 -0.010476185 0.47124287
000180 c0 ae ce 3c 70 78 6d 3e 42 3c 83 bd 86 7e 8e 3e
       0.025229812 0.23190475 -0.06407978 0.27830905
000190 ce 38 5b 3e 94 a9 3d 3e 31 af 78 3e 44 8d c9 3b
       0.21408388 0.1852172 0.2428558 0.0061508734
0001a0 87 ee a6 3e 89 0f cb bd d1 08 78 3d 59 8c b7 3c
       0.32603857 -0.099150725 0.060555283 0.02240579
0001b0 c7 04 48 3e 1a e0 c0 3e 1b c5 cd 3e 6f c3 a2 bd
       0.19533072 0.37670976 0.40189442 -0.07947432
0001c0 16 61 8c bd 72 af 5d 3c c7 a3 5b bd 62 a8 36 be
       -0.06854455 0.013530599 -0.053622987 -0.1783767
0001d0 dc ff 7e be 58 2b d1 3e a4 14 91 3d 38 cb ef be
       -0.2490229 0.4085338 0.07084015 -0.4683473
0001e0 7b e0 ac bd dd 57 7f 3e d5 b2 42 3e 33 64 12 3c
       -0.08441254 0.24935861 0.19013532 0.008935022
0001f0 9f 90 5f 3d 21 a3 3c 3e e6 30 81 be 59 63 15 bc
       0.05458128 0.18421604 -0.2523262 -0.009117925
000200 6b 89 bc bd 63 53 2f be 64 bb b1 bd 82 3a ca 3d
       -0.09205898 -0.17121653 -0.0867832 0.09874441
000210 78 a0 4c bd 55 4c fc 3e bc 98 39 bc be 5b 92 bd
       -0.049957722 0.49276987 -0.011327919 -0.07146405
000220 34 69 cd 3d ef 28 dc bc 69 1d ba bb b7 2e 20 3e
       0.100298315 -0.026874987 -0.0056797755 0.1564282
000230 b2 f1 86 be 0b dd 16 3e 17 9e 9d 3e 6a 5d 79 be
       -0.26356274 0.14732759 0.30784675 -0.24352041
000240 da 2d ac be 67 85 30 be e3 f3 0d 3e cf 47 df 3e
       -0.33628732 -0.17238389 0.13862567 0.43609473
000250 f5 41 b6 bd a1 24 2c 3e cf a5 46 be 64 c0 f8 bc
       -0.08899299 0.16810848 -0.19399188 -0.030365176
000260 20 05 6d 3d 88 53 8d bd a1 49 83 be ee 2b 8d be
       0.057866216 -0.06900698 -0.25642112 -0.27572578
000270 94 74 6d be 9a 64 82 3d c6 f8 62 bc 54 61 37 3d
       -0.23189002 0.063668445 -0.0138532575 0.044770554
000280 d9 51 1c 3d 33 d9 3c 3e 43 b1 85 3c 9c a7 a5 be
       0.038163994 0.1844223 0.016319877 -0.32354438
000290 26 f3 6a 3b dd 9e 2e be 29 01 38 3b e6 bc b6 be
       0.0035850494 -0.17052789 0.0028076863 -0.35690993
0002a0 80 63 23 be 90 9e 84 be 06 2a 76 3d 8d 9e e6 bc
       -0.15955925 -0.25902224 0.06009867 -0.028151775
0002b0 95 df 9a 3d 42 31 af 3e 3b 3a b8 3e 3a 50 36 be
       0.07562176 0.34217268 0.35981926 -0.17804042
0002c0 10 b0 aa be 3e ce f5 3d fc e2 26 3e 29 43 7e be
       -0.3333745 0.12002228 0.16297525 -0.24830307
0002d0 a8 c8 51 3e 97 39 86 3d 40 bc 9a be 3e 5a 71 3e
       0.204867 0.06553953 -0.30221748 0.23569581
0002e0 1b 87 06 bd 16 3c 8b be d3 e2 eb 3d 0f d5 80 3e
       -0.03284369 -0.2719428 0.11517873 0.2516255
0002f0 0a 50 74 3e 80 09 0e 3e 80 fd f0 3e f2 5d d1 bd
       0.23858657 0.13870811 0.47068405 -0.10222997
000300 3d ee 55 3d aa ed 8e bd ab 36 aa be a6 73 fe bd
       0.052229155 -0.069789246 -0.33244833 -0.12424402
000310 6c bc 2e be 4d bf ed bc 52 67 e3 bd 70 56 a7 3b
       -0.17064065 -0.029021883 -0.11103691 0.0051067397
000320 4c bb 3d bd 2a 1f 34 be 82 8d f7 3c 85 8e a4 3e
       -0.0463212 -0.17590013 0.030218843 0.32139984
000330 7a 65 d3 be f8 e1 19 3d ad 10 80 bd 0a 79 2d be
       -0.41288358 0.037569016 -0.06253181 -0.16940704
000340 f9 fb 49 be dc e0 5c 3e 19 59 b9 3d ce 04 58 be
       -0.19725026 0.21570152 0.09050197 -0.21095583
000350 2f dc 77 bd a0 e0 cd be 79 1b 4e be 9c 47 e6 bc
       -0.060512718 -0.40210438 -0.20127667 -0.028110318
000360 16 41 94 be 71 b3 01 be 61 e4 ce be 2f 96 20 3d
       -0.28955907 -0.12666108 -0.40408614 0.039205726
000370 9e d1 b0 be 2a b6 48 bd bc bc e6 bc ce 2e 39 be
       -0.34534925 -0.04900185 -0.028166167 -0.18084261
000380 8f 1e 8d be c8 09 a3 bd ee 4e 2a bd ad 27 bc 3b
       -0.27562377 -0.0796085 -0.04157918 0.0057420344
000390 83 28 e8 be 73 0d 78 be b7 8f a9 be 4d b1 1d 3e
       -0.45343408 -0.2422388 -0.33117458 0.15399666
0003a0 95 56 8a be 7a f4 51 bd 6f 58 c0 bd 76 44 73 ba
       -0.27019182 -0.05125854 -0.09391867 -0.0009279916
0003b0 8a 28 35 3e 7e 6b 9e be ff ca 42 be 5d 3c 14 be
       0.17691246 -0.30941385 -0.1902275 -0.14476152
0003c0 4f 0f 1c 3d 41 6c 54 3a 78 2d 04 3e 05 88 2b bd
       0.038100537 0.00081032893 0.1290797 -0.041877765
0003d0 df 69 f0 3d 0f a8 3f be 5e 02 d1 3d 18 98 46 3e
       0.11738943 -0.18716453 0.1020553 0.19393957
0003e0 c9 29 9c bd 75 89 8f be 49 bb 10 be 7a 53 2f bc
       -0.076251574 -0.2803456 -0.14133944 -0.010701055
0003f0 e2 49 23 be c0 ac a3 be fe 96 0b 3e 48 05 ae be
       -0.15946153 -0.31967735 0.13631818 -0.33988404

actor.bias f4 [3]
000000 e5 32 00 3d 1d d0 14 bd 17 0f 13 bd
       0.031298537 -0.036331285 -0.035903063

critic.weight f4 [1, 128]
000000 41 76 de bb 0a 47 79 3d 8f f3 0b be 67 83 04 bc
       -0.0067889993 0.060858764 -0.13667129 -0.008087969
000010 99 b1 f0 bd eb ca b5 3d b5 5c 75 3c 98 74 b0 bd
       -0.11752624 0.08876594 0.014975716 -0.086159885
000020 e8 2f da 3b f7 e7 18 be 3e fb 82 3e f6 94 6a bd
       0.006658543 -0.14932238 0.25582308 -0.057270966
000030 e0 35 ea 3c 3a f5 af 3b 9f 2b 50 3e 57 23 cd 3e
       0.028590143 0.0053698095 0.2032914 0.40066025
000040 f2 53 d2 3d 49 4b 7a be d5 c6 f6 3c 6e 22 4c bd
       0.102699175 -0.24442782 0.030124107 -0.049837522
000050 82 ba 00 3e e0 5e 42 3e 97 38 d8 3d 38 46 47 bd
       0.12571147 0.18981504 0.10557669 -0.04865095
000060 47 69 7b bc 60 5a 63 bd 14 9e 88 3e 44 1a c6 bd
       -0.015344924 -0.05550611 0.26683104 -0.096729785
000070 48 19 9f 3d aa f0 e7 bd 59 69 e1 3e 2f 15 e2 3d
       0.07768494 -0.113252 0.44025686 0.11039197
000080 aa 39 d4 bd 58 ae 2b 3e 38 45 97 be ba 83 1e bd
       -0.10362561 0.16765726 -0.29544997 -0.038699843
000090 13 c4 04 3e 69 d9 ef 3b 36 65 0e 3e 4f 3f 30 3e
       0.12965421 0.0073196185 0.13905796 0.1721165
0000a0 cc d2 b8 3c 2a bf 8c 3d 1b a0 7b 3d d2 81 57 3d
       0.022561453 0.06872399 0.061431985 0.05261404
0000b0 29 49 fa bc 01 4c cd 3d 57 ab 8f bd 8b 09 4a 3e
       -0.030552464 0.10024262 -0.07015102 0.19730203
0000c0 74 d7 72 3e a8 a8 1b 3e d6 83 50 be 18 a1 d1 3d
       0.23715001 0.15201056 -0.20362791 0.10235804
0000d0 c5 2a 15 bc 6a 04 21 be 23 8f 8e 3e b5 17 f0 bd
       -0.009104435 -0.1572434 0.2784358 -0.11723272
0000e0 48 4b fd 3d ef 3f 3a 3d 04 0f 24 3e 3b 3e 66 3c
       0.123678744 0.045471128 0.16021353 0.014052923
0000f0 00 c9 f8 3d f1 10 87 3d 18 af 01 be 9b 2d 5c 3e
       0.12147713 0.06595028 -0.12664449 0.21501772
000100 b4 9c 94 bb 6d 0b 8c bd 48 41 7d 3e f3 77 a3 3d
       -0.004535282 -0.06838117 0.24731934 0.07981863
000110 db 8e 3d be 0c 70 14 be e7 d7 91 3c 9f 4a db bd
       -0.18511526 -0.14495867 0.017803146 -0.10707592
000120 01 24 0f 3d 5c 03 92 bc a4 7c 23 be 37 13 e1 bd
       0.034946445 -0.017823867 -0.15965515 -0.10989993
000130 92 f9 81 3e 1f 60 eb 3d 2b 57 ab 3d 5b 88 ae bd
       0.2538572 0.11492943 0.08366235 -0.085221015
000140 09 d5 97 3c 0b d6 27 3d f4 ae f0 bc 8b bc 01 be
       0.0185342 0.04097561 -0.0293803 -0.1266958
000150 0b 7c 5e bd 7f 75 1d 3e 06 9e ad bd d0 aa 64 3d
       -0.054317515 0.15376852 -0.08477406 0.055826962
000160 6d b9 17 3e 34 b5 87 3e 44 81 bd 3d 90 b8 af 3d
       0.14816828 0.26505435 0.09253171 0.085801244
000170 05 9b 86 3e e7 71 26 3d 30 af 9d bc 61 2e a8 bd
       0.26290146 0.04063597 -0.019248575 -0.08211971
000180 3e 70 b8 bc 2c 06 00 be 43 ab 4e 3d 80 07 ff bd
       -0.022514459 -0.12502354 0.050456297 -0.124526024
000190 7e f6 36 3e 1e 60 bc 3e f5 24 c5 bc 34 db 79 bd
       0.17867467 0.36792082 -0.024065474 -0.061000064
0001a0 c1 73 88 3e 96 e7 a8 bd d6 0b 48 bc 64 88 63 3d
       0.26650813 -0.082472965 -0.012209853 0.055549994
0001b0 69 ab 0a be 15 c8 a5 3c c3 b8 b0 bd a7 c8 1f 3c
       -0.1354195 0.020237008 -0.086289905 0.009752429
0001c0 30 16 0e 3e c4 dd 82 3c 34 7e 02 3e 0f dd 34 3e
       0.13875651 0.015974887 0.12743455 0.17662452
0001d0 56 29 d9 3d cc 9f b4 bd d1 7b 2c bd e5 fb 18 be
       0.10603587 -0.08819541 -0.042110268 -0.1493984
0001e0 63 9c e7 bd de 86 8e 3d 19 33 2c 3e 1d 29 1a 3d
       -0.11309125 0.069593176 0.16816367 0.037636865
0001f0 46 e6 97 ba 3b 4f ee 3d f7 d3 01 3e 48 f3 b9 bc
       -0.0011589013 0.11636206 0.12678514 -0.022699013
