W__RNN/W_RNN/md2/v_5/train_iter_4500.pt (torch, 80523 bytes, 8 tensors)

h0 f4 [128]
000000 f8 13 9c bd 7f d7 59 be 33 c2 67 3f 70 6d df 3c
       -0.07620996 -0.21273611 0.905307 0.027273864
000010 d6 e7 48 3f cb 62 8d 3e 44 46 6d 3d f0 f0 02 bf
       0.78478754 0.27614436 0.05792834 -0.5114889
000020 5c b3 62 3f af 12 5e 3f 6a 5e a3 3e 88 18 0e 3d
       0.8855493 0.8674726 0.3190797 0.034691364
000030 3b e0 1d bf 72 c6 fb 3e 1f bd 4c bd 3e 52 86 be
       -0.61670274 0.4917484 -0.049985047 -0.2623462
000040 d2 59 7e bf 38 05 e7 be d1 9a 7f 3e 3d 6c e4 3e
       -0.99355805 -0.4512117 0.24961402 0.4461383
000050 51 09 05 3e b4 c6 eb 3f f8 7b da 3e 3a ea 26 bf
       0.12991835 1.8420014 0.42672706 -0.6520115
000060 3e 16 ee be 7f fe fa 3e 12 d8 1f bf 1b 54 f1 3e
       -0.46501344 0.4902229 -0.6243907 0.4713448
000070 2f ff a4 3f 75 b6 4b 3f 87 f5 99 3f ba d1 89 bf
       1.2890376 0.7957528 1.2028054 -1.0767128
000080 a8 9d 06 3f 64 fc 41 bf 52 ae 18 3f f4 97 46 3f
       0.52584314 -0.7577574 0.5964099 0.7757561
000090 b6 40 08 3f 12 0e ba bf 68 e0 98 bf 9a c7 11 bd
       0.5322374 -1.4535544 -1.1943483 -0.035590746
0000a0 03 65 64 bf 0e b5 e4 3f 35 b5 b9 bf 15 d5 ce 3e
       -0.8921663 1.7867754 -1.4508425 0.40396944
0000b0 5b 23 10 3f 6f 66 86 bf dd c0 06 3f 8d 5b 3e 3f
       0.5630395 -1.050001 0.52638036 0.74358445
0000c0 cf a9 45 bf ee 59 41 3e 1b cc 1a 3f 5f 87 8a 3e
       -0.7721223 0.18881962 0.6046769 0.27056405
0000d0 8e 6d bd be b9 e3 c4 3f 11 71 40 bf 45 e2 a3 3e
       -0.36997646 1.5381995 -0.75172526 0.32008567
0000e0 05 8c 4e bf 8f 7d f0 be 7b 80 9e 3e 6d 82 9d 3e
       -0.806824 -0.46970794 0.30957398 0.3076357
0000f0 81 75 88 be c3 4a 06 40 39 11 28 3e b3 e6 9c 3f
       -0.26652148 2.098313 0.1641282 1.2257904
000100 bf 33 5b 3e 94 97 d2 be 5d 4e a7 3e 33 de 2a bf
       0.21406458 -0.4113127 0.32676974 -0.667453
000110 75 09 9f bf 76 8f 8a 3f fb 6b 98 3f a7 23 b4 3e
       -1.2424761 1.0825031 1.1907953 0.3518345
000120 58 ad 00 bf 90 d8 6c 3e 9b 2f 3d bf 73 c4 14 bf
       -0.502645 0.23129487 -0.73900765 -0.5811226
000130 e1 42 10 3f 58 fc e5 3e f6 2c 45 bf e6 d7 f9 be
       0.5635205 0.44919086 -0.7702173 -0.4879753
000140 21 0d 84 3f f7 b8 f0 3e 2f 0e 56 3f 89 70 b6 3e
       1.0316507 0.47016117 0.8361539 0.35632733
000150 b6 72 0c c0 e2 cc 58 bf 47 16 19 3f 18 04 55 3f
       -2.1945014 -0.84687626 0.5979962 0.8320937
000160 f8 61 8d be 87 9d 3b bf 7e 5f ab be 63 51 24 3f
       -0.27613807 -0.7328724 -0.33471292 0.64186686
000170 10 55 87 bd ea 9f 75 3f ad f8 19 be f1 32 0c c0
       -0.06608021 0.95947134 -0.15036269 -2.1906092
000180 57 e9 95 3f b8 77 a2 be 62 b4 c2 3d 48 58 80 bf
       1.1711835 -0.31731963 0.095070615 -1.0026941
000190 53 73 53 bf 31 c8 13 3f 51 8a bf 3e 20 ca 06 bf
       -0.82597846 0.5772734 0.37410215 -0.5265217
0001a0 7d 74 7a 3f 26 16 12 be fb 00 0f 3f 6b e8 31 be
       0.97833997 -0.14266261 0.5586087 -0.17373817
0001b0 9c 24 69 c0 1b c9 22 3f e2 60 c8 be d0 9d 3a bf
       -3.6428595 0.6358811 -0.39136416 -0.7289705
0001c0 53 f0 6a 3e 27 cd 72 bf 34 3b 1e bf 1a df 29 3b
       0.22943239 -0.9484429 -0.61809087 0.0025920332
0001d0 86 cc bb 3e f4 2c ca be 15 c8 dc 3e 16 c9 36 3f
       0.36679476 -0.39487422 0.431214 0.7140058
0001e0 dd 87 0a bf d2 77 45 bf 0b 52 27 3e cb 7c 07 c0
       -0.5411356 -0.77135956 0.1633989 -2.1169918
0001f0 75 e6 ca be 59 25 89 bf 0f 84 38 3f 14 fe ce 3d
       -0.3962895 -1.0714523 0.72076505 0.10107055

RNN.weight_ih_l0 f4 [128, 17]
000000 d9 d9 5c 3e 5e e5 ab bd d7 e3 a2 bd 35 94 f9 bd
       0.21567477 -0.08393358 -0.07953613 -0.121864714
000010 a0 a7 ba 3c 63 6f 0a be ca 8f b2 bd 2e ea be bd
       0.022785008 -0.13519053 -0.08718832 -0.0932201
000020 37 ba c5 bd 33 f4 28 be 54 14 ae bd 25 4a 33 be
       -0.09654658 -0.16499405 -0.08499971 -0.17508753
000030 56 e3 f8 3d 99 c2 8b bd aa ba 73 bc 8d 82 a2 bd
       0.12152736 -0.06824226 -0.014876047 -0.07935057
000040 0a c5 f8 3d 96 94 0a be 75 0f 1e 3d d4 fd b3 bc
       0.12146957 -0.13533244 0.03858896 -0.02197162
000050 f1 3d ae bc 07 67 ab bd 7e f6 fe bd 6b 3c ab bd
       -0.02126977 -0.0836926 -0.124493584 -0.08361133
000060 b6 36 97 3d 79 5a db bb 4e 5c 37 bd d7 d5 a5 bd
       0.07383482 -0.006694135 -0.044765763 -0.08097427
000070 8a b7 7c 3e 14 0c 2f bc fa fe 03 be 51 34 77 3d
       0.2467939 -0.010684032 -0.12890235 0.060352627
000080 a6 9f db bc 16 6c 73 3e 96 b4 72 3d 3b ef 9a be
       -0.026809525 0.237717 0.05925425 -0.30260643
000090 19 2c f0 3d 57 f2 c7 3e 89 72 8e be 93 08 a4 be
       0.11727161 0.39052078 -0.27821758 -0.32037792
0000a0 e8 01 d5 be 14 9b 83 be 8b fe 99 be 98 9b 8c be
       -0.41603017 -0.25704253 -0.30077013 -0.2746246
0000b0 d2 f6 ea 3d 83 e9 a9 be fd f2 ff 3d bf 5e 8c be
       0.114728585 -0.33185968 0.12497518 -0.27416036
0000c0 f4 f0 8c 3d 49 42 65 3d 81 43 f5 bd 48 ce ef bd
       0.06881896 0.055971418 -0.11975766 -0.11709267
0000d0 53 6d c8 bd c0 1c 96 bd b4 16 85 3d 67 53 4e bd
       -0.09786477 -0.073297024 0.06498471 -0.050372507
0000e0 f5 a9 27 be c9 4e 08 be 7a 81 24 be da ac 30 be
       -0.16373427 -0.13311304 -0.16065016 -0.17253438
0000f0 e7 6d 0d be 13 97 4d 3e 4b 2a 22 3d 39 5a 48 3d
       -0.13811456 0.20077161 0.039591115 0.048914168
000100 d6 9a 95 3d a1 de 84 3d 79 06 cd bd de 98 a6 3d
       0.07304923 0.064877756 -0.10011 0.08134626
000110 71 80 a7 bd b7 19 d8 bd 71 68 b0 be 42 32 e9 be
       -0.08178795 -0.1055178 -0.34454682 -0.45546156
000120 fd 93 0e 3e d9 37 f3 bd 85 0d c9 be 2e fd 82 3e
       0.1392364 -0.118758865 -0.39268127 0.25583786
000130 38 3b a0 3e 98 7c 8d 3e 87 de 16 3d fc cf 8e bd
       0.3129518 0.2763412 0.036833312 -0.069732636
000140 bc d2 5b be 6e e6 0d 3e d6 c2 80 bc 19 ad a0 3d
       -0.21467108 0.13857433 -0.015717905 0.07845516
000150 29 09 d7 3d 20 32 5d 3e 7f 8b 37 3c c0 c5 35 3e
       0.10499794 0.21601152 0.011202692 0.17751217
000160 84 af de 3e 7f 53 98 be 60 d3 97 be 88 ff cf be
       0.43493283 -0.29751202 -0.29653454 -0.40624642
000170 e6 c8 8f 3d 44 10 49 bd 8b fa 79 bd e3 77 1a be
       0.0702074 -0.049087778 -0.061029952 -0.15084796
000180 4b c0 dd be 81 8f 37 3d 84 08 c3 bb ea 96 1b 3e
       -0.4331077 0.04481459 -0.005951943 0.15194288
000190 41 34 e6 3d 19 48 b3 3c df 4a 1d 3e 2a 42 74 3e
       0.112404354 0.021884965 0.15360592 0.23853365
0001a0 01 2f 03 3e b0 d8 d1 3e a6 a7 d3 bd 73 2d 02 3d
       0.128109 0.40985632 -0.10334711 0.031781625
0001b0 ba 39 ac be e8 79 3d be 73 e1 42 be 06 bf 89 bd
       -0.33637792 -0.18503535 -0.19031315 -0.06725888
0001c0 ee 32 3b be be 17 8b be f3 5b 9c 3d 79 59 5e be
       -0.18281147 -0.2716655 0.076347254 -0.21713819
0001d0 3c b9 8f bd 61 e2 d1 3d 47 39 70 bc ad bb 22 bd
       -0.070177525 0.102482565 -0.0146620935 -0.039729763
0001e0 61 d6 fb bd c3 10 26 3e b9 41 ec 3e ba 3f 85 be
       -0.12296749 0.16217332 0.46143892 -0.26025182
0001f0 7c 27 97 be 58 11 86 be ae bc 38 be bf 1d 6b be
       -0.29522312 -0.26185107 -0.18040726 -0.22960566
000200 2c be 18 be 74 3a db 3c de 72 7b bd 63 69 3b be
       -0.14916295 0.026761271 -0.061388843 -0.1830192
000210 3f 88 ab bd 3c 99 12 bd 55 1b 13 3e 99 ea 17 be
       -0.08375596 -0.035790667 0.14365895 -0.14835586
000220 23 d4 76 be 32 7c c5 bd 62 da d9 bd cb d6 6d be
       -0.24104361 -0.09642829 -0.10637356 -0.23226468
000230 2b 31 b1 3c aa 95 32 be fb be 88 be 1f 3b 4b 3e
       0.02162989 -0.17439905 -0.26708207 0.19846772
000240 e8 b8 c4 3d 80 ba 51 3d 4b 4f e0 3d cb b3 e1 bc
       0.096055806 0.05120325 0.10952624 -0.027551552
000250 1a a1 4d 3e 56 f8 b9 bd 59 2f f6 3d f6 8b f3 bc
       0.20080987 -0.090805694 0.120207496 -0.029729825
000260 ea f2 4f be f0 b8 07 be 90 b4 b1 bd 91 aa b4 3e
       -0.20307508 -0.13254142 -0.08677018 0.35286382
000270 26 91 fa 3e 96 f0 e6 be d3 a1 e5 be 69 e3 a6 bd
       0.48938864 -0.45105428 -0.44850025 -0.08148844
000280 04 a7 94 be 30 80 b4 be 40 2c b2 be 37 43 57 3e
       -0.29033673 -0.3525405 -0.34799385 0.21021734
000290 5b 55 d9 bc 5b 41 2e 3d c4 b2 4f be 74 52 1b 3d
       -0.026529958 0.042542797 -0.20283037 0.03792043
0002a0 62 7e 1a 3d 26 65 12 3d 27 e2 b5 3d 2f e9 c0 bd
       0.037718184 0.035740994 0.08881026 -0.09419476
0002b0 12 ea 8f bd f7 5e 81 be 67 c8 64 be 56 96 a8 bd
       -0.07027067 -0.25267765 -0.22342072 -0.08231799
0002c0 e9 d0 f8 3e 73 a6 56 bd 0c d8 db 3c c2 50 2e bc
       0.48596886 -0.052404832 0.026836418 -0.010639371
0002d0 ad 7f 97 bc 05 58 0e be a8 4d 99 3d 86 83 5c bd
       -0.018493498 -0.13900764 0.07485515 -0.053836368
0002e0 f5 98 98 3d 6b bb b7 bb dc 69 78 3c df 91 f3 bd
       0.07451049 -0.0056070588 0.015161958 -0.11893057
0002f0 77 94 8e be 76 c9 19 3e d1 e6 c0 3e 7c 2a 76 be
       -0.27847645 0.15018257 0.376761 -0.24039644
000300 0d 67 9c be bc 86 d7 bd f9 65 27 be 70 4e 89 be
       -0.30547372 -0.105237454 -0.16347493 -0.26817656
000310 80 d2 6d be c8 f2 0f be ae d7 d8 be 7f 6a 59 3e
       -0.2322483 -0.14057457 -0.4235205 0.21232031
000320 3a 87 de be e9 80 a9 3c 4e ca 0b bd fb 10 70 be
       -0.43462545 0.020691352 -0.03412848 -0.23443978
000330 4a 33 ac 3e 0c 4e f6 bc 91 30 6b bc 45 d4 ae be
       0.3363288 -0.030066513 -0.014354841 -0.34146324
000340 2b 0a cf bb 27 9d 85 3d 3c 0e f9 bd 2a 40 56 3c
       -0.006318351 0.06524115 -0.12160918 0.013076821
000350 4e e1 39 bd f3 ad 2f 3d 11 de 87 be ce d1 8e be
       -0.045380883 0.0428905 -0.2653661 -0.27894443
000360 a8 84 90 3e b1 2b 3c be ad 93 0a bd d5 d8 9d 3d
       0.2822621 -0.18376042 -0.03383224 0.07707373
000370 6a 8e 06 bc 54 f2 0c 3e e4 10 20 3e fe 9a c3 3e
       -0.008212665 0.13764316 0.15631443 0.38204187
000380 13 3c 15 3f 09 59 0c bd ce 01 fd 3d d3 d5 34 3e
       0.5829479 -0.034264598 0.1235386 0.17659692
000390 00 29 70 be 7e 15 8b be 0b ce eb bd f5 36 1d be
       -0.2345314 -0.27164835 -0.11513909 -0.15352996
0003a0 5a fc 25 be df 1b cc bd 0a c8 c0 bd e3 21 bc bc
       -0.16209546 -0.099662535 -0.094131544 -0.022965377
0003b0 77 0d 7f 3d 3b 49 51 bd 29 4e 00 be 99 99 11 be
       0.0622687 -0.05109523 -0.12529816 -0.14218749
0003c0 85 96 df bd 70 38 28 bd 44 ff c4 bd 3a ee 99 bd
       -0.10917381 -0.041069448 -0.096190006 -0.07516141
0003d0 ea f6 1e bd 53 72 19 3d 36 cd 03 be be 20 86 bd
       -0.038809694 0.037462544 -0.1287125 -0.06549214
0003e0 87 16 10 3e ec 4f b3 3b 6b 7e 39 be 11 bf eb 3d
       0.14071093 0.005472174 -0.18114631 0.115110524
0003f0 91 54 92 bd 0f 7f 98 3d 25 ce 05 3e cd 92 bd bd
       -0.07145036 0.074461095 0.13066919 -0.09256516

RNN.weight_hh_l0 f4 [128, 128]
000000 bb 23 de 3c d3 a3 d3 3b 07 aa 95 3d 4e f0 8d 3c
       0.027116647 0.0064587384 0.07307821 0.0173265
000010 89 56 47 bd 06 2c 5e bd 88 e8 1d 3b 2e 1e e7 3d
       -0.04866651 -0.054241203 0.0024094898 0.11285053
000020 9c b9 0b 3c 8b 56 74 bd 06 16 2a bd db 45 42 3d
       0.008528139 -0.059652846 -0.04152491 0.0474299
000030 8b 74 1d bd 08 04 2b bd b2 cb b5 3c c6 72 80 3c
       -0.038441222 -0.04175189 0.022191856 0.015679728
000040 ca 73 18 bd ee b7 f5 3a 6c b4 0e 3c 5a 25 8f 3d
       -0.0372198 0.0018746832 0.008710008 0.06989546
000050 6f 47 20 bd 68 f3 29 bd 1e d1 68 bb 80 7a 5a bd
       -0.039130624 -0.041491896 -0.0035525034 -0.05333948
000060 77 89 97 3d f6 47 db 3d fd 53 54 3d 56 aa de bd
       0.07399266 0.10707085 0.05183791 -0.10872333
000070 ef cf 0b 3d ff c5 36 3d a0 7d 64 bd 85 72 84 3d
       0.034133848 0.044622418 -0.055783868 0.06467155
000080 3d b1 5f 3d ef 8a f4 3c 9f 4a 03 bd 43 7b 86 bd
       0.054612387 0.029851405 -0.032053586 -0.06566479
000090 1d 23 fd bc fd 09 5d 3d b5 e9 14 be d8 f1 29 3d
       -0.030900532 0.053964604 -0.14542277 0.041490406
0000a0 e2 d5 44 3d a4 06 73 3d f3 28 07 3d dc 78 10 3d
       0.048055537 0.059332505 0.032998037 0.03527151
0000b0 37 33 d9 bc fa ab ec bc 24 b3 50 3c e4 58 b6 bd
       -0.026513679 -0.028890599 0.012738023 -0.08903673
0000c0 ce 19 38 bc 1e b5 6d 3b 8d f3 ae 3d 69 01 3c 3d
       -0.011236621 0.0036271284 0.085425474 0.045899782
0000d0 e7 5a 9f bd 08 d6 a1 3c 6f 75 ad 3d 13 1c 6f 3c
       -0.0778101 0.019755378 0.08469664 0.014594096
0000e0 71 bb 86 3b 60 0a 3a bc 5a 23 c9 3c c4 6e 48 3c
       0.0041117 -0.011355013 0.02455299 0.01223344
0000f0 0f 0c ac 3d eb 93 54 bd f1 e3 4d 3b 45 2e 92 bc
       0.084007375 -0.051898878 0.0031416381 -0.017844329
000100 70 f1 27 3c 74 31 37 bd f0 2b 07 be fe af 92 3b
       0.010250434 -0.044724897 -0.13200355 0.0044765463
000110 d0 40 cc bc 8e 29 ea bd 47 b0 af bd 29 e5 14 bd
       -0.024933249 -0.11433707 -0.08578544 -0.036351357
000120 68 de 3d 3d b1 5f 7f bc 8e 39 8e 3d 56 fd 2e 3d
       0.04635468 -0.015586779 0.069445714 0.04272207
000130 55 bb 08 3d 21 a8 a7 bb 36 93 df 3c 83 c4 1b bd
       0.03338178 -0.005116478 0.027291875 -0.038029205
000140 2c ab 2b bd da 45 75 bc 4c a9 85 3d fb 12 76 3d
       -0.04191129 -0.014970267 0.065264314 0.060076695
000150 26 b3 91 bd 26 45 d6 bc 58 d7 1a 3d 73 99 3f bd
       -0.07114248 -0.02615602 0.037803024 -0.0467772
000160 cd 91 8d bd dc ce 13 3d a6 2b dc bd cd 01 4c 3d
       -0.06912575 0.03608595 -0.10750513 0.049806405
000170 d4 a3 e6 3d ea 0f 31 3d 92 f1 1e bc 8c 74 8d bd
       0.112617165 0.043228067 -0.00970115 -0.06906995
000180 31 84 20 bd 01 37 57 bd 1f 3d 3c bd 7d 65 34 3d
       -0.039188568 -0.05254269 -0.045956727 0.0440421
000190 5f 5d 3d bd ac f9 ac bd fe da 4f ba 62 4e 04 be
       -0.046231624 -0.08446059 -0.0007929056 -0.12920526
0001a0 57 8d 5c bc 40 dc 47 3d e0 f6 29 bd b8 6a a2 bb
       -0.013461432 0.04879403 -0.041495204 -0.0049565695
0001b0 59 68 40 bc b8 cc 33 bd f1 39 57 bd c0 02 45 bc
       -0.011743628 -0.043896407 -0.05254549 -0.012024581
0001c0 6c 6b 35 bb 34 23 1d 3d d8 0e 95 bc 47 6f 15 3d
       -0.0027682437 0.03836365 -0.018195555 0.036483075
0001d0 8d 79 56 3c 78 c1 34 bd 3e d2 fe 3c a5 cc a8 3d
       0.013090503 -0.04412982 0.03110611 0.08242158
0001e0 bf e5 57 3c 4d e4 23 bc 02 22 90 3d 08 cf 8c 3d
       0.013177334 -0.010003162 0.070377365 0.068754256
0001f0 d0 a3 56 bd 04 1f 09 3e 6b 41 2e be 07 ac c2 3c
       -0.052402318 0.13390738 -0.17017142 0.02376367
000200 7d e8 ae bb 08 99 12 3d 9d 2f 06 bd 76 e8 c6 3d
       -0.0053377734 0.035790473 -0.03276025 0.09712307
000210 72 34 b6 bd cf d6 83 bc c1 30 12 bd b5 c0 76 bd
       -0.08896722 -0.01609364 -0.035691027 -0.060242373
000220 be ed 26 3d bf 4b 68 bd 46 d5 07 3b 53 4d 5b bc
       0.040754072 -0.056712862 0.0020726486 -0.013385135
000230 ef a7 bf bd 26 c9 c4 bd 64 50 e2 3d 80 83 89 3c
       -0.09358203 -0.096086785 0.110504895 0.016786337
000240 c2 a2 8a bd b8 b7 3d 3d 4d e0 35 bd 39 f2 71 3d
       -0.06769325 0.046317786 -0.044403363 0.059068892
000250 c9 4d b9 bc 43 12 86 3d 41 1e 97 bd 9f ec 35 3d
       -0.022620099 0.06546452 -0.07378817 0.044415113
000260 7e 0c 18 bc 2b 4e 46 bd bc 58 0d 3d 9f 7f ba bd
       -0.009280322 -0.04841439 0.03450845 -0.09106373
000270 59 3b 66 bd 07 23 e4 3d 95 50 95 bd 71 46 0c bd
       -0.056208942 0.111394934 -0.072907604 -0.034246866
000280 6a 0f 18 3d 87 20 34 bc ed 73 27 3d 94 2c eb bc
       0.037124075 -0.010994083 0.04088204 -0.02870778
000290 53 68 e7 3d 13 fa 9a bd 11 90 c3 3d 06 98 c7 bc
       0.11299195 -0.07567229 0.09548963 -0.024364483
0002a0 e4 f2 2c 3c 5f 4d 81 bd 3c 09 9e bd 90 a0 60 ba
       0.0105559565 -0.063135855 -0.07716605 -0.00085688476
0002b0 8c 4d 04 be 4c a2 d1 3c 22 6d cc bc 51 6f 5e 3d
       -0.12920207 0.025590084 -0.024954382 0.05430538
0002c0 8d 45 5f bd e4 52 29 3d c6 8f 5b bd 9b 7b 09 be
       -0.05450969 0.041338816 -0.05360391 -0.13426058
0002d0 70 61 d6 bc bb 89 13 be c2 f7 9c 3d cc 29 09 be
       -0.026169509 -0.14408009 0.076644436 -0.1339485
0002e0 17 05 1b be 9f a3 24 bd 41 03 ad 3d 63 08 ab bd
       -0.1513866 -0.040195104 0.08447886 -0.08351209
0002f0 73 91 d2 3d 45 6c 91 3d 88 f9 fe bd 7c 2d 5f bd
       0.102816485 0.07100729 -0.12449938 -0.054486737
000300 33 1e 0e bd ad 4e 53 bd cc 74 2a bc 7c 3e de bd
       -0.03469677 -0.051588703 -0.010403823 -0.10851762
000310 55 a2 e3 bd 3a 0a e5 bd c4 05 70 bd 7b 72 18 3d
       -0.11114947 -0.11183591 -0.05859925 0.037218552
000320 c7 b4 ef 3d 71 ad 13 bb 3f 09 10 be b2 b6 2f bd
       0.117044024 -0.00225338 -0.14066027 -0.04289884
000330 f2 7f bb bd e8 98 9e 3c 7f 5a 1f bd d2 c8 dc 3d
       -0.09155263 0.01936002 -0.038904663 0.10780491
000340 18 18 83 3d 2c 97 07 bd 2a 57 8f bd 9d 15 1a be
       0.0640108 -0.033103153 -0.06999047 -0.15047307
000350 ad b9 a7 3d 61 f7 fc 3c b0 4c 43 bd dc 25 15 be
       0.08189712 0.030879678 -0.047680557 -0.14565223
000360 25 77 98 3b 5c 0b 30 3e 3a a9 5e bc 3f 30 13 3b
       0.004652875 0.17191833 -0.013590151 0.0022459177
000370 be fe 3f 3b a0 9f c8 3d ad bf bd bd 52 73 51 3d
       0.0029296125 0.09796071 -0.09265075 0.05113537
000380 0d 07 1d 3c 8b 11 bf bd 50 8b 8c bd c5 64 6f bd
       0.009584201 -0.09329518 -0.06862509 -0.05844571
000390 a9 8e 2a 3d d1 71 80 3d f9 f8 94 bd 7c 7a 3a bd
       0.041639958 0.06271709 -0.0727405 -0.045526966
0003a0 bb e6 7a 3d a9 59 b6 bd 57 f2 f8 3c a6 61 0f bd
       0.061255198 -0.0890382 0.030388994 -0.035005234
0003b0 94 b0 49 bd 10 d7 2d 3e 1f df 50 3d 96 94 8c bd
       -0.049240664 0.16976571 0.050994035 -0.06864278
0003c0 6d d4 83 bd 0d cf 03 be e8 bf b6 3d c8 48 a7 3d
       -0.064370014 -0.12871952 0.08923322 0.08168179
0003d0 fe d5 2d be 71 55 2d bd be 63 9f bc ca 85 6a 3d
       -0.16976163 -0.04231781 -0.01945674 0.057256497
0003e0 d6 6c dc 3b 39 c8 2b bd d9 62 0d 3e 66 bc f6 3c
       0.0067268414 -0.041938994 0.13807239 0.030119132
0003f0 a1 56 f4 3d 90 8f 0a 3c cd 73 40 bd f3 c8 92 bb
       0.11930586 0.0084570795 -0.046985436 -0.0044795214

RNN.bias_ih_l0 f4 [128]
000000 17 0c 68 bc 71 0a 88 bd 4f 8e a3 bc d6 da 56 3d
       -0.014163039 -0.066426165 -0.019965319 0.052454792
000010 22 c5 b4 bd 72 0c bd bb 34 81 05 bd bc ec 2c 3d
       -0.088266626 -0.005769306 -0.03259392 0.042217955
000020 09 30 6c 3d 7e 8b 44 bd 60 06 b0 3d 69 e9 8c 3c
       0.057662997 -0.047984593 0.08594966 0.017201142
000030 8e aa 07 bb 62 1e 95 bd ca 5e f5 3c 97 e7 a8 3c
       -0.0020701024 -0.07281186 0.029952426 0.020618243
000040 46 fb 14 3d a5 90 db 3c 63 85 de 3d d4 d3 a9 3d
       0.036372446 0.02680237 0.10865285 0.08292356
000050 a2 93 c7 3d 7b 73 32 3b ce 00 0e bd 31 ca cc 3d
       0.097449556 0.0027229476 -0.034668736 0.099995025
000060 e3 42 8e 3d 42 d2 0d 3e b3 52 9b 3d 16 9b 21 bc
       0.069463514 0.13849738 0.07584133 -0.0098636355
000070 6c b1 72 3d 0f a5 2b 3d 8b f9 99 bd e8 75 1e 3d
       0.059251234 0.04190546 -0.075183 0.038686663
000080 fb 5b 96 bc 4c 73 9f 3c e0 1b fb ba b0 22 b4 3d
       -0.018354407 0.019464158 -0.0019158088 0.087956786
000090 db c1 67 3d ae b1 36 3d 89 81 a3 bd 1e 49 92 3c
       0.05658136 0.044603042 -0.07983691 0.01785713
0000a0 73 7e 3f bd 49 6f c0 3d 48 c8 c5 3b 23 11 2f bd
       -0.04675145 0.09396226 0.0060358383 -0.042740952
0000b0 5b db e4 3d 3d a6 1e bd 89 cf 30 bd 2f cf b0 bd
       0.11174651 -0.038732756 -0.04316667 -0.08633267
0000c0 8c fe 46 bd ec 6d 8e 3d d6 4a 3d 3d a1 c2 97 3d
       -0.0485826 0.0695456 0.046213947 0.074101694
0000d0 5c e8 0f bb 5c a1 ac bc 50 80 0b 3c d3 3a e2 3d
       -0.0021958565 -0.021073036 0.008514479 0.11046376
0000e0 cb f2 79 3d 88 96 95 3c 3c 74 01 bd ca e0 96 bd
       0.06102256 0.018260255 -0.03160499 -0.07367094
0000f0 e9 10 bb 3d ed cf 7f 3c 42 74 cb 3d d2 42 65 3d
       0.09134085 0.015613538 0.09934284 0.055971928
000100 54 97 1e 3d 2c f8 10 bd 32 f3 a4 3d 63 61 89 bc
       0.038718536 -0.035392925 0.08054198 -0.01677007
000110 07 60 fb 3d 87 e8 ed 3d 57 43 30 3b 1c bd aa bd
       0.12274175 0.11616617 0.0026895606 -0.08336851
000120 06 80 3e bd 7f 1e 8e 3d 9f ef 5e bc e8 1b 56 bd
       -0.04650881 0.069394104 -0.013606935 -0.052272707
000130 f0 8d 2c bd 98 e1 ab 3d 2f f3 86 3d 52 40 5b 3d
       -0.04212755 0.08392638 0.06589352 0.053528138
000140 8d 89 57 3c 2b 0b 88 3d d6 94 cc bd a5 c6 90 bd
       0.013155353 0.06642755 -0.09989326 -0.070691384
000150 2f 46 e3 bb 50 89 04 3c 2a b1 65 3d a4 45 33 bd
       -0.006935857 0.0080893785 0.05607716 -0.043767586
000160 73 1d 61 bc 66 69 1e 3d 51 84 e8 3d d3 b2 4a bd
       -0.013739931 0.038674735 0.11353362 -0.049486946
000170 13 95 02 bd de 7b 67 3c 37 67 8f bc 75 ba 93 3d
       -0.03188045 0.014128653 -0.017505271 0.07213298
000180 d9 c1 a8 3d 0f 9d e2 3d 81 03 19 bd b7 a1 e3 3d
       0.082400985 0.11065113 -0.037356857 0.11114829
000190 01 de 4a bd 09 f6 c0 3d d1 6e c6 bd 8f a2 89 3d
       -0.049528126 0.094219275 -0.09689105 0.06720459
0001a0 51 81 6f bd 3b ab b5 3d 11 3b 9a bb c0 db df 3d
       -0.058472935 0.0887055 -0.0047067483 0.10930586
0001b0 b0 f9 e9 bb f1 34 0c 3d f3 09 61 bd 2d 1c c6 3c
       -0.007140361 0.034230176 -0.05494113 0.024183357
0001c0 47 00 d9 3d 6e 80 a1 3d 90 2c e9 3b 9c bc 35 3d
       0.10595756 0.07885824 0.007115908 0.044369325
0001d0 8a b3 47 bd 3b dd 03 bd f9 e8 0f bd c6 f6 95 3d
       -0.048755206 -0.032193404 -0.03513429 0.07322459
0001e0 d9 01 bd 3d 6e e6 26 3d 59 4e 45 bc cc af 72 bd
       0.09228868 0.0407471 -0.012042605 -0.059249684
0001f0 5e 33 c5 3c 74 e1 27 bc 7f 56 85 bd 03 6d 9c 3d
       0.024072345 -0.010246623 -0.065106384 0.0763798

RNN.bias_hh_l0 f4 [128]
000000 2e c9 35 3d 08 11 ca 3d b8 79 d3 3c 77 01 d5 3d
       0.044381313 0.0986653 0.025814876 0.1040067
000010 48 d4 8f bc fc 5b 50 3c 1e 83 ec 3c 2a f3 fe ba
       -0.017557278 0.012717243 0.028871115 -0.0019451131
000020 d6 d7 42 bd 78 5d 1c 3d ef 57 b7 3d b8 3d ca 3b
       -0.04756912 0.038175076 0.08952319 0.006171908
000030 4e b7 77 3d d2 da a4 3d 47 e1 2a bd 10 6c 80 bd
       0.060477547 0.08049549 -0.041718747 -0.06270611
000040 5c 7f 93 b8 25 5b b9 bd 2d df d2 3c a0 c6 b0 3c
       -7.033229e-05 -0.090505876 0.025741184 0.021579087
000050 6f 0e 92 3c 57 16 03 bd 93 ec e6 bc 2f f9 08 bd
       0.017829148 -0.032003727 -0.02818898 -0.033440765
000060 ff 7f c6 3d a8 d9 b2 3d ee e3 01 3d e1 ec 1e 3c
       0.09692382 0.08732921 0.03171151 0.009700031
000070 c6 8b 3a bd 15 26 bd 3d b1 97 33 bd 2e d4 a4 3d
       -0.045543455 0.09235779 -0.043845836 0.080482826
000080 ff fb f7 3c 57 b5 dd 3c 7a c4 df 3d 80 2c c1 3d
       0.030271528 0.027064009 0.10926147 0.09432316
000090 e2 0d 08 bd 37 19 06 3c d5 1c a9 bc ca 76 03 bd
       -0.033216365 0.008184723 -0.020643631 -0.032095708
0000a0 a2 18 af 3c 2f 06 f4 3b ee 3d 99 bd e7 43 6b bd
       0.02137405 0.007447026 -0.07482515 -0.057437804
0000b0 ba cd ad 3d 1f 3c 1a bc 27 1b c6 bd 12 86 c7 bd
       0.08486505 -0.009413748 -0.09673148 -0.09742369
0000c0 68 9e 6a 3d ef 1b d5 bc e9 96 f1 bc 39 d8 ab 3b
       0.057279974 -0.026014296 -0.029490905 0.0052442816
0000d0 38 6a 90 bb ca 8a db 3d b4 51 69 bd d7 c0 9f 3c
       -0.0044071935 0.10719831 -0.056962684 0.019501133
0000e0 04 f1 b0 3d 95 80 7f bc 27 99 4e 3c 78 ce 67 3d
       0.0863972 -0.015594621 0.012609757 0.05659339
0000f0 ef 11 33 3d e1 6a 69 3d c6 fb a0 3b 71 51 55 3c
       0.043718275 0.056986693 0.004912826 0.013019905
000100 79 73 0f 3d 56 ba 54 bd ec 3e 5b bd d7 6b f2 3d
       0.035022233 -0.051935516 -0.053526804 0.11836975
000110 c2 2c 73 bc c2 25 dd 3c a7 1e 78 3d 70 1d 11 3d
       -0.014842214 0.026995543 0.060576107 0.035428464
000120 80 ca cd b8 fb 17 c0 3d 37 9d d0 3d a9 3e e1 3c
       -9.81288e-05 0.09379574 0.10186236 0.027495699
000130 be 2b 4e bd 20 a9 a5 bb 8e 7a a0 bc 36 8b 08 3e
       -0.050334685 -0.0050555617 -0.019589689 0.13334355
000140 e0 d9 52 3d a8 bb 9f 3b 25 b3 38 bd 33 c9 7b 3d
       0.051477313 0.0048746653 -0.04509272 0.061471175
000150 1c 0f c3 3d b2 e1 89 bc 5d 56 fa 3c 0f e4 96 bb
       0.09524366 -0.016831253 0.03055876 -0.0046048234
000160 9a 55 c1 bb 9a e4 98 3c 27 88 4d bd 61 1b 24 bb
       -0.005900097 0.018663693 -0.050178673 -0.0025040733
000170 c2 bc cb bc 14 c1 e7 3b be 08 e8 3d 0b 67 ea 3d
       -0.02487028 0.0070725773 0.113297924 0.11445435
000180 ef 78 21 bd 53 d3 74 3c 94 11 14 3d 2b bb 1c 3d
       -0.039421972 0.014942962 0.036149576 0.038264435
000190 db 95 c8 3d 20 fb ea 3d 04 2e a1 bc c6 c8 00 3d
       0.09794208 0.114736795 -0.019675262 0.031441472
0001a0 f8 ad 89 bd 82 9e 81 3b 01 ac 00 bc 90 9a 92 bc
       -0.06722635 0.003955663 -0.007853509 -0.017895967
0001b0 d2 b2 88 3c 87 1b e7 3c 28 a7 d7 3c af fd 37 3d
       0.01668683 0.028211368 0.026324823 0.044919666
0001c0 1c dc dc 3d 65 20 01 3d bc 4e 1f 3d b6 a7 84 3d
       0.1078417 0.031525034 0.038893446 0.06477301
0001d0 46 3f 73 bd b1 2b 3e bd 1a 6f 57 3d 29 fa 81 3d
       -0.059386514 -0.046428386 0.05259619 0.063465424
0001e0 2f 39 b0 3d ee e4 9f 3d 28 35 97 3d f4 c0 95 bc
       0.08604657 0.07807337 0.073831856 -0.018280484
0001f0 a5 b2 d2 bc db d7 2a 3d 63 76 20 bd 8d 6f 68 3c
       -0.02571995 0.041709762 -0.039175402 0.014186752

actor.weight f4 [3, 128]
000000 6b 91 78 3e cb 43 67 bd 40 7e e4 3c a3 4b cc be
       0.24274223 -0.056461137 0.027892232 -0.39901456
000010 1c 50 4d 3c ca a1 5a 3e 54 07 74 3e 62 e3 1a be
       0.012531307 0.2135078 0.2383092 -0.15125802
000020 6b 89 12 3e 5e 41 31 bd 1b 90 a3 3e 70 1f 70 3e
       0.14310233 -0.04327523 0.3194588 0.23449492
000030 78 6a 23 3f 26 7d 93 3e 90 56 2b be cb 7e 21 be
       0.63834333 0.28806418 -0.1673224 -0.15771024
000040 79 a9 bf 3e 40 b4 53 3e d0 2d 1b be a1 59 0e 3e
       0.37433985 0.20674229 -0.15154195 0.13901378
000050 43 7d 08 3f b8 e4 c1 be 65 ea a9 bc 7d 86 38 3e
       0.53316134 -0.3786981 -0.02074165 0.18020053
000060 c3 d8 fb 3e 65 77 49 3e ac f3 ac 3e 29 82 5e be
       0.49188814 0.19674452 0.33779657 -0.2172934
000070 d6 a7 f6 3d 52 78 87 be d8 4b 99 be 86 61 26 3d
       0.12043731 -0.26458985 -0.29940677 0.04062035
000080 68 ad 43 3d 52 fa 57 3e 01 63 2c 3f 6b b8 ee 3e
       0.047772795 0.21091583 0.6733857 0.46625075
000090 d5 41 0d 3f 28 7c 2c 3e 21 e7 fd be d6 53 c5 3e
       0.55178577 0.16844237 -0.495904 0.38540524
0000a0 5c 05 b2 3e d6 87 0c be cf d8 81 be f2 b4 2e be
       0.34769714 -0.13723692 -0.25360724 -0.17061213
0000b0 b2 52 51 3e 6e 63 9c 3e 44 cf 01 be 33 ed c0 bd
       0.20441702 0.3054461 -0.12676722 -0.09420242
0000c0 77 6e 0b bd 83 b5 b4 3e 4e da 1d 3e b6 2d 3d 3e
       -0.034040894 0.35294732 0.15415308 0.18474469
0000d0 97 81 80 3e 79 2b 18 3e 8d d2 b1 be e7 73 a4 3e
       0.2509887 0.14860334 -0.3473095 0.32119676
0000e0 4d 4d b0 3e a9 8b 7d 3e b0 e9 dd 3e 2f 91 ae bd
       0.34433976 0.24760307 0.43342352 -0.08523785
0000f0 ca e2 bb bc 35 3f f3 be d6 72 dd 3e 23 b6 2b be
       -0.02293529 -0.4750916 0.43251675 -0.16768698
000100 a6 cf a4 3e f0 62 a4 3e 54 26 2f 3e c0 61 03 be
       0.32189673 0.32106733 0.17104465 -0.12830257
000110 22 f9 aa 3e 98 11 c2 3e c2 94 55 bd d3 e3 4b bd
       0.33393198 0.37904048 -0.05214382 -0.049777817
000120 a8 72 03 bf 14 65 e8 3d 5d 2e 8f 3d c4 1f 88 3d
       -0.51346827 0.11347404 0.06991265 0.06646684
000130 9d 94 91 3e fa 00 c8 be da 04 d8 3e da 82 3c be
       0.28433695 -0.39063245 0.421912 -0.18409291
000140 2c e6 a0 be 0b 02 79 be fe ec 2a bd da b1 89 3e
       -0.31425607 -0.24317186 -0.04172992 0.26893502
000150 88 88 ce 3e 3f f6 62 3d ee 7e 32 bd 19 2c db 3e
       0.4033854 0.05541062 -0.04357808 0.4280708
000160 73 09 05 3f ea 75 22 3f d3 12 01 3f e8 eb 17 3e
       0.51967543 0.6346117 0.5041935 0.14836085
000170 34 2a 53 3c d2 45 63 3d 21 ea b7 be 47 cb f2 bd
       0.01288848 0.055486508 -0.35920814 -0.11855178
000180 d0 53 c3 3e 79 1b e9 3d f5 41 69 3e f6 de 7c be
       0.3814988 0.11382193 0.22779067 -0.24694428
000190 29 88 27 be 6e 6a ab be ae 8c 3c be df e1 64 be
       -0.16360535 -0.33479637 -0.1841304 -0.22351788
0001a0 f3 a6 d9 be 06 48 2a 3e 8e ea c2 be 32 22 f8 3e
       -0.42510185 0.16629037 -0.38069576 0.4846359
0001b0 0a 5f 1d 3e 26 b6 2f 3e 87 f4 10 3f b8 20 0b 3e
       0.15368286 0.17159328 0.5662312 0.135867
0001c0 e1 e9 81 3e b7 b9 06 3f 3b 4a de bd 62 eb b6 be
       0.25373748 0.5262713 -0.10854002 -0.35726458
0001d0 56 7b 91 be 86 0e 58 3e 48 9c e0 3e cb 05 a8 3e
       -0.2841441 0.2109929 0.43869233 0.3281692
0001e0 a0 13 d6 bd 9d 77 bc 3e e7 d1 90 bc 2a 08 67 bd
       -0.10452962 0.36810008 -0.017678214 -0.05640427
0001f0 e5 00 5c 3e 66 c3 2a 3e c6 da 50 be 87 24 ad bd
       0.21484716 0.16676101 -0.20395955 -0.08454233
000200 2a c1 b5 be ee 05 b9 3e aa 64 67 be e7 0c b0 bd
       -0.35498935 0.36137336 -0.22596994 -0.08596211
000210 b1 41 36 3e d7 1a 76 be fb dc b9 be db 14 9b bd
       0.17798497 -0.24033676 -0.36301407 -0.07572337
000220 2c e1 27 be 01 b6 14 3b 62 c5 b7 be 5b 25 32 be
       -0.1639449 0.002269149 -0.3589278 -0.17397062
000230 07 10 b5 be 8b 43 6c bd 14 90 d4 bc 5c d0 d5 3d
       -0.3536379 -0.0576816 -0.025947608 0.10440132
000240 ed dd b1 bc 23 ff 41 be 59 6e 33 3e 21 f9 9f be
       -0.021712268 -0.18944983 0.17522563 -0.31244758
000250 0e aa 77 be 3b d9 4b 3e 1a 62 cb bc 58 0e 3b be
       -0.24185964 0.19907086 -0.024827052 -0.1826719
000260 a9 06 7e be e7 01 40 be 7e ea 98 bc 15 36 f0 3e
       -0.24807228 -0.18750726 -0.018666502 0.4691626
000270 a4 ca 05 be bc b2 c8 be 3e 77 bb 3e 8e 1c 59 3e
       -0.13065583 -0.39198864 0.36614412 0.21202299
000280 b5 d0 29 be cb ed a7 be 22 5b a6 be 8a 43 f3 be
       -0.16583522 -0.3279861 -0.32491404 -0.47512466
000290 04 55 c3 be 78 aa 4e be 1e a3 3c be 16 fa 00 be
       -0.381508 -0.20182216 -0.184216 -0.125954
0002a0 31 ba fd bd 59 51 b9 3d fb 33 d7 3e ca f0 62 3e
       -0.12389029 0.09048719 0.42031845 0.22162166
0002b0 2c 74 d0 3b 20 f8 46 be a4 a7 19 be 88 7d cf 3b
       0.006361505 -0.1943059 -0.15005356 0.006332103
0002c0 7a 3b bf bc 70 1d 54 3d a9 ae 72 be eb 59 44 bd
       -0.02334379 0.051785886 -0.2369944 -0.047937315
0002d0 72 0f bc be 55 42 be bd 5f 07 f4 3e b3 90 8b be
       -0.36730534 -0.092899956 0.47661874 -0.27258834
0002e0 8a ae ab be b0 01 4a 3d 98 a2 94 be 02 c7 c9 3d
       -0.335316 0.049318016 -0.290303 0.09852411
0002f0 e2 9f d7 3c 56 b1 14 3e 81 08 f3 be e7 d2 30 bd
       0.026321355 0.14520773 -0.47467425 -0.043169882
000300 d8 01 52 be 99 ca d1 bc b7 8d 9e 3e 83 4b 15 be
       -0.20508516 -0.025609301 0.30967495 -0.14579587
000310 7a 71 8f bd 2a 30 5c 3d 3b 6c 1d be 06 5e 62 be
       -0.07004066 0.05375687 -0.15373318 -0.2210618
000320 9e 43 78 bd 97 c8 84 bc 9e ec 42 be 81 76 5c 3e
       -0.06061136 -0.01620893 -0.19035575 0.2152958
000330 35 0d 5e 3e 4a 38 f0 3d d2 a6 74 be 02 8e ac be
       0.21684726 0.11729486 -0.23891762 -0.33702093
000340 eb 3c 1c 3d ba 9d 9f 3e d0 1f e6 bc 2e 2a 13 be
       0.038144033 0.31175023 -0.028091341 -0.14371559
000350 53 ac 0d bf 6d ec 00 bd 2d 17 e4 3c 02 e9 42 be
       -0.5534107 -0.031475473 0.027843082 -0.19034198
000360 2e 60 d0 be dc 31 fe be 1f 23 f2 be 98 ad 45 be
       -0.4069838 -0.49647415 -0.4729242 -0.19304502
000370 ae c4 b4 3c 12 65 87 3e 71 e0 85 3e b6 52 42 bd
       0.02206644 0.26444298 0.26147798 -0.04744216
000380 ba fa 9f be c5 f1 6d 3e f1 3f c2 bd bf a2 f2 bd
       -0.31245977 0.23236759 -0.09484852 -0.118474476
000390 a5 73 68 bd b8 12 c9 3d 02 a2 2e 3e e7 ff 8c 3e
       -0.056750912 0.098180234 0.17053989 0.27538988
0003a0 d0 65 2d 3e 55 d8 f1 3d f6 ff ef 3e df 84 92 be
       0.1693337 0.1180884 0.4687497 -0.28616998
0003b0 b2 3d a9 3d 9e 21 b2 bc 9a 5e 73 be e8 8f 68 be
       0.082637206 -0.021744546 -0.23766556 -0.22711146
0003c0 cf 8e 03 be f7 7e 89 be 4f aa 46 bd 3b 1d 0e be
       -0.12847446 -0.2685468 -0.048502263 -0.13878338
0003d0 a4 fe 45 3e 47 23 28 3e db bd 11 bd 7e e9 24 be
       0.19335419 0.16419707 -0.03558145 -0.16104695
0003e0 e3 bd c9 3e c2 d7 41 be 32 3d a5 be f0 f4 00 3e
       0.39402685 -0.18929961 -0.3227325 0.12593436
0003f0 83 77 82 be 77 eb 00 be 1f b6 be 3e 62 fa 16 be
       -0.25481805 -0.12589823 0.37248322 -0.14743951

actor.bias f4 [3]
000000 07 6c ef 3c ae d7 d3 bc de 94 ce bb
       0.029226316 -0.02585968 -0.0063043674

critic.weight f4 [1, 128]
000000 73 1b 75 bc f4 b5 a6 3c bf ec 0b 3e 80 2d 39 3e
       -0.014960158 0.020350434 0.1366453 0.18083763
000010 d6 43 80 bd c9 64 74 3e 01 53 3a 3d 46 6c 27 3d
       -0.06262939 0.23866571 0.045489315 0.040874742
000020 97 cb 1f 3e d3 aa 9a 3e a5 b2 77 3c c6 cd 27 3e
       0.15605007 0.30208454 0.015118276 0.1638709
000030 93 89 86 3d 53 d0 2a bd f9 cf a8 bd 0e f9 f4 3c
       0.06569209 -0.04170258 -0.08242793 0.029903915
000040 43 f9 19 3e 17 96 51 3e 5d f7 8c 3e 3f a5 3d 3d
       0.15036492 0.20467411 0.27532473 0.04630017
000050 ea 6d 06 3e f2 c3 ea bd 2a 7f 25 bd 18 48 b7 3d
       0.13127866 -0.11463155 -0.040404476 0.08949298
000060 ee 56 8c 3d ae ca 06 3e 54 8b 16 3e fd e2 a7 3d
       0.06852518 0.13163254 0.14701587 0.081975915
000070 90 d6 07 3e c7 45 03 3e 2d c6 db 3d 82 49 a4 3c
       0.13265443 0.12819587 0.107311584 0.020054583
000080 f0 12 97 bd 00 bc cc bb 90 6e d1 bd 13 34 1f 3c
       -0.07376659 -0.0062479973 -0.10226166 0.009717005
000090 75 03 25 be 98 7c 40 3e 63 ff 57 bd 5a 52 fb bd
       -0.161146 0.18797529 -0.05273379 -0.12271567
0000a0 54 ad 11 3e dd 6c c2 3d 53 17 23 3d a3 80 10 3d
       0.14226276 0.0949342 0.039817166 0.035278928
0000b0 de e0 de 3d 50 7c 88 be 16 18 ac 3d 9a 8b 40 3d
       0.10882734 -0.26657343 0.084030315 0.047008134
0000c0 a7 8e 8e 3e 51 c1 11 be 71 77 f8 bc 37 fb 19 3e
       0.2784321 -0.142339 -0.030330392 0.15037237
0000d0 ec 22 ac 3d 89 1a 53 3e c3 ef 85 3d 2e 84 31 bc
       0.08405098 0.20615591 0.065398715 -0.010834737
0000e0 d0 6e 1c 3d f4 bd f3 3d bf 55 f3 bd 81 6d 8a 3d
       0.038191617 0.11901465 -0.11881589 0.067591675
0000f0 1a f2 c6 bd 07 5e 34 3d aa e6 27 bd a1 16 17 3d
       -0.09714146 0.044034984 -0.040991463 0.036886815
000100 4f aa a2 3d e4 81 ef bd c6 10 b0 3d 1c a9 6b 3e
       0.0794264 -0.116946965 0.08596949 0.23013729
000110 47 b0 d5 3d 4d e7 88 bc 6c 94 13 bb bf 80 f3 bb
       0.10434013 -0.016711855 -0.0022518886 -0.007431119
000120 8e f8 fd bd 9f c6 3b 3e 21 e1 bb 3d a4 c1 0e 3e
       -0.12400924 0.18337487 0.09173799 0.13941056
000130 66 35 9b bd 98 bb f6 3b f6 78 96 3e df dd 53 3c
       -0.07578544 0.007529687 0.2938916 0.012931316
000140 c0 39 88 3e da f0 a6 3a c4 cd 08 3d 28 b9 47 3e
       0.2660656 0.0012736574 0.03339936 0.19504225
000150 a1 9e 9e bd d9 d3 c1 3c b0 12 1d 3e 97 37 94 bc
       -0.077451 0.023660587 0.1533916 -0.018092914
000160 70 17 2d 3d 11 ee c9 bd 2b 4d e0 3d 92 b2 13 3e
       0.04225868 -0.09859861 0.109522186 0.14423588
000170 e6 8b 5e bd 08 6f 16 bd bf d1 b4 bd 3a a1 35 3e
       -0.054332636 -0.03672698 -0.088290684 0.17737284
000180 cf 26 45 3e c9 f7 fa bc 3a 45 e6 3b 85 08 d9 bd
       0.19253086 -0.030635731 0.0070272954 -0.10597328
000190 47 80 7e 3e af bd 51 3d 3f 5a 2e bb 68 c6 38 3e
       0.24853621 0.051206287 -0.0026604084 0.18044436
0001a0 95 95 aa be b4 71 46 bd aa 26 b4 bc 73 ba d2 3c
       -0.33317247 -0.04844828 -0.021991093 0.025723672
0001b0 02 71 5c 3d 4a 8c 3d bd e8 82 65 bd 4f 84 bb 3d
       0.05381871 -0.04627637 -0.056033045 0.09156095
0001c0 d5 d2 38 3e 4e 9f 09 bd 1d 72 b6 3d ff 61 b4 bd
       0.18049176 -0.03359919 0.08908484 -0.08807754
0001d0 88 aa 92 bd 8c db 7a b9 c0 91 2c 3c 1e 5d 6c bd
       -0.071614325 -0.00023923645 0.010532796 -0.05770599
0001e0 50 61 57 3e fc 53 db 3c 71 49 15 be 1a cb 48 bc
       0.21033216 0.026773445 -0.14578797 -0.012255454
0001f0 e4 ae b9 bd da 3e ba bb 43 61 ab 3d af 8f fd 3d
       -0.09066561 -0.005683762 0.083681606 0.12380921
