W__RNN/W_RNN/md1/model_WV_1000.pt (torch, 80523 bytes, 8 tensors)

h0 f4 [128]
0.5309802 0.38377208 1.0018263 0.019021899 0.21458325 1.3273385 -0.8511865 -0.5167925
-0.84210443 -1.6689545 1.3232521 -0.48410323 -0.58368456 1.07535 1.4282454 1.7152227
1.0883621 -0.110449575 -1.7858064 1.0027713 1.3060383 0.8455875 1.4370024 -0.2528133
-0.18136658 0.45561466 -0.8866586 -0.057780024 -0.86844355 2.3375812 -2.2621546 1.3917876
-0.5256572 0.7200703 -0.90056866 -0.32026294 -0.40524018 0.42600742 -0.5400973 -0.27823398
-0.29444233 0.25452042 0.32233727 0.78551745 0.17211515 -1.6986736 0.22227404 0.2660466
-0.30161467 -0.6834262 1.0431671 1.2679545 1.8011847 -0.7152076 -0.8999792 -0.12596722
0.48560074 -0.6899837 -0.94072413 -0.5251272 -0.7404889 -0.71687734 0.17269942 -0.11901821
-0.9250978 0.41976306 0.18530641 0.714741 -2.1427398 -0.38118857 -0.39406267 -0.13528365
-2.524218 -0.14324923 -0.83256257 1.0772145 0.1648394 -0.48168814 0.09517956 0.26057035
1.0096507 -1.4337542 1.1532596 -0.18768543 -0.0822704 -0.3137749 2.2973511 -1.3130846
-0.36646447 1.4040475 0.9646089 0.9976776 -0.06361812 -0.388047 0.37518984 -0.19066934
-0.2537642 0.11181989 0.23237962 0.32660466 1.25628 1.2510386 0.052301724 0.0031495849
-1.5007392 0.81857294 0.43451995 0.29764712 1.1611024 -0.20765099 -0.32107148 0.57845545
-1.3972205 -0.91497386 0.86163074 0.7004643 -0.90907985 1.4895178 0.7482705 -1.4994618
-0.8055101 0.12374645 0.3468869 0.10929343 -0.7301893 0.81753254 0.18123385 -0.995199
00000000: 52ee 073f c67d c43e d83b 803f d0d3 9b3c
00000010: b6bb 5b3e 3ae6 a93f 5ce7 59bf 834c 04bf
00000020: 2894 57bf 4da0 d5bf 5360 a93f 61dc f7be
00000030: 5a6c 15bf 12a5 893f bfd0 b63f 6b8c db3f
00000040: 734f 8b3f 6333 e2bd 4e95 e4bf cf5a 803f
00000050: 432c a73f 6c78 583f b2ef b73f bf70 81be
00000060: 29b8 39be 5346 e93e 0ffc 62bf bfaa 6cbd
00000070: 5152 5ebf ee9a 1540 24c7 10c0 1926 b23f
00000080: 7891 06bf 8756 383f ab8b 66bf 81f9 a3be
00000090: a47b cfbe a51d da3e d143 0abf af74 8ebe
000000a0: 25c1 96be 8050 823e 6409 a53e ac17 493f
000000b0: f43e 303e 236e d9bf ce9b 633e 4337 883e
000000c0: 3d6d 9abe 05f5 2ebf 8086 853f 554c a23f
000000d0: 388d e63f d817 37bf 0965 66bf 8dfd 00be
000000e0: a9a0 f83e c6a2 30bf 4cd3 70bf bc6e 06bf
000000f0: ae90 3dbf 4685 37bf 1ed8 303e d2bf f3bd
00000100: 36d3 6cbf 2feb d63e f7c0 3d3e 44f9 363f
00000110: a622 09c0 262b c3be 95c2 c9be cc87 0abe
00000120: ca8c 21c0 edaf 12be d222 55bf 2ae2 893f
00000130: a9cb 283e d49f f6be 80ed c23d 7a69 853e
00000140: 3c3c 813f 4285 b7bf 039e 933f 9c30 40be
00000150: 627d a8bd 1ba7 a0be cd07 1340 2813 a8bf
00000160: 3ba1 bbbe d4b7 b33f 9cf0 763f cd67 7f3f
00000170: 384a 82bd 19ae c6be e218 c03e d33e 43be
00000180: 62ed 81be d401 e53d ecf4 6d3e ba38 a73e
00000190: c8cd a03f 0822 a03f 553a 563d 4469 4e3b
000001a0: 3918 c0bf ff8d 513f 6679 de3e 3465 983e
000001b0: 019f 943f 76a2 54be 7b63 a4be a815 143f
000001c0: 1fd8 b2bf ba3b 6abf d593 5c3f a151 333f
000001d0: 75b9 68bf 85a8 be3f a88e 3f3f 5dee bfbf
000001e0: e935 4ebf c76e fd3d 299b b13e 3cd5 df3d
000001f0: b0ed 3abf d049 513f 5e95 393e 5dc5 7ebf

RNN.weight_ih_l0 f4 [128, 17]
-0.06696571 -0.027125468 0.053669695 -0.043653667 0.02616273 0.077173196 0.039757498 -0.061090518
-0.08199599 -0.31367496 0.06618062 -0.10100389 0.12692492 -0.07691913 -0.035430506 0.06391285
0.043399587 -0.0074970266 -0.08270541 -0.021588894 -0.04523789 -0.03991043 -0.052425258 0.057626553
-0.02618718 0.058198515 -0.068978235 6.585061e-05 -0.081753366 0.23088416 -0.046154648 0.060146593
0.053712755 0.070695035 0.053476706 -0.013973316 -0.022700012 -0.031982966 0.047621723 0.0065273265
-0.012669465 0.059860826 0.026522469 0.009751089 -0.037291184 0.03314198 -0.058819257 -0.03326279
-0.012440171 0.021659609 -0.009521975 0.010891905 0.049057204 0.014392913 -0.07942113 0.07433555
-0.012875157 -0.033897948 0.057204425 -0.057241518 0.032381825 0.021079835 -0.1681498 0.16732545
0.027430521 0.015968412 0.010724185 -0.028121067 0.07901453 -0.02379566 -0.044417713 -0.04511198
-0.03131962 0.018252108 -0.061483867 -0.08021461 -0.047016833 -0.016140647 -0.06655045 0.025493585
-0.07020736 0.046144504 -0.038856078 0.04185614 0.04901701 -0.044070438 0.010844102 -0.049465626
-0.08289061 0.066088855 -0.07730625 0.019210516 0.046608657 -0.021783248 0.024670325 0.00090026
0.1424634 0.049656827 -0.021251218 -0.051936444 0.020571122 0.064000905 -0.20482521 -0.111712426
-0.2661549 -0.15021765 -0.09016885 -0.20614953 -0.10901691 -0.16194384 -0.11826715 -0.14514785
0.23591673 -0.028015263 0.2049462 -0.28237602 -0.09801769 0.067191765 -0.0044216397 0.004174087
0.19088227 -0.04109167 -0.23477626 -0.018119866 -0.009374685 0.18917866 -0.049194068 0.027185246
0.12808236 -0.07023318 0.090157054 -0.081701376 -0.02434649 -0.015104049 -0.12227072 -0.0019253015
0.10215961 0.24405412 0.44807696 0.6714608 -0.21466322 0.1679473 0.35521856 -0.5780745
-0.32890826 -0.18825188 -0.14462008 -0.049999807 0.055215526 -0.21521825 -0.02880174 -0.030563775
0.05058325 -0.04267853 0.074956656 0.02157495 0.055546764 0.054494902 -0.04258248 -0.045684237
0.025847647 -0.05961476 0.056687776 -0.025324898 -0.19808184 0.12715727 -0.009068983 0.07643626
-0.05767253 -0.029325198 0.09000035 -0.011003996 0.051380444 0.04320781 -0.064633295 -0.029108662
-0.003452362 0.08545606 0.028364364 -0.0023964115 0.04074374 -0.14239424 -0.066981584 -0.014928476
0.042093154 0.05291562 -0.059995726 0.075889416 -0.002957264 0.029516015 -0.035721794 0.013658912
0.05541761 0.08140862 -0.022579005 -0.06391514 0.012327015 0.05649293 -0.20508924 0.12469665
0.06308787 0.010897275 0.040356524 -0.025270669 0.078012176 0.017251931 -0.05882548 0.094532184
0.085950695 0.05529207 0.020171754 0.016544398 0.03109788 0.040232472 -0.016146671 -0.18614091
0.2393153 0.06445519 -0.040213585 -0.057669744 0.059757385 -0.076835014 -0.04448583 0.032295693
0.018109119 0.024214607 -0.07869911 0.032510642 -0.037500612 -0.05470327 -0.019627744 0.008421848
0.27678245 -0.24951337 0.057513796 -0.10165239 0.08895089 0.08383398 -0.05908683 -0.0838892
0.010574524 0.066894725 -0.086627536 0.025632016 -0.054068364 0.0146123255 -0.0060730996 -0.13747406
-0.0042050504 0.06276698 -0.050920278 -0.060008194 0.090107 -0.06673041 0.047395084 -0.057136275
00000000: 5125 89bd 3b36 debc c1d4 5b3d 30ce 32bd
00000010: 3953 d63c fb0c 9e3d c2d8 223d 0d3a 7abd
00000020: 83ed a7bd 019a a0be b489 873d 21db cebd
00000030: 9bf8 013e c787 9dbd 941f 11bd bee4 823d
00000040: c4c3 313d 9ea9 f5bb 7461 a9bd 31db b0bc
00000050: 5e4b 39bd 1e79 23bd debb 56bd d209 6c3d
00000060: 7f86 d6bc 9161 6e3d 7644 8dbd 4719 8a38
00000070: 4f6e a7bd e66c 6c3e a80c 3dbd 465c 763d
00000080: e801 5c3d 8fc8 903d 640a 5b3d 56f0 64bc
00000090: 60f5 b9bc 9200 03bd ff0e 433d 2fe3 d53b
000000a0: 9693 4fbc a030 753d a645 d93c 08c3 1f3c
000000b0: a4be 18bd e3bf 073d 76ec 70bd 903e 08bd
000000c0: dcd1 4bbc 7e6f b13c 0f02 1cbc f673 323c
000000d0: 35f0 483d 41d0 6b3c 8ca7 a2bd 3d3d 983d
000000e0: 53f2 52bc 93d8 0abd 304f 6a3d 1576 6abd
000000f0: cea2 043d 9eaf ac3c 762f 2cbe 5d57 2b3e
00000100: f9b5 e03c 30d0 823c 7eb4 2f3c 275e e6bc
00000110: 5fd2 a13d 1eef c2bc 59ef 35bd 57c7 38bd
00000120: 0049 00bd 7285 953c 82d6 7bbd 8f47 a4bd
00000130: b994 40bd 6439 84bc 9a4b 88bd ecd7 d03c
00000140: e0c8 8fbd 0502 3d3d 8d27 1fbd 5871 2b3d
00000150: 0fc6 483d 3483 34bd 76ab 313c 789c 4abd
00000160: 8dc2 a9bd 9859 873d bd52 9ebd 5f5f 9d3c
00000170: b8e8 3e3d c872 b2bc 6c19 ca3c 6dff 6b3a
00000180: ede1 113e f564 4b3d 0917 aebc 4fbb 54bd
00000190: c584 a83c e812 833d b3bd 51be 7cc9 e4bd
000001a0: 7445 88be a8d2 19be 72aa b8bd dd18 53be
000001b0: 4244 dfbd 9bd4 25be 0c36 f2bd a3a1 14be
000001c0: 2894 713e 4480 e5bc 6bdd 513e 9793 90be
000001d0: 80bd c8bd d69b 893d 67e3 90bb c8c6 883b
000001e0: a476 433e bd4f 28bd 3069 70be 1d70 94bc
000001f0: 4798 19bc 0db8 413e b87f 49bd 98b3 de3c
00000200: 0628 033e 6ad6 8fbd 43a4 b83d 0d53 a7bd
00000210: 4a72 c7bc f976 77bc 1269 fabd 665a fcba
00000220: 0f39 d13d 53e9 793e 586a e53e dbe4 2b3f
00000230: add0 5bbe 61fa 2b3e 35df b53e b1fc 13bf
00000240: aa66 a8be 1ac5 40be 4917 14be 99cc 4cbd
00000250: ad29 623d 2c62 5cbe a0f1 ebbc e260 fabc
00000260: 6230 4f3d afcf 2ebd e082 993d f3bd b03c
00000270: 0185 633d 0c36 5f3d f76a 2ebd 651f 3bbd
00000280: 72be d33c 9b2e 74bd 7131 683d 2976 cfbc
00000290: f7d5 4abe 8435 023e 1296 14bc 9d8a 9c3d
000002a0: 083a 6cbd 663b f0bc 1a52 b83d 1b4a 34bc
000002b0: 4d74 523d acfa 303d 765e 84bd 4a75 eebc
000002c0: 0641 62bb 9603 af3d 625c e83c 1d0d 1dbb
000002d0: e8e2 263d cccf 11be a42d 89bd 9196 74bc
000002e0: df69 2c3d 0dbe 583d 14be 75bd e96b 9b3d
000002f0: a8ce 41bb 92cb f13c 0451 12bd a1c9 5f3c
00000300: 93fd 623d 90b9 a63d 9bf7 b8bc f1e5 82bd
00000310: 40f7 493c 2165 673d ea02 52be f560 ff3d
00000320: 3734 813d 7c8a 323c e24c 253d 6f04 cfbc
00000330: d9c4 9f3d ec53 8d3c fdf2 70bd 179a c13d
00000340: eb06 b03d f079 623d 3c3f a53c 1e88 873c
00000350: fbc0 fe3c ceca 243d 0646 84bc b99b 3ebe
00000360: 120f 753e 1501 843d 00b7 24bd 1c37 6cbd
00000370: 29c4 743d ad5b 9dbd c636 36bd 7d48 043d
00000380: 9359 943c b65d c63c 002d a1bd e129 053d
00000390: 3e9a 19bd 8910 60bd 5dca a0bc cafb 093c
000003a0: 6eb6 8d3e 6f80 7fbe 9693 6b3d 212f d0bd
000003b0: e22b b63d 26b1 ab3d 0805 72bd 1ace abbd
000003c0: c540 2d3c 1a00 893d c769 b1bd 3cfa d13c
000003d0: ca76 5dbd 8968 6f3c da00 c7bb 00c6 0cbe
000003e0: 85ca 89bb f98b 803d c891 50bd 27cb 75bd
000003f0: 058a b83d f4a9 88bd 5921 423d ba07 6abd

RNN.weight_hh_l0 f4 [128, 128]
-0.050552145 0.004627887 0.008797657 0.04293815 0.011107866 0.0794586 0.059854414 -0.070173204
-0.06874596 -0.009573528 -0.04098789 -0.08845089 -0.042499796 -0.04310139 0.075899795 -0.039626867
-0.0045398995 -0.03257938 -0.051285855 0.060560975 0.07159008 0.075024895 0.08056208 -0.021507055
0.055680137 0.0062278593 -0.047759347 -0.06995866 -0.04972676 -0.068691045 0.06926517 -0.07591961
0.037284426 -0.058927875 0.056205325 -0.019654322 0.01494039 -0.0712165 -0.023209961 0.0567267
0.062800854 0.046634577 0.053293735 -0.04768602 0.0443168 -0.0699238 -0.05957606 -0.008436282
-0.028356226 -0.065958686 0.039952837 0.051241186 -0.0505892 0.048580308 -0.0009233482 0.046725176
0.055602755 -0.05851859 0.027014138 0.04142474 -0.021365609 -0.052537072 0.054616693 0.010067574
0.015134005 0.055494286 0.04712828 -0.06568474 -0.023298394 -0.00728211 -0.07700049 -0.046737246
-0.045368593 0.066139564 0.02104412 -0.06559946 -0.037097067 0.034610584 -0.043325376 0.018884907
0.044207245 -0.0031033452 0.037996124 -0.0823645 -0.026481025 -0.05186733 -0.031136665 -0.008199815
-0.013120868 0.027430426 0.06300093 -0.072711125 -0.073739916 0.021827543 0.0796101 -0.072192594
-0.018527238 -0.0391997 0.055323023 0.047859 -0.01712259 -0.0032001908 -0.012457565 -0.033139933
0.0021929548 -0.070460394 -0.008951983 0.03152787 0.014334566 0.034580033 0.044135716 -0.035643376
-0.071653366 -0.007886921 -0.00064780057 -0.04117548 -0.06013263 0.06724111 -0.017517865 0.039598744
0.024443572 0.016766649 0.015288956 0.05316474 0.04779678 0.08126476 -0.06271961 0.07212105
0.016379695 -0.06099334 0.028233733 0.07359276 -0.039668802 -0.03353503 -0.018431438 -0.0026759524
-0.10062376 0.038308695 -0.025662353 0.030152865 -0.08439572 0.08494893 -0.047747225 -0.06301558
0.056244254 0.004599329 0.05000754 -0.11580982 0.00092074147 0.07440971 -0.07377037 -0.02476301
-0.057000548 -0.018590163 -0.018030766 -0.039235357 -0.027896954 -0.024416866 -0.058425557 0.08221618
-0.015024261 -0.06089714 -0.048778854 -0.1241186 0.01787398 -0.039765134 -0.045199484 -0.022916395
-0.0404344 0.07655318 0.08203131 0.056031547 -0.08916675 0.07087653 0.074129865 -0.07650754
0.06417309 -0.0643699 -0.020260613 -0.08152973 -0.0062707476 -0.009326341 -0.08813828 0.008266452
0.06639256 0.12771857 -0.056022454 0.04986265 -0.011035187 -0.039437357 0.038358454 0.07246959
-0.05204792 0.04528751 0.06667747 -0.04082819 0.06538805 0.038976315 0.076084785 -0.035791732
0.035196126 -0.02415782 0.085092366 0.013993466 -0.015718333 0.05146603 -0.0057106735 0.028507859
-0.060940653 -0.060237307 -0.077842414 -0.045796532 0.015879646 0.06492182 0.046423744 0.0059530954
0.00523483 0.0797037 0.0014157755 -0.019353434 -0.023390122 0.031163786 -0.029075947 0.022205476
0.020068366 -0.022556743 0.08079185 -0.019283775 -0.046113953 0.037207674 0.03320605 0.0048164288
0.1478505 -0.08395127 -0.0032134508 -0.01408819 -0.06962293 0.02244818 0.018268196 -0.061503015
0.04495425 0.033116993 -0.00957281 0.07057197 -0.07996481 0.03078199 0.023620658 0.058710378
-0.06827768 -0.027432993 0.07484043 -0.06295262 0.08189511 0.00569834 0.09286967 0.073721185
00000000: c40f 4fbd 88a5 973b 0c24 103c eadf 2f3d
00000010: c4fd 353c 31bb a23d e729 753d f8b6 8fbd
00000020: afca 8cbd 49da 1cbc ebe2 27bd bd25 b5bd
00000030: 4414 2ebd 158b 30bd 5a71 9b3d c84f 22bd
00000040: 70c3 94bb f571 05bd 1e11 52bd c90e 783d
00000050: d29d 923d a7a6 993d bbfd a43d 902f b0bc
00000060: db10 643d 1213 cc3b 4e9f 43bd 7c46 8fbd
00000070: 49ae 4bbd e4ad 8cbd e6da 8d3d be7b 9bbd
00000080: 8eb7 183d 5b5e 71bd 8e37 663d 1a02 a1bc
00000090: 8ac8 743c f5d9 91bd d122 bebc 425a 683d
000000a0: bc9d 803d e603 3f3d 884a 5a3d 6b52 43bd
000000b0: 8885 353d 3634 8fbd 0706 74bd 5538 0abc
000000c0: 514b e8bc 5915 87bd 96a5 233d 47e2 513d
000000d0: 9f36 4fbd 25fc 463d d90c 72ba e662 3f3d
000000e0: b7bf 633d 30b1 6fbd c14c dd3c fdac 293d
000000f0: ee06 afbc 1d31 57bd c1b5 5f3d 77f2 243c
00000100: 9ef4 773c fa4d 633d 9509 413d b985 86bd
00000110: 46dc bebc c49e eebb 6fb2 9dbd 8e6f 3fbd
00000120: 6bd4 39bd 2e74 873d b864 ac3c 0259 86bd
00000130: 18f3 17bd d4c3 0d3d f375 31bd 85b4 9a3c
00000140: a812 353d 7e61 4bbb d3a1 1b3d b8ae a8bd
00000150: bcee d8bc d672 54bd 5212 ffbc 8458 06bc
00000160: e9f8 56bc c6b5 e03c a206 813d 92e9 94bd
00000170: f404 97bd adcf b23c 9f0a a33d b6d9 93bd
00000180: 6fc6 97bc dd8f 20bd 659a 623d cc07 443d
00000190: ad44 8cbc 4bba 51bb d11a 4cbc bdbd 07bd
000001a0: adb7 0f3b 8a4d 90bd 57ab 12bc 5e23 013d
000001b0: 87db 6a3c cba3 0d3d a7c7 343d cafe 11bd
000001c0: 00bf 92bd 2538 01bc 29d1 29ba 9fa7 28bd
000001d0: a24d 76bd b5b5 893d a081 8fbc 4b32 223d
000001e0: e33d c83c 365a 893c 887e 7a3c 45c3 593d
000001f0: 8ec6 433d 236e a63d 2473 80bd 33b4 933d
00000200: b62e 863c 27d4 79bd 6e4a e73c cdb7 963d
00000210: c17b 22bd 075c 09bd 87fd 96bc 085f 2fbb
00000220: d413 cebd 94e9 1c3d db39 d2bc 2403 f73c
00000230: aad7 acbd b4f9 ad3d 9892 43bd 500e 81bd
00000240: 6060 663d f8b5 963b b5d4 4c3d b32d edbd
00000250: ea5d 713a 1e64 983d eb14 97bd ccdb cabc
00000260: 6879 69bd 664a 98bc 42b5 93bc 41b5 20bd
00000270: 2788 e4bc e105 c8bc a34f 6fbd f560 a83d
00000280: 5128 76bc 486f 79bd 56cc 47bd e431 febd
00000290: 746c 923c c4e0 22bd 1823 39bd 2abb bbbc
000002a0: 8b9e 25bd eac7 9c3d 0800 a83d 5681 653d
000002b0: 0f9d b6bd b727 913d 66d1 973d fcaf 9cbd
000002c0: 2e6d 833d 5ed4 83bd 96f9 a5bc 0ff9 a6bd
000002d0: d87a cdbb 82cd 18bc d881 b4bd 0370 073c
000002e0: d3f8 873d a8c8 023e cd77 65bd c73c 4c3d
000002f0: eecc 34bc 1189 21bd c11d 1d3d f06a 943d
00000300: 3330 55bd 657f 393d 338e 883d 763b 27bd
00000310: 2cea 853d a1a5 1f3d 57d2 9b3d 5a9a 12bd
00000320: d029 103d 9fe6 c5bc e844 ae3d da44 653c
00000330: bcc3 80bc 0bce 523d 9a20 bbbb 5089 e93c
00000340: e89c 79bd 65bb 76bd d86b 9fbd 2595 3bbd
00000350: 0816 823c bbf5 843d d326 3e3d 2f12 c33b
00000360: f088 ab3b b23b a33d 8b91 b93a 188b 9ebc
00000370: a49c bfbc 324b ff3c ae30 eebc 42e8 b53c
00000380: 6a66 a43c ebc8 b8bc 3376 a53d 02f9 9dbc
00000390: fce1 3cbd 1367 183d 1103 083d 22d3 9d3b
000003a0: 1f66 173e a5ee abbd c298 52bb 27d2 66bc
000003b0: 7796 8ebd 3fe5 b73c 2fa7 953c 96ea 7bbd
000003c0: f321 383d afa5 073d 46d7 1cbc 0988 903d
000003d0: 97c4 a3bd 832a fc3c 1c80 c13c 4b7a 703d
000003e0: 2bd5 8bbd 28bb e0bc f045 993d 4eed 80bd
000003f0: a0b8 a73d 24b9 ba3b 7432 be3d 22fb 963d

RNN.bias_ih_l0 f4 [128]
0.015134884 0.052914817 -0.0028977063 0.004952585 0.06791898 0.06715944 -0.031160612 -0.06691588
-0.022102335 0.014817238 -0.06394418 0.015154205 0.0035508333 0.050861277 0.06872256 0.0892236
-0.031751398 -0.015136163 0.06392242 0.13306725 0.0751962 -0.08312859 -0.013187238 0.022424119
-0.037399527 -0.026281917 0.078752086 -0.0073982086 0.08248724 -0.053484462 -0.015710095 -0.07308519
-0.089738585 -0.05546304 -0.059208393 0.030020637 0.006919793 0.041758657 -0.03768803 0.020787437
-0.002168851 -0.088313654 -0.05405421 0.07193108 0.07263833 -0.0016482264 -0.03831567 -0.062088557
-0.0020544808 0.011686534 -0.028822593 0.043008007 0.013232013 -0.02631689 -0.031737562 0.09612684
0.021655912 -0.05887677 0.05757452 0.024041051 0.085348226 -0.007272461 0.059029568 -0.012482278
-0.054603077 -0.09129309 -0.052521374 -0.013429867 0.011928941 0.0652507 -0.028929897 0.05643175
0.042759124 -0.036926784 0.0808102 -0.05857661 0.0582166 0.08384311 -0.060456943 -0.021034999
0.07922082 -0.02208589 -0.021027433 -0.09749522 -0.08381912 -0.04900856 0.057602596 -0.018674504
-0.047937825 0.03472706 -0.007615593 0.054321975 -0.0646376 -0.05517135 -0.036526557 0.013594112
0.074722975 -0.08913559 -0.010541961 0.0011403465 -0.022067351 0.02667284 -0.048818953 0.020814214
-0.05524209 -0.031992104 0.05246159 0.021117646 -0.035817638 -0.11066477 -0.0570045 0.035569508
0.07023851 0.09322981 0.029080508 -0.02086668 0.040549744 -0.07344498 0.05297522 0.05174254
-0.007071489 -0.07914308 0.032539237 0.023226757 -0.021941144 0.020154702 -0.014552766 0.012649829
00000000: 4ef8 773c 35bd 583d 72e7 3dbb 4b49 a23b
00000010: 1b19 8b3d e38a 893d 8a44 ffbc 310b 89bd
00000020: f50f b5bc 00c4 723c 2bf5 82bd 5849 783c
00000030: 19b5 683b ea53 503d 6abe 8c3d ddba b63d
00000040: c10d 02bd abfd 77bc c2e9 823d c842 083e
00000050: 7700 9a3d 523f aabd 490f 58bc c9b2 b73c
00000060: 3f30 19bd 2d4d d7bc c648 a13d ac6c f2bb
00000070: 12ef a83d 8612 5bbd 75b2 80bc b0ad 95bd
00000080: ddc8 b7bd 362d 63bd 8084 72bd d7ed f53c
00000090: 6ebf e23b 200b 2b3d c45e 1abd 6a4a aa3c
000000a0: 4823 0ebb cadd b4bd f367 5dbd 9a50 933d
000000b0: 68c3 943d 4d09 d8ba e4f0 1cbd 9250 7ebd
000000c0: 78a4 06bb e078 3f3c 5c1d ecbc 2a29 303d
000000d0: 16cb 583c 8596 d7bc 3fff 01bd 26de c43d
000000e0: bd67 b13c c528 71bd 43d3 6b3d bdf1 c43c
000000f0: 0dcb ae3d d34d eebb fdc8 713d 7882 4cbc
00000100: 7aa7 5fbd dff7 babd a720 57bd f208 5cbc
00000110: 9b71 433c 29a2 853d 64fe ecbc fb24 673d
00000120: 3124 2f3d 8a40 17bd d17f a53d 07ee 6fbd
00000130: 8874 6e3d f0b5 ab3d b3a1 77bd 9751 acbc
00000140: 863e a23d 78ed b4bc b941 acbc 93ab c7bd
00000150: 5ca9 abbd 33bd 48bd b3f0 6b3d 46fb 98bc
00000160: 745a 44bd f63d 0e3d 398c f9bb b880 5e3d
00000170: b860 84bd 5afb 61bd df9c 15bd d7b9 5e3c
00000180: 5c08 993d b88c b6bd 30b8 2cbc ae77 953a
00000190: 97c6 b4bc 0081 da3c 62f6 47bd 9282 aa3c
000001a0: 8845 62bd 270a 03bd f7e1 563d eafe ac3c
000001b0: 84b5 12bd 36a4 e2bd 8d7d 69bd 55b1 113d
000001c0: 35d9 8f3d 45ef be3d 3f3a ee3c 9af0 aabc
000001d0: 7d17 263d 526a 96bd 8bfc 583d fcef 533d
000001e0: f3b7 e7bb c415 a2bd dd47 053d 0a46 be3c
000001f0: eabd b3bc 791b a53c ba6e 6ebc 3a41 4f3c

RNN.bias_hh_l0 f4 [128]
0.03748421 -0.048217647 0.047584582 0.07216761 -0.052636206 0.05672921 0.029945139 0.038956504
0.059140008 0.08108407 0.01913476 0.073063724 0.065965764 0.034215555 -0.066263914 0.0035651103
0.024420433 -0.0926226 -0.06135559 0.0118899215 0.054014668 0.029859008 -0.059798516 0.017008334
0.071539216 -0.04003958 0.0090179425 -0.07175908 0.043210663 0.06523574 0.024295157 -0.029550519
-0.055161364 0.03961675 0.012762109 0.1365835 -0.038296834 0.088789105 -0.044874877 -0.043625332
0.008130595 -0.04154607 0.03700139 0.011509916 0.07527654 0.05832826 -0.030979576 0.006202431
0.030755274 0.08606144 0.026367014 -0.06248449 -0.06155756 0.049507443 0.022673711 -0.030212538
0.038137875 0.05550338 -0.07258424 0.059623852 0.0028167316 -0.10003853 -0.032571208 0.01763418
-0.008818003 0.026228255 -0.091961056 0.0008695459 0.008945505 0.0791697 0.050609116 0.026656317
-0.09892757 0.074761346 0.009936835 0.050654978 -0.034907497 0.071890615 0.0035290301 0.016680572
-0.020467287 0.07821724 0.05217603 -0.09203376 -0.04478124 -0.055458482 -0.02017738 0.04692527
-0.011032041 -0.050495144 -0.07856645 0.092645235 0.026543185 0.02754908 0.0101480745 -0.09204961
-0.08994505 -0.039527595 0.036020916 0.012813273 0.03426948 -0.008813405 0.08570986 0.05043296
0.0075629763 -0.014162602 -0.00862827 0.07656234 -0.0018403574 -0.07980288 0.06792029 0.010795743
0.041825432 -0.041477285 -0.09150335 -0.09897895 0.040217545 0.089332044 0.00476514 0.06308567
-0.0072099594 -0.06399019 0.0819868 0.06121788 0.08256293 0.005367512 0.046226494 -0.0013072332
00000000: 0b89 193d de7f 45bd 0de8 423d 9dcc 933d
00000010: 1099 57bd e35c 683d 824f f53c db90 1f3d
00000020: cb3c 723d 680f a63d 80c0 9c3c 6fa2 953d
00000030: 0f19 873d 9c25 0c3d 60b5 87bd a0a4 693b
00000040: 5c0d c83c ebb0 bdbd 0050 7bbd f2cd 423c
00000050: 7c3e 5d3d e19a f43c 4aef 74bd 1055 8b3c
00000060: 2783 923d 8b00 24bd febf 133c 6df6 92bd
00000070: aafd 303d 519a 853d a306 c73c ee13 f2bc
00000080: e2f0 61bd 2c45 223d 2a18 513c 8cdc 0b3e
00000090: 24dd 1cbd 10d7 b53d b8ce 37bd 7ab0 32bd
000000a0: 3036 053c 362c 2abd c58e 173d 1694 3c3c
000000b0: 962a 9a3d 9de9 6e3d e1c8 fdbc c33d cb3b
000000c0: 7cf2 fb3c fb40 b03d a3ff d73c bdef 7fbd
000000d0: c823 7cbd 51c8 4a3d 38be b93c 4980 f7bc
000000e0: 7636 1c3d 8357 633d 0ca7 94bd 2438 743d
000000f0: ea98 383b 00e1 ccbd 6369 05bd 8e75 903c
00000100: 6379 10bc a3dc d63c 1456 bcbd 3df2 633a
00000110: 2b90 123c b923 a23d 814b 4f3d 595e da3c
00000120: 8a9a cabd 7a1c 993d 1bce 223c 987b 4f3d
00000130: 2afb 0ebd 633b 933d 4d47 673b b2a5 883c
00000140: 03ab a7bc 5c30 a03d 88b6 553d 327c bcbd
00000150: 896c 37bd 6f28 63bd 084b a5bc b634 403d
00000160: bcbf 34bc ffd3 4ebd 72e7 a0bd c9bc bd3d
00000170: 1871 d93c 9cae e13c 1c44 263c 8284 bcbd
00000180: 1c35 b8bd b0e7 21bd ab8a 133d c3ee 513c
00000190: 275e 0c3d 1a66 10bc a788 af3d cb92 4e3d
000001a0: d8d2 f73b 420a 68bc 965d 0dbc b7cc 9c3d
000001b0: 2638 f1ba b16f a3bd cb19 8b3d a1e0 303c
000001c0: 2551 2b3d 16e4 29bd 1c66 bbbd 7ab5 cabd
000001d0: 27bb 243d b8f3 b63d e424 9c3b 0f33 813d
000001e0: 8641 ecbb 4a0d 83bd b2e8 a73d 9abf 7a3d
000001f0: c116 a93d f4e1 af3b fe57 3d3d 7857 abba

actor.weight f4 [3, 128]
0.18120472 0.17153247 -0.18613222 0.0576236 -0.07405514 0.033034634 -0.2534583 -0.10304298
0.27631095 0.17404887 0.023825822 0.2757709 0.3894425 -0.24159122 0.09290446 0.13028783
0.3038064 0.07479496 -0.09423078 0.24328133 -0.2745272 -0.2989257 0.27213722 0.20751372
-0.24712647 0.13657217 0.30222765 -0.23588279 -0.054256093 0.027996948 -0.01212175 0.3205045
0.2891621 0.06772061 0.22860919 -0.26110026 -0.09249255 0.28951842 0.26371396 0.35443494
0.4041121 0.047628887 -0.024710149 -0.11967844 0.14247403 0.1809242 -0.0637194 -0.013142328
-0.25555137 -0.088477746 0.24661854 -0.07568159 0.209543 -0.19218636 -0.22975759 0.0747762
0.01822539 -0.19929492 -0.11965971 0.18713778 -0.1363231 0.119337305 -0.22935323 -0.014552408
0.22843947 0.1304211 0.12079669 0.13938402 -0.30842793 0.12221715 0.37603912 -0.089596786
-0.4038966 -0.3459167 0.16457115 0.08834202 -0.07045969 0.23391072 0.04034853 -0.15782504
0.06398588 -0.041553803 -0.053551808 0.12985456 -0.25566775 -0.01722883 0.39597678 -0.19717339
0.04466255 0.21743181 0.02108862 -0.06398974 0.14958903 0.073959194 -0.06789684 0.10118889
-0.10424805 0.1236914 0.103737995 -0.08584652 -0.06566707 0.026896026 0.29066804 0.19117051
0.24306607 -0.14496338 -0.21893631 0.010587856 0.31998995 0.35649005 -0.06050326 0.004855089
0.11231942 0.13447253 -0.21999273 -0.11984454 -0.0319114 -0.12701881 0.20696841 0.11358582
0.210053 -0.013847153 0.026860153 0.24129163 0.29455566 0.0529154 0.21812475 0.19071499
-0.035644643 -0.30801213 0.1908843 -0.20629379 0.015287232 0.10626949 0.064001754 -0.090261154
-0.04136143 -0.10638076 -0.055469044 -0.2789359 -0.14351176 0.25453532 0.075961895 0.30940306
-0.25259268 0.027209692 -0.049495015 -0.1690113 -0.07147661 0.03788338 -0.14380032 -0.12346137
0.028662719 -0.21633138 -0.053649344 -0.086493716 -0.04882995 0.059540574 0.11281811 -0.13238011
-0.20548926 0.09195213 -0.09863546 0.0039666113 -0.0711581 -0.099780045 -0.20505597 -0.04033994
-0.24005118 -0.02675442 0.13508882 0.13640799 0.03867265 -0.05670301 -0.13062146 0.11528879
0.2873945 0.06321894 -0.17396212 0.12051435 0.07491941 -0.17490548 0.120662406 0.059875757
0.08898966 0.18448274 -0.18506874 -0.050472975 -0.110666275 -0.2653051 0.32290706 -0.111407325
-0.23857132 -0.1792695 0.10966085 -0.24097386 0.15894574 -0.029266974 -0.007664863 0.2670957
0.122806214 0.033521965 0.17687215 -0.08838935 -0.027756047 -0.10592572 0.227421 0.20590428
-0.15393473 -0.023619276 -0.15536919 -0.05046388 0.03856451 0.14081576 -0.16724457 0.3270999
0.08690821 -0.0859556 -0.056007393 0.20635037 -0.15936455 -0.07289955 0.055305857 0.23092149
-0.055485055 -0.18785553 -0.06207955 0.0980003 0.16522907 0.032360975 -0.22285214 -0.023221226
-0.024630148 0.095012955 0.2600505 0.19239807 -0.25727558 -0.24581395 0.04702385 0.4048136
-0.43908948 0.108278535 0.23348498 -0.02181822 0.16171634 0.18969038 -0.03809099 -0.05440611
-0.16127558 0.14892726 -0.2554692 -0.04803201 -0.22036576 0.10581336 -0.16757639 -0.33652726
00000000: bb8d 393e 35a6 2f3e 7299 3ebe b906 6c3d
00000010: 39aa 97bd 534f 073d 49c5 81be 3308 d3bd
00000020: a178 8d3e de39 323e 5f2e c33c d831 8d3e
00000030: 0265 c73e b063 77be b244 be3d 2c6a 053e
00000040: 838c 9b3e 1a2e 993d 11fc c0bd be1e 793e
00000050: d48e 8cbe ca0c 99be 9255 8b3e 7a7e 543e
00000060: b90e 7dbe 93d9 0b3e 95bd 9a3e 428b 71be
00000070: a33b 5ebd db59 e53c 4e9a 46bc 2a19 a43e
00000080: 0e0d 943e 1ab1 8a3d 8718 6a3e efae 85be
00000090: bc6c bdbd c23b 943e 8405 873e 7f78 b53e
000000a0: c8e7 ce3e 8216 433d f06c cabc f819 f5bd
000000b0: b6e4 113e 3244 393e 517f 82bd eb52 57bc
000000c0: a1d7 82be d233 b5bd 9289 7c3e f3fe 9abd
000000d0: 7192 563e 80cc 44be 9345 6bbe 4424 993d
000000e0: 6a4d 953c f813 4cbe 2610 f5bd 0ca1 3f3e
000000f0: 4898 0bbe 1e67 f43d 93db 6abe 396d 6ebc
00000100: 09ec 693e 1c8d 053e 4164 f73d afba 0e3e
00000110: 44ea 9dbe fc4c fa3d 3388 c03e 857e b7bd
00000120: 89cb cebe fe1b b1be 5785 283e a9ec b43d
00000130: 2c4d 90bd 4b86 6f3e 8044 253d e39c 21be
00000140: 070b 833d 5234 2abd 2459 5bbd 98f8 043e
00000150: e2e6 82be 7a23 8dbc 78bd ca3e d2e7 49be
00000160: 14f0 363d 72a6 5e3e 0bc2 ac3c 0e0d 83bd
00000170: de2d 193e eb77 973d 800d 8bbd 1f3c cf3d
00000180: 0080 d5bd eb51 fd3d 9674 d43d 4dd0 afbd
00000190: 757c 86bd 0e55 dc3c 71d2 943e 34c2 433e
000001a0: 50e6 783e 4871 14be d730 60be b078 2d3c
000001b0: b9d5 a33e dd85 b63e 44d2 77bd 7017 9f3b
000001c0: b907 e63d 2bb3 093e c645 61be 0e71 f5bd
000001d0: 87b5 02bd 3811 02be 87ef 533e af9f e83d
000001e0: 2218 573e 2bdf 62bc d309 dc3c 2715 773e
000001f0: 00d0 963e d2bd 583d 185c 5f3e ca4a 433e
00000200: 1e00 12bd c4b3 9dbe 2d77 433e ae3e 53be
00000210: 4c77 7a3c d2a3 d93d 5a13 833d d7da b8bd
00000220: 9a6a 29bd 28de d9bd 8233 63bd b0d0 8ebe
00000230: bff4 12be 7452 823e e991 9b3d 146a 9e3e
00000240: d453 81be dce6 de3c 49bb 4abd 4c11 2dbe
00000250: 5462 92bd 9a2b 1b3d 6440 13be 51d9 fcbd
00000260: 14ce ea3c f985 5dbe 6abf 5bbd 9e23 b1bd
00000270: ea01 48bd d1e0 733d 2e0d e73d a78e 07be
00000280: c76b 52be 6651 bc3d 6301 cabd 59fa 813b
00000290: 57bb 91bd 7b59 ccbd 31fa 51be 7e3b 25bd
000002a0: facf 75be 162c dbbc b954 0a3e 89ae 0b3e
000002b0: 3667 1e3d 6a41 68bd a2c1 05be 871c ec3d
000002c0: 5f25 933e ee78 813d 2023 32be 3ad0 f63d
000002d0: 596f 993d 6c1a 33be da1d f73d 4840 753d
000002e0: 3640 b63d 0be9 3c3e a982 3dbe c0bc 4ebd
000002f0: 00a5 e2bd 12d6 87be 1354 a53e 8629 e4bd
00000300: 0a4c 74be 6c92 37be de95 e03d dac1 76be
00000310: acc2 223e 4bc1 efbc 8829 fbbb c5c0 883e
00000320: d381 fb3d 544e 093d f91d 353e 7a05 b5bd
00000330: a660 e3bc 95ef d8bd 0de1 683e 92d8 523e
00000340: 11a1 1dbe 367d c1bc 1a19 1fbe 37b3 4ebd
00000350: d2f5 1d3d 0232 103e 2942 2bbe a379 a73e
00000360: eefc b13d 7d09 b0bd 0268 65bd 834d 533e
00000370: 7630 23be 5c4c 95bd 6588 623d af76 6c3e
00000380: 4c44 63bd 335d 40be 2047 7ebd 62b4 c83d
00000390: cf31 293e f18c 043d 5a33 64be 713a bebc
000003a0: 2ac5 c9bc 2796 c23d 5725 853e 0004 453e
000003b0: a0b9 83be a7b6 7bbe 159c 403d ba43 cf3e
000003c0: 56d0 e0be 23c1 dd3d b016 6f3e 20bc b2bc
000003d0: f898 253e 323e 423e 4c05 1cbd f1d8 5ebd
000003e0: 6d25 25be 6380 183e dccc 82be 37bd 44bd
000003f0: 90a7 61be adb4 d83d 2599 2bbe 4d4d acbe

actor.bias f4 [3]
0.012063672 -0.019454274 -0.009083302
00000000: b5a6 453c 925e 9fbc 21d2 14bc

critic.weight f4 [1, 128]
0.26832947 0.03993691 -0.013635868 -0.09187149 -0.14441527 -0.025752632 0.1369601 -0.10482933
0.23793012 -0.07254702 -0.0364514 -0.0071794963 0.21947904 -0.17549747 0.120990045 -0.17446412
0.062057044 0.26283795 -0.06378593 -0.07481891 0.14659545 -0.028862452 0.094910935 0.15539134
0.24078028 -0.062333938 -0.082827464 0.10641527 -0.07055803 -0.081499584 0.047776554 0.10752519
0.38984486 -0.10626637 0.48131555 0.046622757 0.0048744217 0.018400993 -0.13034737 0.121413685
0.09710757 -0.06706361 -0.0010513475 -0.014102544 -0.1872937 -0.050215665 0.015930686 -0.06439209
0.021561667 -0.14853257 -0.05501582 -0.40678993 -0.115708254 0.036175676 -0.18770167 0.01856582
0.003252202 0.13779154 -0.17591755 0.018679908 -0.1224852 -0.08378388 0.22334065 -0.06784892
0.047876284 0.060621977 0.2600496 0.0017619296 -2.2297034e-05 -0.13134372 0.14030829 -0.04139271
0.056735814 -0.07163178 -0.06486314 -0.011264201 -0.030630322 -0.11386129 0.04157331 0.02304411
-0.07192763 -0.15706831 0.13712224 -0.041352294 -0.07192145 -0.18064792 -0.0030839748 -0.004833759
0.094464704 0.14901507 -0.5960541 -0.08801373 0.046632953 -0.23062228 0.10577197 0.0031908082
0.13215376 0.2518904 -0.08002079 0.033467833 0.046351787 -0.03189107 0.10183301 -0.06857843
0.28542316 0.06403998 0.10903401 -0.042084582 -0.035367936 0.02816533 0.034767345 0.12773906
-0.026209423 0.11869714 0.042832486 -0.21957232 -0.10058554 0.14599086 -0.15801825 -0.017830877
-0.040986326 0.08709251 0.32435825 0.036974724 0.064684756 -0.0689344 0.04292134 0.040050715
00000000: 7b62 893e e394 233d fa68 5fbc 1f27 bcbd
00000010: 99e1 13be 2ff7 d2bc 453f 0c3e c3b0 d6bd
00000020: f4a3 733e 8893 94bd 104e 15bd fb41 ebbb
00000030: 1dbf 603e 9cb5 33be a1c9 f73d b9a6 32be
00000040: 872f 7e3d b292 863e 33a2 82bd a83a 99bd
00000050: 1e1d 163e f370 ecbc aa60 c23d e81e 1f3e
00000060: 1b8f 763e df51 7fbd 72a1 a9bd 40f0 d93d
00000070: ba80 90bd 41e9 a6bd 59b1 433d 2b36 dc3d
00000080: bf99 c73e 2fa2 d9bd fe6e f63e 81f7 3e3d
00000090: 9db9 9f3b aebd 963c c879 05be bda7 f83d
000000a0: 55e0 c63d a558 89bd 5ecd 89ba 5b0e 67bc
000000b0: ebc9 3fbe f1ae 4dbd 1281 823c 00e0 83bd
000000c0: 18a2 b03c ec18 18be 4558 61bd c546 d0be
000000d0: 73f8 ecbd f22c 143d de34 40be 5917 983c
000000e0: e522 553b 3a19 0d3e bb23 34be 9b06 993c
000000f0: 85d9 fabd e296 abbd 69b3 643e 60f4 8abd
00000100: ec19 443d c04e 783d 3925 853e 8cf0 e63a
00000110: 840a bbb7 f87e 06be faac 0f3e 678b 29bd
00000120: d063 683d afb3 92bd f7d6 84bd 7c8d 38bc
00000130: 71ec fabc 1c30 e9bd c648 2a3d 00c7 bc3c
00000140: cb4e 93bd 84d6 20be c669 0c3e 0661 29bd
00000150: 8e4b 93bd c5fb 38be 831c 4abb 8264 9ebb
00000160: b676 c13d 6897 183e 0097 18bf 8b40 b4bd
00000170: 3202 3f3d 3f28 6cbe f99e d83d e11c 513b
00000180: 5153 073e c7f7 803e f1e1 a3bd 9115 093d
00000190: 5fdb 3d3d 36a0 02bd d38d d03d d972 8cbd
000001a0: fc22 923e 6527 833d 394d df3d e260 2cbd
000001b0: f8dd 10bd faba e63c 3468 0e3d 07ce 023e
000001c0: 25b5 d6bc 7c17 f33d 1e71 2f3d 91d7 60be
000001d0: cbff cdbd a17e 153e 89cf 21be 0f12 92bc
000001e0: 47e1 27bd 8f5d b23d 4912 a63e cf72 173d
000001f0: 7179 843d 7b2d 8dbd 49ce 2f3d 380c 243d
