W__RNN/W_RNN/md2/v_8/train_iter_3500.pt (torch, 80523 bytes, 8 tensors)

h0 f4 [128]
000000 c9 1d 13 3f 52 19 a3 3f 3a 7f c8 bf 1f 0c b4 3e
       0.57467324 1.2742102 -1.5663826 0.35165498
000010 e2 46 80 3f 35 bf 60 bf 04 fb d3 bb df 58 41 bf
       1.0021632 -0.8779176 -0.0064691324 -0.7552623
000020 1b ca fa 3e e1 2d 2a be 8f 57 50 3e 5c b5 3f bf
       0.4898232 -0.16619064 0.20345901 -0.7488611
000030 0d 90 da bd 1d 37 62 be 44 ad 57 3e 80 eb 9b bf
       -0.10672007 -0.22091337 0.2106219 -1.2181244
000040 a3 32 4f 3f b8 40 c1 bf 6d f7 03 be a9 88 bc 3f
       0.8093664 -1.5097876 -0.12887354 1.4729205
000050 48 b4 d3 bd 8e 9d 86 3f 0f e5 c3 be dc af 8a bf
       -0.1033712 1.0516832 -0.38260695 -1.0834918
000060 d8 8f 86 bf 3e 08 81 bf a7 28 86 3f cf bd d5 bf
       -1.0512648 -1.008064 1.0481156 -1.669855
000070 a6 d1 8b 3f 6b 14 38 3d 69 20 71 bf 32 a5 02 bd
       1.0923355 0.044941347 -0.9419008 -0.031895824
000080 3c 31 ca be 29 85 38 bf 68 2c 8c bf 40 ee 0e 3f
       -0.39490688 -0.72078186 -1.0951052 0.5583229
000090 40 ee cc bf 43 55 10 bd 0e 75 9d 3f 71 14 30 3f
       -1.6010208 -0.035237562 1.2301347 0.6878119
0000a0 a3 c4 18 3f 86 6c ad 3f fc 5f bf 3e a1 96 a1 3e
       0.59675044 1.3548744 0.37377918 0.31560233
0000b0 0c 2b 9f 3d dc 8d 8c 3e a5 39 c0 3f fc 5f 95 bf
       0.077718824 0.2745198 1.5017592 -1.1669917
0000c0 3f e4 6e 3f 67 54 b8 3f d0 41 83 3e a2 8d bb be
       0.93317026 1.4400758 0.25636148 -0.36631495
0000d0 70 0e bf be 06 f1 a0 3d 97 c6 d0 3f eb 54 99 bf
       -0.37315702 0.078584716 1.6310605 -1.197904
0000e0 bb a6 ad 3e 6a 0a 16 3f 06 4d 04 bd fa 0b 83 3e
       0.33916268 0.5860964 -0.032300018 0.25595075
0000f0 8a 21 0c 3f 7a f0 45 bf 9f 51 14 c0 9e 31 3c c0
       0.54738677 -0.77320063 -2.3174818 -2.9405284
000100 54 86 02 3f 84 42 1d bf 75 5a d7 be cb f4 68 3f
       0.5098622 -0.6142962 -0.420612 0.90998524
000110 db 93 31 bf 2a d6 88 bf 11 b1 2e bf e1 72 51 3f
       -0.69366235 -1.0690358 -0.6823893 0.81815916
000120 7c 76 dc 3e 0d 10 90 bd 25 11 26 40 1e 5e fd 3f
       0.43059146 -0.070343114 2.5947964 1.9794347
000130 54 a2 d0 be bf 4c 11 be 3c dc d0 3f 89 3c 4b 3f
       -0.40748847 -0.14189433 1.631721 0.79389244
000140 b3 3f 72 bf f0 7a 2b bf 41 47 a2 bf e6 40 d3 3f
       -0.9462845 -0.6698446 -1.2677995 1.650418
000150 ae 88 1b 3f 37 b8 a0 bf 8f d0 45 3e c3 d0 93 bf
       0.6075543 -1.2556218 0.1931784 -1.1548084
000160 d1 f0 21 c0 b8 63 ae 3d 96 39 2b bf fe 92 92 bf
       -2.5303233 0.085151136 -0.66884744 -1.1451108
000170 b6 8b bc 3f c2 a6 8e bf 60 9a 3d bf 24 c1 45 3f
       1.4730136 -1.114464 -0.7406368 0.77247834
000180 b2 60 e8 be 22 c3 3f 3e e6 9e 10 bf dd b6 8c 3f
       -0.45386273 0.18726781 -0.5649246 1.0993305
000190 d9 eb cd 3f 2a ea f9 3e 64 a6 9c 3e eb 28 b6 bf
       1.60876 0.48811466 0.30595696 -1.4231237
0001a0 79 f9 95 3e f1 e9 85 bf c5 2b 2c 3f 87 f4 da 3f
       0.29291895 -1.0462018 0.67254287 1.7105874
0001b0 1f 9a 07 3e a9 36 be 3e 7b 80 0b bf 16 03 dc 3e
       0.13242386 0.37151077 -0.5449292 0.42971104
0001c0 17 9a d5 bf 1f 52 f0 bd 57 71 62 be e9 eb a4 3f
       -1.668765 -0.11734413 -0.22113548 1.2884494
0001d0 0b 33 80 3e bc b7 96 bf d8 cf 0e bf 70 db 89 3e
       0.25038943 -1.1774821 -0.55785894 0.2692523
0001e0 83 e0 3b 3e f3 a5 03 3f 46 40 26 c0 ec 39 d4 3d
       0.18347363 0.51425093 -2.597673 0.1036261
0001f0 51 7b d3 be e4 0d e5 3f 8d dc 95 bf 69 25 1e 3f
       -0.4130502 1.7894864 -1.1707932 0.61775833

RNN.weight_ih_l0 f4 [128, 17]
000000 56 3e 8d bd ef 6b 2e be d0 b7 04 bd 8c 3a 7a bb
       -0.06896655 -0.17033361 -0.03240186 -0.003818187
000010 7f 5a f5 bd 7f 78 a6 bd 3a 29 86 bd 8f 3d d5 bd
       -0.119801514 -0.081284516 -0.06550832 -0.10412132
000020 3c 51 31 be d4 64 34 be 2a a1 38 3e 93 02 ad 3d
       -0.17316145 -0.17616588 0.18030229 0.084477566
000030 3c d7 dd 3d 68 57 33 3d 1f d2 49 3d 76 e5 6a be
       0.10832068 0.04378453 0.049272653 -0.22939095
000040 ae 93 88 3d 6a d4 41 3c 3d 69 f4 bd 22 4a aa bd
       0.06668793 0.011830429 -0.11934135 -0.08314921
000050 ff 39 3d be 3c cc 50 3d 4a bd 02 be 3a 40 ff 3c
       -0.18479155 0.050976023 -0.1276752 0.031158555
000060 d2 11 3a 3e 76 84 78 3e a5 ed 49 3d 75 3c ad 3a
       0.1817086 0.2426928 0.0492989 0.001321687
000070 b4 df 37 be 50 63 60 3e c6 9a 31 bd d8 b5 19 3d
       -0.1795643 0.21912885 -0.043360494 0.037526935
000080 79 8c ba 3d b2 a3 8e bc 2a 8a d3 3d a5 c8 75 be
       0.09108824 -0.01741204 0.10329087 -0.24002321
000090 5a 35 e9 bd 69 a0 5e be 86 51 1e be cd 8a 81 be
       -0.11387129 -0.21740879 -0.15460786 -0.2530121
0000a0 e4 a6 2d 3e 54 82 35 3e 21 d3 2d 3e a3 40 8b 3e
       0.16958195 0.17725497 0.1697507 0.2719775
0000b0 2c 75 d2 bd 32 12 3a be f1 c6 11 bc e9 5b bc bd
       -0.10276255 -0.18171003 -0.008897529 -0.09197218
0000c0 13 c8 4a 3d fe d3 81 3d 07 c2 24 be 55 86 bb bb
       0.049507212 0.063392624 -0.1608964 -0.0057228007
0000d0 1f 47 74 3d 50 e7 a3 3c 43 ea 21 3e 2f eb f6 bd
       0.05963814 0.02000776 0.1581202 -0.120565765
0000e0 4a b1 e4 bc 57 78 85 bd db 0a c6 bb 4e 15 4b 3d
       -0.02791657 -0.06517094 -0.0060437745 0.049580865
0000f0 d5 b4 23 bd fa d7 eb bd bc d6 9c be 04 ae cc 3d
       -0.039967377 -0.11515804 -0.3063258 0.09994128
000100 07 0d a7 bd 49 09 9b bb 1e 00 c9 3d d2 f6 a4 bd
       -0.08156782 -0.0047313315 0.098144755 -0.0805489
000110 c2 ea 2b be b4 ae 83 3c 83 7c ed 3d 22 56 e6 3e
       -0.16788772 0.016074516 0.11596014 0.4498759
000120 64 2b e1 bb fd f2 17 bd 0c ea 73 3d 27 ed 82 bd
       -0.0068716276 -0.037096966 0.059549376 -0.063928895
000130 e4 22 dc 3b 49 63 ff 3b ff 88 7a 3e d6 74 29 3d
       0.0067180265 0.007793818 0.24466322 0.04137119
000140 bc 37 d3 bc fd 38 08 3c 87 48 fd 3d 63 a5 2b be
       -0.025783412 0.008314368 0.12367349 -0.16762309
000150 30 c0 0c be 29 39 bf 3d 40 7d 92 3d 48 c7 0b 3e
       -0.13745189 0.09337074 0.07152796 0.13650239
000160 be 50 50 3e 96 46 c9 3d c0 20 49 3e 80 89 1e be
       0.203433 0.09827916 0.196414 -0.1548214
000170 50 f8 06 bd d7 e3 04 bd 61 a7 16 bd 0b 74 c3 bd
       -0.032951653 -0.032443848 -0.03678072 -0.09543618
000180 9a 1d 35 be c1 d0 5f 3e 2a 9b 83 bd 5b 96 5a 3d
       -0.17687073 0.21856977 -0.064260796 0.053366046
000190 33 b7 01 bd a9 46 17 bd 8c d9 c8 bd 7a 3d db bd
       -0.031668853 -0.03693262 -0.09807119 -0.10705085
0001a0 0f d7 3c bd 22 39 55 bd 42 f9 ec bc cb 60 f3 bd
       -0.046103533 -0.05205644 -0.02892745 -0.11883696
0001b0 6e 2f 48 3e 87 4a 98 3e f0 ed a8 3e 1d 0f 6d 3e
       0.19549343 0.2974436 0.32994032 0.23150297
0001c0 25 5e 83 3d 4e 5e f3 bc e5 d5 05 3e f1 3c ae 3c
       0.06414441 -0.029708054 0.13069876 0.021269294
0001d0 ff 78 8d 3d 5e 04 4b 3d 9d f7 a1 3c 9b 43 56 be
       0.06907844 0.04956471 0.019771392 -0.20924227
0001e0 02 df 4c bd bc 0b 34 be e9 3b 4d be 4b 21 2f 3c
       -0.050017364 -0.17582601 -0.20042385 0.01068909
0001f0 fe 6f be 3b f0 a9 13 3e 62 b6 7c bd 10 81 71 bb
       0.0058116904 0.14420295 -0.06169737 -0.003685061
000200 ec fa 66 bd 02 2c 98 3d 1a 24 40 3e d0 69 29 be
       -0.05639164 0.07430269 0.18763772 -0.1654427
000210 2a 89 f8 bd 0c 49 00 3d 1c 30 be bd 3a c1 58 3e
       -0.12135537 0.031319663 -0.0928652 0.2116746
000220 f1 4f 6a bc ae b4 c3 3c 34 52 a5 bc ae d0 b7 bd
       -0.014301286 0.023889866 -0.020180799 -0.08975349
000230 bf 88 cd 3b 26 d8 e6 3c 2a 1f 8d 3a 07 e5 f0 3d
       0.006272405 0.02817924 0.0010766734 0.117624335
000240 ff 54 a4 bc 7b c2 4e 3c 0e 1f 6b 3d 7c 75 d1 3d
       -0.02006006 0.01261961 0.057402663 0.102274865
000250 88 ef 7b 3e 15 e1 e0 bd 95 ac ca 3c 1a 30 18 3b
       0.24603093 -0.10980431 0.024740497 0.002322203
000260 12 42 94 3d df 2d bc 3c ae f8 fc bc 0c 5d 96 bd
       0.072391644 0.022971092 -0.030880298 -0.07341966
000270 f0 30 5a bd 1c 68 c4 3c c6 c0 30 3d ae 98 22 bd
       -0.053269327 0.023975424 0.043152593 -0.039696388
000280 f6 e2 50 bd 77 2e 4e 3d 2a 00 4c bd a4 e7 ad 3d
       -0.050997697 0.05033728 -0.049804844 0.084914476
000290 50 d6 8b 3b 56 ae 83 bd 12 28 a1 bd 5a 8a 49 bc
       0.0042674914 -0.06429736 -0.07868971 -0.012301052
0002a0 74 17 26 bd 80 ec 4e 3c fe 70 80 be 59 28 a2 3e
       -0.04054971 0.012629628 -0.25086206 0.31671408
0002b0 48 b1 e8 3e 08 98 16 3f 25 17 8f 3d 1c 74 90 3e
       0.45447755 0.5882573 0.06986836 0.28213584
0002c0 bc d8 f1 3e bf 86 63 be 04 85 9e be c0 38 19 bd
       0.47235668 -0.2221937 -0.30960858 -0.037407637
0002d0 87 ab c5 be ee d1 9c bd 5b 46 40 3e 80 fd e7 bc
       -0.38607427 -0.076572284 0.18776838 -0.02831912
0002e0 c7 3b d7 3d aa e5 8a 3d 52 c2 2d be 7f a8 81 be
       0.105094485 0.06782086 -0.16968659 -0.25323865
0002f0 2d 20 36 be e9 22 8a bd 0e 10 30 bd 0e bd 3d be
       -0.17785712 -0.0674494 -0.04298406 -0.1852915
000300 96 62 dd bd d8 2d d0 bd c9 3c 3b be da 62 36 be
       -0.108098194 -0.10164994 -0.18284906 -0.17811146
000310 ef 7b f7 bd 13 39 71 bd c0 ec de 3d 74 6c 47 3e
       -0.12084185 -0.05889232 0.10885 0.19474965
000320 80 6a 05 be 52 08 4b bd 53 a8 a1 bd 69 65 1b 3e
       -0.13028908 -0.04956848 -0.078934334 0.15175404
000330 83 88 9a 3d f2 c6 3f 3e c2 11 8f 3e f9 90 1d 3f
       0.07545569 0.18728235 0.27943236 0.61549336
000340 33 10 08 be b8 e9 3e 3e 70 b1 35 3d bb 46 51 be
       -0.1328743 0.18643844 0.04435867 -0.20437138
000350 17 1e 7d be 85 3b 6e be ce a7 15 be 88 84 d8 3d
       -0.2471851 -0.23264892 -0.14614794 0.10572153
000360 20 25 25 be b0 a1 19 be ec a0 25 3c dd 43 04 bd
       -0.16127443 -0.15003085 0.010109168 -0.032291282
000370 23 47 97 3e a4 02 ce 3d 99 32 2d bd 0d 79 79 be
       0.2954646 0.100590974 -0.04228458 -0.24362583
000380 3a aa 88 be 80 c8 5d 3c 6e f7 87 3d de b3 4b 3e
       -0.26692373 0.013536572 0.0663899 0.19892833
000390 c1 cf 35 3d 4a b4 e7 3d 34 4c 77 3d 29 1a 97 bd
       0.044387583 0.11313684 0.060375407 -0.073780365
0003a0 9a 05 97 3e a3 8a 03 bf 66 35 28 3d 54 2f 6f bd
       0.2949646 -0.5138342 0.04106655 -0.058394745
0003b0 a5 06 38 bc 3a 1c 37 3e 88 ab 4f 3d 13 7f 2b 3d
       -0.011232053 0.17881861 0.050700694 0.041869234
0003c0 83 7e 68 3e 92 8f e9 3e e0 1d 9b bd e7 9b e5 bc
       0.2270451 0.45617348 -0.075740576 -0.028028442
0003d0 c1 f6 a9 3d 3d c2 35 3e 23 ac b9 3d e7 fc 98 3d
       0.08299018 0.17749877 0.090660356 0.07470112
0003e0 b0 c7 27 bd fc a1 3e be 84 8b d9 bd 9b 87 af bc
       -0.04096192 -0.1861648 -0.106223136 -0.021426966
0003f0 90 46 a4 3c bf 20 50 bd fc 2a 01 be 2f f2 4f bd
       0.020053178 -0.05081248 -0.12614053 -0.050768074

RNN.weight_hh_l0 f4 [128, 128]
000000 69 de db bd 9d 21 0a bd b9 77 de 3c 61 7b 44 3b
       -0.10735781 -0.033723462 0.027156698 0.0029980766
000010 be 11 07 3e e7 49 24 bd 19 fc 3b 3c d1 12 02 3d
       0.13190362 -0.04010954 0.011473679 0.031756226
000020 b6 24 0c 3d 1a b1 1c 3c f5 c8 79 3e ca c6 8f 3c
       0.034214698 0.009563709 0.24393065 0.017550845
000030 17 10 89 bc 57 0b 5d bd 6a ab 6f 3d ba 10 d0 3d
       -0.016731305 -0.053965893 0.058513083 0.1015944
000040 94 cd 75 3d f2 15 5a 3d 33 2e 53 bd 79 ed a6 bd
       0.060010508 0.053243585 -0.05155773 -0.08150763
000050 78 e9 c5 3d 62 d8 6c bd a5 0f c2 bc 81 c4 d3 bd
       0.09663671 -0.057823546 -0.0236891 -0.103402145
000060 23 d8 c6 3d 6b 9f 88 3b a1 0e 8b bb c2 11 1d be
       0.097091936 0.0041693947 -0.0042436873 -0.15338805
000070 dc e5 24 3d a1 30 b2 3c db e5 19 3c 4a 42 c4 3d
       0.040258273 0.021751704 0.009393181 0.09582956
000080 0a 48 0b 3d 8a 42 3a 3d 84 3f 4c 3d a8 7e f0 3d
       0.03400425 0.045473613 0.04986526 0.11742908
000090 27 d1 df bd da 43 ff bb f5 90 ba 3d a9 9d 83 bd
       -0.109285645 -0.007790071 0.091096796 -0.06426556
0000a0 ea 26 59 3d 6a 43 17 3d 42 d5 b8 bd 83 07 0c bd
       0.053015627 0.036929525 -0.09025051 -0.03418685
0000b0 1d 30 d0 bd c3 3a c2 3c f8 f6 45 3d 86 62 56 bd
       -0.10165427 0.02370966 0.04833123 -0.052340053
0000c0 83 63 85 3c 93 fe b5 bc 49 89 97 bd ea a7 c8 bb
       0.016282802 -0.022216117 -0.07399232 -0.0061235325
0000d0 76 3d 01 be 8b 23 ba bd f6 7d 86 bd 7d ac c6 bd
       -0.12621102 -0.090888105 -0.06566994 -0.09700868
0000e0 68 f5 a5 bc 27 4c 1d 3d db c6 63 3d 36 9f 90 bd
       -0.02025862 0.038402703 0.055609565 -0.07061617
0000f0 a1 71 66 3c 37 54 90 3d 99 42 3f 3e e0 c0 12 3d
       0.014065177 0.07047313 0.18677749 0.03582847
000100 15 c5 9d 3d 78 72 45 3d 5c bd 61 3d bc e6 7c 3d
       0.07703606 0.04820487 0.055112228 0.061743483
000110 9a f3 8a 3d ac 93 ee 3d 44 e3 12 3a ac 86 ff 3d
       0.067847446 0.1164926 0.0005603323 0.124768585
000120 53 c1 17 3e 93 15 db bd 90 cc c3 bc 52 5c 3a be
       0.14819841 -0.10697474 -0.023901254 -0.1819928
000130 51 50 0f 3c 47 65 b9 3d ec 98 25 bd 1b d2 93 3c
       0.008747176 0.0905252 -0.04042904 0.018044522
000140 4a a7 3d bd eb b7 91 3d a9 b4 35 bd 69 a0 62 3c
       -0.046302117 0.07115158 -0.044361744 0.01383219
000150 d4 58 23 3b 9b 3d e4 bd c5 47 9d bd 81 ce 03 bd
       0.0024924772 -0.11144563 -0.076797046 -0.03217936
000160 06 82 58 3d 35 22 b8 bd ef 93 98 bd 04 4c da 3d
       0.052858375 -0.089908995 -0.07450091 0.1065903
000170 bd d8 ea 3c 4d d3 c1 3b ba fb 72 3c 4c ef 89 bd
       0.028667802 0.0059150816 0.014830524 -0.067350954
000180 ca bb 91 bc 3b 15 f9 3c df 24 1b bd 5a 86 93 bc
       -0.01778974 0.030405631 -0.03787696 -0.0180084
000190 e9 4a 04 bd 50 a5 07 bd 82 f9 62 bc bf ed 22 bd
       -0.032298002 -0.03311664 -0.013853433 -0.039777514
0001a0 d1 19 85 3c e9 43 23 3d 98 ce c5 3c 4c 20 c0 bd
       0.016247662 0.039859686 0.024146363 -0.0938116
0001b0 7a b9 57 3d 1d 94 bf bc 6e 12 69 bd a4 e3 81 bc
       0.05266712 -0.023386056 -0.05690234 -0.015855618
0001c0 ba 86 01 3d ae ca 25 3d fc 6a 2a be 44 8c af 3d
       0.031622626 0.040476494 -0.16642374 0.085716754
0001d0 9c b0 38 bd 54 44 a4 3d 12 1f c7 bd 55 9d a2 3d
       -0.045090303 0.08020845 -0.09722723 0.07940165
0001e0 7b 70 61 bd 62 e7 3b bd f6 6a 92 3d 44 49 ea bb
       -0.05503891 -0.04587496 0.071493074 -0.007149847
0001f0 88 bf d6 3d 8f 09 99 3d da 70 53 3d f9 85 1e bc
       0.104857504 0.07472526 0.051621296 -0.009675496
000200 a1 14 25 bd dc 22 eb 3b 7c 07 0c bd f6 eb 13 bd
       -0.040302876 0.0071757864 -0.034186825 -0.0361137
000210 60 3d 20 be d1 5f eb bb ab 5b 18 3d ef e0 c6 3d
       -0.15648413 -0.007183053 0.037196796 0.097108714
000220 eb 2e b3 bd e2 bf fc bc 59 b4 3c 3d 82 2d 8a 3d
       -0.08749183 -0.030853216 0.04607043 0.06746961
000230 7b b4 38 3d 99 6d a3 3d 3c b2 82 3c e1 ba 15 bd
       0.045093995 0.079798885 0.01595413 -0.036555175
000240 ca 6c 73 bd 17 46 e6 bc d1 10 92 3d 8f 9b c0 bb
       -0.05942992 -0.028109593 0.07132114 -0.005877919
000250 a3 c8 a5 3d 3d 73 c9 3b d0 92 cf 3d bb 62 d8 bd
       0.08094909 0.0061477707 0.10135424 -0.10565706
000260 87 2c 18 bd ed 6c 9e 3d 99 ed 28 bd 32 4d e5 ba
       -0.03715184 0.0773562 -0.041242216 -0.001749432
000270 74 3d 90 3c 0e ef ae 3d d0 ea c4 3c 2a 0f 66 3d
       0.017607428 0.0854169 0.024037749 0.056166805
000280 31 dd 64 bd 68 64 60 bd 88 9b 0a 3d 09 39 8e 3d
       -0.055875007 -0.054783255 0.033839732 0.06944472
000290 30 d3 2a 3d 2d bb 43 bd 7b 8b ae 3d dc f2 51 3a
       0.04170531 -0.047785927 0.085226975 0.0008008906
0002a0 ea b9 84 3c 71 a6 33 3d 04 a1 59 bb 74 1c 4d 3d
       0.016201932 0.043859903 -0.0033207545 0.050075963
0002b0 79 41 96 bd ef 6c 64 3d 55 ae bc bd 35 52 b2 bc
       -0.07336707 0.05576795 -0.09212939 -0.021767715
0002c0 39 5a 5c bc 2e 35 14 3d 7d 50 d8 bd 73 32 28 bd
       -0.013449245 0.03618353 -0.10562227 -0.041063737
0002d0 72 50 5f 3d fe 06 48 3d 51 f9 f6 3c df 66 db 3c
       0.054520078 0.048834793 0.03014818 0.026782451
0002e0 ae 47 ef 3c a3 9e 46 3d 2a f3 91 bc 24 f4 8f bd
       0.029208984 0.04849113 -0.017816145 -0.07028988
0002f0 f3 c3 e9 3d 00 a2 8a 3d 5c 7a 5b 3b 89 d7 36 3c
       0.114143275 0.0676918 0.003348968 0.011159786
000300 73 74 7b 3d 4f 58 6f bd 27 e7 09 3c 5a a9 7c bc
       0.06139035 -0.058433827 0.008416927 -0.015421236
000310 67 d4 4b 3d 47 11 b7 bc 93 ee 96 bd 83 f9 32 bd
       0.04976311 -0.022347106 -0.07369723 -0.043694984
000320 8c 63 35 bd df dd 25 3d 1f a1 07 3d 7e 7e 03 bc
       -0.04428439 0.040494796 0.03311264 -0.008025764
000330 75 1a f0 3c b0 cc 99 bd 9e 9a f0 3c d0 07 3a 3d
       0.02930949 -0.07509744 0.029370602 0.045417607
000340 a1 59 03 bd 0b 03 da bc e1 3b 48 3c eb 4a 7e 3d
       -0.0320679 -0.02661278 0.0122213075 0.062083166
000350 b4 d5 2c bd 70 4e db bc d4 be 8c bd 7f 8f 3c 3c
       -0.04219599 -0.0267708 -0.06872335 0.0115088215
000360 a8 d7 07 3d d2 69 38 bd 77 99 dc bd 31 0d c4 3d
       0.03316465 -0.045022793 -0.107714586 0.095728286
000370 63 49 2d 3d 9d d7 86 bd ba 75 f6 3c df db eb 3d
       0.042306315 -0.06584094 0.030085433 0.115165465
000380 33 8d 50 3d 2f 8c c8 bc b2 e6 50 3d 4f 7b 8e 3d
       0.050915908 -0.024480907 0.05100126 0.06957113
000390 1f 1e ce bb 7f 51 97 bd 27 39 15 3d f6 85 c5 3d
       -0.006290212 -0.07388591 0.036431458 0.09644692
0003a0 3a 77 b8 bd 2d 73 a4 3d fe e3 ed 3c a1 a5 99 3c
       -0.09007116 0.080297805 0.02903938 0.018755736
0003b0 0f bf 1b 3c 09 4b 8d bd 59 af 45 be 38 e0 8c 3d
       0.009506001 -0.068990774 -0.19305171 0.06878704
0003c0 1d 75 f0 3d 96 3e 09 bd 77 fe ae bd b9 98 a6 3d
       0.117410876 -0.033506952 -0.08544629 0.08134598
0003d0 4e 2f c8 3c 09 fb eb 3b af 40 0b 3e 43 cf 04 bd
       0.02443662 0.0072015566 0.13598894 -0.032424223
0003e0 34 46 38 bd f1 ea 84 bc f6 ce 6a 3d 84 a7 af bc
       -0.044988826 -0.01622531 0.05732628 -0.021442182
0003f0 12 d4 43 bd dc 8f e6 3c a5 76 fc 3a 5e 04 35 bd
       -0.047809668 0.02814477 0.0019261433 -0.044193618

RNN.bias_ih_l0 f4 [128]
000000 84 09 c1 bc 99 cb 52 3d c1 10 9b bc 14 a8 a6 3d
       -0.023564108 0.051463697 -0.018928887 0.08137527
000010 29 51 9b 3d 0c 48 05 bd 29 07 92 3d b1 16 48 3d
       0.075838394 -0.032539412 0.07130272 0.048849765
000020 0d ac b2 3c 71 3d c5 bd 7a f8 c5 3c 2f bc 18 3c
       0.021810556 -0.0963086 0.024166334 0.00932221
000030 81 bc 39 3d ef 41 76 bd c4 8f 4b 3c d7 e4 93 3d
       0.045345787 -0.060121473 0.012424413 0.07221382
000040 98 3b 90 bb 8e 08 b9 bc a4 92 9d bd 25 96 46 3c
       -0.0044016354 -0.022587087 -0.07693985 0.012120758
000050 d4 63 89 bd 74 48 35 bd 66 5c 8f bd 1d c8 9e 3c
       -0.06708494 -0.04425855 -0.070000455 0.01938253
000060 a2 e2 c2 ba ba 83 ff 39 be 30 90 3d 3e 04 ce bc
       -0.0014868567 0.00048735534 0.07040547 -0.025148507
000070 56 9b 83 bd fa 02 94 3d 07 e5 c8 bd 4b 8d 16 bd
       -0.06426112 0.0722713 -0.098093085 -0.03675584
000080 3c 0f e8 3d 1d 39 de 3c c9 73 40 bd f7 85 7c 3d
       0.11331031 0.027126843 -0.04698542 0.061651196
000090 9c 8e 25 3d e4 77 78 3c d0 d5 86 bc d0 ae 10 bb
       0.040419206 0.015165303 -0.016459376 -0.0022076853
0000a0 3a 96 96 bd 9a c2 6f bd 83 52 c5 3d 5e cc 29 bd
       -0.07352872 -0.058535196 0.096348785 -0.041454665
0000b0 38 22 ca 3c 80 af 69 3d d3 72 92 3d 5c 4a 87 bd
       0.02467452 0.057052135 0.07150807 -0.0660598
0000c0 af 0d c8 bd e6 7e ff bc fe 1f 73 bd 4a 25 98 3d
       -0.09768235 -0.03118844 -0.059356682 0.07428987
0000d0 5f 72 0b be 1a 08 76 3d 58 a6 33 3d 9a 56 c9 bc
       -0.13617848 0.06006632 0.04385981 -0.024577428
0000e0 89 cf 76 bd b8 c0 93 bd 9f 4c a4 3c 59 d0 5c bd
       -0.060256515 -0.072144926 0.020056067 -0.053909633
0000f0 1a c8 3a 3d b3 48 86 bc 7a d2 1b bd 4a b2 ae 3c
       0.045600988 -0.016392088 -0.038042523 0.02132525
000100 55 a4 4e bd a2 b5 13 3d 0b 00 ab 3d 26 bf 47 3c
       -0.050449688 0.03606189 0.083496176 0.012191569
000110 b9 bc 49 3d 1c ab 41 3d a6 e9 60 3d 45 ba 2f 3d
       0.049252246 0.047282323 0.054910325 0.04290225
000120 18 4e 84 3c f0 32 f2 bb bc 38 69 bc b0 fa 2d bb
       0.01615052 -0.007391326 -0.014234718 -0.0026547126
000130 91 65 b8 3d f9 b1 ed bb 83 5c b7 3d d1 df a2 bc
       0.09003747 -0.007253882 0.08953192 -0.019882115
000140 34 bc 70 bd c6 b6 0b 3c 3c 24 d7 bb 14 b7 82 3c
       -0.058773234 0.008527463 -0.006565599 0.01595644
000150 3b 50 ca bc 04 b1 82 bd e4 6a 39 3d 53 41 f0 3c
       -0.02469646 -0.06381419 0.045267954 0.029328024
000160 2c 51 5e 3d c4 3f 26 3d ed 10 9a 3c f1 cd 09 3b
       0.05427663 0.040588155 0.018806899 0.0021027292
000170 43 38 67 3d 44 9a 62 bd ae 83 a3 3d c2 9b 7d 3c
       0.05645014 -0.0553229 0.079841 0.01547903
000180 d0 28 c2 bc 05 bf 09 3c 3c 0c 86 bd 72 e7 25 3d
       -0.023701102 0.008407359 -0.06545302 0.040503927
000190 b3 13 e8 3a 9d 73 6b bd dd 81 82 bb ca 20 07 bd
       0.0017706066 -0.057483304 -0.003982766 -0.032990254
0001a0 fd 37 55 3c 03 6f b6 bc fa bd 12 bd f8 3a 48 3d
       0.013013837 -0.022269731 -0.035825707 0.048884362
0001b0 4f f7 46 bd 1f b5 90 bd ad fa a1 bd 47 20 80 3d
       -0.048575696 -0.07065796 -0.07909141 0.062561564
0001c0 b7 65 9b 3d 2c e0 62 3d 60 ff a3 bc 10 80 93 bd
       0.0758776 0.05538957 -0.020019233 -0.0720216
0001d0 b0 03 25 bd f9 29 82 3d 47 29 10 bd 2c ef 21 ba
       -0.04028672 0.06355662 -0.035195615 -0.0006177302
0001e0 48 60 bb 3c ce 42 81 bd 93 63 c3 3d 3a 97 9f 3d
       0.022873059 -0.0631157 0.09540477 0.07792516
0001f0 fb e6 43 3d 0d a0 3b 3d 33 07 52 3d 6c c4 ad bc
       0.047827702 0.045806933 0.051276397 -0.021211825

RNN.bias_hh_l0 f4 [128]
000000 59 8c 9c bd 1c 71 6e 3d 81 50 2c 3d ba 18 64 3d
       -0.07643957 0.05821334 0.042068962 0.055687644
000010 c1 ff a9 bb 5d eb c2 3d 46 4a af bc 9c dc a1 3d
       -0.005187959 0.09517548 -0.021397721 0.07903406
000020 5d 52 29 bd 30 2b 52 bd d2 bb 9c 3d da 62 80 bd
       -0.041338313 -0.051310718 0.076530114 -0.062688544
000030 16 09 02 3d ef 6d 11 bc ec be bf 3d cb f4 d0 3b
       0.031746946 -0.008876308 0.09362587 0.006376838
000040 36 59 9c bc 9e 83 66 3d 80 fe 2d bc 96 41 07 bc
       -0.019085508 0.056277864 -0.01061976 -0.008255383
000050 87 f9 a3 3d 24 ed 10 3c b1 cb ac 3d 37 7f c9 3d
       0.08006578 0.008845601 0.084372886 0.098387174
000060 e7 9d 52 bd c8 d2 37 3d 43 cf 76 3d 09 a8 99 3d
       -0.05142012 0.04487875 0.060256254 0.07502753
000070 dd c6 93 bd 02 2e 7f bc 4f 0e 87 bc b2 8f 6a 3c
       -0.072156645 -0.015574934 -0.016486315 0.014316486
000080 0f 29 ef 3c 82 16 b5 3d 0b f0 14 bd 3b c6 78 bd
       0.029194383 0.08842184 -0.036361735 -0.060735922
000090 79 67 80 3d ed 04 97 bc fc 53 25 3c 0c b6 26 3c
       0.06269736 -0.018434966 0.010090824 0.010175239
0000a0 1c 9d e9 bd 90 65 9d 3d a5 0c f2 bc 2d 74 b9 3c
       -0.11406919 0.07685387 -0.029547045 0.022638405
0000b0 2e fb 17 bd 95 b5 53 bd 6a 78 5e 3d 43 fd b9 bd
       -0.037104778 -0.051686842 0.054314055 -0.09081509
0000c0 d4 b3 22 bd ec 11 fc bc 68 f0 01 bc f4 9b e9 bb
       -0.03972228 -0.030770265 -0.0079308525 -0.0071291868
0000d0 0a 69 4f bd b5 e8 09 3d 31 9f 41 3d 77 96 68 bd
       -0.050637282 0.033669192 0.047270957 -0.05678412
0000e0 7e dc 11 bc b7 23 cb bc d7 8f cb bb e9 08 38 bd
       -0.008902667 -0.024797304 -0.0062122154 -0.044930372
0000f0 0a ba 3e 3d 9b 8a e9 3d a7 58 ab 3d e6 30 cc 3d
       0.04656414 0.1140339 0.083665185 0.09970264
000100 7d 00 db bc 88 19 52 3d 24 ac 78 3d e4 4d 4d bd
       -0.026733631 0.05129388 0.06071104 -0.05012311
000110 d5 b9 75 3d 50 df ad 3d 14 79 bc 3d a4 b5 cc 3d
       0.059991676 0.08489859 0.09202781 0.09995583
000120 82 d6 c4 3d 64 2a db bc 47 2b 67 bd 15 b4 2b bd
       0.096112266 -0.026753612 -0.056437757 -0.041919786
000130 68 02 c6 3d a8 1b 24 bc 0c 0e 0c 3d 42 d2 37 bd
       0.09668428 -0.010016359 0.034193084 -0.04487825
000140 59 3f ac 3d 5d 0b 1d bd 4d 6b f1 bc 1c 80 05 3d
       0.0841052 -0.038340915 -0.02947011 0.032592878
000150 af a6 f0 3c 6e fd 34 3c f9 88 5b bd f7 64 9a 3d
       0.029376356 0.0110467505 -0.053597424 0.07538789
000160 ac fd bb 3d d4 2e 83 3d 4e b7 9a bd cc 03 57 bd
       0.091792434 0.06405416 -0.07554494 -0.052493855
000170 9f 8e 63 3c 9b 92 c1 3b 45 04 c4 3d bf 99 a8 bd
       0.013888984 0.0059073693 0.09571127 -0.0823245
000180 db 43 cb 3c 54 83 0f bd 41 42 22 bd fd 9e 92 bd
       0.02481263 -0.035037354 -0.039613966 -0.07159231
000190 2a f3 64 b9 d6 7d b0 bd d6 fb 9c 3b e1 a5 b0 bd
       -0.0002183436 -0.08617751 0.0047907634 -0.08625389
0001a0 65 ca 62 bc 45 28 7f 3c 44 f4 03 bd 02 23 66 3c
       -0.0138422 0.015573566 -0.03221537 0.014046432
0001b0 18 a2 70 bd cd bf f2 bc 4a a9 85 bd 50 a4 83 bd
       -0.058748335 -0.029632473 -0.0652643 -0.064278245
0001c0 00 c2 c3 3d 9b 5e 1a bd fc 45 e0 3b 1f 96 8b 3d
       0.09558487 -0.03768788 0.0068442803 0.06815743
0001d0 c0 e3 8b 3d 13 21 e9 3d bd 12 f0 bc 63 a8 60 bd
       0.06830549 0.113832615 -0.02930581 -0.054848086
0001e0 02 48 d5 3c 96 11 b2 bd 34 d3 b7 bb 7e 2a a1 bd
       0.026035313 -0.086947605 -0.005609894 -0.07869433
0001f0 df 74 f3 3c aa a3 b6 3c 99 4f da bc df ce 5e 3d
       0.029718814 0.022294838 -0.026649283 0.054396506

actor.weight f4 [3, 128]
000000 e1 9f fb be 3a 2d 8d 3e 2c cf 76 3d 7a ba b5 3e
       -0.49145415 0.27573568 0.06025617 0.35493833
000010 04 c4 5a be c5 4f c8 3e 8d 84 a3 bc 39 a9 59 be
       -0.21363837 0.3912336 -0.019960666 -0.2125596
000020 ad 4c 61 3d d5 4a c2 bd 26 7a cf 3e 20 dd d0 ba
       0.055004764 -0.09486929 0.4052288 -0.0015935041
000030 71 a6 ee 3e 61 da 14 be 98 77 ee 3d a8 3e ea 3e
       0.4661136 -0.1453643 0.116439044 0.45750928
000040 09 6f 01 3f c0 13 ce 3e c5 fe 91 bc 5c 52 3e 3e
       0.5056005 0.40249443 -0.017821679 0.18586105
000050 85 4e 29 3d 8d e3 29 bc 84 8c ca 3e f4 7c 83 be
       0.041334648 -0.010369194 0.3956033 -0.2568127
000060 62 23 45 3e 38 c9 9d 3e 2d e3 75 be af 02 e9 bd
       0.19251779 0.3081758 -0.24012442 -0.11377465
000070 21 3d 8c be 76 ad 8c 3e 6e dc 40 bd 16 0b 9d be
       -0.27390388 0.2747609 -0.047085218 -0.3067252
000080 9b 31 89 be f4 c0 90 be d6 d0 5e 3e 72 6c c7 3e
       -0.26795658 -0.28272212 0.21759352 0.38949925
000090 56 e9 a6 be db 61 db 3e e8 63 2a 3e 18 48 54 be
       -0.32599896 0.42848095 0.16639674 -0.20730627
0000a0 1d 84 1f be 7f 46 4a 3c 97 43 72 3e c1 af b2 3e
       -0.15577741 0.012345909 0.23658596 0.34899715
0000b0 d6 e2 17 bc 66 e7 6e be 24 2c a3 3e f6 f2 d5 bd
       -0.0092703905 -0.23330459 0.31869614 -0.10446732
0000c0 74 ce fb bd 59 4c 9b 3d 00 b5 8c 3e 57 24 74 3e
       -0.12295237 0.075829215 0.27481842 0.23841988
0000d0 18 c1 35 3e 01 f2 38 bc b8 13 e8 3c bd 2c ad be
       0.1774944 -0.011288167 0.028329715 -0.33823195
0000e0 ae ee a3 3e f2 aa cf be 49 0e 18 be 28 00 b4 3e
       0.32018036 -0.40560108 -0.148492 0.3515637
0000f0 91 5a 73 3d 00 40 1b 3e c5 09 69 3e 28 25 f0 3e
       0.059412543 0.15161133 0.22757633 0.46903348
000100 31 81 76 bd 81 78 48 bd 7f dd d8 be 44 8c 35 bf
       -0.0601818 -0.048943046 -0.42356488 -0.70917153
000110 91 d9 90 3d 31 bd 3f be 9e bd 39 3f ae 7e 0c 3e
       0.070727475 -0.18724515 0.7255496 0.137202
000120 7f 84 fd 3e 69 d8 86 bd ad 38 d7 3e 85 ac 5c 3d
       0.4951515 -0.06584246 0.42035428 0.053875465
000130 f4 fa ba 3d e4 e3 75 3e c5 83 ab 3e db d1 38 3e
       0.09129897 0.24012715 0.3349897 0.18048804
000140 2e 42 46 be 89 73 a6 3c d6 9f cb 3e fa ea 24 3f
       -0.19361183 0.020318763 0.39770383 0.64421046
000150 ee 72 03 bd 6e 26 d2 3d 3b ea 83 3e fc 2a 58 be
       -0.032092027 0.10261236 0.2576464 -0.21110147
000160 f4 20 2f 3e 29 eb 6d 3e aa ae b3 be ee d9 6e bd
       0.17102414 0.23234238 -0.35094196 -0.058313303
000170 75 e1 95 be b5 dc 8e 3d 8c 79 7b 3e cf 9a 18 3e
       -0.29273573 0.0697569 0.24558085 0.14902805
000180 b5 ad a6 bd d0 68 09 3f 89 34 2a 3e 8e 5d 80 bd
       -0.08138601 0.53675556 0.16621603 -0.06267844
000190 52 c6 ce 3e 12 23 2d 3d 03 43 d5 3e b4 0c 36 3e
       0.4038568 0.042269774 0.41652688 0.17778283
0001a0 ed 66 d3 bd 90 12 8a 3c d9 7b 8c bd 39 86 8a bd
       -0.10322366 0.016854554 -0.068595596 -0.06763882
0001b0 cf 73 0f be f0 a9 a1 3e c0 44 42 bd c4 29 d4 3e
       -0.14009021 0.31574965 -0.047428846 0.41438115
0001c0 d6 ac a1 3e e4 5d eb be 0c bd 3a be 54 e7 b4 3d
       0.31577176 -0.4597007 -0.18236178 0.08833185
0001d0 ae 68 05 bf ce 94 86 bd be a8 b6 bd 9b 30 65 3e
       -0.52112854 -0.06571351 -0.08918904 0.22381823
0001e0 33 e3 c1 be 2a 8b 45 bd 99 ea 98 3e 27 04 24 bd
       -0.37868652 -0.04822842 0.29866484 -0.040043022
0001f0 da bc 64 be 54 4c be 3e d3 57 3e 3e f2 9d db 3e
       -0.22337666 0.3716761 0.1858819 0.4289394
000200 01 6a ca bd 46 85 df be 00 06 dd be d2 0e 60 bd
       -0.098835 -0.43656367 -0.4316864 -0.054701634
000210 d6 18 f3 bb d8 32 26 bf eb e5 80 3d 0a 85 d5 3e
       -0.007418732 -0.6492133 0.06293853 0.41703063
000220 1a f0 33 3e ee b0 03 3e 3b 5d 8b be 93 27 7e 3e
       0.1757206 0.12860462 -0.27219567 0.24819784
000230 09 2d 7c be 02 72 cc 3e ec 5b 1f 3c a5 66 de be
       -0.24626555 0.3993073 0.009726506 -0.43437687
000240 c4 ac a7 be 56 d8 bd be b9 80 16 be db 4f 34 3e
       -0.32748997 -0.37079114 -0.14697541 0.17608587
000250 4b 56 04 3e 19 42 92 3d 7e 69 c7 be e4 de b4 3e
       0.12923543 0.071415134 -0.38947672 0.35326302
000260 52 fa 6c bd a4 76 49 be 85 fe 04 3d b2 d6 b3 ba
       -0.05785591 -0.19674164 0.03246929 -0.00137206
000270 aa d7 d3 3d b9 8a 19 bc ab 3a ce bd 2c 23 e9 3e
       0.10343869 -0.009371453 -0.10069784 0.45534647
000280 6e d6 9f 3c be e9 4c 3e c2 39 fd bd 3f 68 b1 bd
       0.019511428 0.2001104 -0.12364532 -0.086624615
000290 23 13 7f 3d 7d c7 24 be 87 35 0f 3e 06 c7 0a 3e
       0.06227411 -0.16091724 0.13985263 0.13552484
0002a0 ef e3 62 be 17 a2 80 3d 50 5e 02 be 8c f4 e4 be
       -0.22157262 0.06280916 -0.1273129 -0.44717824
0002b0 b8 84 dd bd e7 f8 d6 bc 7f 6f 3d be 4e 29 ee 3d
       -0.1081633 -0.026241733 -0.18499564 0.11628972
0002c0 b5 04 72 3d d0 cd 8c 3b 73 b5 c2 bd 9f de 0c be
       0.05908652 0.0042969957 -0.09507265 -0.13756798
0002d0 5c 91 c8 be 93 40 e6 3d e5 fb 96 3d dd 49 91 3e
       -0.391734 0.11242785 0.07372264 0.28376666
0002e0 12 ca 4f be 87 3c 93 bd df c2 93 3d f8 e5 e9 be
       -0.20291927 -0.07189279 0.07214903 -0.45683265
0002f0 e0 58 04 3c f7 7a 97 bd a8 95 da be 33 5b 10 bf
       0.00807783 -0.073965006 -0.42692304 -0.5638916
000300 85 45 a8 3d 28 4c 06 3e 47 55 07 3e be 77 b6 3e
       0.08216385 0.13114989 0.13216124 0.3563823
000310 4d 8f a7 be c4 07 9a be 90 e5 a2 be 97 1c a1 3e
       -0.32726517 -0.3008405 -0.31815767 0.31467125
000320 4e e3 12 bf 33 c3 bf 3e 2b ae 8e be 8c 38 c5 bd
       -0.5737809 0.37453613 -0.27867255 -0.09629926
000330 ac 29 6e be 60 d3 13 3d b3 f8 b9 be 1b f6 47 bd
       -0.23258084 0.036090255 -0.36322555 -0.04881869
000340 8b 09 98 3e 4d b3 d7 3d 72 da 99 be 24 63 3c bf
       0.2969478 0.10532246 -0.30049473 -0.73588777
000350 da ce c5 3d ad 25 f7 be 56 ab 6f be d0 f0 ae 3e
       0.096585944 -0.48270932 -0.23405203 0.341681
000360 95 d1 35 3e 09 de 64 3e e5 99 1c 3e e2 23 65 3e
       0.1775573 0.22350325 0.15293081 0.2237697
000370 ff 2f b0 bd d0 29 93 3d 19 30 82 be 44 45 2d 3e
       -0.086029045 0.071857095 -0.2542732 0.16920954
000380 99 15 4d 3c 58 ac 9e be 52 aa 2a bd 95 b7 bc be
       0.012517356 -0.30990863 -0.041666336 -0.36858812
000390 0a 26 04 bf 66 19 4d 3d 1f 14 d6 be a3 28 3c be
       -0.51620543 0.05007305 -0.41812226 -0.18374877
0003a0 63 3e d4 be 78 d5 6d be c5 46 ed bd d7 25 f4 bc
       -0.41453847 -0.23225963 -0.11585764 -0.0298032
0003b0 7d 3a 3b bc 46 8b 09 be 60 90 8c bc 7a 71 11 bf
       -0.011427519 -0.13432035 -0.017158687 -0.56813776
0003c0 77 32 d9 bd 19 78 13 3e df f4 16 be c9 26 9b 3e
       -0.106053285 0.14401282 -0.14741848 0.30303028
0003d0 be 45 e1 3d 3f 02 5d bd 21 91 d5 bc 01 15 27 3e
       0.109996304 -0.05395722 -0.02607018 0.16316606
0003e0 73 73 82 bd a2 35 9f 3d 87 b6 23 be 74 41 73 3e
       -0.063696764 0.077739015 -0.15987597 0.23755437
0003f0 6f c6 88 bd f9 7a 32 be 02 ff b4 bd 92 59 6d be
       -0.06678473 -0.17429723 -0.088377014 -0.231787

actor.bias f4 [3]
000000 78 bb 82 3d 95 56 88 bc ae f9 a6 bd
       0.06383413 -0.016642848 -0.08153091

critic.weight f4 [1, 128]
000000 35 97 9e 3d b0 95 cc 3b 34 03 d1 3c bf e9 c9 bd
       0.07743684 0.00624343 0.025514223 -0.09859037
000010 37 fa 1a bd 9e db 25 bd 67 e4 7b bd 7c 3f b2 bd
       -0.03783628 -0.040492646 -0.06149712 -0.08703515
000020 c8 94 a4 3d 87 60 1e 3d 71 95 db 3d 55 9d 1c 3e
       0.0803619 0.038666274 0.10721863 0.15294392
000030 89 a1 39 bd 13 28 3c be 11 a4 72 bd 50 32 ca 3c
       -0.045320068 -0.18374662 -0.059238497 0.024682194
000040 d4 3e d9 3d cc 3b 08 3d ac b3 01 be 6d a0 3c bd
       0.10607687 0.03326015 -0.12666196 -0.04605143
000050 6f 6d 29 bd 27 78 29 3d f1 f5 33 bd 5c b9 fc bc
       -0.04136413 0.04137435 -0.04393572 -0.030850105
000060 5b ea 32 bd 24 6a d1 3c 4c 3e 42 3e 44 00 4d be
       -0.04368053 0.025563307 0.18969077 -0.20019633
000070 2c a0 c2 bd 5c dd 3b bd d9 27 30 3e 94 58 9e bd
       -0.095032066 -0.0458654 0.172027 -0.07731739
000080 ae 4a 01 3b 2a 04 7c 3e a3 7e 25 be 56 f3 c3 bd
       0.001972835 0.24610963 -0.1616159 -0.09567897
000090 b2 6b 72 3e d5 9e 01 be f3 36 38 3e 9c 90 2f bd
       0.23673895 -0.12658246 0.17989711 -0.04286252
0000a0 be d3 09 be 66 f2 37 bb 9a 68 30 bd ad 5f 2c 3e
       -0.1345968 -0.0028068065 -0.043068506 0.16833372
0000b0 7d 5e 02 3f fc a2 57 3e e8 c2 bd bd f2 11 9d 3d
       0.5092543 0.21058267 -0.09265691 0.076694384
0000c0 40 13 8f b8 c2 cd 93 3c 5f 87 34 3d 8c 67 c3 3d
       -6.822357e-05 0.018042449 0.044074412 0.095412344
0000d0 b6 eb 96 3a 19 a3 b5 3e d0 a4 2a bd 36 53 e6 bd
       0.0011514339 0.35475996 -0.041661084 -0.1124634
0000e0 d4 48 d2 bc c0 13 22 bd 49 31 f9 3d fb e2 2d 3e
       -0.025669493 -0.039569616 0.121676035 0.16981117
0000f0 7b cc 6d 3a fd 66 45 3b 4b 78 06 bd 06 6e 19 3d
       0.00090713025 0.00301212 -0.032829564 0.037458442
000100 41 e5 da bd da a4 5d bd 9b 5e 52 bd 3f 30 04 be
       -0.10688258 -0.054112293 -0.051359754 -0.1290903
000110 6b 8c 5b 3e 94 ee 62 3d 02 bc 23 bb 13 8f af 3e
       0.21440284 0.055403307 -0.0024983888 0.34288844
000120 dd 70 c4 3e 08 ab bb 3d d8 6a 1e 3e b1 e1 5c bd
       0.38367358 0.09163481 0.15470445 -0.053926174
000130 f5 da c4 bd 70 0d a3 3c 04 19 c2 3d 23 ca cc bd
       -0.09612075 0.019903868 0.094774276 -0.09999492
000140 ac d1 3c 3e b3 0f c1 3d 2e 61 17 be 11 6e 81 3d
       0.18439358 0.094268225 -0.14783165 0.063198216
000150 b2 22 9b bd bf 86 c0 3e 0c 31 84 bd dd 4e b1 3d
       -0.07574977 0.37602803 -0.064546674 0.0865762
000160 5b 53 c7 3c 14 75 a7 3d 11 a1 ee bc 02 b9 d6 bd
       0.02433174 0.08176628 -0.029129537 -0.10484506
000170 c0 54 15 bd 37 6c 2f 3e e4 e1 1b 3e b5 ff 8f bd
       -0.036457777 0.17131124 0.15222889 -0.07031194
000180 38 63 e9 3c 7b 4d 11 3e 76 46 54 bd d3 88 04 3e
       0.028489694 0.14189713 -0.05182501 0.1294282
000190 88 ae 8d bd 88 ff 81 3d 2f d2 22 3e a8 04 5f bd
       -0.06918055 0.06347567 0.15900491 -0.0544478
0001a0 30 27 5e 3e b5 30 89 bd 36 91 80 bd e7 65 86 3d
       0.21694636 -0.06698743 -0.06277697 0.06562405
0001b0 bd 6e 2e 3d ad 67 99 bd 8b 19 e0 bd b0 1e a6 bb
       0.042586077 -0.07490478 -0.10942372 -0.005069576
0001c0 ed 54 9e bd f3 d8 31 bd 85 2a 78 3d 81 d5 3a be
       -0.07731042 -0.04341979 0.060587425 -0.18245508
0001d0 95 05 8f bc 09 12 47 3e f0 02 80 bd 85 f5 d9 bc
       -0.017458716 0.19440474 -0.0625056 -0.02660633
0001e0 7c ef 90 bc 9f 52 2c 3e f1 cc ff 3a e5 14 92 3e
       -0.01769232 0.16828392 0.0019516033 0.28531566
0001f0 ee ea 46 bd f3 ef eb bc 7c 36 9a bd 1a 3c 1f 3d
       -0.04856389 -0.02880094 -0.07529923 0.038875677
