W__RNN/W_RNN/md/model_WV_5000.pt (torch, 307079 bytes, 9 tensors)

h0 f4 [1, 1, 128]
0	0x3f8e8cc7	1.1136712
1	0x3fe278a1	1.7693063
2	0x3e82e411	0.25564626
3	0x3f2f20a5	0.68409187
4	0x3fbfa41f	1.4971961
5	0x3b78d0ad	0.0037966177
6	0xbe65d9e3	-0.22446398
7	0xbedcf5f7	-0.43156406
8	0x3ef66593	0.4812437
9	0x3ea8f44c	0.32998884
10	0xbeb245d5	-0.34818903
11	0xbfdb1a83	-1.7117466
12	0x3ca8e03b	0.020614734
13	0x3fa0cb13	1.2561973
14	0x3f2ca6c0	0.6744194
15	0x3ec644d8	0.387244
16	0x3e88090d	0.26569405
17	0x3dda104b	0.10647639
18	0xbdd22fde	-0.10263036
19	0xbf6d9961	-0.9281216
20	0xc01df2d7	-2.4679468
21	0x3fe1969f	1.7624091
22	0x3f87d313	1.061129
23	0x3c4d40fb	0.0125277
24	0xbeaafbbe	-0.3339519
25	0xbf5509d5	-0.8321813
26	0xbf182fee	-0.59448135
27	0x3e3e6745	0.18594082
28	0x3f6a7672	0.91586983
29	0x3f888119	1.0664397
30	0x3f52ad53	0.8229572
31	0xbf9e2f42	-1.2358172
32	0xbde042f6	-0.10950272
33	0x3fa9597d	1.3230435
34	0xbfb6edb4	-1.4291291
35	0x3cb354e5	0.021891067
36	0x3f0d6b3b	0.55241746
37	0xbe4f3ecc	-0.20238799
38	0xbe830251	-0.25587705
39	0x3f8d6d6e	1.104902
40	0x3fa49eb6	1.2860935
41	0xbf0ae292	-0.5425197
42	0xbf049e22	-0.5180379
43	0x3f4a4b22	0.79020894
44	0x3e83c072	0.25732762
45	0xbf5b3c28	-0.85638666
46	0xbf90ef78	-1.132308
47	0xbf195c05	-0.59906036
48	0xbf1ef45f	-0.6209163
49	0x3ebd07df	0.36920068
50	0xbec1d84c	-0.37860334
51	0xbf20d79c	-0.62828994
52	0xbf10475f	-0.56358904
53	0xbed579ee	-0.41694587
54	0xbf1dc157	-0.6162314
55	0xbbd12748	-0.0063828565
56	0x4014f793	2.3276107
57	0x3e2e56fc	0.1702537
58	0xbf20f69d	-0.628763
59	0xbfe7a502	-1.8097231
60	0x3ed818ee	0.4220652
61	0xbe1fedd5	-0.1561807
62	0xbf6fd8d4	-0.9369023
63	0xbf555602	-0.8333436
64	0xbf8cb981	-1.0994111
65	0x3e0370a5	0.12835939
66	0x3fa576b4	1.292685
67	0xbfae9ca3	-1.3641552
68	0x3fc7d181	1.561081
69	0x3fda9ce7	1.7079133
70	0x3e03f45a	0.12886181
71	0x3fa98d2e	1.324621
72	0x3f8f888b	1.1213545
73	0xbfc763d2	-1.5577338
74	0xbf481d27	-0.7816948
75	0xc0046c1a	-2.069098
76	0x3ea80e69	0.32823494
77	0xbf8b558d	-1.0885483
78	0xbe81ca02	-0.25349432
79	0xbfdc39e0	-1.7205162
80	0x3efee55e	0.49784368
81	0x40064edd	2.0985634
82	0x3f344c25	0.7042869
83	0xbea3dcc8	-0.3200438
84	0x3ecd90a7	0.40149423
85	0x3e6d1221	0.23151447
86	0xc022672c	-2.537547
87	0xc023b313	-2.5578048
88	0xbddf5186	-0.10904221
89	0xbfcc3cd2	-1.5956061
90	0xbf8cdceb	-1.1004919
91	0xbf8fdae0	-1.123867
92	0xbf85487a	-1.0412743
93	0xbfffb63c	-1.9977489
94	0x3fe66e06	1.8002326
95	0xbfed1a66	-1.8523681
96	0xbe8c4faf	-0.27404544
97	0x3dfb0f07	0.122587256
98	0xbe4a6f4d	-0.1976902
99	0x3e4ce734	0.20010072
100	0x3e947381	0.28994372
101	0xc00ee083	-2.232453
102	0xbafa8188	-0.001911209
103	0x3f04df8b	0.519036
104	0xc02b6c65	-2.6784909
105	0xbf413d21	-0.754839
106	0x3f8c6dac	1.0970969
107	0x3f0171a4	0.50564027
108	0xbf337fdd	-0.7011698
109	0xbf2d44f0	-0.67683315
110	0xbe6bad09	-0.23015226
111	0x3f7afbf2	0.9804069
112	0x3ec117d0	0.3771348
113	0x3fffee5b	1.9994615
114	0x3f610028	0.87890863
115	0x3f8441d8	1.0332594
116	0xc00afdc9	-2.1717398
117	0x3ea11ba0	0.3146639
118	0x3f67b250	0.9050646
119	0x3f301673	0.68784255
120	0x3f4fe5c1	0.8120995
121	0xbf8db684	-1.1071324
122	0xbf91cf87	-1.1391457
123	0x3de859db	0.113452636
124	0x3fbea73b	1.4894785
125	0xbf282b56	-0.65691125
126	0x3fb8bb99	1.443225
127	0x3fafb7a1	1.3727914

c0 f4 [1, 1, 128]
0	0x3f295123	0.6613943
1	0x3db3cea4	0.08779648
2	0x3f8d2ba5	1.1028944
3	0x3fdbf845	1.7185141
4	0xbe02c7c9	-0.12771524
5	0x3f7a895b	0.9786584
6	0x40005816	2.0053763
7	0x40019265	2.0245602
8	0xbf56388d	-0.8368004
9	0xbe0d67d6	-0.13809142
10	0x3ef5d4ca	0.48013908
11	0xbf2b4601	-0.6690369
12	0xbf9b2587	-1.2120827
13	0x3f5f578c	0.8724296
14	0x3f7d8582	0.9903184
15	0x3f951801	1.164795
16	0x3e80cde4	0.25157082
17	0xbf019ca7	-0.5062966
18	0xbe036adc	-0.12833732
19	0x3fbc00e9	1.4687778
20	0xbf026509	-0.5093542
21	0x3f48c736	0.7842897
22	0x3ef3fe2c	0.47654855
23	0xbf36ec61	-0.71454436
24	0xbfb92fe2	-1.4467738
25	0xbe23fe92	-0.1601508
26	0xbe084214	-0.13306457
27	0xbf9e513b	-1.236854
28	0x3f34e43d	0.70660764
29	0xbf83e8f7	-1.030547
30	0xbf338779	-0.7012859
31	0xbf29b8f8	-0.66297865
32	0x3f965611	1.1745015
33	0xbeacfc50	-0.3378625
34	0x3fa49dc1	1.2860643
35	0xbeba321c	-0.36366355
36	0xbf168e6d	-0.58811074
37	0xbd88391a	-0.06651516
38	0xbe52cc0a	-0.20585647
39	0x4003dce5	2.0603573
40	0x3f7aa6b9	0.9791065
41	0x3ded6389	0.115912504
42	0x3e50f386	0.20405397
43	0xbf684302	-0.90727246
44	0x3f0de7ad	0.55431634
45	0xbee04190	-0.4380002
46	0xbe70f047	-0.23529159
47	0xbe43bc7b	-0.19114868
48	0xbf646b63	-0.8922636
49	0x3db2ad9d	0.0872452
50	0x3e80d2fb	0.25160965
51	0x3ed877b2	0.4227882
52	0x3efbc063	0.49170217
53	0x3ec2b598	0.3802917
54	0xbe8db2a1	-0.27675346
55	0x3f900692	1.1252005
56	0xbf1f24dc	-0.6216562
57	0xbf2c00f0	-0.6718893
58	0x3edb378a	0.4281581
59	0xbea1e8ac	-0.31622827
60	0x3ef418a9	0.47675064
61	0xbf98c63b	-1.1935495
62	0x3e78b383	0.24287228
63	0x3f252f8a	0.64525664
64	0x3cf81367	0.03028269
65	0xbfaadad5	-1.3348032
66	0xbecc3010	-0.3988042
67	0x3f2fb3cd	0.6863373
68	0xbf67bedc	-0.90525603
69	0x3e89b50c	0.2689594
70	0xbe6c9881	-0.2310505
71	0x3f0fcacc	0.5616882
72	0xbf722065	-0.9458068
73	0x3f2728e6	0.6529678
74	0x3f24a16f	0.6430883
75	0xbf759ae0	-0.95939445
76	0x3eeb722e	0.4598555
77	0xbdc0263c	-0.09382293
78	0xbe9976b8	-0.29973388
79	0x3fcfb89a	1.6228211
80	0x3fb600f7	1.4219044
81	0xbf0e295b	-0.55531853
82	0x3f08eccd	0.5348633
83	0xbfe272a9	-1.7691242
84	0x3f21b3c5	0.6316493
85	0xbf341fdb	-0.7036111
86	0xbf8548b8	-1.0412817
87	0xbffb3258	-1.9624739
88	0x3ef83219	0.4847572
89	0x3f2d8b84	0.6779101
90	0x401948af	2.3950613
91	0x3f3bd146	0.733662
92	0x3fac5799	1.3464233
93	0xbebd7716	-0.37004918
94	0xbd706c7d	-0.058697212
95	0xbf82f986	-1.0232399
96	0xbf9b42de	-1.2129781
97	0xbfe7270b	-1.805879
98	0xbfddca53	-1.732737
99	0x3fc9d625	1.5768477
100	0x3c8edd41	0.017439486
101	0x3e28c905	0.16482933
102	0xbf833a0c	-1.025209
103	0x3f007c69	0.50189835
104	0x3fd15dd6	1.6356761
105	0xbe8569dd	-0.2605733
106	0xbfdbf7b9	-1.7184974
107	0xbeb27ef7	-0.3486249
108	0x3f17bb29	0.5926996
109	0x3f488b1b	0.7833726
110	0xbfa31364	-1.2740293
111	0x3efa085e	0.4883451
112	0x3f4763fe	0.7788695
113	0xbf2ffc98	-0.687448
114	0xbedcf8a8	-0.4315846
115	0xbd4ee9cc	-0.050515935
116	0xbf5eda8e	-0.8705224
117	0xbe46bdd3	-0.1940835
118	0xbf850f51	-1.0395299
119	0x3f15fec1	0.5859185
120	0xbf271db1	-0.6527968
121	0xbffb2da0	-1.9623299
122	0x3f5a621d	0.8530596
123	0xbec106f3	-0.37700614
124	0x3edd0229	0.4316571
125	0x3f458f96	0.7717222
126	0xbfe9531a	-1.8228486
127	0x3fb5abe4	1.4193082

RNN.weight_ih_l0 f4 [512, 17]
0	0x3e4dca96	0.20096812
1	0x3d92ac25	0.0716174
2	0x3c915853	0.017742312
3	0x3c67666f	0.014123543
4	0x3cb01b11	0.021497281
5	0x3e2df623	0.16988425
6	0x3d46a81f	0.048500177
7	0x3e120d67	0.14262925
8	0xbd3262a1	-0.04355109
9	0x3ce824d5	0.028337875
10	0x3e03dc7a	0.12877074
11	0xbe6b9be5	-0.23008688
12	0x3d80c2c0	0.062871456
13	0x3e0c15a4	0.1368013
14	0x3e05c886	0.13064775
15	0x3e1ef46b	0.15522926
16	0xbe30bbb1	-0.17259099
17	0x3db64eea	0.089017704
18	0xbcd39baf	-0.025831072
19	0xbd45973c	-0.04823993
20	0x3db789dc	0.089618415
21	0x3c2370a7	0.009975589
22	0x3dd0ef86	0.102019355
23	0x3c0bc0de	0.00852987
24	0xbd1dc4c1	-0.038517717
25	0x3e179aeb	0.1480519
26	0xbbc7be46	-0.0060956804
27	0x3b4a9d33	0.0030916452
28	0x3d38babe	0.045099966
29	0x3db6f2a7	0.08933001
30	0xbd8f183c	-0.06987044
31	0xbc83ad8a	-0.01607396
32	0x3db66a15	0.08906952
33	0xbafb0699	-0.0019151747
34	0x3e640084	0.22265822
35	0x3e1eb084	0.15497023
36	0x3d83934e	0.064245805
37	0x3e7ba473	0.24574451
38	0xbd5c9895	-0.05385645
39	0xbd19bffd	-0.03753661
40	0x3d0b3a08	0.03399089
41	0x3d818280	0.06323719
42	0xbd428b26	-0.047495984
43	0xbdaacfe3	-0.083404325
44	0xbd8d3b6e	-0.06896101
45	0xbe9ca3ef	-0.3059382
46	0x3dce8bcd	0.10085259
47	0x3dc6acfe	0.097009644
48	0x3dc93529	0.098245926
49	0x3d844b5a	0.06459685
50	0xbdbc5e8f	-0.09197723
51	0x3e6dd74d	0.23226662
52	0xbc97ffbf	-0.018554566
53	0x3d363444	0.044483438
54	0xbd020652	-0.03174431
55	0x3dcce15d	0.10003922
56	0x3c9d15b9	0.019175397
57	0x3d59cc47	0.05317333
58	0xbda48171	-0.080325015
59	0x3d18efbf	0.037338015
60	0x3dd283a6	0.10279016
61	0x39c68283	0.00037862742
62	0x3db64c6d	0.08901296
63	0xbd2d724f	-0.04234534
64	0xbb7f1807	-0.0038924234
65	0x3e6c7443	0.23091225
66	0xbb34c0bd	-0.0027580701
67	0x3dce3d4a	0.10070284
68	0xbd9ec092	-0.077515736
69	0xbd8f1b59	-0.06987638
70	0x3caee292	0.021348272
71	0xbc9a4623	-0.018832272
72	0x3c68eb71	0.01421629
73	0x3dcde0e9	0.10052664
74	0xbd3248d2	-0.043526478
75	0xbdec3750	-0.115339875
76	0xbd08c2fa	-0.03338907
77	0xbc0f8a84	-0.008761052
78	0xbe508129	-0.2036177
79	0xbe0bbbf2	-0.13645914
80	0x3df924c3	0.12165215
81	0x3d9d879b	0.0769188
82	0x3c5ce7ec	0.013483029
83	0x3e35c8b5	0.17752345
84	0xbe0cb1ad	-0.13739653
85	0xba393171	-0.0007064557
86	0x3df7d4cd	0.121011354
87	0x3c28df17	0.010307095
88	0x3c8c79ae	0.017147865
89	0x3e119799	0.14217986
90	0x3d89b1f5	0.06723396
91	0x3d98b85e	0.0745704
92	0x3d52a605	0.05142786
93	0x3e19cdce	0.15019915
94	0x3e5b02a9	0.21387734
95	0xbdba520b	-0.0909768
96	0x3dd41e1b	0.10357305
97	0xbd80fa2e	-0.06297718
98	0x3c5752f7	0.013142339
99	0x3c265f75	0.010154595
100	0x3c9e219e	0.01930314
101	0x3cc61126	0.024178099
102	0xbccc20f7	-0.024918063
103	0x3d735901	0.059411053
104	0xbd69c163	-0.057069194
105	0xbc6308e6	-0.013857102
106	0xbd94f5e7	-0.07273465
107	0xbe002b23	-0.12516455
108	0xbdcf8ea4	-0.101346284
109	0x3af7dc82	0.0018910321
110	0xbddac807	-0.106826834
111	0xbdc6c92e	-0.09706341
112	0xbde1a3a3	-0.11017539
113	0xbaa233a8	-0.0012375014
114	0x3e668f6d	0.2251565
115	0x3d65c133	0.056092452
116	0x3c86c3a3	0.016450709
117	0x3e0a4f14	0.13506728
118	0xbcc2c6ea	-0.02377649
119	0x3d5386e9	0.051642332
120	0x3db1af64	0.08676031
121	0x3db16bfe	0.08663176
122	0x3d57c4de	0.05267798
123	0x3e1439da	0.14475194
124	0x3e2e89df	0.17044781
125	0x3e13159b	0.1436371
126	0x3e20f8a2	0.15719846
127	0x3e56bc47	0.2097026
128	0x3db746a8	0.089490235
129	0x3d4c0176	0.04980608
130	0xbda0eb69	-0.07857401
131	0xbd762b2a	-0.06009976
132	0xbe0f4e90	-0.13994813
133	0x3c7badcd	0.015361262
134	0x3d9f5217	0.07779329
135	0xbc63b18f	-0.013897314
136	0xbde28935	-0.110613264
137	0xbd808cb5	-0.06276838
138	0xbc05e868	-0.008173086
139	0xb9ec99e8	-0.00045128097
140	0xbca435d4	-0.020045199
141	0xbdeee108	-0.11664015
142	0xbc39376a	-0.011304716
143	0xbda45ae5	-0.08025149
144	0x3cf227dd	0.029560024
145	0x3d8657fc	0.065597504
146	0x3d854dff	0.06509017
147	0x3ea3ac67	0.3196747
148	0xbe192647	-0.14956008
149	0xbce18a74	-0.02753184
150	0x3d1e7174	0.038682416
151	0xbb9ae4e3	-0.0047269925
152	0x3e26805c	0.16259903
153	0xbdd701bb	-0.10498377
154	0x3d3f5d7e	0.04672002
155	0x39a72b3a	0.00031884928
156	0x3d71ba9b	0.05901585
157	0xbce24215	-0.027619401
158	0x3bb16597	0.005413722
159	0x3db21d55	0.08697001
160	0x3d3893de	0.045062892
161	0x3c11ca52	0.008898335
162	0x3dd83fbc	0.10559031
163	0x3de25778	0.110518396
164	0xbdccc2a7	-0.099980645
165	0xbdf0ea23	-0.11763408
166	0xbdab8f3a	-0.08376928
167	0xbcd2f3e4	-0.025751062
168	0x3c37abad	0.011210364
169	0xbe016901	-0.12637712
170	0x3e167aa6	0.14695224
171	0xbd1f3f00	-0.03887844
172	0xbde74d5f	-0.11294054
173	0x3d81a537	0.0633034
174	0xba1df36d	-0.0006025348
175	0x3de9c0e3	0.11413743
176	0x3d5153f3	0.05110545
177	0x3d3fbd82	0.046811588
178	0x3d7ecd3e	0.062207453
179	0x3d8b12b5	0.067906775
180	0xbd945994	-0.07243648
181	0xbe438a00	-0.19095612
182	0xbd10a886	-0.035316966
183	0x3d8611d0	0.06546366
184	0x3ccda35a	0.025102306
185	0x3dce757b	0.10081001
186	0xbcbf3e11	-0.023345025
187	0xbde673a8	-0.112525284
188	0x3d4e3f85	0.050353546
189	0x3cee8f84	0.029121168
190	0x3ddc825e	0.10767053
191	0x3d9f9cad	0.077935554
192	0x3e16422a	0.14673677
193	0x3e461478	0.19343746
194	0x3e5a413b	0.21313946
195	0x3e816095	0.25269
196	0x3e6bcaf7	0.23026644
197	0x3e3a1d2b	0.18175189
198	0xbd9c1031	-0.07620276
199	0xbda709ca	-0.08156164
200	0xbd91ec95	-0.071252026
201	0x3d7441ac	0.059632942
202	0xbc24edd5	-0.010066469
203	0xbe144d51	-0.14482619
204	0xbc818145	-0.01580871
205	0xbc3f2387	-0.011666185
206	0xbd0bfe22	-0.034177907
207	0xbdbffaf9	-0.09374041
208	0x382933e8	4.034108e-05
209	0xbe062871	-0.13101365
210	0xbdf2028e	-0.118168935
211	0xbdc72267	-0.097233586
212	0xbc231d91	-0.00995578
213	0x3a73396e	0.0009278272
214	0xbe11e9c0	-0.14249325
215	0x3e8e2c8a	0.27768356
216	0xbcc434d4	-0.023950972
217	0x3d78b987	0.060723808
218	0xbba65be4	-0.005076872
219	0x3d60eb5d	0.05491196
220	0x3e28191d	0.1641583
221	0xbec7a964	-0.38996422
222	0xbc1e4507	-0.009660012
223	0xbdc78859	-0.09742803
224	0xbd330dec	-0.04371445
225	0xbe1f9523	-0.15584235
226	0xbdf56d8f	-0.11983787
227	0xbe04cfb1	-0.12969853
228	0x3bee0a2e	0.007264397
229	0xbd999864	-0.07499769
230	0xbe37331f	-0.17890595
231	0x3e844685	0.25835052
232	0x3e1356ae	0.14388534
233	0x3e231cba	0.15928927
234	0xbcdd55bb	-0.027018419
235	0x3c80c0ee	0.015716996
236	0xbdc1f0f1	-0.09469784
237	0x3e03bc8d	0.12864895
238	0x3d719235	0.058977325
239	0x3d59339d	0.053027738
240	0x3bb5de26	0.005550164
241	0x3d6f1e60	0.058378577
242	0x3d28486c	0.041084692
243	0x3df9ecdc	0.122033805
244	0xbcd2d7cc	-0.025737666
245	0x3d7095c5	0.05873658
246	0x3cbd6255	0.023118177
247	0xbddf32d2	-0.10898365
248	0xbdae17fc	-0.085006684
249	0xbd32f87b	-0.043694
250	0x3e0260cd	0.12732239
251	0x3d643de6	0.055723093
252	0x3d02cc04	0.031932846
253	0x3e4a8207	0.19776164
254	0x3cf111fc	0.02942752
255	0x3d82ba99	0.06383247

RNN.weight_hh_l0 f4 [512, 128]
0	0xbd969659	-0.07352895
1	0x3df9ca51	0.12196792
2	0x3cefce67	0.029273225
3	0xbdc1bd75	-0.09459964
4	0x3e1b09c6	0.15140447
5	0x3db6d500	0.08927345
6	0x3db727e8	0.089431584
7	0x3dc072d1	0.093968995
8	0x3e0059c4	0.12534243
9	0xbd4c7508	-0.049916297
10	0x3dd0728d	0.10178099
11	0x3d841ac3	0.06450417
12	0xbdbe9602	-0.093059555
13	0x3dbc8aba	0.092061475
14	0x3d847b17	0.0646879
15	0x3def7632	0.11692466
16	0x3db440c9	0.08801419
17	0xbe03b7fd	-0.12863155
18	0xbe4a3089	-0.19745077
19	0xbcde8602	-0.02716351
20	0xbe2c9b8f	-0.16856216
21	0xbcda5acb	-0.026654622
22	0x3c12b297	0.008953712
23	0x3d5ae4b4	0.053440765
24	0xbddc576f	-0.10758864
25	0xbc345c91	-0.011008398
26	0xbd8250c4	-0.06363061
27	0xbe3f8dbc	-0.18706411
28	0x3cdf9bd3	0.027295982
29	0x3de0cdbb	0.1097674
30	0xbd4633a9	-0.04838911
31	0xbd418cd0	-0.04725343
32	0xbd0f928c	-0.035051867
33	0x3dc0ff3f	0.09423684
34	0xbded6fa0	-0.115935564
35	0x3cd005e8	0.025393441
36	0x3e005578	0.12532604
37	0xbd881908	-0.06645399
38	0xbd38e5df	-0.045141097
39	0x3d30e8f2	0.043190904
40	0x3e133d2c	0.14378804
41	0x3e3bcd7b	0.18340103
42	0x3e418a24	0.18900353
43	0xbd6cd1b6	-0.057817183
44	0xbe4167fd	-0.18887325
45	0x3c91a28f	0.01777771
46	0xbd80aafb	-0.06282612
47	0xbd74f844	-0.059807077
48	0xbdcbb0e6	-0.0994585
49	0xbca1c0bd	-0.019745225
50	0x3e4455a7	0.19173299
51	0x3e643d2c	0.2228896
52	0x3c774b91	0.0150937
53	0xbdc77542	-0.09739162
54	0x3de83467	0.1133812
55	0x3e2691e4	0.1626659
56	0xbe165918	-0.14682424
57	0xbe3bbc48	-0.18333542
58	0x3cb0dcbe	0.021589633
59	0x3da6908b	0.08133038
60	0xbe33a99b	-0.17545168
61	0xbd183b6e	-0.03716605
62	0xbd6cba66	-0.05779495
63	0x3e4d628d	0.20057125
64	0x3cc666de	0.024218973
65	0x3d907dd9	0.070552535
66	0xbe14579e	-0.14486548
67	0xbd97ef74	-0.07418719
68	0xbd0efa57	-0.03490671
69	0x3da0afc6	0.07846026
70	0x3b21236b	0.002458776
71	0xbdd70f98	-0.10501021
72	0x3e2542ca	0.1613876
73	0xba14a092	-0.0005669679
74	0xbdca0535	-0.098642744
75	0xbc42dfb9	-0.01189416
76	0xbdb6927a	-0.08914657
77	0xbd26c25c	-0.0407127
78	0xbdf7ba81	-0.1209612
79	0x3d0e5609	0.03475002
80	0x3b6f7f62	0.0036544432
81	0xbdcc315b	-0.09970351
82	0x3dbb71a0	0.091525316
83	0x3d48caa9	0.049021397
84	0xbdb20cc7	-0.08693843
85	0x3d16baa3	0.036799084
86	0xbd9838ba	-0.07432695
87	0xbe2364e0	-0.1595645
88	0x3db4d323	0.08829334
89	0x3debc79b	0.11512681
90	0xbe0cf601	-0.13765718
91	0x3d0981b1	0.03357095
92	0xbdb68167	-0.089114
93	0xbd940d6d	-0.07229123
94	0xbd41f813	-0.047355723
95	0xbd524652	-0.051336594
96	0xbd8ef5a2	-0.069804445
97	0x3da23f14	0.079221874
98	0xbe5dbb1c	-0.21653408
99	0x3d7fc8d9	0.062447403
100	0x3e0cd5a0	0.13753366
101	0xbe433c6b	-0.19066016
102	0x3d981368	0.074255764
103	0xbe4d3a92	-0.20041874
104	0x3cee04de	0.029055055
105	0x3dd92105	0.10602001
106	0x3d950381	0.07276059
107	0xbe0f43b4	-0.1399067
108	0xbdb1d4c4	-0.0868316
109	0xbc5091cc	-0.012730073
110	0x3e440321	0.19141819
111	0x3e1a5786	0.1507245
112	0x3d8c4352	0.06848778
113	0x3c9c990d	0.019115949
114	0x3c4bc230	0.012436435
115	0xbe129840	-0.14315891
116	0x3d026fb4	0.03184481
117	0x3e08b9be	0.13352105
118	0xbced6aab	-0.028981527
119	0x3d8d8b28	0.069113076
120	0xbe58c343	-0.21168236
121	0xbe135b84	-0.14390379
122	0xbcd66c1a	-0.026174594
123	0xbd5722e5	-0.052523512
124	0xbdd3692e	-0.10322796
125	0x3e38c8bc	0.18045324
126	0x3d6f6bb6	0.05845233
127	0x3d875192	0.06607355
128	0xbd62dda7	-0.055387165
129	0x3d93d827	0.07218962
130	0x3c845153	0.01615206
131	0x3d941232	0.07230033
132	0x3b9098d1	0.0044127484
133	0x3d9114bd	0.07084034
134	0xbc3019fc	-0.010748383
135	0xbc8d1507	-0.01722194
136	0x3def1af4	0.11675063
137	0xbd682eae	-0.056685142
138	0x3e2ae9ef	0.16690801
139	0x3d57e1c0	0.052705526
140	0xbd9a9cd7	-0.07549446
141	0x3bf7461a	0.0075461986
142	0x3b935c70	0.0044971034
143	0x3db44cf2	0.08803739
144	0xbcdad270	-0.026711673
145	0xbdcd8019	-0.10034198
146	0xbda974f6	-0.08274262
147	0xbac4c85b	-0.0015013324
148	0xbd41f1eb	-0.04734985
149	0x3d3c1860	0.045921683
150	0x3ca8f1a5	0.020623038
151	0x3ca1c15e	0.019745525
152	0xbd8a886e	-0.06764303
153	0xbda8f9a4	-0.0825074
154	0x3d04db9b	0.032435995
155	0xbdccadc3	-0.0999408
156	0x3db1c7b2	0.08680667
157	0x3d2e7f07	0.04260161
158	0xbd3413fc	-0.04396437
159	0xbcf723e9	-0.03016849
160	0xbc866b7a	-0.01640867
161	0x3e074f2b	0.13213794
162	0x3d1bd25c	0.03804241
163	0x3af97a7c	0.0019033696
164	0xbcb73faa	-0.022369225
165	0xbe00f0c8	-0.12591851
166	0xbd4e8dd9	-0.050428245
167	0x3d9e1416	0.07718675
168	0x3dbcff89	0.09228427
169	0xbd4d3d26	-0.050107144
170	0x3d9ef3c4	0.07761338
171	0x3cb8857f	0.022524593
172	0xbd86a682	-0.065747276
173	0x3d12d020	0.035843015
174	0xbc2a51f7	-0.0103955185
175	0xbdcc688f	-0.099808805
176	0xbda1d17f	-0.07901286
177	0x3d4b8180	0.049684048
178	0x3d3f042d	0.04663484
179	0x3cd09d2f	0.025465576
180	0x3c1db48f	0.009625568
181	0xbe01e480	-0.12684822
182	0x3dc36e75	0.095425524
183	0x3dde0e54	0.108425766
184	0xbdb23888	-0.08702189
185	0xbe35df27	-0.17760907
186	0x3c824e35	0.015906433
187	0xbcba1533	-0.022715187
188	0xbd6b68be	-0.057472937
189	0x3c37e22a	0.011223355
190	0x3dac5fac	0.084166855
191	0x3df1d3e5	0.11807994
192	0xbd4d5a14	-0.050134733
193	0xbd06aad0	-0.032877743
194	0xbdcb1489	-0.09916026
195	0x3d7a9bdf	0.061183807
196	0xbcf609fb	-0.030034056
197	0x3b34a8d6	0.0027566454
198	0xbc30c6ef	-0.010789617
199	0x3d767ab4	0.060175613
200	0x3daf796a	0.0856808
201	0x3cbc30e2	0.022972528
202	0xbc028379	-0.007965916
203	0x3c8c998c	0.01716306
204	0xbcb2513a	-0.021767247
205	0xbd400411	-0.046878878
206	0xbdb8bc51	-0.090202935
207	0xbcc84ea4	-0.024451561
208	0x3d364f11	0.044508997
209	0xbd94ab68	-0.07259256
210	0x3d69ffb9	0.05712864
211	0xbcf8c394	-0.030366696
212	0xbd9c9740	-0.07646036
213	0xbdbcc6fb	-0.0921764
214	0xbdb0a037	-0.086243086
215	0xbd3f1bc1	-0.046657328
216	0x3e0c0f97	0.13677822
217	0x3d8d52dc	0.0690057
218	0xbc5dc80c	-0.013536464
219	0xbdae928f	-0.085240476
220	0x3c0cd9c2	0.008596839
221	0xbd01942b	-0.031635445
222	0x3d2c2164	0.04202403
223	0x3d06bca0	0.03289473
224	0xbda47977	-0.0803098
225	0x3d0555b3	0.032552432
226	0xbcac6805	-0.021045694
227	0x3db33dd0	0.08752024
228	0x3d9da843	0.07698109
229	0x3c7b1366	0.015324449
230	0x3d08b2c6	0.033373617
231	0xbde463b6	-0.11151831
232	0x3cf33b4f	0.029691366
233	0x3dd37718	0.1032545
234	0x3deb2634	0.11481896
235	0xbc1b3002	-0.009471895
236	0xbde257b6	-0.11051886
237	0x3c731639	0.014836841
238	0x3da4e930	0.080522895
239	0x3d9c1657	0.076214485
240	0x3c73df2b	0.01488475
241	0x3d7b03d5	0.06128295
242	0x3dff986e	0.124802455
243	0xbd209c92	-0.039211817
244	0x3bc77570	0.0060869977
245	0x3e0129f6	0.12613663
246	0x3bb68338	0.0055698417
247	0x3e1185b1	0.14211155
248	0xbcbb9dd2	-0.022902403
249	0x3bc6bceb	0.0060650012
250	0xbe092f57	-0.13396965
251	0xbd87da65	-0.06633452
252	0x3d8964df	0.06708693
253	0x3d76c1d6	0.06024345
254	0x3c8852b0	0.016640991
255	0x3dcbf781	0.09959317

RNN.bias_ih_l0 f4 [512]
0	0x3de99f60	0.114073515
1	0x3d8c1190	0.06839287
2	0x3e0e4a72	0.13895586
3	0x3ccb0a93	0.024785316
4	0x3c2b7e8d	0.010467184
5	0x3d570ee0	0.05250442
6	0x3dbeee27	0.09322768
7	0xbad58fc8	-0.001629346
8	0xbd53cfed	-0.051711965
9	0x3e1cc968	0.15311205
10	0x3df23aef	0.11827647
11	0xbd55321a	-0.052049734
12	0x3cc8f364	0.02453012
13	0x3d8211f1	0.06351078
14	0xbcd68992	-0.026188646
15	0x3d61cef9	0.055129025
16	0xbd3adb67	-0.045619395
17	0x3d5139e1	0.05108059
18	0x3c24a0a1	0.010048063
19	0x3d50cde9	0.05097762
20	0xbaa79fd3	-0.001278872
21	0x3c8ec6ac	0.017428719
22	0x3dc4d378	0.09610647
23	0x3e40fc50	0.1884625
24	0xbcfd0481	-0.030885937
25	0x3dc2b03b	0.095062695
26	0x3dbb46de	0.09144376
27	0x3da9d733	0.08292999
28	0x3e009e49	0.12560381
29	0x3dd34e76	0.103176996
30	0x3d933cb8	0.071893156
31	0x3d975b8c	0.07390508
32	0x3e2e250a	0.17006317
33	0x3d81dcad	0.06340919
34	0x3e0cb144	0.13739496
35	0x3e0288c4	0.12747484
36	0x3e01dced	0.12681933
37	0xbcf56007	-0.029953016
38	0x3d877bc5	0.06615404
39	0x3d8b9cf6	0.06817047
40	0x3d9b7407	0.0759049
41	0x3e05e7db	0.13076727
42	0xbc9310c9	-0.01795234
43	0x3e315ae9	0.17319836
44	0x3e0cacd5	0.13737805
45	0x3d9cecf2	0.07662381
46	0x3d89a7c9	0.067214556
47	0x3d927268	0.071507275
48	0xbd45a5b5	-0.048253734
49	0x3d909838	0.070602834
50	0x3cd742d1	0.026276978
51	0x3d5eaa50	0.05436164
52	0x3df93002	0.1216736
53	0x3e1eea9b	0.15519182
54	0x3dbb12e3	0.09134462
55	0x3d488678	0.048956364
56	0x3ca64486	0.020296346
57	0x3e2adfa8	0.1668688
58	0x3e0c97d2	0.1372979
59	0x3e020d8f	0.12700485
60	0x3d14dff3	0.036346387
61	0xbd27080e	-0.040779166
62	0x3d4c33f3	0.04985423
63	0xbd1ac4ba	-0.03778527
64	0x3d6ab2ee	0.057299547
65	0x3db6dcde	0.08928846
66	0x3e093a2f	0.13401102
67	0x3d718a4d	0.058969785
68	0x3e14b6f0	0.1452291
69	0x3e01a594	0.1266082
70	0xbc900f49	-0.017585414
71	0x3e4bc1c0	0.19898129
72	0x3e735370	0.23762298
73	0x3d29eb8c	0.0414844
74	0x3d9b45ae	0.0758165
75	0x3dd38a55	0.10329119
76	0x3dbfc995	0.093646206
77	0xbaccbe33	-0.0015620649
78	0x3e1cd99b	0.15317385
79	0x3d3ade98	0.04562244
80	0x3dd74531	0.10511244
81	0x3ab06f9c	0.0013460997
82	0x3cb22a6a	0.02174874
83	0x3e2b6e1d	0.16741224
84	0x3d19da95	0.03756197
85	0x3c3aee78	0.011409394
86	0x3dd3bb5b	0.103384696
87	0xbc7929a4	-0.015207682
88	0x3df094c6	0.11747126
89	0x3e556b33	0.20841675
90	0x3e259818	0.161713
91	0x3d28416a	0.04107801
92	0xbd3e2c6c	-0.046429083
93	0x3d5478b9	0.051872943
94	0x3d85348a	0.06504162
95	0x3e066480	0.13124275
96	0xbd1f314a	-0.038865365
97	0xbc31db5e	-0.010855524
98	0x3c6a9880	0.014318585
99	0xbcdd0ce2	-0.026983682
100	0x3b9863aa	0.0046505528
101	0x3de888e9	0.113542385
102	0x3df26eb1	0.11837519
103	0x3be8725a	0.00709371
104	0xbd7d1f35	-0.06179734
105	0x3e059855	0.13046391
106	0x3d2fdd61	0.042935733
107	0x3cc484f9	0.023989188
108	0xbd8453a6	-0.06461267
109	0x3dd726e3	0.10505464
110	0x3c08c67d	0.008348105
111	0x3cfc9ad1	0.030835541
112	0x3ce19126	0.027535032
113	0x3d859cc4	0.06524041
114	0xbd2c9b3f	-0.04214024
115	0x3e473a34	0.19455796
116	0x3d5a7049	0.05332974
117	0x3e3c3395	0.18379052
118	0x3ce6ab90	0.02815798
119	0x3c6b4e9f	0.014362006
120	0x3e20d4f8	0.15706241
121	0x3e0e69ec	0.13907593
122	0x3dc7756d	0.09739194
123	0x3cfdd713	0.030986344
124	0x3e3b9a3b	0.18320553
125	0x3e09b913	0.13449506
126	0x3d9841e6	0.07434444
127	0x3dfeae5c	0.124356
128	0xbce6774e	-0.02813306
129	0xbc035594	-0.008016009
130	0xbd21ae40	-0.03947282
131	0x3d5b9e55	0.053617794
132	0xbc5dd912	-0.013540523
133	0xbdbd86b8	-0.09254211
134	0x3c2f12ca	0.010685632
135	0x3ab9ac7f	0.0014165788
136	0x3d1d6449	0.038425718
137	0x3d328758	0.043586105
138	0x3dd4a7fb	0.10383602
139	0x3c0f2f57	0.008739314
140	0xbc59e9df	-0.013300388
141	0xbd9bbf75	-0.07604877
142	0x3de024ca	0.10944517
143	0x3de75aae	0.11296593
144	0xbad303dd	-0.0016099174
145	0x3c6aac41	0.014323295
146	0x3d9f91a8	0.077914536
147	0x3d8e85e7	0.069591336
148	0x3dc95f8e	0.09832679
149	0x3d24b3ae	0.04021042
150	0xbdc77815	-0.09739701
151	0xbdab1508	-0.08353621
152	0xbc2c0954	-0.010500271
153	0x3c810236	0.015748125
154	0xbd25cc67	-0.040478136
155	0x3df3ad99	0.118983455
156	0xbd8f6a85	-0.07002739
157	0xbd542d97	-0.05180129
158	0xbd01bbde	-0.031673305
159	0x3d996d25	0.07491521
160	0x3c52266f	0.012826546
161	0x3d589466	0.0528759
162	0xb77c0c5e	-1.502325e-05
163	0xbcf4ab91	-0.029866965
164	0x3d99d7da	0.075118735
165	0x3d23320b	0.039842647
166	0xbd09f20d	-0.033678103
167	0x3bf81ac0	0.007571548
168	0x3d30d755	0.043174107
169	0x3d672bd4	0.056438282
170	0x3c8eb745	0.017421374
171	0xbd8190a0	-0.06326413
172	0xbc75f091	-0.015010969
173	0x3c9c474e	0.01907697
174	0x3bd68080	0.00654608
175	0xbd0d4b97	-0.034495916
176	0x3d10f9b3	0.03539438
177	0xbd30f971	-0.043206636
178	0xbd755b9b	-0.059901815
179	0x3d1999d1	0.037500206
180	0x3d6bc882	0.057564266
181	0xbdc401ea	-0.095706776
182	0x3cf4f08e	0.029899862
183	0xbd550063	-0.052002322
184	0xbd4d651d	-0.050145257
185	0x3d270d37	0.040784087
186	0x3d190c6e	0.03736537
187	0x3bfd1222	0.007723109
188	0x3d360ebd	0.04444765
189	0xbd8deac8	-0.069295466
190	0xbc2ae396	-0.010430237
191	0x3cee4662	0.029086296
192	0xbd15f3cb	-0.036609452
193	0xbd0c7ac9	-0.034296785
194	0xbc6f30f5	-0.014599075
195	0xbdf2c6cd	-0.118543245
196	0xbdc9680d	-0.09834299
197	0x3d7a0130	0.06103629
198	0xbd57033c	-0.05249332
199	0xbdc1b3cf	-0.09458124
200	0x3c6e3d41	0.014540971
201	0xbd32f56e	-0.04369109
202	0x3c190200	0.009338856
203	0xbca70b91	-0.020391257
204	0x3d96338d	0.07334051
205	0x3d9b1178	0.07571691
206	0x3c1ac0fa	0.009445423
207	0x3cf399a5	0.02973635
208	0xbe1b0a68	-0.15140688
209	0xbd8317a0	-0.064009905
210	0xbb065bd1	-0.0020501504
211	0xbdb8d68e	-0.09025298
212	0xbe1ef114	-0.15521652
213	0xbde39013	-0.11111464
214	0xbaab877c	-0.0013086642
215	0x3d1a9bb9	0.037746165
216	0xbcf5b277	-0.029992325
217	0xbbee63eb	-0.0072750947
218	0x3cab8c9d	0.020941073
219	0xbda1be67	-0.078976445
220	0x3dcaa878	0.09895414
221	0x3ced221c	0.028946929
222	0xbdd6c22b	-0.10486253
223	0x3a9d6467	0.0012008072
224	0x3daf7649	0.08567483
225	0xbd6028a8	-0.054726273
226	0x3dcd307e	0.10019015
227	0x3cecdd7a	0.028914202
228	0x3e09123f	0.13385867
229	0xbca03a07	-0.01955892
230	0x3d1f95af	0.03896111
231	0x3dc84aa0	0.097798586
232	0x3d5547d4	0.052070454
233	0xbda795c2	-0.08182861
234	0x3da77ba0	0.081778765
235	0xbd07d908	-0.03316596
236	0x3ced3655	0.028956572
237	0xbe2ad92e	-0.1668441
238	0xbc2f1d6a	-0.010688165
239	0x3d384370	0.04498619
240	0xbd333bd2	-0.04375822
241	0xbcd2f94e	-0.025753643
242	0xbbb6b893	-0.005576202
243	0xbd99d7aa	-0.07511838
244	0x3d2b37ff	0.04180145
245	0x3d1a0255	0.03759988
246	0xbc5b97f7	-0.01340293
247	0x3d296667	0.041357424
248	0xbd9b11f4	-0.07571784
249	0x3d9c51ab	0.076327644
250	0xbd11d2ad	-0.035601307
251	0x3c0318a5	0.008001481
252	0xbd859d9a	-0.06524201
253	0x3e04129d	0.12897725
254	0xbc34b0b3	-0.0110284565
255	0x3c8319e5	0.016003558

RNN.bias_hh_l0 f4 [512]
0	0x3e08e012	0.13366726
1	0x3e2721c1	0.1632147
2	0x3d9cd527	0.07657843
3	0x3e0f04eb	0.1396672
4	0x3de03f5c	0.10949585
5	0x3e3dd301	0.18537523
6	0x3c61a18b	0.013771425
7	0xbcb183de	-0.021669324
8	0xbc12be36	-0.008956483
9	0xbbc6df25	-0.0060690814
10	0x3c343e7f	0.011001228
11	0x3cbe625d	0.023240263
12	0x3d86c6b5	0.06580869
13	0xbcc104f4	-0.023561932
14	0x3e0f3be5	0.13987692
15	0xbcfc4dc6	-0.030798804
16	0xbd3c5de3	-0.045987975
17	0x3dd0dc97	0.10198324
18	0x3d6a7fbc	0.057250723
19	0x3d06998b	0.032861274
20	0x3dbf14c2	0.09330131
21	0x3d24b78c	0.040214106
22	0x3e24dcf1	0.16099907
23	0x3e042689	0.12905325
24	0x3d85238b	0.0650092
25	0x3dbd648d	0.09247694
26	0x3e2243c9	0.1584617
27	0x3e06378f	0.13107131
28	0x3e2718f5	0.16318114
29	0x3d6aca18	0.057321638
30	0x3d9e8526	0.0774024
31	0x3d6cd87a	0.057823636
32	0x3d25624b	0.040376943
33	0x3d9198ed	0.071092464
34	0x3d46294d	0.04837923
35	0x3e3165fa	0.17324057
36	0x3db7115f	0.0893886
37	0x3ddb060a	0.10694511
38	0x3d6240f2	0.055237718
39	0x3e63f218	0.2226032
40	0x3dd60fa5	0.10452203
41	0x3e341c6b	0.17588966
42	0x3cb88fdf	0.02252954
43	0x3dc87888	0.097886145
44	0x3db04ded	0.08608613
45	0x3e0cd98c	0.13754863
46	0x3e2790a6	0.16363773
47	0x3e089ab2	0.13340262
48	0x3d18edcf	0.037336167
49	0xbcc5f9fc	-0.024167053
50	0xbc828c4b	-0.015936038
51	0xbd2955b4	-0.0413415
52	0x3dfbf56e	0.123026714
53	0xbc956c15	-0.018240014
54	0x3b6301d2	0.0034638536
55	0x3df7229d	0.12067149
56	0x3cd67f16	0.026183646
57	0x3d6afe14	0.057371214
58	0x3c0cf519	0.008603358
59	0x3e247278	0.16059291
60	0x3d946d0c	0.072473615
61	0xbc809424	-0.015695639
62	0xbce132ca	-0.027490038
63	0x3d62b3db	0.055347305
64	0x3e40dcf7	0.18834291
65	0x3e077fb2	0.13232306
66	0x3e03d8a5	0.12875612
67	0x3d547093	0.05186517
68	0xbc3e4df7	-0.011615268
69	0x3e16972a	0.14706102
70	0x3e119f51	0.1422093
71	0x3d84ef48	0.06490952
72	0x3de145b8	0.10999626
73	0x3d8e301f	0.06942772
74	0xbd52140b	-0.051288646
75	0x3dad0a93	0.084492825
76	0x3dc40bef	0.09572589
77	0x3d1c07c2	0.038093336
78	0x3dc626d1	0.096753724
79	0x3e46c2d0	0.19410253
80	0x3e21a665	0.1578613
81	0x3e18cd61	0.14922096
82	0x3d9de96a	0.07710536
83	0x3e1259e9	0.1429211
84	0x3df02156	0.11725108
85	0x3ddcf164	0.10788229
86	0x3daa4850	0.08314574
87	0x3c0a2b65	0.008433198
88	0x3ddc6593	0.10761561
89	0x3e5f5731	0.21810605
90	0x3dd53e72	0.10412301
91	0x3d25ede8	0.04051009
92	0x3d61fab7	0.05517074
93	0x3e1c12de	0.15241572
94	0x3ca5b4bf	0.020227788
95	0x3e2a94b3	0.16658287
96	0x3d09e9c6	0.03367021
97	0xbc26f2f0	-0.010189757
98	0x3da255c6	0.07926516
99	0x3e08b75c	0.13351196
100	0xbd1244a8	-0.035710007
101	0x3db2bb27	0.08727103
102	0x3d81f10c	0.06344804
103	0x3d276cfd	0.040875424
104	0xbda1603e	-0.07879685
105	0x3e055aca	0.13022915
106	0x3e0b43a6	0.13600025
107	0xbd0a8aa2	-0.033823617
108	0x3dc907f0	0.09815967
109	0x3d2a78eb	0.041619223
110	0xbd4a1e30	-0.049345195
111	0xbc91fe6b	-0.017821511
112	0x3e42599c	0.18979496
113	0x3d3d0ab6	0.046152793
114	0xbb8b98c3	-0.004260154
115	0x3e178e80	0.14800453
116	0x3d13fdf4	0.03613086
117	0x3dcad9bf	0.09904813
118	0xbce53d5c	-0.02798336
119	0xbb88c7a3	-0.004174189
120	0x3d6124dc	0.054966792
121	0xbcb06d96	-0.02153663
122	0x3e0f2486	0.13978776
123	0x3d2ce4eb	0.0422105
124	0x3e716c45	0.23576458
125	0xbc7e1dd6	-0.015510043
126	0x3d995e44	0.07488683
127	0x3d546a5d	0.05185925
128	0x3d8248fe	0.063615784
129	0x3e1131c1	0.14179136
130	0xbcb7862d	-0.022402847
131	0x3cfb337d	0.0306642
132	0x3db156b5	0.08659116
133	0x3d51e784	0.05124618
134	0xbda7f7af	-0.08201539
135	0xbd38222d	-0.044954468
136	0x3db5f18e	0.088839635
137	0xbda8770b	-0.08225831
138	0x3d4cb7d2	0.049979992
139	0x3d80675f	0.062697165
140	0xbd465096	-0.048416696
141	0x3dbff387	0.09372621
142	0xbc863ba0	-0.016385853
143	0x3d21efbc	0.03953527
144	0xb8b06ab0	-8.412206e-05
145	0x3da58c1f	0.080833666
146	0x3d416463	0.047214877
147	0xbc129443	-0.008946481
148	0xbc024537	-0.007951072
149	0xbdb86115	-0.09002892
150	0xbda1cbe9	-0.07900221
151	0x3c95e7ea	0.018299062
152	0x3de37a7d	0.11107347
153	0xbd53a981	-0.051675323
154	0xbcfbb890	-0.030727655
155	0x3dc26145	0.09491209
156	0xbd3c6420	-0.045993924
157	0x3dc83b70	0.09776962
158	0xbda7a5e5	-0.08185939
159	0x3bd02b0b	0.0063527874
160	0xbdd72de3	-0.10506799
161	0x3d2d7676	0.0423493
162	0x3c4e42bc	0.012589153
163	0xbdf89a4e	-0.12138806
164	0x3c31ce37	0.010852388
165	0x3c192ed8	0.009349547
166	0x3d15c8e2	0.03656853
167	0xbc15a573	-0.009133684
168	0xbc125a67	-0.008932686
169	0x3cf131fb	0.029442778
170	0x3cc1ae05	0.02364255
171	0xbdaec52b	-0.085337006
172	0x3da66ebe	0.08126591
173	0x3d0e6f96	0.034774385
174	0x3b3d201c	0.002885825
175	0xbd61f97b	-0.055169564
176	0x3c9c044b	0.019045016
177	0xbda39f26	-0.079893395
178	0x3cb0e355	0.021592775
179	0xbc8ed2ad	-0.017434442
180	0xbdb812d5	-0.08987967
181	0x3d055869	0.032555018
182	0xbd9241f9	-0.071414895
183	0x3dd3b16f	0.10336577
184	0xbd77bce6	-0.060482882
185	0xbc141470	-0.009038076
186	0xbded5059	-0.11587591
187	0x3d2ba726	0.041907452
188	0x3db2ad9f	0.08724522
189	0x3d925439	0.071449704
190	0xbcb4460d	-0.022006059
191	0xbce852e9	-0.028359847
192	0x3c8fcc26	0.0175534
193	0xbd6b2a0d	-0.05741315
194	0x3d31c2f8	0.043398827
195	0x3d212b81	0.03934813
196	0x3cfc2248	0.030778065
197	0xbdb5337f	-0.08847713
198	0x3da84e4f	0.08218061
199	0x3d1781d9	0.036989067
200	0x3d0cebe2	0.034404643
201	0xbd6e8653	-0.05823357
202	0x3cff8a48	0.031193867
203	0x3da30122	0.079592004
204	0x3c20fe57	0.009826264
205	0x3d7d3778	0.061820477
206	0x3d14c5fe	0.036321633
207	0xbd5f4e9d	-0.05451833
208	0xbba980cc	-0.0051728245
209	0xbdd95f64	-0.106138974
210	0xbd5a6c24	-0.053325787
211	0x3c8df0a0	0.017326653
212	0xbd285600	-0.04109764
213	0xbdb04eef	-0.086088054
214	0x3d03ebaf	0.032207187
215	0xbd804b39	-0.062643476
216	0x3db96c2f	0.090538375
217	0x3d7ca0f3	0.06167693
218	0xbd9e96ea	-0.07743628
219	0x3d5bc543	0.05365492
220	0xbcc2e5fc	-0.023791306
221	0x3c500e26	0.012698686
222	0xbcf7ff14	-0.030272998
223	0xbb7fbe88	-0.0039023478
224	0x3de9e383	0.114203475
225	0x3d39d154	0.045365646
226	0x3d313404	0.043262497
227	0xbd2f741f	-0.04283535
228	0x3dfb01ee	0.122562274
229	0xbd8ea104	-0.06964305
230	0x3d93bfff	0.07214355
231	0xbc3cf96b	-0.011534075
232	0xbd367561	-0.044545535
233	0xbd534d0a	-0.051587142
234	0x3d84e1f5	0.064884104
235	0xbdae1512	-0.085001126
236	0xbda112d9	-0.07864923
237	0xbdc688de	-0.09694074
238	0xbcdb489e	-0.026768025
239	0xbd22dfb2	-0.039764114
240	0x3cccb313	0.024987733
241	0x3e0bd86a	0.13656774
242	0x3cc11186	0.023567926
243	0x3af3010c	0.0018539741
244	0xbbb72de4	-0.0055901874
245	0x3d06ab54	0.032878235
246	0xbca1f6fd	-0.019771094
247	0x3d565e75	0.052336175
248	0x3d799d4f	0.060941037
249	0xbd0b8bd8	-0.034068912
250	0xbd934d99	-0.07192535
251	0xbd0e1337	-0.034686293
252	0xbdf08405	-0.11743931
253	0x3c177300	0.009243727
254	0x3c999646	0.018748414
255	0x3ddf8a74	0.1091508

actor.weight f4 [3, 128]
0	0xbefd0055	-0.49414316
1	0x3e3406b5	0.17580684
2	0x3e6578d2	0.2240937
3	0xbf11ade9	-0.5690599
4	0x3e3c6e98	0.18401563
5	0x3d4be32e	0.049777202
6	0x3e0ea01e	0.13928267
7	0x3d709062	0.058731444
8	0xbddc38c3	-0.10753014
9	0x3e5d9173	0.21637516
10	0x3dc4985b	0.09599372
11	0xbe3503aa	-0.17677179
12	0x3e63d6ed	0.22249956
13	0xbd1e31e4	-0.0386218
14	0x3e1f8b87	0.15580569
15	0x3e348ebf	0.17632578
16	0x3c1991af	0.009373113
17	0xbe5ec2cf	-0.21754001
18	0xbe26698b	-0.16251199
19	0x3e0dc2ad	0.13843794
20	0xbde62c69	-0.11238939
21	0x3e58821f	0.21143387
22	0xbf070f6a	-0.52757895
23	0x3e6cb11e	0.2311444
24	0xbe121ddd	-0.14269204
25	0xbe7d96af	-0.24764512
26	0xbed34bcc	-0.41268766
27	0xbe1db904	-0.15402609
28	0x3e9e4c32	0.30917507
29	0xbd668b33	-0.056285094
30	0xbe9134b8	-0.28360534
31	0xbeace7d0	-0.3377061
32	0xbe926692	-0.2859388
33	0x3d5b98c5	0.05361249
34	0x3e7dd219	0.24787177
35	0x3ebff33f	0.3749027
36	0x3d94dcf3	0.07268705
37	0x3e25c6c3	0.16189103
38	0x3e0a30ae	0.13495132
39	0xbdf364fb	-0.11884495
40	0xbd37f019	-0.04490671
41	0x3eeffe14	0.46873534
42	0xbe4707ff	-0.19436644
43	0xbe8af877	-0.2714269
44	0xbe08c0bd	-0.13354774
45	0xbe89958f	-0.26871917
46	0xbe5141b0	-0.20435214
47	0xbd45eb19	-0.04831991
48	0x3e5be597	0.214743
49	0xbe479d6a	-0.19493642
50	0x3ed27334	0.41103518
51	0x3e8453c5	0.2584516
52	0x3e850bac	0.25985467
53	0xbd02eb1f	-0.03196251
54	0xbe1185ba	-0.14211169
55	0x3e822a42	0.25422865
56	0x3e21edb9	0.1581334
57	0xbe351e39	-0.1768731
58	0xbebf0660	-0.3730955
59	0x3df73a98	0.12071723
60	0xbe4ddf0a	-0.20104614
61	0x3da92d7a	0.08260627
62	0xbe054102	-0.1301308
63	0x3d8b7105	0.06808666
64	0xbf0e1cd7	-0.55512756
65	0x3ec3c52e	0.38236374
66	0xbdf0f8b4	-0.11766186
67	0xbd393885	-0.045219917
68	0x3e827911	0.2548299
69	0xbe3ee12c	-0.18640584
70	0xbdcaa134	-0.09894028
71	0xbeedd7c1	-0.4645367
72	0x3e88e8eb	0.26740202
73	0xbed0b250	-0.40761042
74	0x3e352147	0.17688476
75	0x3e1a3174	0.15057927
76	0xbe595345	-0.21223171
77	0xbcd6d65e	-0.026225265
78	0xbdbb0b21	-0.09132982
79	0x3e93aac1	0.28841212
80	0x3ec261b8	0.37965178
81	0xbdd8092a	-0.10548623
82	0x3e8e58ef	0.27802226
83	0x3ea53239	0.3226488
84	0xbe8061a4	-0.25074494
85	0xbe0ec19f	-0.13941048
86	0x3ca9653e	0.020678159
87	0xbe0f099e	-0.13968512
88	0x3e257f20	0.16161776
89	0x3eb8decd	0.36107484
90	0xbe2e2218	-0.17005193
91	0x3eaa3031	0.33239892
92	0x3e1b1f90	0.15148759
93	0xbd5523b3	-0.052036
94	0x3e50cb46	0.20390043
95	0xbe1e3d00	-0.15452957
96	0xbea64ec3	-0.32481965
97	0x3e4f109f	0.20221184
98	0xbdd3e035	-0.103454985
99	0x3e4d3872	0.20041063
100	0x3dcd2f44	0.10018781
101	0xbe43ab04	-0.19108206
102	0x3ee692b1	0.45033792
103	0x3cf9fc15	0.03051571
104	0x3db6a676	0.08918469
105	0x3f03936f	0.5139684
106	0x3dee7909	0.116441794
107	0x3d96857b	0.07349678
108	0xbe791c68	-0.24327242
109	0xbedd656c	-0.4324144
110	0x3e392de1	0.18083908
111	0x3eb8ee01	0.36119083
112	0x3ec42a23	0.38313398
113	0xbd471fec	-0.048614427
114	0xbe00e6be	-0.12588021
115	0xbeab38fd	-0.33441916
116	0x3ca594c0	0.020212531
117	0xbe5bbe2f	-0.21459268
118	0xbdfda502	-0.12384988
119	0x3e0babf8	0.1363982
120	0xbebdbec2	-0.370596
121	0xbdd6d789	-0.10490329
122	0x3e95f62e	0.29289383
123	0xbe21fe82	-0.15819743
124	0xbf2c9c17	-0.67425674
125	0xbc1cf5fc	-0.009580132
126	0x3dd32136	0.10309069
127	0x3dde02ad	0.10840354
128	0x3be9788a	0.007124965
129	0x3d12e5ba	0.035863616
130	0xbe8be5e6	-0.27323836
131	0x3e68418c	0.22681254
132	0xbdc3d9bd	-0.09563015
133	0xbe812ce4	-0.2522956
134	0xbea5fc74	-0.3241917
135	0xbe102620	-0.14077044
136	0x3e8254f2	0.25455433
137	0xbe996c6b	-0.2996553
138	0xbe6a893e	-0.22903916
139	0xbd84da6d	-0.06486974
140	0xbe407b34	-0.18796998
141	0x3d4fae6f	0.050703462
142	0xbe83b466	-0.2572357
143	0xbe8a842a	-0.27053958
144	0x3e6e1a96	0.23252329
145	0x3dfd9f64	0.12383917
146	0xbe315218	-0.17316473
147	0xbea2de64	-0.31810296
148	0x3c9aedff	0.018912314
149	0xbdd2f842	-0.10301258
150	0x3e5be95e	0.21475741
151	0xbea0b5c7	-0.31388685
152	0x3d7e491a	0.062081434
153	0x3da499d4	0.08037153
154	0x3e1b8c79	0.15190305
155	0x3d8cb7ae	0.068709716
156	0xbef63b83	-0.4809228
157	0x3e7ca1ad	0.2467105
158	0xbe474097	-0.19458233
159	0xbd4dc252	-0.050234146
160	0xbdf71c76	-0.12065975
161	0x3e37e2c2	0.17957595
162	0x3d3657d9	0.04451737
163	0xbe9dca39	-0.30818346
164	0x3d39f237	0.04539701
165	0xbe93b783	-0.28850946
166	0x3d2c7fb6	0.042113982
167	0x3de4b7b9	0.11167855
168	0x3e8c1e8f	0.27367064
169	0x3d3bd69f	0.045858975
170	0x3e4f7d86	0.20262727
171	0xbe7a41f8	-0.24439228
172	0x3e814002	0.25244147
173	0x3d5844bc	0.052799925
174	0x3ee82882	0.45343405
175	0x3eb1b40b	0.34707674
176	0xbe21ce7b	-0.15801422
177	0x3e601566	0.21883163
178	0xbf039778	-0.51403
179	0xbe88f577	-0.26749775
180	0xbe0f9228	-0.14020598
181	0xbdbaa661	-0.091137655
182	0x3e838c4e	0.2569298
183	0x3c01fc1c	0.007933643
184	0xbd659537	-0.056050505
185	0xbd704d75	-0.05866762
186	0x3dd03438	0.1016621
187	0x3dfa7328	0.122289956
188	0x3d0480ae	0.03234928
189	0xbe1326a6	-0.14370212
190	0x3eadccf9	0.33945444
191	0xbe3a480c	-0.18191546
192	0x3a9b1cde	0.0011834165
193	0xbd9f39b3	-0.07774677
194	0x3ad989f8	0.0016596904
195	0xbebe10a5	-0.37122074
196	0x3c98a1ae	0.018631782
197	0x3e2962ff	0.1654167
198	0x3e90d859	0.2829006
199	0x3e8e997a	0.27851468
200	0xbf1b775b	-0.60728997
201	0x3e09e121	0.13464786
202	0xbe6963f2	-0.22792032
203	0xbe205c95	-0.15660317
204	0x3e4a53f2	0.19758585
205	0x3e6de00c	0.23229998
206	0xbe130236	-0.14356312
207	0xbe735fce	-0.23767015
208	0xbe14af7d	-0.14520068
209	0xbe45c2b3	-0.19312553
210	0xbe8d8417	-0.2763984
211	0x3e4c5a92	0.19956425
212	0xbece3fd9	-0.40283087
213	0xbca5c283	-0.020234352
214	0xbe76fcb2	-0.24119833
215	0x3e6a12ba	0.22858706
216	0x3e0c502a	0.13702455
217	0xbe41fccb	-0.18944089
218	0xbd937c03	-0.07201388
219	0x3c1bc697	0.009507797
220	0xbe2361b0	-0.15955234
221	0x3e9bb218	0.30409312
222	0x3d06e318	0.032931417
223	0x3e7005fe	0.23439786
224	0xba45fcb1	-0.00075526076
225	0xbdbc1cc9	-0.09185178
226	0x3e41e0ef	0.18933462
227	0xbe314ff5	-0.17315657
228	0x3d74b5a6	0.059743546
229	0x3e9ac09f	0.30225083
230	0x3e2bc5c0	0.16774654
231	0xbd4d7143	-0.050156843
232	0xbe55cc93	-0.2087882
233	0xbe95944c	-0.29214704
234	0xbd8d57cc	-0.069015115
235	0x3e5d146a	0.21589819
236	0x3df318e3	0.11869981
237	0xbe8ebb1c	-0.27877128
238	0xbdd86562	-0.10566212
239	0x3d8eee8a	0.069790915
240	0xbe4df902	-0.2011452
241	0x3e79f461	0.2440963
242	0x3df0ace4	0.11751726
243	0xbdf9a1c6	-0.12189059
244	0xbdf84d85	-0.12124161
245	0x3dc56d9d	0.09640048
246	0x3e74f425	0.23921259
247	0x3d8e445a	0.06946631
248	0x3d4e206d	0.050323892
249	0x3e3627ee	0.1778867
250	0xbe58aec5	-0.2116042
251	0xbd0f650d	-0.03500848
252	0x3e91ae77	0.2845342
253	0xbe401791	-0.1875899
254	0xbeb17edc	-0.346671
255	0xbc960805	-0.01831437

actor.bias f4 [3]
0	0x3c74145e	0.014897434
1	0xbd732900	-0.059365273
2	0x3d46109b	0.04835568

critic.weight f4 [1, 128]
0	0xbd911100	-0.070833206
1	0xbd00f70e	-0.03148561
2	0x3daacf24	0.0834029
3	0xbda974ca	-0.08274229
4	0xbe6e166e	-0.23250744
5	0x3e0cf8ec	0.13766831
6	0xbdeded50	-0.116175294
7	0xbd4badfc	-0.04972647
8	0xbd50e8c6	-0.05100324
9	0x3d2b86ce	0.041876607
10	0x3a072119	0.0005154773
11	0xbe11f74d	-0.14254494
12	0x3cd1f278	0.025628313
13	0x3d1cfd07	0.038327243
14	0xbdc8d53d	-0.09806297
15	0xbe3670ca	-0.17816463
16	0xbbaea85b	-0.005330128
17	0xbde3550e	-0.11100207
18	0xbd181dca	-0.037137784
19	0xbc14f4ca	-0.009091565
20	0x3da0680a	0.07832344
21	0x3c4c5d4e	0.012473417
22	0x3bd39120	0.006456509
23	0x3cecadf4	0.028891541
24	0x3d2a36c0	0.04155612
25	0xbdeb02b7	-0.11475127
26	0x3c15a713	0.009134072
27	0x3d70c3ef	0.058780607
28	0xbb99fecc	-0.0046995636
29	0x3d3b322f	0.045702156
30	0xbd983f22	-0.07433917
31	0xbd2a3050	-0.04154998
32	0x3d0351da	0.03206048
33	0xbdbe4786	-0.09290986
34	0xbd4c8671	-0.0499329
35	0x3d2ff2c3	0.042956125
36	0xbcd6b104	-0.026207455
37	0x3ba0d3d1	0.004908063
38	0x3c81c246	0.015839707
39	0x3d657e67	0.05602875
40	0xbd38d834	-0.045128062
41	0xbcab02da	-0.020875383
42	0xbd1bc944	-0.03803374
43	0x3d9e6812	0.077346936
44	0x3da91bd5	0.08257262
45	0x3c91bd70	0.017790526
46	0x3d9e9545	0.07743315
47	0x3cb021bf	0.021500466
48	0xba31f18d	-0.0006788008
49	0xbceee3af	-0.029161302
50	0xbdfbab17	-0.12288492
51	0xbb9483ec	-0.004532328
52	0x3bae6253	0.0053217798
53	0x3d19c56c	0.03754179
54	0x3de1a3cc	0.1101757
55	0x3e77f74c	0.2421543
56	0xbca691db	-0.020333221
57	0xbe298b86	-0.1655713
58	0x3b7dc28e	0.00387207
59	0xbd883720	-0.06651139
60	0xbd0633af	-0.032764133
61	0x3dc7fb50	0.09764731
62	0xbd7a26e5	-0.06107225
63	0x3d94dfaa	0.07269223
64	0x3a1aa651	0.0005899417
65	0xbca77b48	-0.020444527
66	0x3d8c4cf2	0.06850614
67	0xbced98f7	-0.029003603
68	0x3de089da	0.10963793
69	0x3ddeb628	0.10874587
70	0x3d8f987f	0.07011508
71	0x3d6955fc	0.056966767
72	0x3b028ed0	0.0019921549
73	0xbd7d9b71	-0.06191582
74	0xbe16871b	-0.14699976
75	0xbd6eb019	-0.05827341
76	0x3c5ee9a5	0.01360551
77	0xbaf98f91	-0.0019039979
78	0x3dddeb2f	0.10835873
79	0xbdba9cad	-0.09111915
80	0xbe37a097	-0.17932354
81	0x3d48f9da	0.049066402
82	0xbd275ed9	-0.04086194
83	0x3d920a55	0.07130877
84	0xbe0ec018	-0.13940465
85	0x3d165c58	0.03670916
86	0x3d7321d6	0.05935844
87	0x3e1fb431	0.15596081
88	0x3d14ddd2	0.036344357
89	0x3e154b51	0.14579512
90	0xbd88764a	-0.06663187
91	0x3de7e80b	0.113235556
92	0x3e1b5a68	0.15171206
93	0x3dad423a	0.08459897
94	0x3e2f427f	0.1711521
95	0x3d8b7908	0.06810194
96	0x3cf60e08	0.030035987
97	0xbc0f31b9	-0.008739882
98	0x3e53dd7d	0.2068996
99	0x3e30891e	0.17239806
100	0xbde794a1	-0.113076456
101	0x3dfcb4ae	0.123391494
102	0x3dde0884	0.10841468
103	0x3dce1910	0.10063374
104	0xbcee1281	-0.029061558
105	0xbbb4036c	-0.005493572
106	0xbddf8aa2	-0.10915114
107	0xbe1cbaf9	-0.153057
108	0x3cf0f9cc	0.029415987
109	0xbbab6ed4	-0.0052317176
110	0x3cc7ea96	0.024403851
111	0xbb4e58af	-0.0031485965
112	0xbd8bc46b	-0.06824573
113	0x3d894d15	0.06704155
114	0x3caf14b6	0.02137218
115	0xbc232587	-0.009957678
116	0xbd55834d	-0.05212717
117	0x3b13c5c4	0.0022548297
118	0xbe0e8e52	-0.13921478
119	0x3d613f10	0.05499178
120	0x3d696999	0.05698547
121	0x3dd60e5f	0.1045196
122	0x3d5c4bd5	0.053783257
123	0xbe6bdfb9	-0.23034562
124	0x3c03e2ce	0.00804968
125	0xbdd76ba1	-0.105185755
126	0x3d01ccf5	0.031689603
127	0x3e3b5824	0.18295342
