W__RNN/W_RNN/md/model_WV_17000.pt (torch, 307079 bytes, 9 tensors)

h0 f4 [1, 1, 128]
1.1136831 1.7694315 0.25568697 0.68417954 1.4973308 0.003960958 -0.22401635 -0.4313343
0.4812985 0.33006302 -0.34818965 -1.7115724 0.02066502 1.2564975 0.67435104 0.38712913
0.26586094 0.10643514 -0.10267171 -0.9282172 -2.4680235 1.7623937 1.0611422 0.012595094
-0.333968 -0.83217776 -0.59451646 0.18566644 0.91578573 1.0665574 0.82290775 -1.2358207
-0.11005316 1.3231109 -1.4294292 0.021877596 0.552718 -0.20234056 -0.2559873 1.1049124
1.2861596 -0.542489 -0.5180252 0.789898 0.2570259 -0.8564777 -1.1323137 -0.5991037
-0.62114394 0.36950114 -0.378522 -0.62819153 -0.563915 -0.41675127 -0.6162108 -0.0062517114
2.3276243 0.17029198 -0.62851226 -1.8096758 0.4219288 -0.15663633 -0.936908 -0.833281
-1.0992529 0.12792699 1.2927445 -1.3641386 1.5612139 1.7077981 0.12898071 1.3248532
1.1213465 -1.5577378 -0.7817209 -2.0692737 0.32814366 -1.0886507 -0.25373155 -1.7203826
0.49799305 2.0985045 0.7044934 -0.31989402 0.4010411 0.23187323 -2.5375772 -2.5578585
-0.10891299 -1.5957247 -1.1007763 -1.1237414 -1.0412554 -1.9978081 1.8001904 -1.852432
-0.2742567 0.12263557 -0.1976951 0.19999036 0.28997368 -2.2325199 -0.0014214114 0.51901335
-2.6785812 -0.7549676 1.097283 0.50548005 -0.70125115 -0.6772349 -0.22999142 0.9803115
0.3771584 1.9994766 0.8791136 1.0331225 -2.1717288 0.31446716 0.90526676 0.68790644
0.8120546 -1.1072396 -1.1392708 0.11319853 1.4895949 -0.6567621 1.4433575 1.3728662
00000000: 2b8d 8e3f bb7c e23f 67e9 823e 6426 2f3f
00000010: 89a8 bf3f edca 813b 8b64 65be d9d7 dcbe
00000020: c26c f63e 05fe a83e ea45 b2be ce14 dbbf
00000030: b049 a93c e9d4 a03f 45a2 2c3f ca35 c63e
00000040: ed1e 883e abfa d93d 8c45 d2bd a49f 6dbf
00000050: 19f4 1dc0 1e96 e13f 82d3 873f a75b 4e3c
00000060: dbfd aabe 9a09 55bf 3b32 18bf 581f 3e3e
00000070: ef70 6a3f f484 883f 15aa 523f 5f2f 9ebf
00000080: 8d63 e1bd b35b a93f 89f7 b6bf a538 b33c
00000090: ed7e 0d3f 5d32 4fbe c410 83be c56d 8d3f
000000a0: e1a0 a43f 8fe0 0abf 4d9d 04bf c136 4a3f
000000b0: e698 833e 1f42 5bbf a8ef 90bf dc5e 19bf
000000c0: 4a03 1fbf 412f bd3e a3cd c1be 29d1 20bf
000000d0: bc5c 10bf 6c60 d5be febf 1dbf 28db ccbb
000000e0: ccf7 1440 0561 2e3e 2ee6 20bf 75a3 e7bf
000000f0: 0d07 d83e 4665 20be 34d9 6fbf e751 55bf
00000100: 52b4 8cbf 4bff 023e a778 a53f 189c aebf
00000110: dbd5 c73f 2199 da3f 8513 043e ca94 a93f
00000120: 4888 8f3f f463 c7bf dc1e 48bf fb6e 04c0
00000130: 7202 a83e e858 8bbf 1ae9 81be 7f35 dcbf
00000140: f2f8 fe3e e64d 0640 ae59 343f 26c9 a3be
00000150: 4255 cd3e 2d70 6d3e aa67 22c0 f4b3 23c0
00000160: c60d dfbd b540 ccbf 3de6 8cbf c2d6 8fbf
00000170: db47 85bf 2db8 ffbf a46c e63f 7e1c edbf
00000180: 606b 8cbe 5c28 fb3d 9670 4abe 46ca 4c3e
00000190: 6e77 943e 9be1 0ec0 a74e baba 0fde 043f
000001a0: e06d 2bc0 8e45 41bf c573 8c3f 2467 013f
000001b0: 3285 33bf 445f 2dbf df82 6bbe b2f5 7a3f
000001c0: e81a c13e d9ee ff3f 970d 613f 5c3d 843f
000001d0: 9bfd 0ac0 d701 a13e 90bf 673f a31a 303f
000001e0: cfe2 4f3f 07ba 8dbf a0d3 91bf a2d4 e73d
000001f0: 0cab be3f 9021 28bf f0bf b83f 14ba af3f

c0 f4 [1, 1, 128]
0.66142553 0.08812381 1.1028974 1.7185123 -0.12746334 0.9786708 2.005526 2.0245645
-0.8367055 -0.13815528 0.48032978 -0.66899616 -1.2121582 0.87276894 0.99035454 1.164833
0.25145558 -0.5063612 -0.12855169 1.4687538 -0.5097059 0.7844946 0.47658756 -0.7144917
-1.4468718 -0.16047853 -0.13300805 -1.2368624 0.70696706 -1.0304142 -0.70144343 -0.66312385
1.1745026 -0.33780685 1.2860239 -0.3637675 -0.5880021 -0.066619046 -0.20596081 2.0604622
0.9791253 0.11601737 0.20422405 -0.9073382 0.5540975 -0.43803802 -0.23566368 -0.19120929
-0.8923776 0.087411016 0.2530774 0.42289123 0.49167943 0.3802917 -0.27671835 1.1254771
-0.6216555 -0.6726718 0.4281219 -0.31626475 0.47658396 -1.1935548 0.2428197 0.64535064
0.030318798 -1.3347496 -0.3988189 0.6864084 -0.9053981 0.26943323 -0.23087677 0.5617404
-0.9457974 0.652969 0.64278805 -0.9595705 0.45984048 -0.09434259 -0.29969862 1.6229088
1.4218938 -0.55453223 0.5349698 -1.7691108 0.6317162 -0.7036907 -1.0412905 -1.9624978
0.48487675 0.6777395 2.3949962 0.73344547 1.3464216 -0.37013328 -0.058615923 -1.0236257
-1.2129785 -1.8058795 -1.7331806 1.5768442 0.018026384 0.16447823 -1.02506 0.5014904
1.635684 -0.26057947 -1.7184664 -0.34888756 0.5927048 0.78340507 -1.2739859 0.48864198
0.77887684 -0.6874392 -0.43137124 -0.050570812 -0.87049973 -0.19369145 -1.0394782 0.5861619
-0.65281576 -1.9623467 0.85240316 -0.37766266 0.43172446 0.77178055 -1.8228536 1.4193176
00000000: 2f53 293f 427a b43d be2b 8d3f 36f8 db3f
00000010: c085 02be 2b8a 7a3f 8a5a 0040 7792 0140
00000020: 5532 56bf 9478 0dbe c9ed f53e 5543 2bbf
00000030: 0028 9bbf c96d 5f3f e087 7d3f 3f19 953f
00000040: c9be 803e e3a0 01bf 0ea3 03be 2000 bc3f
00000050: 167c 02bf a3d4 483f 4903 f43e eee8 36bf
00000060: 1833 b9bf 7c54 24be 4333 08be 8251 9ebf
00000070: cbfb 343f 9de4 83bf cc91 33bf 7cc2 29bf
00000080: 1a56 963f 05f5 acbe 6e9c a43f bc3f babe
00000090: 4e87 16bf 916f 88bd 64e7 52be 9dde 0340
000000a0: f5a7 7a3f 849a ed3d 1c20 513e 5147 68bf
000000b0: 55d9 0d3f 8546 e0be d251 71be 5ecc 43be
000000c0: dc72 64bf 8c04 b33d 5c93 813e 3385 d83e
000000d0: 68bd fb3e 98b5 c23e 07ae 8dbe a20f 903f
000000e0: d124 1fbf 3834 2cbf cb32 db3e 74ed a1be
000000f0: d002 f43e 67c6 98bf baa5 783e b335 253f
00000100: 215f f83c 13d9 aabf fe31 ccbe 76b8 2f3f
00000110: 2bc8 67bf 27f3 893e f66a 6cbe 38ce 0f3f
00000120: c71f 72bf fa28 273f c28d 243f 6aa6 75bf
00000130: 3670 eb3e b036 c1bd 1972 99be 7abb cf3f
00000140: 9e00 b63f d3f5 0dbf c8f3 083f 3972 e2bf
00000150: 27b8 213f 1325 34bf 0249 85bf 2133 fbbf
00000160: c441 f83e 5680 2d3f 9e47 1940 15c3 3b3f
00000170: 8b57 ac3f 1c82 bdbe 4017 70bd 2b06 83bf
00000180: e142 9bbf 0f27 e7bf ddd8 ddbf 08d6 c93f
00000190: 11ac 933c fb6c 283e 2b35 83bf ad61 003f
000001a0: 185e d13f ac6a 85be b5f6 dbbf 64a1 b2be
000001b0: 80bb 173f 3c8d 483f f811 a3bf 482f fa3e
000001c0: 7964 473f 04fc 2fbf b1dc dcbe 5723 4fbd
000001d0: 12d9 5ebf 0d57 46be 9f0d 85bf b50e 163f
000001e0: ef1e 27bf 2d2e fbbf 1837 5a3f 005d c1be
000001f0: fd0a dd3e 6993 453f 4453 e9bf 33ac b53f

RNN.weight_ih_l0 f4 [512, 17]
0.20095788 0.07161744 0.01774248 0.014123494 0.021497397 0.16988425 0.0485002 0.14262925
-0.04355106 0.02833797 0.12884971 -0.23026796 0.063004114 0.13680524 0.1307269 0.15534258
-0.17277461 0.0890517 -0.025830781 -0.04823947 0.08961882 0.009975758 0.102019355 0.008530218
-0.038517583 0.1480519 -0.0060954643 0.003093397 0.045101054 0.08933001 -0.069856904 -0.016034115
0.0890726 -0.0019085649 0.22265805 0.15497026 0.06424583 0.24574451 -0.05385627 -0.037536442
0.033991005 0.063237265 -0.047495846 -0.08340427 -0.06896221 -0.3054302 0.101351455 0.096978895
0.098228686 0.06509952 -0.09144148 0.2322714 -0.018554168 0.04448379 -0.03174381 0.10003923
0.019175591 0.053173475 -0.080325015 0.0373381 0.10279016 0.0004872809 0.089625195 -0.041460197
-0.0038649319 0.2310326 -0.0018800212 0.10131495 -0.07744925 -0.06986591 0.021418832 -0.018683
0.01423639 0.100537695 -0.043468975 -0.1153196 -0.03336142 -0.008739412 -0.20331317 -0.13530247
0.12377506 0.078699626 0.016455263 0.17786878 -0.13623714 -0.00070543506 0.12101165 0.010308767
0.017149707 0.14217986 0.06723418 0.07457058 0.05142795 0.15019915 0.21387734 -0.09095252
0.103659816 -0.06253659 0.0131290695 0.010199262 0.019734826 0.024261665 -0.025109284 0.059460364
-0.056980018 -0.013726584 -0.07268885 -0.12512061 -0.10127593 0.001958569 -0.10676659 -0.0970119
-0.10917454 0.00088326266 0.22884424 0.05585047 0.018418053 0.13875237 -0.02164094 0.051770676
0.086756825 0.086668044 0.05272906 0.14475791 0.17046015 0.14365482 0.15719996 0.20970497
0.0894968 0.05011412 -0.078430735 -0.059191734 -0.13980155 0.016082741 0.07854359 -0.013753228
-0.110645175 -0.06277085 -0.008176657 -0.0004555569 -0.020048859 -0.11664392 -0.011309187 -0.08025718
0.029554859 0.06559428 0.06505512 0.3196089 -0.14929369 -0.027697578 0.03846254 -0.0043597165
0.16253798 -0.10495336 0.046727035 0.00033386465 0.059033643 -0.027620018 0.0054163723 0.086973764
0.045058575 0.008894931 0.105589375 0.11053748 -0.09986169 -0.11686728 -0.08367318 -0.025636837
0.0119775385 -0.12626602 0.14695683 -0.038877502 -0.11293855 0.063305736 -0.0006019562 0.114137866
0.051106308 0.04681159 0.06220764 0.06790691 -0.07242481 -0.19095314 -0.035308037 0.0654679
0.025139911 0.100817755 -0.023337178 -0.11128272 0.050879125 0.03002989 0.10875384 0.07809792
0.14705792 0.1938628 0.21309526 0.25267857 0.23034407 0.18496245 -0.07538827 -0.07881506
-0.07041761 0.06832127 -0.009606245 -0.14400522 -0.01581016 -0.011661327 -0.034175508 -0.09373758
4.129177e-05 -0.13101402 -0.118168525 -0.097232975 -0.009955297 0.00092857634 -0.1424218 0.2777559
-0.02400002 0.060843326 -0.0048930096 0.05484925 0.16424052 -0.39089635 -0.00961197 -0.097272106
-0.04347846 -0.1558336 -0.1197649 -0.12957935 0.0072587496 -0.07500613 -0.17889285 0.25942102
0.14406908 0.16071181 -0.027072536 0.017495926 -0.09423163 0.12883507 0.058978092 0.053027757
0.005550893 0.05837914 0.041084725 0.122033805 -0.025737407 0.05873658 0.023118231 -0.10898365
-0.08500506 -0.043693352 0.1273224 0.05572352 0.03193959 0.1977617 0.029428717 0.06383934
00000000: e7c7 4d3e 2aac 923d ad58 913c 3a66 673c
00000010: 4f1b b03c 23f6 2d3e 25a8 463d 670d 123e
00000020: 9962 32bd 0825 e83c 2ef1 033e 5dcb 6bbe
00000030: 4d08 813d ac16 0c3e 46dd 053e 2012 1f3e
00000040: d4eb 30be bd60 b63d 139b d3bc c096 45bd
00000050: 128a b73d 5d71 233c 86ef d03d 54c2 0b3c
00000060: 9dc4 1dbd eb9a 173e 76bc c7bb 97ba 4a3b
00000070: e2bb 383d a7f2 b63d 2311 8fbd fa59 83bc
00000080: b26b b63d d028 faba 7900 643e 86b0 1e3e
00000090: 5193 833d 73a4 7b3e 6498 5cbd d0bf 19bd
000000a0: 273a 0b3d 8a82 813d 018b 42bd dccf aabd
000000b0: 0f3c 8dbd 5961 9cbe 5a91 cf3d df9c c63d
000000c0: 1f2c c93d e652 853d ac45 bbbd 8ed8 6d3e
000000d0: e9fe 97bc a234 363d cc05 02bd 5ee1 cc3d
000000e0: 2116 9d3c 6ecc 593d 7181 a4bd d6ef 183d
000000f0: a683 d23d bc79 ff39 6a8d b73d 2bd2 29bd
00000100: cc4a 7dbb cf93 6c3e 0b6b f6ba 367e cf3d
00000110: b69d 9ebd dc15 8fbd 8c76 af3c 170d 99bc
00000120: bf3f 693c b5e6 cd3d 860c 32bd af2c ecbd
00000130: fca5 08bd c02f 0fbc 5431 50be bb8c 0abe
00000140: c77d fd3d 452d a13d 30cd 863c 3c23 363e
00000150: c081 0bbe f2ec 38ba f5d4 f73d 1ae6 283c
00000160: 8b7d 8c3c 9997 113e 13b2 893d 76b8 983d
00000170: 1da6 523d cecd 193e a902 5b3e 5145 babd
00000180: 994b d43d 2f13 80bd 4f1b 573c ce1a 273c
00000190: eeaa a13c 66c0 c63c fcb1 cdbc b68c 733d
000001a0: e163 69bd 77e5 60bc e4dd 94bd 9e1f 00be
000001b0: c169 cfbd 565b 003b 71a8 dabd 2dae c6bd
000001c0: e796 dfbd c18a 673a 2556 6a3e 76c3 643d
000001d0: 75e1 963c 1a15 0e3e 5748 b1bc 7d0d 543d
000001e0: 90ad b13d 047f b13d 6dfa 573d 6b3b 143e
000001f0: 1b8d 2e3e 401a 133e 07f9 203e e6bc 563e
00000200: 194a b73d 7744 4d3d 4ba0 a0bd 0873 72bd
00000210: 2328 0fbe f4bf 833c 76db a03d 3855 61bc
00000220: f099 e2bd 018e 80bd 63f7 05bc d0d7 eeb9
00000230: 813d a4bc 02e3 eebd 2b4a 39bc e05d a4bd
00000240: 081d f23c 4b56 863d 9e3b 853d c7a3 a33e
00000250: 72e0 18be 08e6 e2bc e58a 1d3d f4db 8ebb
00000260: 5b70 263e caf1 d6bd d964 3f3d 8e0a af39
00000270: 43cd 713d 6043 e2bc d37b b13b 4d1f b23d
00000280: 578f 383d 0bbc 113c 3e3f d83d 7961 e23d
00000290: 4984 ccbd 1d58 efbd d85c abbd 5804 d2bc
000002a0: 703d 443c e14b 01be da7b 163e 043e 1fbd
000002b0: 544c e7bd 70a6 813d 99cc 1dba 1dc1 e93d
000002c0: d954 513d 83bd 3f3d 70cd 7e3d c712 8b3d
000002d0: 7553 94bd 3889 43be 299f 10bd 0914 863d
000002e0: 37f2 cd3c 8a79 ce3d 9c2d bfbc 32e8 e3bd
000002f0: a166 503d 3e01 f63c 55ba de3d cdf1 9f3d
00000300: 5a96 163e f883 463e a535 5a3e 165f 813e
00000310: 51df 6b3e cc66 3d3e 2a65 9abd ca69 a1bd
00000320: 1c37 90bd 06ec 8b3d 8363 1dbc 1b76 13be
00000330: 4f84 81bc 270f 3fbc 9efb 0bbd 7df9 bfbd
00000340: b330 2d38 8a28 06be 5702 f2bd 1522 c7bd
00000350: 8b1b 23bc b46b 733a 05d7 11be 0536 8e3e
00000360: b19b c4bc da36 793d 8a55 a0bb 9ba9 603d
00000370: ab2e 283e 9123 c8be 867b 1dbc 9936 c7bd
00000380: 7816 32bd d892 1fbe 4d47 f5bd 73b0 04be
00000390: ceda ed3b d09c 99bd b02f 37be d5d2 843e
000003a0: d886 133e a391 243e 39c7 ddbc 9e53 8f3c
000003b0: 83fc c0bd 57ed 033e 0393 713d a233 593d
000003c0: 44e4 b53b f71e 6f3d 7548 283d dcec f93d
000003d0: 41d7 d2bc c595 703d 7262 bd3c d232 dfbd
000003e0: 2217 aebd cdf7 32bd ce60 023e 593e 643d
000003f0: 16d3 023d 0b82 4a3e 7e14 f13c 33be 823d

RNN.weight_hh_l0 f4 [512, 128]
-0.07378817 0.122016236 0.02909347 -0.094767675 0.15138006 0.08910345 0.0892723 0.09392735
0.12543136 -0.050049957 0.10174256 0.06451425 -0.09312622 0.09200639 0.06463578 0.11688325
0.0880678 -0.12871507 -0.19753712 -0.027253779 -0.16854669 -0.026712833 0.008848924 0.05341664
-0.107630044 -0.01110555 -0.06371341 -0.18706113 0.02714821 0.109933384 -0.048610747 -0.047457337
-0.03530701 0.09431071 -0.11589823 0.025454044 0.12540436 -0.06655992 -0.045055717 0.043122854
0.14384398 0.18363094 0.18911038 -0.058106437 -0.18884407 0.017649464 -0.062630236 -0.05961242
-0.0994549 -0.019668883 0.19155845 0.22283612 0.01508916 -0.09745293 0.113430426 0.16276778
-0.1468095 -0.18348667 0.021607118 0.08154534 -0.17549556 -0.037159443 -0.05759 0.20058009
0.02410638 0.07056553 -0.14479464 -0.07433641 -0.034897786 0.07836696 0.0025195887 -0.10513015
0.16119091 -0.0006139418 -0.09871307 -0.011880877 -0.08907994 -0.040626492 -0.12110495 0.034803946
0.003706132 -0.09999767 0.09133465 0.049323 -0.08720448 0.03671958 -0.07441391 -0.15934551
0.08850598 0.115239516 -0.13782923 0.033613842 -0.08919721 -0.072076194 -0.047284514 -0.051247466
-0.06989582 0.07924108 -0.21654801 0.06229257 0.13762593 -0.19045284 0.07445291 -0.20047657
0.028986553 0.10609138 0.072773196 -0.13979132 -0.08684338 -0.013002273 0.19136292 0.1508737
0.0685171 0.019187333 0.0124199325 -0.14345397 0.031815343 0.13346903 -0.028933281 0.069160625
-0.21188854 -0.14376797 -0.026078355 -0.052615087 -0.103339136 0.18048182 0.05832201 0.066151135
-0.055344507 0.07226292 0.01616986 0.07231968 0.0044805864 0.070842884 -0.010750275 -0.017231185
0.11676401 -0.056675788 0.16690637 0.05263928 -0.07549455 0.0076032504 0.0045338827 0.08805425
-0.02670452 -0.10034204 -0.08274574 -0.001540549 -0.047457784 0.045994524 0.020664563 0.01974739
-0.06765586 -0.0825354 0.032411598 -0.0999406 0.0868458 0.042638317 -0.043935698 -0.030223703
-0.016411943 0.13218 0.037983876 0.0019053178 -0.022343146 -0.12592214 -0.050438106 0.077230714
0.092334285 -0.050122928 0.0775993 0.022553382 -0.06574529 0.035806235 -0.010450422 -0.0998333
-0.079032995 0.049695957 0.046628878 0.025449097 0.009601283 -0.12685919 0.095409006 0.10842678
-0.086932726 -0.17760918 0.01588185 -0.022788662 -0.05746 0.011217215 0.0841296 0.11806062
-0.05018062 -0.032875173 -0.09911761 0.06113248 -0.029973123 0.002832561 -0.010788186 0.06022629
0.0857281 0.022905583 -0.007998655 0.017075667 -0.021761632 -0.046929587 -0.09021025 -0.024518175
0.044528875 -0.07251174 0.057163563 -0.03037736 -0.07644867 -0.09217276 -0.08634851 -0.046772845
0.13677827 0.06894901 -0.013581703 -0.08527988 0.008551706 -0.031725686 0.042097762 0.032812838
-0.08032101 0.03255868 -0.021059532 0.08753072 0.07698934 0.015225374 0.033373524 -0.111506544
0.029583082 0.103233695 0.114861615 -0.009454383 -0.11054349 0.014806467 0.08052173 0.07625011
0.014904002 0.061366454 0.12483496 -0.03917392 0.0059988517 0.126143 0.0056068716 0.14213249
-0.02287303 0.0060110157 -0.13400124 -0.06633467 0.06714051 0.06022674 0.016702132 0.09965051
00000000: 411e 97bd a6e3 f93d 6e55 ee3c 8e15 c2bd
00000010: 6003 1b3e df7b b63d 65d4 b63d fc5c c03d
00000020: 1471 003e 2f01 4dbd 675e d03d 0c20 843d
00000030: f6b8 bebd d96d bc3d c45f 843d 7c60 ef3d
00000040: e45c b43d e2cd 03be 2c47 4abe 5143 dfbc
00000050: 8197 2cbe dfd4 dabc 14fb 103c 68cb 5a3d
00000060: 246d dcbd 0ef4 35bc 2d7c 82bd f48c 3fbe
00000070: ec65 de3c c124 e13d 101c 47bd a062 42bd
00000080: 159e 10bd f925 c13d 0d5c edbd 0085 d03c
00000090: 006a 003e 9150 88bd 588c 38bd 97a1 303d
000000a0: d64b 133e c009 3c3e 27a6 413e 0401 6ebd
000000b0: 5760 41be 9c95 903c 4844 80bd 272c 74bd
000000c0: 03af cbbd a320 a1bc e627 443e 272f 643e
000000d0: 8638 773c 6795 c7bd 364e e83d 99ac 263e
000000e0: 3b55 16be eee3 3bbe 6901 b13c 3e01 a73d
000000f0: 1cb5 33be 8034 18bd 7ee3 6bbd de64 4d3e
00000100: be7a c53c a984 903d 0c45 14be b03d 98bd
00000110: fbf0 0ebd db7e a03d af1f 253b 7a4e d7bd
00000120: 3b0f 253e f0f0 20ba 142a cabd 03a8 42bc
00000130: 8b6f b6bd f767 26bd df05 f8bd 958e 0e3d
00000140: 94e2 723b 94cb ccbd a90d bb3d ea06 4a3d
00000150: 4398 b2bd 4567 163d 5266 98bd 782b 23be
00000160: a042 b53d b202 ec3d 1b23 0dbe abae 093d
00000170: 07ad b6bd af9c 93bd 68ad 41bd dde8 51bd
00000180: 8a25 8fbd 2649 a23d c3be 5dbe 7e26 7f3d
00000190: d0ed 0c3e 1206 43be c47a 983d bb49 4dbe
000001a0: 3575 ed3c 7046 d93d 1d0a 953d 7525 0fbe
000001b0: f1da b1bd 7c07 55bc a4f4 433e a37e 1a3e
000001c0: b152 8c3d c12e 9d3c f97c 4b3c 99e5 12be
000001d0: ce50 023d 1bac 083e 7d05 edbc 16a4 8d3d
000001e0: 4ff9 58be e937 13be 46a2 d5bc eb82 57bd
000001f0: 78a3 d3bd 3ad0 383e 0fe3 6e3d 3f7a 873d
00000200: ecb0 62bd 95fe 933d a776 843c 571c 943d
00000210: e2d1 923b 1316 913d ec21 30bc 6a28 8dbc
00000220: f821 ef3d df24 68bd 81e9 2a3e 499c 573d
00000230: e39c 9abd b024 f93b f790 943b c955 b43d
00000240: 70c3 dabc 2180 cdbd 9976 a9bd 3fec c9ba
00000250: 1863 42bd c164 3c3d bb48 a93c 47c5 a13c
00000260: 288f 8abd 5208 a9bd 06c2 043d a8ad ccbd
00000270: 36dc b13d 84a5 2e3d ebf5 33bd b397 f7bc
00000280: 5772 86bc 325a 073e fb94 1b3d dbbb f93a
00000290: f908 b7bc bcf1 00be 3098 4ebd 232b 9e3d
000002a0: c219 bd3d b34d 4dbd 62ec 9e3d dfc1 b83c
000002b0: 77a5 86bd 8fa9 123d 3f38 2bbc 6775 ccbd
000002c0: 0ddc a1bd fd8d 4b3d ecfd 3e3d a07a d03c
000002d0: b34e 1d3c 60e7 01be cc65 c33d dc0e de3d
000002e0: c909 b2bd 2edf 35be a71a 823c 4aaf babc
000002f0: 2d5b 6bbd 69c8 373c 244c ac3d c4c9 f13d
00000300: 328a 4dbd 1ea8 06bd 2cfe cabd 0d66 7a3d
00000310: 328a f5bc 7da2 393b efc0 30bc d8af 763d
00000320: 3792 af3d 7da4 bb3c ca0c 03bc 45e2 8b3c
00000330: 7345 b2bc 3d39 40bd 27c0 b8bd 57da c8bc
00000340: e963 363d 0981 94bd 5724 6a3d f1d9 f8bc
00000350: 1f91 9cbd 12c5 bcbd 7dd7 b0bd e294 3fbd
00000360: 9a0f 0c3e 2335 8d3d cb85 5ebc 38a7 aebd
00000370: 741c 0c3c cbf2 01bd b46e 2c3d c166 063d
00000380: 577f a4bd 405c 053d 0a85 acbc 4e43 b33d
00000390: 96ac 9d3d d973 793c adb2 083d 8b5d e4bd
000003a0: 3858 f23c 306c d33d 913c eb3d 8ee6 1abc
000003b0: a064 e2bd d396 723c 94e8 a43d 0529 9c3d
000003c0: ea2f 743c 645b 7b3d 79a9 ff3d d574 20bd
000003d0: 0492 c43b a12b 013e d9b9 b73b 2e8b 113e
000003e0: 3860 bbbc 0ef8 c43b 9f37 09be 79da 87bd
000003f0: f780 893d 50b0 763d e9d2 883c 9115 cc3d

RNN.bias_ih_l0 f4 [512]
0.11410129 0.06843705 0.14000937 0.026386855 0.014779491 0.053060025 0.09901397 -3.8216054e-05
-0.051621053 0.15412161 0.11832883 -0.042038 0.02474877 0.0658853 -0.026177203 0.05524047
-0.04523849 0.053883143 0.010079527 0.05431893 0.00027417153 0.028037628 0.09635642 0.18863049
-0.022892118 0.09798733 0.09176135 0.08292999 0.12598562 0.104389794 0.06917998 0.07505946
0.1707541 0.06347767 0.14112388 0.12771915 0.12683536 -0.027337587 0.073440306 0.06846352
0.075891 0.1305602 -0.01716854 0.17314939 0.13746451 0.077505335 0.06787236 0.071990535
-0.042652946 0.073433645 0.03391335 0.054443944 0.1259393 0.15895487 0.09343862 0.052534077
0.021440461 0.16908081 0.13394421 0.12855269 0.036655813 -0.03891348 0.05278264 -0.037748933
0.056902703 0.089932926 0.13581568 0.064822994 0.14610758 0.12683062 -0.016235564 0.19926053
0.23799749 0.042406376 0.07888544 0.10535434 0.09367939 -0.0013731393 0.15380536 0.04612294
0.10542761 0.00369823 0.02249418 0.16733563 0.035890654 0.011313667 0.104116544 -0.013626498
0.118058085 0.20885733 0.16222161 0.042171977 -0.046211444 0.053102404 0.06675386 0.13733372
-0.038863916 -0.010784833 0.023457585 -0.02428675 0.004806966 0.11997966 0.11824313 0.016216543
-0.058698524 0.13092557 0.043230075 0.024610488 -0.06385486 0.104250275 0.0105001135 0.032857038
0.029006146 0.06524523 -0.04211718 0.19459659 0.05750711 0.18465929 0.030766793 0.01671381
0.15856853 0.14129096 0.09839425 0.033371028 0.18357144 0.13450493 0.0743136 0.12436708
-0.025869243 -0.007992128 -0.044394743 0.05482836 -0.005543068 -0.0928119 0.010366902 0.0058833505
0.03526197 0.04091484 0.104040295 0.031211555 -0.010789702 -0.07141956 0.109498136 0.11348376
0.007892248 0.013427252 0.07794535 0.06896206 0.10179598 0.0479763 -0.0975497 -0.0821778
0.0017011947 0.012525708 -0.038577672 0.11898352 -0.06675926 -0.05444708 -0.031152777 0.07137057
0.011748181 0.05291797 0.016961958 -0.030045813 0.075114235 0.039992116 -0.017937638 0.010076265
0.043047186 0.059721738 0.017732339 -0.061783176 -0.014832396 0.021098793 0.004980108 -0.036455303
0.040300693 -0.041784037 -0.07111387 0.037726518 0.0635643 -0.093191385 0.027472155 -0.05098702
-0.053174414 0.038085885 0.048144322 0.0091583785 0.044851072 -0.066508 -0.011555208 0.029140275
-0.03254308 -0.027050836 -0.015926844 -0.117928945 -0.09579786 0.06475684 -0.053356607 -0.09464044
0.012706314 -0.04268401 0.008176362 -0.014906822 0.073463485 0.07593223 0.008558571 0.026294053
-0.15215208 -0.06647181 -0.009879757 -0.090061724 -0.15749462 -0.1134879 -0.0036285014 0.03422172
-0.029468326 -0.0064575216 0.021355603 -0.06965637 0.09789208 0.02999518 -0.10022665 0.022412127
0.08567691 -0.054497346 0.12006824 0.023908976 0.13388012 -0.01656297 0.04263243 0.11327166
0.05026516 -0.08935824 0.08403477 -0.026649041 0.031116925 -0.16807424 -0.006836208 0.047550097
-0.046125613 -0.025749167 -0.0057425904 -0.07883022 0.045597114 0.042886432 -0.015243887 0.045801014
-0.07283738 0.07495387 -0.037437905 0.016089719 -0.06543882 0.12901953 -0.009949024 0.016034272
00000000: f0ad e93d b928 8c3d 9e5e 0f3e 3f29 d83c
00000010: ae25 723c 7855 593d d6c7 ca3d 2d4a 20b8
00000020: 9970 53bd 0ed2 1d3e 6356 f23d 0a30 2cbd
00000030: efbd ca3c dfee 863d 9371 d6bc d543 623d
00000040: ff4b 39bd 92b4 5c3d 9a24 253c 877d 5e3d
00000050: aebe 8f39 2baf e53c 8456 c53d 5a28 413e
00000060: 4088 bbbc 95ad c83d 60ed bb3d 33d7 a93d
00000070: 6002 013e 51ca d53d 3cae 8d3d c6b8 993d
00000080: 2ada 2e3e 9500 823d c782 103e cfc8 023e
00000090: 21e1 013e 13f3 dfbc df67 963d 9a36 8c3d
000000a0: be6c 9b3d 93b1 053e 0aa5 8cbc 134e 313e
000000b0: 7fc3 0c3e 1ebb 9e3d aa00 8b3d c66f 933d
000000c0: dbb4 2ebd 6164 963d bae8 0a3d 9d00 5f3d
000000d0: 3bf6 003e 11c5 223e bf5c bf3d f92d 573d
000000e0: e8a3 af3c 8523 2d3e ac28 093e 51a3 033e
000000f0: 6824 163d be63 1fbd 9c32 583d a09e 1abd
00000100: cf12 693d c12e b83d 4413 0b3e ebc1 843d
00000110: 3a9d 153e e3df 013e 7200 85bc f40a 4c3e
00000120: 9db5 733e 4fb2 2d3d b18e a13d 04c4 d73d
00000130: fbda bf3d e9fa b3ba 277f 1d3e 68eb 3c3d
00000140: 6eea d73d 015e 723b b745 b83c 085a 2b3e
00000150: 1402 133d f55c 393c 0e3b d53d ad41 5fbc
00000160: 70c8 f13d b2de 553e 6c1d 263e 86bc 2c3d
00000170: 3648 3dbd e881 593d 3fb6 883d 36a1 0c3e
00000180: c52f 1fbd deb2 30bc 1f2a c03c 02f5 c6bc
00000190: c183 9d3b e5b7 f53d 7429 f23d 8ed8 843c
000001a0: dd6d 70bd 5a11 063e 0512 313d ef9b c93c
000001b0: 56c6 82bd 2b81 d53d ab08 2c3c 1a95 063d
000001c0: 4c9e ed3c 4b9f 853d 1083 2cbd 5444 473e
000001d0: 938c 6b3d 5317 3d3e a40a fc3c 66eb 883c
000001e0: ca5f 223e 94ae 103e ed82 c93d 0fb0 083d
000001f0: 27fa 3b3e a9bb 093e bb31 983d 2bb4 fe3d
00000200: bceb d3bc 6af1 02bc 43d7 35bd b493 603d
00000210: a0a2 b5bb 2a14 bebd f0d9 293c 1fc9 c03b
00000220: db6e 103d 5296 273d 1413 d53d 60af ff3c
00000230: 4ac7 30bc 6b44 92bd 8f40 e03d 2c6a e83d
00000240: 7d4e 013c fafd 5b3c d0a1 9f3d fb3b 8d3d
00000250: 697a d03d cc82 443d 23c8 c7bd d64c a8bd
00000260: 9ffa de3a a138 4d3c 9f03 1ebd a2ad f33d
00000270: 14b9 88bd e703 5fbd 1c34 ffbc bc2a 923d
00000280: 717b 403c 83c0 583d cef3 8a3c a322 f6bc
00000290: 7ed5 993d c6ce 233d f4f1 92bc eb16 253c
000002a0: 3f52 303d c89e 743d 6943 913c 5b10 7dbd
000002b0: 9403 73bc 60d7 ac3c 2c30 a33b 2852 15bd
000002c0: 5712 253d bd25 2bbd 26a4 91bd 1f87 1a3d
000002d0: 002e 823d 20db bebd 490d e13c c4d7 50bd
000002e0: 6acd 59bd f2ff 1b3d fb32 453d 060d 163c
000002f0: c2b5 373d 5935 88bd 0e52 3dbc 96b7 ee3c
00000300: e54b 05bd b799 ddbc 0379 82bc bb84 f1bd
00000310: ab31 c4bd 3c9f 843d 758c 5abd d9d2 c1bd
00000320: 252e 503c 6ed5 2ebd 26f6 053c be3b 74bc
00000330: 0674 963d 5b82 9b3d 4039 0c3c a066 d73c
00000340: c1cd 1bbe 5f22 88bd b4de 21bc 4872 b8bd
00000350: 4546 21be 586c e8bd 27cc 6dbb 132c 0c3d
00000360: 8f67 f1bc 9e99 d3bb f2f1 ae3c 00a8 8ebd
00000370: a57b c83d 74b8 f53c a143 cdbd a399 b73c
00000380: 6077 af3d 9c38 5fbd 56e6 f53d c2dc c33c
00000390: df17 093e 11af 87bc 589f 2e3d f9fa e73d
000003a0: d7e2 4d3d 7401 b7bd 6c1a ac3d 174f dabc
000003b0: ece8 fe3c a71b 2cbe 4502 e0bb e4c3 423d
000003c0: 36ee 3cbd ebef d2bc 572c bcbb bd71 a1bd
000003d0: 0ac4 3a3d afa9 2f3d 7fc1 79bc d899 3b3d
000003e0: c42b 95bd 6a81 993d 7d58 19bd 96ce 833c
000003f0: ca04 86bd b21d 043e 3b01 23bc 4e5a 833c

RNN.bias_hh_l0 f4 [512]
0.13369529 0.16325071 0.07763074 0.1412695 0.113808304 0.18592057 0.019558132 -0.020078301
-0.008865203 -0.005060958 0.011061122 0.033252 0.06602846 -0.021187553 0.13988301 -0.030685484
-0.04560707 0.10478548 0.05727979 0.036202583 0.0948542 0.050822984 0.16123278 0.12922125
0.0730027 0.09540158 0.15876554 0.13107131 0.16356295 0.058534704 0.074689224 0.058977753
0.0410788 0.07116095 0.052108012 0.17348488 0.089408115 0.10956082 0.06252397 0.22288209
0.10450813 0.17568259 0.02331334 0.09783923 0.08618246 0.13843016 0.16429037 0.13387229
0.042936955 -0.021335976 -0.0082996255 -0.041259196 0.12729254 -0.014476725 0.005557896 0.12424961
0.027327761 0.059582658 0.0052476027 0.16214076 0.07278296 -0.013829721 -0.02456196 0.05538364
0.18793981 0.13296707 0.13056079 0.05771831 -0.010742523 0.14728345 0.14355928 0.06520445
0.11038461 0.07035005 -0.0482197 0.08655597 0.09575907 0.03828092 0.09738429 0.19460478
0.15815902 0.1515732 0.07785284 0.1428445 0.11557932 0.107786246 0.083877586 0.010014381
0.108202435 0.21854663 0.104644805 0.041604057 0.05538838 0.1536491 0.021939768 0.17267384
0.03367166 -0.010119066 0.08840416 0.13620894 -0.035554487 0.0937083 0.06331598 0.04999847
-0.07569818 0.1306908 0.13628997 -0.033202365 0.098917484 0.040816788 -0.04719335 -0.015800226
0.19126709 0.04615859 -0.0042359703 0.14804316 0.040308226 0.09991205 -0.025374547 -0.0018224115
0.056473557 -0.019321807 0.14078915 0.044595186 0.23613049 -0.015491763 0.07485599 0.05187272
0.06587965 0.1418034 -0.027324958 0.03187478 0.09458836 0.050976302 -0.082333975 -0.04048778
0.08567581 -0.084929556 0.050188396 0.085169576 -0.045905728 0.09835542 -0.016326034 0.040052764
0.009418022 0.07993796 0.04724852 -0.0095753865 -0.0044818684 -0.08226301 -0.0791549 0.019657873
0.12327469 -0.05489788 -0.028827235 0.09491216 -0.0427255 0.09512352 -0.08133873 0.0028081466
-0.106145985 0.04239137 0.029566046 -0.12156706 0.010846626 0.009499034 0.052309155 -0.006629021
-0.009057401 0.032726258 0.023953514 -0.08385588 0.08143662 0.036796313 0.001319838 -0.05712895
0.023951268 -0.078470714 0.010380457 -0.017207155 -0.08387936 0.03507017 -0.07384262 0.104380466
-0.06351203 -0.011736311 -0.10509638 0.04334269 0.087648705 0.07423717 -0.023131019 -0.028305868
0.02162008 -0.050167125 0.042070918 0.039962288 0.033323202 -0.08475667 0.08131693 0.036929682
0.03256998 -0.05722649 0.03003148 0.08507657 0.009955685 0.06203864 0.03543497 -0.057960644
-0.0059178616 -0.10860088 -0.06115521 0.017517718 -0.04337679 -0.08846131 0.029887373 -0.06616795
0.09106287 0.062494643 -0.0770219 0.06297492 -0.024852555 0.013746931 -0.025637345 0.017309004
0.114205554 0.045594573 0.06314064 -0.047840517 0.12258836 -0.0666476 0.07581543 0.003938796
-0.04635083 -0.059116747 0.06714011 -0.0784841 -0.07648948 -0.09817049 -0.022916088 -0.037200205
0.022620546 0.13656905 0.023401424 -0.0018580933 -0.001794544 0.038164787 -0.021612007 0.056779765
0.06382148 -0.035443023 -0.073762156 -0.026598051 -0.11763612 0.00929946 0.01982787 0.10917569
00000000: 6be7 083e 322b 273e defc 9e3d f4a8 103e
00000010: 5414 e93d f661 3e3e 6038 a03c 407b a4bc
00000020: 5b3f 11bc 65d6 a5bb b539 353c 4033 083d
00000030: ee39 873d 8591 adbc 7e3d 0f3e 2060 fbbc
00000040: 7bce 3abd c599 d63d 379e 6a3d 2949 143d
00000050: eb42 c23d c32b 503d 351a 253e 9352 043e
00000060: 7182 953d e761 c33d 6f93 223e 8f37 063e
00000070: 0c7d 273e 16c2 6f3d aaf6 983d a892 713d
00000080: 3e42 283d d5bc 913d 366f 553d 05a6 313e
00000090: 9a1b b73d 6c61 e03d 910c 803d 343b 643e
000000a0: 5c08 d63d 23e6 333e 9efb be3c ef5f c83d
000000b0: 6e80 b03d a3c0 0d3e bc3b 283e d115 093e
000000c0: a9de 2f3d c9c8 aebc 27fb 07bc 67ff 28bd
000000d0: fa58 023e c92f 6dbc 031f b63b 9476 fe3d
000000e0: 78de df3c f20c 743d 15f4 ab3b 3a08 263e
000000f0: 3c0f 953d 0e96 62bc 2a36 c9bc f5d9 623d
00000100: 4b73 403e 8528 083e bab1 053e 096a 6c3d
00000110: 6801 30bc 79d1 163e 3401 133e e989 853d
00000120: 5411 e23d b013 903d 0582 45bd 4244 b13d
00000130: 551d c43d 74cc 1c3d 6a71 c73d 7a46 473e
00000140: 70f4 213e 0136 1b3e 4f71 9f3d d445 123e
00000150: dab4 ec3d 09bf dc3d 03c8 ab3d 5c13 243c
00000160: 3d99 dd3d b0ca 5f3e 0450 d63d 0469 2a3d
00000170: edde 623d 3156 1d3e 07bb b33c 69d1 303e
00000180: 4beb 093d 70ca 25bc 3e0d b53d 5b7a 0b3e
00000190: 95a1 11bd 23ea bf3d cfab 813d 32cb 4c3d
000001a0: a607 9bbd cfd3 053e 998f 0b3e 34ff 07bd
000001b0: 4095 ca3d 812f 273d d04d 41bd 7a6f 81bc
000001c0: 85db 433e ca10 3d3d e5cd 8abb a098 173e
000001d0: 3d1a 253d b09e cc3d 48de cfbc fcdd eeba
000001e0: d150 673d c448 9ebc 082b 103e 71a9 363d
000001f0: 31cc 713e 2ad1 7dbc 194e 993d 7d78 543d
00000200: e9eb 863d e934 113e 97d8 dfbc 218f 023d
00000210: 8bb7 c13d 87cc 503d b79e a8bd 84d6 25bd
00000220: cd76 af3d 8cef adbd 5992 4d3d 636d ae3d
00000230: a507 3cbd 916e c93d 2dbe 85bc 5e0e 243d
00000240: 0c4e 1a3c 83b6 a33d aa87 413d 15e2 1cbc
00000250: a3dc 92bb 8279 a8bd f71b a2bd 8c09 a13c
00000260: 7177 fc3d 99dc 60bd 1827 ecbc 4e61 c23d
00000270: ef00 2fbd 1fd0 c23d ec94 a6bd e208 383b
00000280: 1163 d9bd 93a2 2d3d 7e34 f23c 27f8 f8bd
00000290: 0cb6 313c d6a1 1b3c 2042 563d 4238 d9bb
000002a0: 7e65 14bc f80b 063d 293a c43c a2bc abbd
000002b0: 3ec8 a63d bbb7 163d 6afe ac3a 0c00 6abd
000002c0: 7335 c43c 41b5 a0bd cb12 2a3c 05f6 8cbc
000002d0: f1c8 abbd bda5 0f3d cd3a 97bd 6dc5 d53d
000002e0: 9812 82bd a849 40bc c53c d7bd 1b88 313d
000002f0: 2a81 b33d a809 983d 437d bdbc b5e1 e7bc
00000300: 981c b13c 0b7c 4dbd 8e52 2c3d 7faf 233d
00000310: e97d 083d e894 adbd 7e89 a63d 9443 173d
00000320: 1968 053d 5366 6abd 9404 f63c a03c ae3d
00000330: 2b1d 233c 3b1c 7e3d 4224 113d 2468 6dbd
00000340: 9fea c1bb 236a debd e37d 7abd 5181 8f3c
00000350: dcab 31bd 342b b5bd 5dd6 f43c 1083 87bd
00000360: 2c7f ba3d 62fa 7f3d a8bd 9dbd fff8 803d
00000370: 9697 cbbc cf3a 613c 6905 d2bc 9dcb 8d3c
00000380: 9ae4 e93d 60c1 3a3d e14f 813d 6bf4 43bd
00000390: 9b0f fb3d 897e 88bd 1f45 9b3d 0411 813b
000003a0: 5eda 3dbd 6724 72bd c180 893d 46bc a0bd
000003b0: 84a6 9cbd 9c0d c9bd 85ba bbbc 3e5f 18bd
000003c0: b94e b93c c2d8 0b3e 58b4 bf3c 448b f3ba
000003d0: e836 ebba ae52 1c3d aa0b b1bc e691 683d
000003e0: d6b4 823d b42c 11bd 9d10 97bd 28e4 d9bc
000003f0: 35eb f0bd c35c 183c 0f6e a23c 8197 df3d

actor.weight f4 [3, 128]
-0.56587076 0.05022592 0.14728525 -0.70738584 0.10273323 -0.023617512 0.0670034 -0.10209772
-0.23497784 0.34705487 -0.052432064 -0.35117975 0.37226832 -0.23225155 -0.00839337 0.027226366
0.12811193 -0.32724813 -0.02435373 0.26608425 0.042054884 0.38857135 -0.76274276 0.36523345
-0.029110331 -0.31273425 -0.6198965 -0.0025664878 0.19615145 0.018910663 -0.30481043 -0.37744448
-0.33221218 -0.08341942 0.4529164 0.583209 -0.0676739 0.2940063 0.30232874 -0.31600693
-0.22148106 0.5536849 -0.33157375 -0.29865566 0.011609283 -0.29593268 -0.11907517 0.021507801
0.4200007 -0.33438593 0.3226155 0.10904285 0.46595004 0.085604936 -0.3184114 0.21710387
0.3012787 -0.165557 -0.55557007 0.13934095 -0.1263027 0.26464966 -0.06183551 -0.11541708
-0.7264799 0.59261024 -0.15173718 -0.12484865 0.4701901 -0.393674 -0.057885967 -0.6783915
0.18822193 -0.6128136 0.31019902 0.31283674 -0.0626669 0.13284793 -0.15358335 0.40785515
0.6344713 -0.1519919 0.20787837 0.34153867 -0.27769193 -0.18195486 0.07965805 -0.055917777
0.17834412 0.58866996 -0.20244119 0.5511833 0.28776833 0.029177481 0.26190576 -0.05412286
-0.22759417 0.11444237 0.058519237 0.1274826 -0.028954335 -0.15193368 0.5192096 0.18844116
-0.023181226 0.7420681 -0.0055050985 0.17825027 -0.19150437 -0.46347937 0.019839326 0.410466
0.57217854 -0.18003693 -0.33821037 -0.36726493 -0.12030993 -0.42366645 -0.26365152 -0.011293679
-0.44405043 -0.030415708 0.50629205 -0.0414747 -0.9169463 -0.17730954 0.09251341 -0.033482235
0.027368978 -0.11405456 -0.4837199 0.22691852 -0.26783302 -0.45362484 -0.5327677 -0.3340745
0.21935458 -0.32803187 -0.45740458 -0.21299148 -0.08338593 -0.14137179 -0.48306295 -0.49277934
0.317638 0.14312078 -0.037151232 -0.30938098 0.1937833 -0.046859417 0.18473698 -0.36159837
0.21019556 0.107112244 0.15288904 0.2812922 -0.72055686 0.3156456 -0.20201318 -0.01790713
-0.13135819 0.061481178 0.18694602 -0.2482503 -0.10750764 -0.32872573 0.21703121 -0.07568517
0.18662879 0.030714344 0.16464436 -0.24304694 0.47546327 0.09346252 0.6695491 0.5577304
-0.031181216 0.1758029 -0.76601857 -0.49929565 -0.033220064 -0.1047965 0.18822336 -0.10414313
0.050389532 0.011636403 0.074899204 0.12257251 0.16596948 -0.008544317 0.5390074 -0.4070961
-0.031407624 -0.014814399 -0.05818829 -0.53944254 0.15688455 -0.013412667 0.3345925 0.23684637
-0.8202139 0.0844743 -0.20089915 -0.054216154 0.42869037 0.4589241 -0.16069171 -0.30595812
-0.100839645 -0.30629042 -0.47666004 0.17259878 -0.45709726 -0.029172089 -0.30980396 0.4246378
0.11821669 -0.0908752 -0.04584878 0.08288545 -0.11713336 0.5059388 0.021046557 0.41255534
0.15467326 -0.26655948 0.40919596 -0.36546087 -0.07865987 0.47223452 0.16338733 0.12572828
-0.3478321 -0.2892219 -0.24039072 0.35360473 0.22547552 -0.2805321 -0.3417454 0.06244096
-0.17648682 0.19355576 -0.036887027 -0.089654155 -0.2759963 -0.04539128 0.19314279 -0.07565672
0.063709624 0.35422486 -0.04735971 0.11109403 0.24085489 -0.4042258 -0.44526216 -0.17958544
00000000: e8dc 10bf b2b9 4d3d f2d1 163e 3d17 35bf
00000010: cd65 d23d 8379 c1bc 1439 893d 9c18 d1bd
00000020: 089e 70be 2db1 b13e 01c3 56bd d5cd b3be
00000030: f499 be3e 5ad3 6dbe 5884 09bc d409 df3c
00000040: c62f 033e 118d a7be 7981 c7bc 323c 883e
00000050: be41 2c3d d3f2 c63e 1c43 43bf e1ff ba3e
00000060: ca78 eebc b41e a0be 89b1 1ebf 8532 28bb
00000070: eddb 483e 89ea 9a3c 1d10 9cbe 6740 c1be
00000080: b717 aabe cdd7 aabd a9e4 e73e 2f4d 153f
00000090: 9d98 8abd fe87 963e d5ca 9a3e a9cb a1be
000000a0: eecb 62be 4bbe 0d3f 09c4 a9be 65e9 98be
000000b0: dd34 3e3c 7d84 97be afdd f3bd 2131 b03c
000000c0: 550a d73e a234 abbe dc2d a53e dc51 df3d
000000d0: 0191 ee3e a451 af3d d206 a3be 7a50 5e3e
000000e0: 3441 9a3e c687 29be d739 0ebf 65af 0e3e
000000f0: 7f55 01be 2980 873e 3b47 7dbd ca5f ecbd
00000100: 96fa 39bf 4eb5 173f fe60 1bbe a6b0 ffbd
00000110: c2bc f03e a38f c9be d619 6dbd 11ab 2dbf
00000120: 40bd 403e 5ae1 1cbf 68d2 9e3e 232c a03e
00000130: 8157 80bd 4a09 083e f444 1dbe 64d2 d03e
00000140: b66c 223f c4a3 1bbe 11de 543e 28de ae3e
00000150: a32d 8ebe 6052 3abe c223 a33d 0a0a 65bd
00000160: d79f 363e 13b3 163f be4c 4fbe 591a 0d3f
00000170: 5f56 933e 9d05 ef3c 8318 863e efaf 5dbd
00000180: 720e 69be c360 ea3d deb1 6f3d cc8a 023e
00000190: a431 edbc 8194 1bbe ecea 043f b8f6 403e
000001a0: 8ee6 bdbc 2df8 3d3f 1d64 b4bb 3d87 363e
000001b0: b919 44be 2b4d edbe 1586 a23c 9928 d23e
000001c0: 4b7a 123f 9a5b 38be e929 adbe 260a bcbe
000001d0: 0d65 f6bd cfea d8be 55fd 86be 1f09 39bc
000001e0: 945a e3be 5d2a f9bc 5b9c 013f 60e1 29bd
000001f0: febc 6abf a290 35be ac77 bd3d ab24 09bd
00000200: e834 e03c 7095 e9bd 22aa f7be 545d 683e
00000210: 6921 89be 8441 e8be 7763 08bf d00b abbe
00000220: 7d9e 603e cbf3 a7be ef30 eabe 701a 5abe
00000230: 3ec6 aabd c4c3 10be 0754 f7be 934d fcbe
00000240: 73a1 a23e 418e 123e e42b 18bd 2f67 9ebe
00000250: 216f 463e a9ef 3fbd b12b 3d3e 6c23 b9be
00000260: 813d 573e aa5d db3d f28e 1c3e 8805 903e
00000270: 6a76 38bf 4d9c a13e 8bdc 4ebe f9b1 92bc
00000280: c382 06be b0d3 7b3d c76e 3f3e 5435 7ebe
00000290: f72c dcbd bd4e a8be 6e3d 5e3e d400 9bbd
000002a0: 9e1b 3f3e a69c fb3c 8898 283e 4ce1 78be
000002b0: ec6f f33e 4769 bf3d 9267 2b3f 6bc7 0e3f
000002c0: c06f ffbc ad05 343e cb19 44bf aea3 ffbe
000002d0: c311 08bd 8c9f d6bd a0bd 403e fe48 d5bd
000002e0: 4165 4e3d 9da6 3e3c c164 993d 4c07 fb3d
000002f0: e7f3 293e 77fd 0bbc 64fc 093f e66e d0be
00000300: 48a5 00bd 18b8 72bc d856 6ebd e818 0abf
00000310: 58a6 203e cec0 5bbc b54f ab3e db87 723e
00000320: 8af9 51bf dd00 ad3d 82b8 4dbe c211 5ebd
00000330: 4e7d db3e 1af8 ea3e 5e8c 24be 8ba6 9cbe
00000340: 0485 cebd 19d2 9cbe c90c f4be bcbd 303e
00000350: a708 eabe 4efa eebc a09e 9ebe 206a d93e
00000360: 981b f23d c71c babd eecb 3bbd d9bf a93d
00000370: 9de3 efbd 3585 013f d469 ac3c 743a d33e
00000380: ab62 1e3e 7c7a 88be 2282 d13e b01d bbbe
00000390: 6d18 a1bd b9c8 f13e 024f 273e eabe 003e
000003a0: 0d17 b2be e514 94be fc28 76be ae0b b53e
000003b0: 0ee3 663e e7a1 8fbe 41f9 aebe 18c2 7f3d
000003c0: f6b8 34be 7b33 463e da16 17bd 999c b7bd
000003d0: 634f 8dbe 35ec 39bd 39c7 453e e9f1 9abd
000003e0: 317a 823d f65c b53e 41fc 41bd 4485 e33d
000003f0: aaa2 763e aff6 cebe 67f9 e3be 3fe5 37be

actor.bias f4 [3]
-0.22786383 -0.29793432 -0.16882706
00000000: 2355 69be d98a 98be 00e1 2cbe

critic.weight f4 [1, 128]
-0.070833206 -0.03148561 0.0834029 -0.08274229 -0.23250744 0.13766831 -0.116175294 -0.04972647
-0.05100324 0.041876607 0.0005154773 -0.14254494 0.025628313 0.038327243 -0.09806297 -0.17816463
-0.005330128 -0.11100207 -0.037137784 -0.009091565 0.07832344 0.012473417 0.006456509 0.028891541
0.04155612 -0.11475127 0.009134072 0.058780607 -0.0046995636 0.045702156 -0.07433917 -0.04154998
0.03206048 -0.09290986 -0.0499329 0.042956125 -0.026207455 0.004908063 0.015839707 0.05602875
-0.045128062 -0.020875383 -0.03803374 0.077346936 0.08257262 0.017790526 0.07743315 0.021500466
-0.0006788008 -0.029161302 -0.12288492 -0.004532328 0.0053217798 0.03754179 0.1101757 0.2421543
-0.020333221 -0.1655713 0.00387207 -0.06651139 -0.032764133 0.09764731 -0.06107225 0.07269223
0.0005899417 -0.020444527 0.06850614 -0.029003603 0.10963793 0.10874587 0.07011508 0.056966767
0.0019921549 -0.06191582 -0.14699976 -0.05827341 0.01360551 -0.0019039979 0.10835873 -0.09111915
-0.17932354 0.049066402 -0.04086194 0.07130877 -0.13940465 0.03670916 0.05935844 0.15596081
0.036344357 0.14579512 -0.06663187 0.113235556 0.15171206 0.08459897 0.1711521 0.06810194
0.030035987 -0.008739882 0.2068996 0.17239806 -0.113076456 0.123391494 0.10841468 0.10063374
-0.029061558 -0.005493572 -0.10915114 -0.153057 0.029415987 -0.0052317176 0.024403851 -0.0031485965
-0.06824573 0.06704155 0.02137218 -0.009957678 -0.05212717 0.0022548297 -0.13921478 0.05499178
0.05698547 0.1045196 0.053783257 -0.23034562 0.00804968 -0.105185755 0.031689603 0.18295342
00000000: 0011 91bd 0ef7 00bd 24cf aa3d ca74 a9bd
00000010: 6e16 6ebe ecf8 0c3e 50ed edbd fcad 4bbd
00000020: c6e8 50bd ce86 2b3d 1921 073a 4df7 11be
00000030: 78f2 d13c 07fd 1c3d 3dd5 c8bd ca70 36be
00000040: 5ba8 aebb 0e55 e3bd ca1d 18bd caf4 14bc
00000050: 0a68 a03d 4e5d 4c3c 2091 d33b f4ad ec3c
00000060: c036 2a3d b702 ebbd 13a7 153c efc3 703d
00000070: ccfe 99bb 2f32 3b3d 223f 98bd 5030 2abd
00000080: da51 033d 8647 bebd 7186 4cbd c3f2 2f3d
00000090: 04b1 d6bc d1d3 a03b 46c2 813c 677e 653d
000000a0: 34d8 38bd da02 abbc 44c9 1bbd 1268 9e3d
000000b0: d51b a93d 70bd 913c 4595 9e3d bf21 b03c
000000c0: 8df1 31ba afe3 eebc 17ab fbbd ec83 94bb
000000d0: 5362 ae3b 6cc5 193d cca3 e13d 4cf7 773e
000000e0: db91 a6bc 868b 29be 8ec2 7d3b 2037 88bd
000000f0: af33 06bd 50fb c73d e526 7abd aadf 943d
00000100: 51a6 1a3a 487b a7bc f24c 8c3d f798 edbc
00000110: da89 e03d 28b6 de3d 7f98 8f3d fc55 693d
00000120: d08e 023b 719b 7dbd 1b87 16be 19b0 6ebd
00000130: a5e9 5e3c 918f f9ba 2feb dd3d ad9c babd
00000140: 97a0 37be daf9 483d d95e 27bd 550a 923d
00000150: 18c0 0ebe 585c 163d d621 733d 31b4 1f3e
00000160: d2dd 143d 514b 153e 4a76 88bd 0be8 e73d
00000170: 685a 1b3e 3a42 ad3d 7f42 2f3e 0879 8b3d
00000180: 080e f63c b931 0fbc 7ddd 533e 1e89 303e
00000190: a194 e7bd aeb4 fc3d 8408 de3d 1019 ce3d
000001a0: 8112 eebc 6c03 b4bb a28a dfbd f9ba 1cbe
000001b0: ccf9 f03c d46e abbb 96ea c73c af58 4ebb
000001c0: 6bc4 8bbd 154d 893d b614 af3c 8725 23bc
000001d0: 4d83 55bd c4c5 133b 528e 0ebe 103f 613d
000001e0: 9969 693d 5f0e d63d d54b 5c3d b9df 6bbe
000001f0: cee2 033c a16b d7bd f5cc 013d 2458 3b3e
