W__RNN/W_RNN/md2/v_7/train_iter_4000.pt (torch, 80523 bytes, 8 tensors)

h0 f4 [128]
00000000: de60 4ebf e2e3 3fbf a0cd ab3f fd78 3040
00000010: 5e8c 643f f273 f43e 7123 083f 4ae3 89bf
00000020: f295 1f40 35d9 e63e 98b6 433f 78c6 d3be
00000030: 4497 62bf 5d81 3abf dd1f 26bf 3043 ba3e
00000040: 545d e9bd d858 8fbf 1a79 c03e aaee 1dbf
00000050: 91c3 b9bf 4ff7 de3f 9668 14bf 5499 3540
00000060: c494 31bf 4aa3 233f 98d6 8cbf e96b af3e
00000070: 298f 2540 89b7 793f c75e 55be 1b43 a73f
00000080: 39a0 b83e 1bed 093e d018 a2be 6db6 793e
00000090: e507 49be 6f29 513f 8863 1f3e b559 30bf
000000a0: 838d 90bf 0819 4e3f b311 b73f 1bfc 793f
000000b0: a08d 34bd 2704 8fbe 2dd1 363f 92bc ad3f
000000c0: a925 a5bf 58f7 84be 635c a1bf d54f 363e
000000d0: fbbe 87bf 6899 a1be 0cb7 5fbf 1cac d7bb
000000e0: 3582 673e 17a0 25bf 4999 d13f 63ef a0bf
000000f0: 413f 76bf a7a7 023f 1dac 333f 6b91 ccbf
00000100: 4977 f53e af71 b93e 9e3d 923f 8ab5 ec3e
00000110: 4102 babe 8ae8 fcbf 4bb1 e13f 5d35 a1bd
00000120: 27f6 a63f a539 ea3e 5d92 8cbe e772 ba3f
00000130: 0f5c 263f 677d 2cbf 863e c4bf 95de 9fbe
00000140: ee49 303d a46d bfbf 2872 d03f fa28 16be
00000150: b09c 363c 8b5f 60bf 2115 e0bf c5c8 b23f
00000160: 3450 e73f 4f58 64bf ae01 9ebf 3029 7abf
00000170: e42a ffbe 34b5 7bbe 998b b93f 4697 2a3e
00000180: e152 58be f0e0 89be abe0 8dbd 04b8 aebf
00000190: ea25 b03d a9ab 9ebe ed3c a5be 0ac4 663f
000001a0: db13 b13f 5f64 bbbe 8350 7fbe f340 babf
000001b0: ddde e73e 36c7 c33f e042 ad3f caa7 563e
000001c0: 210f 643f d5ed 6abf cce1 f43d c043 a33d
000001d0: 229f 6bbd 538c c13d 6588 bf3f 350a 063f
000001e0: d20f cfbc 216d 823f c154 3cbf d558 b7be
000001f0: 763d 69ba 33bd 5bbc 6c43 6b3d 1ad5 c7be
-0.8061656 -0.74957097 1.3422127 2.7573845 0.89276683 0.4774471 0.5317908 -1.0772488
2.493527 0.4508759 0.7645049 -0.41362357 -0.88512063 -0.7285364 -0.6489237 0.36379385
-0.11394754 -1.1198988 0.37592393 -0.616923 -1.4512807 1.7419223 -0.57972085 2.8374834
-0.69367623 0.63921034 -1.1002989 0.34262016 2.5868628 0.9754568 -0.20836936 1.3067354
0.3605974 0.13469355 -0.31659555 0.24385996 -0.19631918 0.8170385 0.15565312 -0.6888688
-1.1293186 0.80506945 1.4302276 0.9765031 -0.044080377 -0.27932855 0.71412927 1.3573172
-1.2902118 -0.25969958 -1.2606319 0.17803891 -1.0605158 -0.31562352 -0.8738868 -0.0065817963
0.22608264 -0.646974 1.6374904 -1.2573055 -0.9619027 0.5103707 0.701845 -1.5981878
0.4794257 0.36219546 1.1425054 0.46232253 -0.36329845 -1.9758465 1.763223 -0.07871506
1.304387 0.45747104 -0.27455416 1.4566315 0.6498422 -0.6737885 -1.5331581 -0.31224504
0.043039255 -1.4955335 1.6284838 -0.14664069 0.011145756 -0.87645787 -1.7506448 1.396752
1.8071351 -0.8919725 -1.2344263 -0.977191 -0.4983741 -0.24580842 1.4495727 0.16659269
-0.21125366 -0.26929426 -0.06927618 -1.3649907 0.086009815 -0.3099034 -0.32273045 0.9014288
1.3834184 -0.36600015 -0.24933057 -1.4551071 0.4528722 1.5295169 1.3536034 0.20962444
0.89085585 -0.9176915 0.1195713 0.07971907 -0.057524808 0.09450593 1.4963499 0.52359325
-0.025276098 1.0189553 -0.73566824 -0.3580996 -0.0008897403 -0.013411808 0.057437345 -0.3902977

RNN.weight_ih_l0 f4 [128, 17]
00000000: 3a83 ac3d b5e8 2bbe d242 4fbe c8b3 1fbe
00000010: ab4e e1bd b8d3 18be 119e 8a3e c6e7 cebd
00000020: 53ec b1bc 02fc bdbd 5afb 7ebd 4639 b43e
00000030: bd64 57bd ff1e debd c525 753c 6add a6bd
00000040: b5bc 8a3e 50ba 2fbe 5b3f cfbd 8c2a 00be
00000050: bb26 26be 75d1 163d b44a 23be a7ce 2fbe
00000060: f18f fdbd 0a55 cfbd 554d fcbd 0671 febb
00000070: c60c 953e 5af3 6abe 47c0 58bb d480 39bd
00000080: 00b8 e2bd daf1 643e 4e5a 783d e3f1 58bd
00000090: 39fa 5abd a338 0fbd 8206 88bd a19d 8ebd
000000a0: a9ef 913d 91a4 0fbd 5604 72bd bf31 543d
000000b0: 04dc 91bd 4fe5 91bd 9095 913d 7e03 233c
000000c0: d516 febb 8869 c2bc 78c5 f5bc dd54 4d3b
000000d0: d2cd 6e3d 4099 0f3e b298 0b3f 607c f2bd
000000e0: bb1d 123d dcac c13e 5141 2ebe bfda 5bbe
000000f0: 6c67 4bbe c14f 8d3c 3d46 e73e 5426 553d
00000100: 4193 94bc 429f be3d f80d d7bd 7572 7e3e
00000110: dffd f5be 1c76 7ebe 005e a0be ca27 93be
00000120: 6206 c3bd ab87 4fbe ee98 97be 4fd6 a3bd
00000130: 9020 9b39 c821 dfbd 14ec 9f3e 6deb 083e
00000140: 48f5 3ebe cbe8 f6bd f4f5 cbbd 1d1f fb3d
00000150: f011 013e 82a4 a1be f13f 013e cdf7 f93e
00000160: 8f22 4f3f ec1f ecbd 630b 87bd 3bf1 30be
00000170: 991e 38be 79d8 67be 5416 39be f97a 48be
00000180: 7932 01be bdc1 f43d affc dbbe 517c 883d
00000190: c2e6 d0bd 1113 23be 5416 443e 57d1 bbbd
000001a0: cdcc 75be b2af 86be deaa 3e3d 182b dfbd
000001b0: 9dcd 01be 940c d23d b24d db3d 3975 993e
000001c0: 6f28 75bd 2555 b2be 0a3c b7bd 7701 8ebd
000001d0: a95a ba3a 8aae f03d 4136 7fbc 9b66 e4bd
000001e0: 398e 883d 8ce4 e13e 8cf6 333f 53c0 4ebd
000001f0: 4cc1 d63d ecf1 9a3e f6d2 e4be f5b7 c3be
00000200: 35bb 33be 2743 293d 8f92 01be 3a86 8d3d
00000210: a79c 4fbe 1abd 733d db5c 3abe 654e 8fbe
00000220: a2db a1bd fcfc eb3d ff29 003e a2a9 8a3e
00000230: 3c78 853d c243 c23c 45b6 9e3e 2ada f9bd
00000240: 1562 3dbe 2afc 853b 2cac debc 3014 943e
00000250: e64c 393e 75ed b83d fa64 a83d 9603 73bd
00000260: 605c 743e 943e 82be a89d e7bd 0eae 9dbd
00000270: a5c4 4ebd 16a6 ecbd d5bd 56bd 550c 26be
00000280: baeb babc cf69 15be 8241 16be 37dc 9c3c
00000290: a60d f8bd 156f 8e3d 72ef 28be a4a1 e6bd
000002a0: 5ad9 8c3c a5e7 a4bd 7c70 6f3e 09b9 5fbd
000002b0: f868 6d3b 588f c93e 91e0 53be a23d 37be
000002c0: 0cee b3be df75 7a3d 7094 5bbd 0979 24be
000002d0: 2520 acbd 4557 efbd eb18 e1bd 721b 043d
000002e0: 7b13 58bd 35a2 cdbb c9c4 4b3e c2a8 81bd
000002f0: 77b4 3a3d 9eea 173d ad2c 333d 9521 ed3c
00000300: 7814 193d b829 b3bd 8264 79bc 9028 93bd
00000310: d033 93bd d727 debd 49db 51bd 7b83 803b
00000320: 40f4 8c3b 0ce2 9abd eeee 683c d34a 7b3d
00000330: edf7 a5bd afaa 463e fa07 3c3e 3e01 9e3e
00000340: 58b0 253e d6b2 a63d 56a6 ccbd 61b5 04be
00000350: 0c2f dfbd 0270 9dbd f014 fabd 6a29 49bc
00000360: 5e70 d63e 40ce d0bd 8d8a bf3c c0be c23c
00000370: 2b96 013e c1ec 913d 362a 12bc b58b 7ebd
00000380: 89ab 90bc 5f02 4cbc a6ef b2bd bfe6 f23c
00000390: b1c5 33bd 5eef cabc 8ef1 8cbd 0d68 98bd
000003a0: c0f7 243d 5111 933d 4ef3 b13d f493 483d
000003b0: d9d1 5cbd dedd 3c3d 39ae 99be 6e09 d23c
000003c0: f950 80bd e3a9 153b 780a c0bd 2f2e 1ebd
000003d0: 98b2 21be 0f4e 28bd 5a44 d9bd a618 0fbd
000003e0: 93c1 f4bd 052f 7a3d 3d5f 673c f113 87be
000003f0: ca30 aa3c c37d 5abd b972 a3bd 5efb 2f3e
0.08423467 -0.1678799 -0.20240334 -0.15595925 -0.11001333 -0.14924514 0.2707372 -0.10102801
-0.021719133 -0.09276582 -0.062251426 0.35199946 -0.052586306 -0.10845756 0.014962618 -0.081477
0.27097097 -0.17160916 -0.10119506 -0.1251623 -0.16225712 0.036820848 -0.15946466 -0.17168675
-0.1238097 -0.10123642 -0.123194374 -0.0077649383 0.29111308 -0.22944394 -0.003307359 -0.045288876
-0.110702515 0.22357884 0.060632996 -0.052965056 -0.053461287 -0.034966122 -0.06641866 -0.06963659
0.0712579 -0.035069052 -0.059086166 0.051805254 -0.07122043 -0.07123815 0.07108605 0.009949563
-0.0077541866 -0.023731962 -0.030001387 0.00313311 0.058301754 0.14023304 0.5452987 -0.11840129
0.035672884 0.37827194 -0.17017104 -0.21470164 -0.19863671 0.017249944 0.45170775 0.052038506
-0.018136622 0.0930772 -0.10500711 0.2484835 -0.4804525 -0.24849743 -0.31321716 -0.28741294
-0.09522702 -0.20266597 -0.29608864 -0.079998605 0.00029588165 -0.10895115 0.312348 0.13371058
-0.18648255 -0.120561205 -0.09959021 0.12261794 0.12604499 -0.31570822 0.12622048 0.4882187
0.8091211 -0.11529526 -0.06593969 -0.17279522 -0.17980422 -0.22641172 -0.18074924 -0.1957816
-0.1261691 0.11951015 -0.4296622 0.066643365 -0.102002636 -0.15925242 0.19149143 -0.09170788
-0.24003907 -0.2630592 0.04654967 -0.10896891 -0.12676091 0.10256305 0.107081786 0.29972246
-0.059853014 -0.34830585 -0.089469984 -0.06933873 0.0014217693 0.11752041 -0.0155769 -0.11152383
0.06667752 0.4411968 0.70298076 -0.050476383 0.10486087 0.30262697 -0.446922 -0.38226286
-0.17551883 0.041323807 -0.12653564 0.06910367 -0.20274602 0.059506513 -0.18199484 -0.27989498
-0.0790322 0.11522862 0.1251602 0.27082545 0.065170735 0.02371395 0.30998436 -0.121998146
-0.18494447 0.004088898 -0.027181707 0.28921652 0.1809574 0.09029666 0.08222385 -0.05932959
0.23863363 -0.25438368 -0.113093674 -0.07699214 -0.050480504 -0.11555116 -0.05242713 -0.16215642
-0.022817481 -0.14591144 -0.14673427 0.019147975 -0.12111978 0.06954781 -0.16497591 -0.11261299
0.017193485 -0.08051995 0.23382753 -0.054619823 0.0036225896 0.39367175 -0.20691134 -0.17894605
-0.35142553 0.061147567 -0.053608358 -0.16061796 -0.084045686 -0.11686567 -0.10991081 0.032252736
-0.052752953 -0.00627544 0.19899286 -0.06331016 0.04558226 0.037088983 0.043743778 0.028946677
0.037373036 -0.087481916 -0.015221717 -0.07185471 -0.07187617 -0.108474426 -0.051234517 0.0039219237
0.004301578 -0.07562646 0.0142171215 0.061350655 -0.08103929 0.19401048 0.18362418 0.30860323
0.16180551 0.08139579 -0.099926636 -0.12959816 -0.10897645 -0.076873794 -0.12211025 -0.01227794
0.41882604 -0.10195589 0.023381496 0.023772597 0.12654941 0.07125235 -0.008921197 -0.062144954
-0.01765992 -0.012451737 -0.087371156 0.029651044 -0.043889705 -0.024772342 -0.068820104 -0.07441721
0.040275335 0.07181037 0.08688985 0.048969224 -0.053911064 0.046110027 -0.30015734 0.025639262
-0.06265444 0.0022836856 -0.09376997 -0.038618263 -0.15790784 -0.041090067 -0.1060874 -0.034935616
-0.11950984 0.061079998 0.014121828 -0.26382402 0.020775218 -0.053342592 -0.07980866 0.17185733

RNN.weight_hh_l0 f4 [128, 128]
00000000: d9ba 99bd 8e4b 54bd 5eb6 683d 01e6 ccbd
00000010: dabd 933d b0d6 adbd b88a 763d a4ff 423d
00000020: 62ce 563d 8516 83bd 64c3 cabd 96cc b0bc
00000030: 9e0e 5cbc a99f 95bd d8a9 8ebd 8ed9 35bd
00000040: 294d b7bd ed6c 83bd 5236 44bd ecb3 95bd
00000050: 329a ae3d 1379 233d cbd1 2cbc ecfb b3ba
00000060: 0530 cc3c 96ea a73a 0d38 2fbd 61bd 5bbd
00000070: b7dd 08be 6690 163c c339 96bd 087b 10bd
00000080: c4fd d2bc c47b 2dbd 07c6 08be 6e82 a8bc
00000090: f37f dcbc 3015 65bd c0d8 193b 4b8d f63d
000000a0: b8de 8a3d e50a 303c 359f ed3d 4ea0 853c
000000b0: 2b69 84bc de36 873d 9339 dcbd 27e4 3fbc
000000c0: c92b 8ebd dbf4 c4bd d7d8 483d 050a 6cbc
000000d0: 389c 9a3d c15d 0bbd 33c1 113c 052a 973c
000000e0: 4c4d da3b 9ab1 c63d 58fb c8bd c079 73bd
000000f0: 9ade 863c d5df a3bd ac37 9b3d bf23 afbd
00000100: f285 3e3d 6e0f 453d 5524 283d 410a 6abd
00000110: d271 af3d 815c 503c e410 25bd cb93 273d
00000120: 323c b0bd 7303 b13d e016 46bd ffc5 b33d
00000130: 58a4 f13a cdf7 6c3c 9986 5f3d 822c 9b3c
00000140: 7917 0d3c 24fb 8d3d be53 863c d7af 3b3d
00000150: 8f9b bc3d 38fb bbbd 8478 8fbd 75db 9b3d
00000160: aaba 3ebd 3fae ae3d 9b46 9e3c e239 a73b
00000170: bcb3 2fbd e3d6 cabc 9528 283d f491 803d
00000180: 0d1a e33c f867 883c f4b3 aa3d c61c 5a3d
00000190: 9bd7 c13d ca94 623b 2dd6 143e 86a8 cebc
000001a0: c06b c93c 6b95 2fbd 5570 1cbd 769b 643c
000001b0: b93e 71bd de77 bbbd bd02 9bbd aa48 b8bd
000001c0: 708f 24bd ecd0 2ebd 2efa 423d 0f06 733d
000001d0: 0916 503d 1fbe a53d ef2e 323d 08bb 4539
000001e0: 92b5 b4bd 14f5 aabd 0528 efbd 0681 6cbd
000001f0: 258a 8dbd 95f9 a33d 26f1 ab3d 65ea 903d
00000200: 13f3 2cbd c3a4 d3bd a11a 8a3d 472b 46bd
00000210: ab44 38bd 0f6d 653d 320c 443d 719f 08bd
00000220: 575c 8abc ace5 1fbe b8f4 0bbd fce8 cc3d
00000230: 00c5 213d 8902 0a3d c142 863d 3071 323c
00000240: de17 e3bd 29c3 b73c 2d12 8a3d 3d26 f9bc
00000250: 32ad 31bc d691 d53d a79a babd 39fa efbb
00000260: 8b3e 61bd 2e7d 4a3c dfed be3d 7c09 793d
00000270: bfa9 c7bd fb9a bebd aca1 a13d 4b2d 1fbc
00000280: 7634 6fbd 03e3 e53c 7306 4d3d ee06 d33c
00000290: 7795 37bc 5bf5 8dbd 532b dbbb 3cf2 383e
000002a0: 7d88 6f3d 623a 883b 4451 e93d f96d 063d
000002b0: 6ced bd3b 591b 66bd dacf 21bd bbe3 313d
000002c0: 5d1d 7dbc 06d3 65bd fc0c 2d3d 20b8 88bc
000002d0: 3a20 81bc 8b72 8e3d 5050 bc3d f058 023e
000002e0: f7f5 15be 904f e83d e8ad 0abe 5712 cfbc
000002f0: 4c74 e9bc ad66 803c 6c3a dcbd 3c1f 1abd
00000300: 0f37 943c 24ca 4abd 110b 65bd a3a8 8d3d
00000310: dd9a 0fbd f41a e73c 6653 83bd 191a c6bc
00000320: 5e04 41bd ebc7 383c b81a 25bc 8b03 90bd
00000330: 77ee f83c 4b6b 9a3d 20a7 5f3c edab 6b3d
00000340: 9012 6b3d 2c0c 933c 5e1b 043e ecd6 7bbd
00000350: 9bcb 0f3d ddf0 8abc eb1a cfbd c7bb 403e
00000360: 8991 57bd c17a e13b a36d 113d 3e6b a63d
00000370: a488 5c3d 4328 3dbd c7d6 59bd eae2 5b3e
00000380: a162 c0bb c901 aebd d10f 033e d095 07bd
00000390: c379 7ebc ddc9 da3d 794d c63d 3d19 923d
000003a0: 02cc 95bd 112c ab3d 1116 9dbc 1066 a8bd
000003b0: f8eb 193d 4161 77bd 426a 2bbd 68e2 04bd
000003c0: 2f83 2e3d 8370 63bd 1993 003e d78f f23c
000003d0: 03ea 6abd 9a78 9a3c f998 da3d 90ea 1dbd
000003e0: 645c 2abc d3dd 143d 60e2 9fbd a58b a43d
000003f0: ba7d a53d dfc0 7b3c fb40 1e3d c650 1dbd
-0.075063415 -0.051829867 0.056814544 -0.10004807 0.07213946 -0.08488214 0.060190886 0.04760708
0.052442916 -0.0640078 -0.09900549 -0.02158193 -0.013431219 -0.073058434 -0.06965989 -0.04439693
-0.08950264 -0.0641726 -0.047903366 -0.07309708 0.08525504 0.039910387 -0.010548065 -0.0013731695
0.024925241 0.0012811001 -0.042778064 -0.053647403 -0.13365828 0.009189701 -0.07335236 -0.03527358
-0.02575577 -0.04235436 -0.13356791 -0.020570006 -0.02691648 -0.05592841 0.002347514 0.12038668
0.067807615 0.010744785 0.11602632 0.01631179 -0.01616343 0.06602262 -0.10753169 -0.011712111
-0.06941945 -0.09617015 0.04903492 -0.014406686 0.075493276 -0.034024958 0.00889616 0.018452654
0.0066620465 0.097018436 -0.09813565 -0.05944228 0.016463567 -0.08001677 0.07578978 -0.0855174
0.04651446 0.048110418 0.041050274 -0.057138685 0.085666314 0.012717367 -0.04029931 0.04091243
-0.08605231 0.08643236 -0.04836166 0.08777999 0.0018435819 0.014463377 0.05457172 0.018942121
0.008611553 0.06932667 0.016397353 0.04582199 0.09209358 -0.091787755 -0.070054084 0.076102175
-0.046564735 0.085293286 0.019320777 0.0051033357 -0.042896017 -0.02476067 0.041054327 0.06277838
0.027722383 0.016651139 0.083351046 0.053250097 0.094649516 0.0034573548 0.14534827 -0.025226843
0.024587512 -0.042867105 -0.038193066 0.01395308 -0.058897708 -0.09153722 -0.07568882 -0.089982346
-0.040175855 -0.042679712 0.04760187 0.05933195 0.050802264 0.08092903 0.04350179 0.00018857059
-0.08823694 -0.08347526 -0.11677555 -0.057740234 -0.069111146 0.08006588 0.08395605 0.07075957
-0.042224 -0.1033416 0.0674336 -0.048381116 -0.044987362 0.05601221 0.047863193 -0.03335518
-0.016889734 -0.15614957 -0.03416893 0.10005376 0.039494514 0.033693824 0.06555701 0.010891244
-0.11088537 0.022431927 0.06741748 -0.030413741 -0.010844516 0.104282066 -0.09111529 -0.00732353
-0.054991286 0.012358947 0.09322714 0.06080006 -0.097491734 -0.09306904 0.078921646 -0.0097153885
-0.05839964 0.02806235 0.05005498 0.02576014 -0.011205069 -0.069315635 -0.0066885143 0.18061155
0.058479775 0.0041573504 0.11392453 0.03281972 0.005796125 -0.056178425 -0.039504863 0.04343007
-0.015448895 -0.05610945 0.04224871 -0.01668936 -0.015762437 0.06955441 0.09195006 0.1272924
-0.1464461 0.113433 -0.13542902 -0.0252773 -0.028497837 0.01567396 -0.107533306 -0.037627444
0.01809266 -0.049509183 -0.055918757 0.069169305 -0.0350598 0.028211094 -0.06412391 -0.024182366
-0.047123305 0.011278133 -0.010077171 -0.07031926 0.030387146 0.07539996 0.013650686 0.057537008
0.05739075 0.01795014 0.12901065 -0.061484262 0.035106283 -0.016960556 -0.10112556 0.18821631
-0.052629028 0.0068810885 0.03550495 0.081259236 0.05384125 -0.046180975 -0.053183343 0.2147328
-0.0058711325 -0.08496434 0.12799002 -0.033101857 -0.01553196 0.106830336 0.096827455 0.0713372
-0.07314302 0.083580144 -0.019175561 -0.08222592 0.037578553 -0.060395483 -0.041849382 -0.03244248
0.042605575 -0.05552722 0.12556113 0.029609604 -0.057352077 0.018856335 0.106737085 -0.038553774
-0.010398004 0.03634436 -0.078068495 0.080344476 0.08080621 0.015365808 0.03863619 -0.03840711

RNN.bias_ih_l0 f4 [128]
00000000: 8f7e 253c 3137 993d 4aa5 39bd 2a3a 913d
00000010: 7a2c 1e3d ea23 88bd d41b b43a eeb0 a0bd
00000020: 0fd7 a2bc 3970 4bbd 525c c9bc b403 36bb
00000030: 92a4 473d efd8 c4bd 7c3b b5bc 2ccf 993d
00000040: 3ef8 d73d 4bfc 57bc 8229 153d 32a5 53bd
00000050: a958 d43d 06fe 153d f6c7 c83d 9a20 3dbd
00000060: 728f b33d 9227 693d 2475 11bc 8284 0a3d
00000070: 8484 5c3d 6179 30bc b7f6 08bd e8a1 753d
00000080: 06ea 81bd a995 96bd 8576 4dbd 2eeb 09bd
00000090: a1e2 8b3c e973 73bd 5dd8 2ebd 3a42 683d
000000a0: 17e8 41bd e62f 1ebd 2c01 abbb 3ec1 533c
000000b0: 0781 cd3c fc56 bbbc 97ad 743d 5b1e 96bd
000000c0: bb5a f03c ecd6 483c 124f d33d df6a e63d
000000d0: 409f e7bc 9cd1 9abd a498 20bd 37e9 2abb
000000e0: ccc1 a43d cf5b 973d e8bc 2bbd 3a9c 413d
000000f0: 519a 3bbd a060 7a3d 5009 be3c dc22 ef3c
00000100: 7375 c13d b950 df3d d488 89bd c2db 563c
00000110: 4255 713d 1a3d 183c 9689 903d 8a47 acbc
00000120: 21af 1d3d 1afa 8a3d 095b 54bd 71ca acbd
00000130: 424b 623d c94d d1bc e78f b03d 868c 083d
00000140: 25bd b33d 1607 46bd 5652 a33d 72dc f4bc
00000150: 3afe 3f3b f24b b23d bd22 cdbc b706 11bc
00000160: f785 03bd e725 63bd d0ac 61bd 968b 79bd
00000170: 4bf3 9d3d 718c f13c f185 3b3d 3b4c 223c
00000180: 96ac c3bc 3e83 81bd eeaf 353d 605a bf3d
00000190: 7bed 4ebd 77eb 2ebc a50d 853d 1d38 3a3d
000001a0: e889 ce3c dda4 d23d d04a 1a39 180a 133e
000001b0: 2132 263d ee98 02bc beeb b53d bad3 82bd
000001c0: 7ed2 31bb d0f8 5bbd 0a56 59bc 028e 38bc
000001d0: a09d 833d 8fa5 aa3d 13ec b7bc cc56 d23d
000001e0: ce18 46bd 0b24 013c 60f5 12bd 0f6f 60bd
000001f0: c444 26bd 3810 273d 69ae cf3d da5a d5bc
0.010100975 0.0748123 -0.045323648 0.07091172 0.038616635 -0.06647475 0.0013741204 -0.07846247
-0.019877939 -0.04966757 -0.024580155 -0.0027773203 0.04874093 -0.09611689 -0.02212309 0.07510218
0.10545395 -0.01318271 0.036416538 -0.051671214 0.10368473 0.03661921 0.098037645 -0.04617367
0.087675944 0.056922503 -0.008878026 0.033817776 0.053837314 -0.0107711265 -0.03343841 0.05996886
-0.063434646 -0.07352764 -0.050161857 -0.03367155 0.017075839 -0.059436712 -0.04268681 0.056703784
-0.04734048 -0.0386199 -0.0052186456 0.0129244905 0.02508594 -0.022868626 0.05973586 -0.073300086
0.029340139 0.012258273 0.10317816 0.11250853 -0.028274179 -0.07559511 -0.03920807 -0.0026078948
0.08044776 0.07390558 -0.041928202 0.04726813 -0.045801464 0.061127305 0.0231978 0.029191427
0.0944623 0.109040685 -0.06715551 0.013113918 0.0589192 0.0092919115 0.070574924 -0.021030206
0.038497094 0.06785984 -0.05184463 -0.0843705 0.055247553 -0.025549786 0.08621197 0.03333714
0.08776311 -0.0483466 0.07974689 -0.029890273 0.0029295818 0.08705892 -0.025040979 -0.008851699
-0.03211018 -0.05545607 -0.055096447 -0.060924135 0.0771242 0.029485913 0.045782033 0.00990587
-0.023886006 -0.063238606 0.044357233 0.093434095 -0.050519448 -0.010676256 0.06496743 0.04546367
0.025212243 0.102853514 0.00014714454 0.14359319 0.04057515 -0.007971032 0.08882855 -0.0638804
-0.002713352 -0.053704083 -0.013265142 -0.011264326 0.06426549 0.08332359 -0.022451436 0.102704614
-0.0483635 0.0078821285 -0.03587854 -0.054793414 -0.040592924 0.04078695 0.10140688 -0.026044298

RNN.bias_hh_l0 f4 [128]
00000000: 02c9 3a3d 4b9c 36bd 3824 10bd 8039 ae3b
00000010: 6523 f73c 2ce2 dbbc f6b1 2bbd 855b 953d
00000020: 2237 8b3d 9e50 ddbd 600a b3bc 61a9 7f3d
00000030: da49 8a3c 1cfe c83b 1287 7e3c bd3d 1f3d
00000040: b1f2 9abc 5eaf 563c 5079 14b9 7db6 d3bc
00000050: f1c0 663d 62da 75bc d411 79bd 25da c33d
00000060: 3b60 05bd 6850 0abd 29a9 923d 5666 903d
00000070: 2456 7cbc 1731 cabd 483c ec3c 2b37 14bd
00000080: a4e6 b13c 68b8 a9bd fbd5 8e3d f345 793d
00000090: b399 dcbc 213e 283d 4997 cebd 9b96 cf3d
000000a0: 0530 e1bc c2fb cb3c 156e 26bc 421a 323c
000000b0: ce2e 1c3c 8b3b 9cbd 738c 45bd 1469 3e3c
000000c0: aec5 afbd fe3c b03d f4a0 9e3d 54e6 ef3d
000000d0: 0a1b 7c3d 945b 94bd dc8d 9b3d 96e8 c6bd
000000e0: f983 1dbd c6a3 983c fa7f 193d cca8 6e3c
000000f0: 1d2d 8e3c 963a 29bd 29fd c8bd 305f 013d
00000100: b856 2d3d 4fbc 833d 8500 e3bc da56 a93d
00000110: aa1b 483b 6d88 f13b bcaa 893c 3225 7e3d
00000120: 4512 93bd e219 afbd c1ad f3bc 1c45 7c3d
00000130: 0da6 e3bd 93a2 11bd 5bcc 563d 4af7 b83c
00000140: 1b9e 42bd c054 aebd 978b 703d 21bd 74bd
00000150: 307c 92bd cdc4 ac3c 99d6 e1bc badb 043e
00000160: 2124 7ebc 6a3f 1bbd 88f2 393d 5aa7 0a3d
00000170: 144b aaba 582f 833d fc09 aebd 4e4c 933d
00000180: 42ef 26bd 3fa9 3bbd e45d e2bc 08d6 51bd
00000190: 5e8c b43d d491 023e 47d2 6dbd fa9b bc3b
000001a0: fd0e abbd 23ca 3bbd 5941 5bbc 1fc8 6f3d
000001b0: fa26 80bc 94ad 43bd d11d efbc 7c29 81bd
000001c0: 6a8f 533d 9ecd 36bd 32bf a93d 7461 cbba
000001d0: 151a 423d a5ad 1d3c 527f 4cbd 575b 753d
000001e0: 98e9 1d3d aadd 48bb f249 4d3d bf83 a43d
000001f0: 218c 983c d157 4d3d f6e9 533d b6ba dabc
0.045601852 -0.044582646 -0.03519079 0.005316913 0.030168245 -0.026841246 -0.041917764 0.072928466
0.06797625 -0.10806392 -0.021855533 0.06241739 0.016880918 0.006133808 0.015535133 0.038877238
-0.018914552 0.013103334 -0.00014159572 -0.025843853 0.056336347 -0.01500568 -0.060808018 0.09563092
-0.032562476 -0.033768088 0.07161171 0.07050769 -0.015401397 -0.098726444 0.028837338 -0.036185425
0.021716423 -0.08287126 0.06974407 0.060857724 -0.026928758 0.041074876 -0.10087449 0.101361476
-0.027488718 0.02490032 -0.010158082 0.010870518 0.0095326435 -0.076285444 -0.048229646 0.011621732
-0.08582626 0.08605383 0.07745543 0.117138535 0.061549224 -0.0724403 0.07595417 -0.09712331
-0.038455937 0.01863278 0.037475564 0.0145666115 0.017355496 -0.041315638 -0.098139115 0.03158492
0.04231903 0.064324014 -0.027710209 0.08268519 0.0030534067 0.0073709995 0.016805045 0.06204719
-0.07181219 -0.08549859 -0.029745938 0.061589345 -0.11115656 -0.035555433 0.052440982 0.022578854
-0.047514062 -0.085122585 0.058726873 -0.05975068 -0.07152593 0.021089936 -0.027568148 0.12974444
-0.0155115435 -0.037902273 0.04539731 0.033851005 -0.0012992346 0.064055145 -0.08497998 0.07192288
-0.040755518 -0.045815703 -0.027632661 -0.051229507 0.088158354 0.12750942 -0.058061864 0.0057558985
-0.08352468 -0.04584707 -0.013382279 0.05854046 -0.015643585 -0.04777296 -0.029189022 -0.06306741
0.051650442 -0.044629686 0.08288421 -0.0015516714 0.047388155 0.00962392 -0.04992611 0.05990156
0.03855285 -0.00306497 0.050119348 0.08032941 0.018621506 0.050132576 0.051736794 -0.026700359

actor.weight f4 [3, 128]
00000000: 355a ddbc d330 7dbe b6b9 c5bd 174c 21be
00000010: 8073 9cbe 0f2b 013f 082a 523e dedd 7d3e
00000020: 0df3 f73b 3179 9d3d 9f62 7b3d 70e2 1abd
00000030: e38c c63e 479e 833d f240 95bd 5b7b ce3e
00000040: 2752 593e a27a 65be 5e27 753e 9c4e d53c
00000050: 4d63 8cbd 4bc4 1d3e 41a2 053f 9083 3e3b
00000060: 3925 453f 422f ef3e c883 183f 8e26 113f
00000070: ed2c d23d 486c 56bd 066e e3bd 37fe afbe
00000080: a9f3 84be 4120 c4b7 b84e 9b3d bd54 253f
00000090: dbab 4a3e 26ad 85be 1611 92bd e380 25be
000000a0: a3ab cb3d 7212 0cbe 659c b3bc 2221 6a3e
000000b0: c121 e73e 4b2a b1bd be64 dc3e 2bba fabb
000000c0: be0d d43d 3c05 803c 15ac 073f 3cd2 0dbe
000000d0: 2961 23be 0365 593d 3597 bd3d 3e79 be3d
000000e0: b063 4a3d e8da 89be a15a aa3e b37e 2abd
000000f0: 2c03 e33e 9b55 de3e 2fb8 033e 2d9a 263e
00000100: ac1c 57be eae7 05bf f4f5 1bbe 8aae f5be
00000110: 52f1 403d 0d1b b4bd 8e15 c33e e94e f33e
00000120: 4cd6 42bd c2f5 aa3e 1c01 d33c a3e6 323c
00000130: e655 1a3d 1c21 cf3d e7fc 473e 58cd bd3e
00000140: 932d 49be f2e6 13ba cfde c4be 4e49 ca3d
00000150: 5dbb 563b cfc5 003f 46f4 8d3e 094f f9be
00000160: dd83 f7bd 914b dc3e 7f71 8e3e 7ae2 783e
00000170: 4ea7 a1bd 2e74 973e 6242 e0bd e3de c53d
00000180: d967 40bd 072c f0bd 88b1 78be 5127 5b3e
00000190: 1c95 693e 25b8 b6be 8f67 f03e dfab f2bc
000001a0: 05fd 2bbe ae83 453e a70b cfbe e12e d73e
000001b0: fee6 3bbe 76e3 df3d 78db c83e 7f70 2b3e
000001c0: d5bd 0abf ea87 13be 1515 53be 8969 d7bc
000001d0: 2a16 ef3d b1d9 d73e 48f5 09bf 3213 ba3b
000001e0: 21ee 773e 9142 353e f8d8 b53d 9e17 8e3e
000001f0: bfe0 eabc 738a 9b3e d165 e23e b1bb 713e
00000200: 940b d93e 90e4 783e 50f0 83bd e5ae 843e
00000210: ccf4 653e db5c aabd 7042 e9be 2aeb cfbe
00000220: d95c cb3e 3429 f0bd 846c 86be 69ea 543d
00000230: dc9f 633c f304 6d3d ace9 b63d 5177 e6be
00000240: cf86 aabe 7bb9 953d 188a 67bd b886 a8be
00000250: ec2d 1abd a150 b43c a022 cdbe 7eca 373e
00000260: 12b9 b8be f541 9ebe 39c3 dcbe 3c16 ddbd
00000270: b5d5 0dbe 127d acbd 7a18 df3e bff1 a93e
00000280: f89b 683e 2f1d 3d3e 8405 573e 0e8a a3be
00000290: d777 b13e d152 1e3e bb59 133d a286 ac3c
000002a0: f584 d8bd d0e9 3a3b e18b 033d f3c9 73be
000002b0: 9692 02bf de1e 33bd 9680 43bd dd3f e63d
000002c0: 1638 f0bc ab39 953c 7cfc 16bf 0112 063e
000002d0: 4d16 053e 358e b93c ccac 033d e2d3 c5be
000002e0: 71c0 d3be d24e 1c3e cb45 43be 92d6 76bc
000002f0: 8620 48bd 2680 51be cbe4 823c 20fe f6bd
00000300: f387 683e 2c77 c5bd 794c d13e a0cf 823e
00000310: 757a 88be 12e1 433e 1dfc 09bf cd7b 8bbe
00000320: 1246 5b3d 20d6 d6bd 94a9 213e d7b5 1e3d
00000330: 6ddc 813d 9de4 2ebd ee48 48be d54a a4bd
00000340: 9486 0c3e 907b 5cbd 15e0 e63b a894 e9bd
00000350: f593 5b3c 94af dcbd 5b34 60bd c08f 0bbc
00000360: f861 193e d8fe 19bf e119 c1be 6489 3d3e
00000370: d3c5 8f3d 1e21 debc 4316 093e a2d4 f2be
00000380: b5fd 5c3e f8ac 4e3c bea9 80be ae1a 9cbe
00000390: 2a6e d7be e24f 523e 5967 c6be 043d eebb
000003a0: ec66 1fbd 4576 2dbd 4fff bd3d b26d 23be
000003b0: 3837 b53e 8ddc bfbe a63b 63be c05f f4be
000003c0: c5a5 9c3e c22a 09bd c45e c83d 4697 54be
000003d0: 442d 39be 4c90 96be 45e3 563e 7ad3 273e
000003e0: 4342 77bd d295 e1bd 6aa5 373e 1b43 0abf
000003f0: 999f f33e 1e62 c9bd cc65 a0be 60a2 30bd
-0.027020553 -0.24725656 -0.09654562 -0.15751682 -0.3055687 0.5045633 0.20523846 0.24791667
0.0075668157 0.07689131 0.06137335 -0.037813604 0.38779363 0.064266734 -0.07287778 0.40328488
0.21222745 -0.22410062 0.23940799 0.02603846 -0.068548776 0.15406911 0.52200705 0.0029070117
0.7700992 0.46715742 0.5957608 0.56699455 0.10262475 -0.05234936 -0.1110497 -0.34373638
-0.25967148 -2.338004e-05 0.07583374 0.64582425 0.1979212 -0.26108664 -0.07132165 -0.16162448
0.099448465 -0.13678911 -0.02192516 0.22864202 0.4514294 -0.08650645 0.4304561 -0.0076515875
0.103541836 0.015627496 0.5299695 -0.1384973 -0.15955032 0.053074848 0.09257356 0.09300469
0.049411476 -0.26924825 0.3327227 -0.041624736 0.44338357 0.43424687 0.12863229 0.16269751
-0.21007031 -0.52307 -0.15230542 -0.47984725 0.04710514 -0.08794222 0.38102382 0.4752114
-0.04756765 0.33390623 0.025757365 0.010919246 0.037679575 0.10113737 0.19530068 0.37070727
-0.19646291 -0.00056420185 -0.3845124 0.09877263 0.0032765486 0.5030183 0.27725428 -0.48693112
-0.12085698 0.43026403 0.27820966 0.24305144 -0.07893239 0.29580826 -0.109501615 0.09661653
-0.046974037 -0.117271475 -0.24286473 0.21401717 0.22810787 -0.35687366 0.4695401 -0.02962297
-0.16795738 0.19288513 -0.40438578 0.42027953 -0.18349835 0.109320566 0.3922994 0.16742133
-0.5419591 -0.14407316 -0.20613511 -0.02629544 0.11674149 0.42158273 -0.53889894 0.005678558
0.24211933 0.17701174 0.08879274 0.27752393 -0.02867162 0.30379066 0.44218305 0.23606755
0.42391646 0.2430594 -0.0644232 0.25914684 0.22456664 -0.08318492 -0.455585 -0.40609103
0.39719275 -0.11726609 -0.26254666 0.051981363 0.013893094 0.057866048 0.08931288 -0.45012906
-0.33305976 0.07310768 -0.05652818 -0.32915282 -0.03764145 0.022011103 -0.4006548 0.17948338
-0.36078697 -0.30909696 -0.43117693 -0.107952565 -0.13851054 -0.08422293 0.43573362 0.3319225
0.22715747 0.18468164 0.20998198 -0.31941265 0.34661743 0.1546128 0.035974246 0.021060292
-0.105722345 0.002852071 0.03211582 -0.23807506 -0.5100492 -0.04373061 -0.04773005 0.1124265
-0.029323619 0.018215975 -0.5897901 0.13092805 0.12996788 0.022650817 0.032147214 -0.38638216
-0.4135776 0.15264443 -0.19069593 -0.015065806 -0.04885914 -0.20459041 0.015978238 -0.12060189
0.2270811 -0.09641871 0.40878657 0.2554903 -0.26655927 0.19128826 -0.5390032 -0.2724289
0.05353362 -0.1049006 0.15787345 0.038747635 0.06340871 -0.04269849 -0.1955907 -0.080220856
0.13723212 -0.053828776 0.0070457556 -0.11405307 0.013401975 -0.10775676 -0.05473743 -0.008518159
0.14978778 -0.60154486 -0.37715057 0.18509442 0.07020154 -0.0271154 0.13387398 -0.4742785
0.21581157 0.012614481 -0.25129503 -0.30489105 -0.42076236 0.20538285 -0.38750723 -0.007270457
-0.038916513 -0.04234912 0.09277212 -0.15959814 0.3539369 -0.37472954 -0.22190723 -0.477293
0.30595222 -0.033488043 0.097837 -0.20760831 -0.18083674 -0.29406965 0.20985134 0.16389266
-0.060365926 -0.11014904 0.17934194 -0.54008645 0.475827 -0.098331675 -0.31327665 -0.043123603

actor.bias f4 [3]
00000000: 7469 663d 5304 ffbc e262 09bd
0.05625291 -0.031129992 -0.033541568

critic.weight f4 [1, 128]
00000000: 7c22 d639 2562 a0bb 426d 633d 4b36 113e
00000010: 378b fdbc dc16 6a3e d019 75bd f93b 063e
00000020: 38f6 7bbb 9ee4 583e 4db8 ac3d a906 e23c
00000030: 20d6 943d 1d46 ce3d ac82 cb3e 8051 e0bd
00000040: 1810 c43a bcea 92bd 400f 843d 5f51 013e
00000050: a376 4d3e 9f01 833c 864b 313e fd6a 533d
00000060: 5705 08bd f6cd dcbd ccb3 bb3c b2eb 403e
00000070: f2cb 1e3e da8b dd3d f05f 33bd 6878 99bc
00000080: 3961 be3c 3149 c03c 2f14 cd3d f374 ee3c
00000090: 5cfb 2f3d 140e fb3d 902e 3f3c c57a 483e
000000a0: 462c 723d ec53 003e ca2f 09be 9ed1 3b3d
000000b0: b739 d93d ba2a 41bb 78f1 953d 96d0 7f3d
000000c0: 0651 29be 1039 4c3c d0f1 debd dc4a 5c3e
000000d0: 05e5 d23d 4283 98bd b016 d6bd 1828 3fba
000000e0: f0e4 ef3e 4e06 5a3b e28e 583c 7727 f93d
000000f0: ce62 34bd 7a58 273e 7200 7a3e a91f 9d3d
00000100: 83ab 5f3d c45a 8c3d 666d 0d3d eef5 cabb
00000110: 8bd7 7dbd 9931 3b3d 4470 23bd 97ae 0a3e
00000120: 737d 683d 3664 fdbd ef79 4dbe e201 97bb
00000130: e4eb 463e b17a a43d 7a63 ca3c 6a9c 583d
00000140: f3f3 8cbd 2a5a 10bd f529 5f3e 196c 26be
00000150: 9691 363d d13b 273c 7606 833e f65e 933d
00000160: d90a 1ebe aa4d f9bd 4545 cdbd a204 bfbd
00000170: fed1 dc3d bd04 41be 656d 2bbe c7d4 613e
00000180: c11d da3d 8077 1c3d 04d0 7b3d ea89 27bd
00000190: d5bf 993d 3fee 063c 7aad d23d 717b f73c
000001a0: 93cb 10be 8098 2dbd 7ee0 edbd ff84 703e
000001b0: ce72 b53b 3795 15be b468 65bd 0091 813c
000001c0: 3a2d 83bd abf5 6f3d e4f3 66bd 361c 513d
000001d0: 2cc0 b33d f75a 50bc a068 2ebe 9925 2f3c
000001e0: ccb7 3cbe 6ffe 51bd 28c1 a43d f718 37be
000001f0: 6f60 833d 38d9 c6bd 5b1b ad3d 1ac1 f03d
0.00040842954 -0.0048945122 0.05552412 0.14180867 -0.030950172 0.22860283 -0.05983907 0.13108815
-0.0038446318 0.2118096 0.0843359 0.027591066 0.072674036 0.10071967 0.39748132 -0.10953045
0.001495841 -0.07173678 0.06448221 0.12628697 0.20064788 0.015991984 0.17313966 0.051615704
-0.033208217 -0.107814714 0.022912882 0.1883991 0.15507486 0.1081769 -0.043792665 -0.018734172
0.023239719 0.0234724 0.10013615 0.0291085 0.042964324 0.122585446 0.011668816 0.19578083
0.059124254 0.12532014 -0.13397136 0.045854203 0.10606711 -0.002947493 0.07321447 0.062454782
-0.16534814 0.012464777 -0.10885966 0.21512932 0.10297588 -0.074469104 -0.10453546 -0.0007292046
0.46854353 0.0033267918 0.01321766 0.121657304 -0.04403954 0.16342345 0.24414232 0.07672054
0.054606926 0.0685325 0.03452816 -0.006193868 -0.061973136 0.045701597 -0.039901987 0.13543163
0.056760263 -0.12372629 -0.20066045 -0.0046083787 0.19425923 0.08031214 0.024705637 0.052883543
-0.06882467 -0.035242237 0.21793349 -0.16252173 0.044572435 0.010207132 0.25590867 0.07195847
-0.15433826 -0.12173016 -0.10022978 -0.093270555 0.1078224 -0.18849464 -0.1674095 0.22053824
0.10650206 0.0381999 0.061477676 -0.04090301 0.07507292 0.008235513 0.10286994 0.030210229
-0.14140157 -0.042381763 -0.11615084 0.23488234 0.0055373674 -0.14607702 -0.056008056 0.015816212
-0.06405111 0.058583897 -0.056384936 0.051052295 0.08776888 -0.012717 -0.17032099 0.010690116
-0.18429488 -0.051268037 0.08044654 -0.17880617 0.064148776 -0.097094 0.08452483 0.11755581
