W__RNN/W_RNN/md2/v_7/train_iter_1000.pt (torch, 80523 bytes, 8 tensors)

h0 f4 [128]
-0.7982532 -0.76085967 1.3352134 2.7780356 1.0020107 0.5082777 0.5854473 -1.129231
2.5992613 0.42554978 0.8078392 -0.4421654 -0.9404433 -0.77486867 -0.7143594 0.41748288
-0.12655157 -1.1711831 0.39819038 -0.63617724 -1.4904466 1.7918721 -0.5906187 2.9351335
-0.6112854 0.6985747 -1.0614799 0.31302485 2.626755 0.9937942 -0.23818432 1.3200836
0.4376104 0.17146014 -0.27812877 0.33388183 -0.20214777 0.8245949 0.16401277 -0.6929434
-1.1477774 0.8600709 1.458568 1.0037376 -0.054256417 -0.28812003 0.75569946 1.3953084
-1.3048458 -0.2448052 -1.2880734 0.20178111 -1.0917081 -0.28985417 -0.7840738 0.018951131
0.23377839 -0.65028685 1.7044163 -1.2794904 -0.9795864 0.52645534 0.7459474 -1.6056985
0.4811633 0.38211295 1.1821374 0.49158135 -0.32872716 -2.0087283 1.7692459 -0.027848642
1.3848902 0.54973763 -0.2529728 1.4878398 0.70736265 -0.68513626 -1.5819293 -0.30256757
0.10702548 -1.552725 1.7102216 -0.17668808 -0.008156565 -0.8545329 -1.7793005 1.484634
1.8641167 -0.9105954 -1.3339562 -1.0231031 -0.5917878 -0.3120684 1.4985588 0.20808348
-0.17143083 -0.26423526 0.018735979 -1.361354 0.0696978 -0.313004 -0.339466 0.8932091
1.3850293 -0.31568947 -0.3136925 -1.4835896 0.38178742 1.6144955 1.4167984 0.22030833
0.9580285 -0.9195788 0.11357473 0.13783588 -0.041008115 0.074747205 1.5933567 0.5455014
-0.024858166 1.0351338 -0.8041267 -0.36887902 0.0009321438 0.03509291 0.094996184 -0.45169625
00000000: 525a 4cbf b3c7 42bf 46e8 aa3f 56cb 3140
00000010: e341 803f 7d1e 023f e0df 153f a48a 90bf
00000020: 4c5a 2640 a9e1 d93e 8dce 4e3f 8163 e2be
00000030: e4c0 70bf cb5d 46bf 42e0 36bf 51c0 d53e
00000040: bc96 01be 54e9 95bf 9cdf cb3e 83dc 22bf
00000050: f4c6 bebf 115c e53f ca32 17bf 3ad9 3b40
00000060: 337d 1cbf cbd5 323f 93de 87bf cb44 a03e
00000070: c11c 2840 4c69 7e3f 97e6 73be 80f8 a83f
00000080: 780e e03e 3f93 2f3e e566 8ebe 8ff2 aa3e
00000090: d3ff 4ebe a718 533f f7f2 273e bd64 31bf
000000a0: 5fea 92bf 9b2d 5c3f 5bb2 ba3f 797a 803f
000000b0: fa3b 5ebd 7884 93be 8575 413f 7799 b23f
000000c0: 3005 a7bf 37ae 7abe 97df a4bf b59f 4e3e
000000d0: 17bd 8bbf c467 94be 10b9 48bf 673f 9b3c
000000e0: 9a63 6f3e 3379 26bf 502a da3f 57c6 a3bf
000000f0: 2dc6 7abf c7c5 063f 69f6 3e3f 8787 cdbf
00000100: 095b f63e 4fa4 c33e 4750 973f 8db0 fb3e
00000110: ed4e a8be 018f 00c0 a676 e23f d622 e4bc
00000120: 1544 b13f 9bbb 0c3f a785 81be 8971 be3f
00000130: b815 353f 1765 2fbf a97c cabf 23ea 9abe
00000140: 2d30 db3d b1bf c6bf 8be8 da3f b8ed 34be
00000150: 1da3 05bc abc2 5abf 1ec0 e3bf 7d08 be3f
00000160: 609b ee3f c81c 69bf 14bf aabf 0bf5 82bf
00000170: 687f 17bf 6ec7 9fbe c6d0 bf3f d613 553e
00000180: 908b 2fbe d849 87be 327c 993c d940 aebf
00000190: b8bd 8e3d 0f42 a0be 7dce adbe 5aa9 643f
000001a0: a448 b13f 0da2 a1be 4e9c a0be 44e6 bdbf
000001b0: a479 c33e caa7 ce3f a659 b53f 8298 613e
000001c0: 5b41 753f 8469 6bbf de99 e83d d924 0d3e
000001d0: 20f8 27bd 1015 993d 1df3 cb3f fba5 0b3f
000001e0: 5aa3 cbbc 447f 843f 3fdb 4dbf b6dd bcbe
000001f0: 1d5b 743a 95bd 0f3d 5c8d c23d bb44 e7be

RNN.weight_ih_l0 f4 [128, 17]
0.09824536 -0.10374261 -0.10176452 -0.10185544 -0.10046594 -0.051725894 0.07209664 -0.102463156
-0.009995138 -0.114720054 -0.058792762 0.2861482 -0.029034667 -0.11511988 0.009470587 -0.06099441
0.24320729 -0.07057087 -0.07464045 -0.056089237 -0.101894654 0.026746398 -0.12919097 -0.101519
-0.11312375 -0.07902157 -0.1095232 -0.028352177 0.18225661 -0.2130006 0.02366021 -0.043556664
-0.1030055 0.18569647 0.06434192 -0.052965056 -0.053461287 -0.034966122 -0.06641866 -0.06963659
0.0712579 -0.035069052 -0.059086166 0.051805254 -0.07122043 -0.06970912 0.06624057 0.027457675
0.012676953 -0.024900446 -0.02182227 0.011050117 0.09439912 0.05930638 0.36276338 -0.07656201
0.04314247 0.20859686 -0.20724712 -0.1723395 -0.1287166 0.027948905 0.35154617 0.021310834
-0.055984896 0.06831592 -0.06349168 0.1926441 -0.33823577 -0.22185278 -0.26632258 -0.24481808
-0.048715975 -0.15462619 -0.2621043 -0.08251213 0.015595046 -0.1163442 0.23317069 0.16615407
-0.16514315 -0.020334274 -0.11071434 0.08623716 0.15508181 -0.16063946 0.07785578 0.34602454
0.53552836 -0.1349473 -0.08914065 0.02227671 -0.19893093 -0.24344558 -0.15299219 -0.13327743
-0.1133846 0.06936245 -0.2241243 0.035408325 0.0076080807 -0.1261551 0.08373292 0.010168996
-0.18465957 -0.28720105 0.048397455 -0.05811048 -0.10297249 0.02334106 0.07755555 0.23372565
-0.055188946 -0.3029334 -0.036651757 -0.0029369402 0.004018726 0.11585432 -0.04765227 -0.0002120572
0.012916627 0.31060967 0.43727854 -0.076974556 0.075904265 0.2585336 -0.3501836 -0.30183193
-0.11371061 0.00013912143 -0.087300636 0.0638846 -0.2438367 0.026182914 -0.12831184 -0.17724861
-0.03835055 0.091116995 0.04625568 0.13636824 0.05087816 0.018829796 0.16079557 -0.12828077
-0.09069066 0.08799296 -0.025659233 0.20704308 0.19302627 0.064226314 0.07757911 0.010269799
0.17616028 -0.010238272 -0.061448406 -0.03378758 -0.019689636 -0.11589093 0.007662555 -0.12568545
-0.02136768 -0.118102685 -0.11821902 0.012105646 -0.08151403 0.016356207 -0.09506299 -0.10085827
0.03263438 0.005633525 0.11410588 0.009140182 0.085983835 0.12016584 -0.16918032 -0.17385131
-0.26608345 0.00890777 -0.010502473 -0.122925624 -0.058029167 -0.11062602 -0.13520557 0.057505876
-0.08151322 0.078798205 0.08919761 -0.03955377 0.052564763 0.037088983 0.043743778 0.028946677
0.037373036 -0.087481916 -0.015221717 -0.07185471 -0.07187617 -0.08216263 -0.04424004 0.0039219237
0.061531655 -0.056215905 -0.009632217 0.056123167 -0.10055115 0.08574786 0.15328115 0.13993412
0.043851938 0.010385436 0.043823972 -0.14877346 -0.010102268 0.040275265 -0.11100044 0.003137615
0.29139218 -0.03527217 -0.0037253257 0.07074733 0.103246205 0.07697399 -0.008921197 -0.062144954
-0.01765992 -0.012451737 -0.087371156 0.029651044 -0.043889705 -0.024772342 -0.068820104 -0.07441721
0.040275335 0.07181037 0.08688985 0.05477372 -0.053911064 0.046110027 -0.15850918 0.05181556
-0.0073713292 0.08045048 -0.059211064 -0.00679968 -0.07956619 -0.0149508435 -0.04636974 -0.03537602
-0.08138767 0.04317323 -0.026467387 -0.11462995 0.03412915 -0.07546669 -0.08717143 0.08582926
00000000: dd34 c93d 0177 d4bd eb69 d0bd 9699 d0bd
00000010: 16c1 cdbd 88de 53bd 67a7 933d 34d8 d1bd
00000020: a6c2 23bc 59f2 eabd aed0 70bd 0482 923e
00000030: 1cda edbc f9c3 ebbd 852a 1b3c 46d5 79bd
00000040: 550b 793e 7687 90bd 18dd 98bd d4bd 65bd
00000050: 25ae d0bd 431b db3c a34a 04be 32e9 cfbd
00000060: 6dad e7bd 10d6 a1bd b34d e0bd d342 e8bc
00000070: 7aa1 3a3e d41c 5abe 0fd3 c13c 7968 32bd
00000080: 8cf4 d2bd 3727 3e3e b2c5 833d e3f1 58bd
00000090: 39fa 5abd a338 0fbd 8206 88bd a19d 8ebd
000000a0: a9ef 913d 91a4 0fbd 5604 72bd bf31 543d
000000b0: 04dc 91bd a8c3 8ebd 23a9 873d ebee e03c
000000c0: ffb2 4f3c 05fc cbbc 9ec4 b2bc 8d0b 353c
000000d0: 5354 c13d 3feb 723d 1fbc b93e 8bcc 9cbd
000000e0: 29b6 303d 6a9a 553e 9738 54be c479 30be
000000f0: 49ce 03be 1af5 e43c dcfd b33e 0f94 ae3c
00000100: 6b50 65bd 38e9 8b3d ed07 82bd 7f44 453e
00000110: 3d2d adbe 602d 63be 6f5b 88be 97b1 7abe
00000120: 678a 47bd 5456 1ebe 8932 86be 1ffc a8bd
00000130: 5d82 7f3c de45 eebd 4cc4 6e3e 4b24 2a3e
00000140: 491b 29be 1094 a6bc 33be e2bd 1c9d b03d
00000150: c4cd 1e3e ac7e 24be da72 9f3d 212a b13e
00000160: 6318 093f a02f 0abe 608f b6bd a67d b63c
00000170: 8db4 4bbe cc49 79be fca9 1cbe e179 08be
00000180: 2f36 e8bd e60d 8e3d d780 65be 5208 113d
00000190: 354d f93b cd2e 01be 2a7c ab3d dc9b 263c
000001a0: 6617 3dbe 040c 93be 693c 463d 4105 6ebd
000001b0: 3ee3 d2bd c035 bf3c 72d5 9e3d c755 6f3e
000001c0: ce0d 62bd 161a 9bbe 2720 16bd ae79 40bb
000001d0: 84af 833b 0845 ed3d 072f 43bd ac5b 5eb9
000001e0: 43a0 533c 3b08 9f3e f9e2 df3e d6a4 9dbd
000001f0: b273 9b3d 845e 843e 444b b3be b789 9abe
00000200: 1ce1 e8bd 20e1 1139 adca b2bd eed5 823d
00000210: 54b0 79be 8d7d d63c 2e64 03be a980 35be
00000220: 7715 1dbd 8c9b ba3d 9976 3d3d 1ea4 0b3e
00000230: 9e65 503d f240 9a3c 98a7 243e 095c 03be
00000240: 06bc b9bd a735 b43d 5033 d2bc 1a03 543e
00000250: aea8 453e 1689 833d cce1 9e3d a942 283c
00000260: 5c63 343e 6dbe 27bc 53b1 7bbd d864 0abd
00000270: 294c a1bc 3958 edbd 2c16 fb3b b0b3 00be
00000280: 460b afbc d2df f1bd d01c f2bd c256 463c
00000290: d4f0 a6bd 74fd 853c 63b0 c2bd c88e cebd
000002a0: a1ab 053d 6f99 b83b 58b0 e93d b4c0 153c
000002b0: 4b18 b03d 8219 f63d 9b3d 2dbe 1406 32be
000002c0: 173c 88be e5f1 113c 9112 2cbc 6ec0 fbbd
000002d0: feaf 6dbd e58f e2bd 5473 0abe 488b 6b3d
000002e0: 67f0 a6bd f460 a13d 3dad b63d 2203 22bd
000002f0: 264e 573d 9eea 173d ad2c 333d 9521 ed3c
00000300: 7814 193d b829 b3bd 8264 79bc 9028 93bd
00000310: d033 93bd e244 a8bd 0b35 35bd 7b83 803b
00000320: 9e08 7c3d a642 66bd 72d0 1dbc 68e1 653d
00000330: c3ed cdbd 939c af3d bcf5 1c3e e44a 0f3e
00000340: 179e 333d ad27 2a3c c480 333d 1258 18be
00000350: fc83 25bc adf7 243d 3354 e3bd 72a0 4d3b
00000360: 5b31 953e 8d79 10bd 9824 74bb fae3 903d
00000370: bf72 d33d 8aa4 9d3d 362a 12bc b58b 7ebd
00000380: 89ab 90bc 5f02 4cbc a6ef b2bd bfe6 f23c
00000390: b1c5 33bd 5eef cabc 8ef1 8cbd 0d68 98bd
000003a0: c0f7 243d 5111 933d 4ef3 b13d 695a 603d
000003b0: d9d1 5cbd dedd 3c3d 3b50 22be 8d3c 543d
000003c0: 318b f1bb 39c3 a43d 4d87 72bd dacf debb
000003d0: 99f3 a2bd 62f4 74bc 32ee 3dbd 72e6 10bd
000003e0: 94ae a6bd 6ad6 303d 22d2 d8bc 1bc3 eabd
000003f0: 02cb 0b3d 488e 9abd ef86 b2bd 40c7 af3d

RNN.weight_hh_l0 f4 [128, 128]
-0.056843277 -0.041328523 0.073397785 -0.07641652 0.06502796 -0.07408048 0.05144883 0.03456828
0.075112976 0.003992777 -0.10618761 -0.06319514 0.016970174 -0.073166825 -0.026664117 -0.040790398
-0.03779748 -0.05778799 -0.028309945 -0.062338904 0.09049518 0.026301766 0.013414511 0.042797565
0.049806662 0.04584789 -0.019120684 -0.004230389 -0.11648184 -0.006274786 -0.06446804 -0.0294941
-0.014580971 0.0006952173 -0.08791031 -0.005632674 -0.014154216 -0.05100475 0.016249856 0.11567472
0.08764573 0.0022121277 0.05183256 0.012138043 -0.0053820033 0.051080897 -0.0725667 -0.011702267
-0.045569424 -0.066576235 0.05614576 0.008289386 0.09784281 -0.034024958 0.009344512 0.0061463113
-0.021930961 0.12002152 -0.070184685 -0.058656584 0.037556686 -0.050150037 0.07037708 -0.06348475
0.05815618 0.048971083 0.07334778 -0.048289526 0.055792566 0.024218207 -0.009409184 0.07141869
-0.040101204 0.057182536 -0.042243034 0.082632236 -0.0012427936 0.014463377 0.07517654 0.020006059
0.025566688 0.06932667 0.008970482 0.06430612 0.077623084 -0.046382952 -0.011542811 0.067929685
-0.03658698 0.047577273 0.008218281 0.033825614 -0.038677342 -0.039513983 0.035147533 -0.0060706986
0.013131435 0.020664051 0.058119215 0.044456173 0.08361343 -0.00028394075 0.12686023 -0.025098234
0.024587512 -0.016981006 -0.029923508 0.043049563 -0.047378283 -0.0756497 -0.047499545 -0.09569809
-0.022995371 -0.035459083 0.013937604 0.05855402 0.060660575 0.07741306 0.057058286 0.020699069
-0.07245133 -0.055927444 -0.0846584 -0.07112663 -0.06623169 0.082635 0.10278384 0.046881814
-0.03149468 -0.0644054 0.08052927 -0.030853052 -0.05981123 0.032573536 0.033562336 -0.03855447
-0.014008293 -0.11008102 -0.056461662 0.08562533 0.06912314 0.033693824 0.08588756 -0.019971056
-0.061706252 0.0009340693 0.08833412 -0.030264132 -0.0048036114 0.080696665 -0.09216374 0.017844647
-0.07718318 0.009837619 0.09327936 0.07029396 -0.0566793 -0.08558604 0.07288261 -0.010764083
-0.049427915 0.058004837 0.07725689 0.01608388 -0.0167801 -0.082989894 -0.0076984502 0.17749816
0.076415524 -0.04307536 -0.0056788833 0.029020702 -0.013564232 -0.044806596 -0.034629304 0.043426733
-0.026558818 -0.048710305 0.02569707 0.013665809 -0.008666181 0.06955441 0.06396646 0.10809006
-0.1128902 0.113178894 -0.10261736 -0.060165096 -0.029680833 0.01793591 -0.0983791 -0.0063702813
-0.012653128 -0.047867168 -0.037664127 0.06485632 -0.04539626 0.02886139 -0.069073625 0.0056057796
-0.016447112 -0.03334754 -0.030842979 -0.07289293 0.030387146 0.07539996 0.03703037 0.049402792
0.055282034 0.012535345 0.11425862 -0.067626424 0.042438008 -0.028106118 -0.06302675 0.16737717
-0.035240203 -0.030638577 -0.0071712974 0.08640072 0.059781484 -0.04156825 -0.06891446 0.17729248
-0.009194092 -0.07822145 0.087433204 -0.054489188 -0.021944618 0.09633622 0.07844344 0.07370792
-0.07314302 0.09962309 -0.03267162 -0.06608366 0.035827387 -0.066975094 -0.039802987 -0.07319493
0.041119333 -0.031508423 0.09673248 0.026517171 -0.047575 0.009325559 0.09071812 -0.022634948
0.012427124 0.032620583 -0.04842071 0.036758497 0.099921964 -0.009581472 0.03376875 -0.0547864
00000000: 7fd4 68bd 1948 29bd 9451 963d 4480 9cbd
00000010: 612d 853d 82b7 97bd 02bc 523d 7897 0d3d
00000020: d5d4 993d d7d5 823b e478 d9bd 746c 81bd
00000030: 0905 8b3c 7dd8 95bd b56e dabc d513 27bd
00000040: 88d1 1abd 19b3 6cbd 42ea e7bc 1457 7fbd
00000050: 8955 b93d cd76 d73c 8ac8 5b3c 804c 2f3d
00000060: 1202 4c3d ffca 3b3d fba2 9cbc 139f 8abb
00000070: 088e eebd b89c cdbb d207 84bd 9c9d f1bc
00000080: 06e5 6ebc 3e3f 363a 520a b4bd 4b92 b8bb
00000090: 16e7 67bc 5bea 50bd 6b1e 853c dee6 ec3d
000000a0: 9b7f b33d 58f9 103b 614e 543d a4de 463c
000000b0: 845b b0bb 343a 513d da9d 94bd deba 3fbc
000000c0: 01a7 3abd 1f59 88bd 19f9 653d 34d0 073c
000000d0: d061 c83d c15d 0bbd b919 193c ff66 c93b
000000e0: 8fa8 b3bc d8cd f53d fdbc 8fbd e341 70bd
000000f0: 0ad5 193d 206a 4dbd dc21 903d 4b04 82bd
00000100: 2d35 6e3d e795 483d 5c37 963d 3dcb 45bd
00000110: bf86 643d 4365 c63c fa28 1abc f643 923d
00000120: 2941 24bd 3c38 6a3d 0807 2dbd 173b a93d
00000130: 3ce5 a2ba cdf7 6c3c 28f6 993d bfe3 a33c
00000140: 3b71 d13c 24fb 8d3d eef8 123c edb2 833d
00000150: daf8 9e3d 0dfc 3dbd 0f1e 3dbc b81e 8b3d
00000160: 3bdc 15bd 63e0 423d f8a5 063c ba8c 0a3d
00000170: 226c 1ebd 6ad9 21bd dcf6 0f3d b6ec c6bb
00000180: 3b25 573c a847 a93c 6a0e 6e3d ad17 363d
00000190: 853d ab3d e2dd 94b9 a6e7 013e d09a cdbc
000001a0: c06b c93c c01b 8bbc 2522 f5bc bd54 303d
000001b0: bb0f 42bd 3bee 9abd e28e 42bd 5cfd c3bd
000001c0: ca60 bcbc 8b3d 11bd 8c5a 643c 57d6 6f3d
000001d0: 3977 783d bd8a 9e3d f3b5 693d 1891 a93c
000001e0: 5d61 94bd 2d14 65bd 6261 adbd d7aa 91bd
000001f0: 7ba4 87bd 8a3c a93d 5580 d23d 2507 403d
00000200: 9100 01bd fae6 83bd 88ec a43d 8abf fcbc
00000210: 9ffc 74bd d46b 053d a978 093d 4beb 1dbd
00000220: 0a83 65bc 2872 e1bd 5844 67bd 555c af3d
00000230: 6f90 8d3d 8902 0a3d d1e5 af3d 579a a3bc
00000240: b2bf 7cbd 54dc 743a 85e8 b43d 7cec f7bc
00000250: 9d67 9dbb 4b44 a53d 58c0 bcbd f02e 923c
00000260: 3712 9ebd f72d 213c 4009 bf3d 48f6 8f3d
00000270: 8e28 68bd bc47 afbd 7a43 953d d65b 30bc
00000280: ed74 4abd 7b96 6d3d dc38 9e3d 57c2 833c
00000290: 6c76 89bc 9bf6 a9bd 4843 fcbb 14c2 353e
000002a0: be7f 9c3d ca6f 30bd ed15 babb d3bc ed3c
000002b0: 833c 5ebc 1f87 37bd 75d7 0dbd 3be0 313d
000002c0: e191 d9bc 7584 47bd a982 d23c 8fe6 5f3c
000002d0: 99fc 0dbc 8b72 8e3d d900 833d 525e dd3d
000002e0: fa32 e7bd 56ca e73d 0d29 d2bd ad6f 76bd
000002f0: 3825 f3bc 54ee 923c fb7a c9bd cbbd d0bb
00000300: 114f 4fbc 5d10 44bd b345 1abd 64d3 843d
00000310: 6ef1 39bd b96e ec3c 7976 8dbd b0b0 b73b
00000320: 18bc 86bc 6e97 08bd 6aaa fcbc e348 95bd
00000330: 77ee f83c 4b6b 9a3d 28ad 173d 955a 4a3d
00000340: 6a6f 623d 0c61 4d3c 6c00 ea3d b97f 8abd
00000350: 7ad3 2d3d cd3e e6bc 2b14 81bd ec64 2b3e
00000360: 0858 10bd c1fd fabc 34fd eabb dcf2 b03d
00000370: 6edd 743d 7843 2abd 0623 8dbd 298c 353e
00000380: d1a2 16bc 9132 a0bd 2e10 b33d 0e30 5fbd
00000390: 33c5 b3bc ed4b c53d f4a6 a03d 2ef4 963d
000003a0: 02cc 95bd 3107 cc3d add2 05bd df56 87bd
000003b0: bdbf 123d 3d2a 89bd 7508 23bd 39e7 95bd
000003c0: bf6c 283d fa0e 01bd ae1b c63d 8a3a d93c
000003d0: 01de 42bd 3bca 183c 6cca b93d ed6c b9bc
000003e0: 239b 4b3c 299d 053d cb54 46bd 1490 163d
000003f0: e3a3 cc3d 9bfb 1cbc 1a51 0a3d b467 60bd

RNN.bias_ih_l0 f4 [128]
0.016269788 0.08559826 -0.021086046 0.048540805 0.009150567 -0.085438736 -0.0013217753 -0.09693004
-0.008182391 -0.030190138 -0.043537322 0.0061246776 0.057448767 -0.09056161 -0.018002491 0.06417031
0.095083356 -0.01502948 0.025829673 -0.0692538 0.10709795 0.026884254 0.076365925 -0.043690547
0.04736064 0.039590593 -0.036940258 0.007915876 0.044823665 -0.003043951 -0.03140176 0.04468877
-0.068102434 -0.06192436 -0.060959026 -0.057544805 0.032697212 -0.04919505 -0.03686266 0.049091153
-0.04141551 -0.020465823 -0.022127645 -0.0060792197 0.01737549 -0.015887937 0.04682671 -0.06941837
0.038375095 0.009020599 0.08021363 0.08674901 -0.029767705 -0.07559511 -0.03041588 0.007408023
0.05379527 0.07340093 -0.059467617 0.042493153 -0.061243013 0.030887082 0.016544653 0.013920352
0.10297186 0.10743374 -0.05454238 0.016694464 0.064072154 0.018696195 0.0606908 -0.03573478
0.018408073 0.07557155 -0.050025176 -0.08137216 0.07303302 -0.025549786 0.08485096 0.01722498
0.084841326 -0.041410178 0.07493696 -0.0073479638 -0.010913084 0.06290786 -0.049545947 -0.011102767
-0.029951489 -0.077043466 -0.02964632 -0.06520262 0.06419903 0.021031037 0.09030599 -0.013139063
-0.011082241 -0.05255991 0.030020772 0.08862873 -0.06609735 -0.03598369 0.060967404 0.051142998
0.025212243 0.09284169 0.00097194914 0.11110666 0.06323569 -0.0011841119 0.067106865 -0.05377907
-0.03283189 -0.048927136 -0.0024209432 0.004652812 0.05586466 0.053870924 -0.007984096 0.09422061
-0.05579745 0.011847666 -0.03520121 -0.05802869 -0.031065997 0.061925583 0.07406974 -0.03869305
00000000: 3848 853c 244e af3d a5bc acbc b9d2 463d
00000010: 43ec 153c 81fa aebd 6b3f adba 4283 c6bd
00000020: 6f0f 06bc 4f51 f7bc 3154 32bd 85b1 c83b
00000030: 664f 6b3d 5e78 b9bd f679 93bc b96b 833d
00000040: 10bb c23d 353e 76bc c098 d33c f0d4 8dbd
00000050: 2c56 db3d 5e3c dc3c bd65 9c3d dcf4 32bd
00000060: 3bfd 413d bf29 223d ab4e 17bd 97b1 013c
00000070: 0599 373d 067d 47bb 229f 00bd 920b 373d
00000080: 4a79 8bbd 66a4 7dbd 2cb0 79bd 1ab4 6bbd
00000090: 83ed 053d c080 49bd 4dfd 16bd ce13 493d
000000a0: 4fa3 29bd f1a7 a7bc 0945 b5bc 3134 c7bb
000000b0: 0b57 8e3c 6b27 82bc 5dcd 3f3d 382b 8ebd
000000c0: 342f 1d3d 22cb 133c 0b47 a43d 77a9 b13d
000000d0: 67db f3bc 9cd1 9abd b92a f9bc 00bf f23b
000000e0: 6e58 5c3d 3a53 963d 5194 73bd 4d0d 2e3d
000000f0: f4d9 7abd e806 fd3c a788 873c 3012 643c
00000100: e9e2 d23d 3806 dc3d d567 5fbd d4c2 883c
00000110: 4338 833d c328 993c eb96 783d a25e 12bd
00000120: 87cc 963c 42c5 9a3d 33e7 4cbd 72a6 a6bd
00000130: 5692 953d c94d d1bc 57c6 ad3d 671b 8d3c
00000140: 4ac1 ad3d b89d 29bd 8d78 993d 30c7 f0bb
00000150: cbcc 32bc d6d5 803d b1f0 4abd 61e8 35bc
00000160: d35c f5bc f7c8 9dbd d7dc f2bc f488 85bd
00000170: c87a 833d 4849 ac3c 59f2 b83d 3945 57bc
00000180: 4a92 35bc 0f49 57bd 1fee f53c fb82 b53d
00000190: 0c5e 87bd a263 13bd f5b8 793d 527b 513d
000001a0: e889 ce3c c923 be3d 67ca 7e3a e38b e33d
000001b0: b781 813d 3434 9bba 536f 893d 7147 5cbd
000001c0: bb7a 06bd d267 48bd b0a8 1ebb 9e76 983b
000001d0: 57d2 643d c2a7 5c3d bacf 02bc bcf6 c03d
000001e0: de8b 64bd b71c 423c 252f 10bd 7eaf 6dbd
000001f0: 1e7e febc aea5 7d3d e0b1 973d 9b7c 1ebd

RNN.bias_hh_l0 f4 [128]
0.051770635 -0.033796765 -0.01095319 -0.017054023 0.00070216024 -0.04580507 -0.044613827 0.054460812
0.079671815 -0.088586286 -0.040812682 0.07131941 0.025588809 0.011689087 0.01965574 0.02794562
-0.02928511 0.01125664 -0.010728481 -0.043426514 0.05974967 -0.024740502 -0.08247981 0.09811404
-0.0728777 -0.0511 0.043549396 0.044605672 -0.02441516 -0.09099926 0.030873897 -0.051465508
0.017048856 -0.07126788 0.05894702 0.036984492 -0.011307368 0.051316537 -0.09505037 0.09374904
-0.02156377 0.04305437 -0.02706707 -0.008133196 0.0018222267 -0.06930476 -0.061138906 0.015503462
-0.07679123 0.08281626 0.054491032 0.0913789 0.060055774 -0.0724403 0.08474656 -0.08710717
-0.06510829 0.018127976 0.019936036 0.009791646 0.001913903 -0.07155594 -0.10479242 0.016313825
0.050828323 0.062717 -0.01509691 0.086265676 0.008206238 0.01677522 0.006920916 0.04734264
-0.091901064 -0.07778681 -0.027926555 0.06458769 -0.09337109 -0.035555433 0.05108019 0.006466656
-0.050435945 -0.07818616 0.05391699 -0.037208334 -0.08536872 -0.0030613958 -0.052073143 0.12749366
-0.013352859 -0.0594896 0.0708475 0.029572623 -0.014224425 0.055600353 -0.040455963 0.0488778
-0.027951729 -0.03513701 -0.041969087 -0.0560349 0.07258048 0.102201685 -0.062061947 0.011435227
-0.08352468 -0.05585867 -0.01255747 0.02605412 0.0070169508 -0.04098607 -0.050910994 -0.05296614
0.021531928 -0.03985274 0.09372844 0.01436546 0.03898732 -0.019828903 -0.035458766 0.051417626
0.031118855 0.00090056256 0.050796594 0.07709439 0.028148487 0.071271315 0.02439965 -0.039349146
00000000: 720d 543d 7a6e 0abd 0275 33bc e1b4 8bbc
00000010: 2d11 383a 199e 3bbd fdbc 36bd 4d12 5f3d
00000020: fa2a a33d ba6c b5bd 332b 27bd e90f 923d
00000030: 9f9f d13c 9683 3f3c 1305 a13c 36ee e43c
00000040: 54e7 efbc c56d 383c 83c6 2fbc 00e0 31bd
00000050: 12bc 743d 98ac cabc 2deb a8bd 04f0 c83d
00000060: e740 95bd 3c4e 51bd da60 323d 70b4 363d
00000070: 4d02 c8bc d25d babd 41eb fc3c 7fcd 52bd
00000080: 0baa 8b3c e5f4 91bd 6e72 713d 0d7d 173d
00000090: 8a42 39bc 4a31 523d c5a9 c2bd 7fff bf3d
000000a0: 81a6 b0bc c759 303d c3bb ddbc 1941 05bc
000000b0: c8d7 ee3a a7ef 8dbd ca6c 7abd 3c02 7e3c
000000c0: b844 9dbd 929b a93d fd31 5f3d dc24 bb3d
000000d0: 0bfd 753d 945b 94bd 9b8f ad3d 3e65 b2bd
000000e0: 7f57 85bd 1f81 943c e650 a33c 246d 203c
000000f0: eedb fa3a ec8b 92bd 699d d6bd 92a4 853c
00000100: 5c31 503d c571 803d 0859 77bc 0fac b03d
00000110: 7573 063c 306c 893c dac8 e23b 5bea 413d
00000120: a036 bcbd b14e 9fbd 3bc6 e4bc 8d46 843d
00000130: 5839 bfbd 93a2 11bd 7639 513d 3ee6 d33b
00000140: ec95 4ebd 1120 a0bd 10d8 5c3d c467 18bd
00000150: ccd5 aebd b3a1 48bb a64a 55bd b38d 023e
00000160: f3c5 5abc 5eab 73bd 7e18 913d 4942 f23c
00000170: 900d 69bc 32bd 633d 27b5 25bd 1734 483d
00000180: 06fb e4bc d3eb 0fbd c7e7 2bbd da84 65bd
00000190: 13a5 943d 1e4f d13d ab34 7ebd d15a 3b3c
000001a0: fd0e abbd 10cc 64bd d9bd 4dbc 736f d53c
000001b0: 73ee e53b 02e1 27bd 0c88 50bd 06f3 58bd
000001c0: ba63 b03c a03c 23bd b2f4 bf3d 1b5d 6b3c
000001d0: 2bb1 1f3d 3970 a2bc 363d 11bd 4a9b 523d
000001e0: f8ec fe3c bb13 6c3a 1710 503d aae3 9d3d
000001f0: a897 e63c b2f6 913d c6e1 c73c 922c 21bd

actor.weight f4 [3, 128]
0.0056971996 -0.21307477 -0.10091034 -0.121174335 -0.23888561 0.35739127 0.1384193 0.12680393
0.098166615 0.0073538553 0.011645209 -0.08378998 0.30254018 0.06427199 -0.09834318 0.15797672
0.20007642 -0.086114645 0.17364554 0.025910731 -0.06952842 0.10691765 0.30433738 0.02915552
0.38049582 0.35870057 0.31596273 0.38386804 0.08307997 -0.06370928 0.02040602 -0.2903973
-0.20577073 0.0015573418 0.087573916 0.42240474 0.19508001 -0.09450898 -0.001648378 -0.15472071
0.015650518 -0.09674076 -0.021920035 0.1731896 0.21178938 -0.09391885 0.3827488 -0.0073516904
-0.023140281 -0.023994686 0.265496 -0.14016758 -0.07106457 0.053074848 0.073182024 0.055143647
-0.009928258 -0.2018105 0.24118637 -0.031986143 0.25068635 0.2969796 0.083718725 0.12623483
-0.19005586 -0.35343298 -0.11139089 -0.41680053 0.031039143 -0.07101108 0.15364866 0.39064932
-0.050376218 0.18397954 0.077829376 0.092113495 0.043973856 0.10113737 0.10967292 0.18171276
-0.20143251 -0.00056420185 -0.33875418 -0.037867285 -0.008766183 0.2819516 0.1871409 -0.3132502
-0.09188425 0.28127155 0.049314246 0.18641098 -0.05135458 0.09492076 -0.07585185 -0.047278665
-0.06981916 -0.10304995 -0.21706317 0.013977768 0.17258221 -0.30683607 0.095440574 -0.029487701
-0.16795738 0.048111584 -0.32441932 0.19736733 -0.09977226 0.056408577 0.31382796 0.028683852
-0.47714794 -0.11844995 -0.06684754 -0.030736677 0.090196446 0.28451347 -0.32198408 -0.025036529
0.19785002 0.093887195 0.07982127 0.17751 -0.01846778 0.19842865 0.22796527 0.22907121
0.3317418 0.20316829 -0.056773026 0.19645832 0.20912509 -0.04922824 -0.33172247 -0.193476
0.21744032 -0.085916676 -0.18120949 0.039762575 0.035668828 0.05786193 0.064643934 -0.23339859
-0.29842892 -0.0034939726 -0.010304082 -0.3028913 -0.0032417905 0.036830954 -0.25830132 0.14913608
-0.09506622 -0.21918237 -0.23722804 -0.04668886 -0.12190331 -0.07615888 0.20235161 0.28299078
0.16839416 0.15304662 0.17467998 -0.1584351 0.16334446 -0.020828078 -0.04514765 0.042193353
-0.07833491 -0.01975893 0.008778989 -0.1751975 -0.2912875 -0.036324732 -0.0053670714 0.11189518
0.04223939 0.026963662 -0.35573164 0.14472543 0.087339245 0.022650817 -0.031695437 -0.32434466
-0.24665473 0.14204015 -0.121570885 -0.012344446 0.003831436 -0.1294292 0.008586796 -0.08928498
0.21911432 -0.03851683 0.30778456 0.23169553 -0.25052315 0.1506602 -0.34428123 -0.2165271
0.026412094 -0.044494975 0.1613199 -0.048131842 0.042537104 -0.04269849 -0.12711725 0.04085718
0.13904622 -0.053828776 0.056043256 -0.08062094 0.049092434 0.0222484 -0.019053554 0.0220594
0.077725254 -0.3520357 -0.271725 0.10042972 0.043112665 0.09776793 0.120037824 -0.19240952
0.20516318 -0.0016385065 -0.1375979 -0.16120821 -0.3637035 0.18671837 -0.1430884 -0.007002355
-0.038916513 -9.11792e-06 0.09352139 -0.16785544 0.2599639 -0.33980513 -0.16498134 -0.2332973
0.26710805 -0.034682438 0.07030031 -0.18661982 -0.14725909 -0.19130164 0.18899369 0.1388836
-0.008868895 -0.06855864 0.1260737 -0.35134536 0.29868397 0.0020182654 -0.18302214 -0.033223044
00000000: 93af ba3b 4630 5abe 15aa cebd 402a f8bd
00000010: 6e9e 74be fdfb b63e cabd 0d3e e4d8 013e
00000020: 940b c93d 9cf8 f03b 8ccb 3e3c 159a abbd
00000030: 8ce6 9a3e 08a1 833d 2668 c9bd a6c4 213e
00000040: d5e0 4c3e e05c b0bd 23d0 313e be42 d43c
00000050: eb64 8ebd a4f7 da3d 1cd2 9b3e 8fd7 ee3c
00000060: 59d0 c23e 9aa7 b73e dec5 a13e 5a8a c43e
00000070: d525 aa3d 037a 82bd 872a a73c f4ae 94be
00000080: 90b5 52be b81f cc3a f459 b33d 6f45 d83e
00000090: 0ec3 473e ed8d c1bd 630e d8ba 1b6f 1ebe
000000a0: 8435 803c 0520 c6bd a591 b3bc 9d58 313e
000000b0: 51df 583e 8758 c0bd a7f7 c33e 73e6 f0bb
000000c0: b090 bdbc 8190 c4bc 17ef 873e 1788 0fbe
000000d0: 4d8a 91bd 0365 593d 75e0 953d 4ede 613d
000000e0: 22aa 22bc 69a7 4ebe 8ff9 763e e703 03bd
000000f0: f659 803e b60d 983e b974 ab3d b443 013e
00000100: 019e 42be 2bf5 b4be e820 e4bd e166 d5be
00000110: cd45 fe3c 426e 91bd 1356 1d3e 3003 c83e
00000120: 4b57 4ebd 2265 3c3e 0265 9f3d 00a6 bc3d
00000130: ee1d 343d 1c21 cf3d 329c e03d e912 3a3e
00000140: 5344 4ebe f2e6 13ba 3071 adbe ba1a 1bbd
00000150: 09a0 0fbc f65b 903e dda1 3f3e 5562 a0be
00000160: cf2d bcbd d302 903e bcfd 493d 85e2 3e3e
00000170: 2e59 52bd d165 c23d 3758 9bbd 46a7 41bd
00000180: 59fd 8ebd da0b d3bd cf45 5ebe 0203 653c
00000190: 64b9 303e 9e19 9dbe 5976 c33d 3190 f1bc
000001a0: 05fd 2bbe a710 453d 4a1a a6be a91a 4a3e
000001b0: 6655 ccbd ae0c 673d 0fae a03e 66fa ea3c
000001c0: bc4c f4be e395 f2bd 5de7 88bd 7ccb fbbc
000001d0: eab8 b83d c0ab 913e 19db a4be 6819 cdbc
000001e0: 3299 4a3e ee47 c03d 5679 a33d 2ec5 353e
000001f0: be49 97bc e130 4b3e ba6f 693e a591 6a3e
00000200: 10da a93e 590b 503e d58a 68bd 5f2c 493e
00000210: e324 563e 8da3 49bd 87d7 a9be 931e 46be
00000220: ada8 5e3e 15f5 afbd fb8e 39be 15de 223d
00000230: 7a19 123d a200 6d3d 0a64 843d 0a00 6fbe
00000240: adcb 98be 22fb 64bb 74d2 28bc 9214 9bbe
00000250: 3874 54bb 0edc 163d 1240 84be 21b7 183e
00000260: 14b2 c2bd 5871 60be e8eb 72be d13c 3fbd
00000270: 71a8 f9bd 30f9 9bbd 4335 4f3e 2be4 903e
00000280: 856f 2c3e 41b8 1c3e 4fdf 323e d03c 22be
00000290: c543 273e a59f aabc beec 38bd f0d2 2c3d
000002a0: 0e6e a0bd 7bdd a1bc c0d5 0f3c f966 33be
000002b0: a323 95be 3ec9 14bd 42de afbb 4d29 e53d
000002c0: 3603 2d3d e6e2 dc3c 7522 b6be e732 143e
000002d0: ebde b23d 358e b93c 13d3 01bd 8110 a6be
000002e0: 0f93 7cbe f972 113e 28fa f8bd 5c40 4abc
000002f0: d418 7b3b 1789 04be a2af 0c3c 0bdb b6bd
00000300: 815f 603e d3c3 1dbd f095 9d3e 9841 6d3e
00000310: 9244 80be ab46 1a3e a145 b0be 48b9 5dbe
00000320: 2d5e d83c 5d40 36bd 0b31 253e e525 45bd
00000330: 633b 2e3d 9de4 2ebd 062b 02be dc59 273d
00000340: 2262 0e3e 907b 5cbd 9d8d 653d 971c a5bd
00000350: 2615 493d 4742 b63c 3316 9cbc eab5 b43c
00000360: 6b2e 9f3d 063e b4be 8a1f 8bbe 19ae cd3d
00000370: e896 303d 8d3a c83d 64d6 f53d 0007 45be
00000380: 4c16 523e 28c3 d6ba 77e6 0cbe c413 25be
00000390: 5837 babe 1a33 3f3e c485 12be 0374 e5bb
000003a0: ec66 1fbd 2bf9 18b7 2488 bf3d 4ce2 2bbe
000003b0: fd19 853e f0fa adbe def0 28be 7de5 6ebe
000003c0: 63c2 883e 2c0f 0ebd 9cf9 8f3d 4419 3fbe
000003d0: 16cb 16be 94e4 43be 9087 413e 8137 0e3e
000003e0: d74e 11bc 7968 8cbd 7719 013e 8ae3 b3be
000003f0: 1bed 983e e044 043b 286a 3bbe e314 08bd

actor.bias f4 [3]
0.03882269 -0.017270291 -0.04223084
00000000: 8a04 1f3d 6d7a 8dbc 3ffa 2cbd

critic.weight f4 [1, 128]
0.0024429346 -0.035042044 0.041954413 0.0022756355 -0.046369005 0.20749205 -0.09615253 0.13057034
-0.04210622 0.16945224 0.079168834 0.049071927 0.045418493 0.10021224 0.30302432 -0.14541085
-0.038613796 -0.06868904 0.020833584 0.11945352 0.20707138 -0.054604232 0.17996255 0.051767915
-0.0356748 -0.12123898 -0.0020406363 0.19441628 0.15653652 0.10850853 -0.06541482 -0.0486033
0.03162793 0.015209204 0.081164576 0.030316034 0.055362117 0.13255242 0.012891638 0.20429142
0.0215483 0.059557784 -0.071104504 0.016258383 0.11365613 -0.0057626264 0.058577698 0.062436223
-0.16742346 -0.04789902 -0.113743745 0.20404384 0.10227008 -0.074469104 -0.09538005 -0.050607968
0.44338116 0.01512659 0.0048802 0.0078050783 -0.08431072 0.15991898 0.24934311 0.0709927
0.051514216 0.083322555 0.027985154 -0.09056742 -0.118614644 0.047347832 -0.044170104 0.10585713
0.01941174 -0.117527336 -0.11302061 0.035682425 0.16304898 0.08031214 0.0018822249 0.0134576745
-0.15706319 -0.03864268 0.25749227 0.038671978 0.025013067 0.03276312 0.25754055 0.102436826
-0.23142585 -0.116102554 -0.038247842 -0.10733832 0.08419216 -0.16014016 -0.19208424 0.2524712
-0.078969665 0.013577632 0.082345665 -0.10431381 0.054371268 -0.004277133 0.07790097 0.025119701
-0.14140157 -0.06869153 -0.12722127 0.22296284 -0.038081307 -0.18422055 -0.073671974 0.058226213
-0.08793473 0.030901017 -0.09945811 -0.04412255 0.039094474 -0.02673732 -0.14553945 -0.04548436
-0.20330113 -0.032499555 0.08671967 -0.18738215 0.056744486 -0.12232439 0.0771362 0.020424297
00000000: a419 203b 3f88 0fbd 64d8 2b3d d422 153b
00000010: 6ded 3dbd cc78 543e 9eeb c4bd 3bb4 053e
00000020: 9277 2cbd e384 2d3e 4523 a23d a5ff 483d
00000030: be08 3a3d 133c cd3d 0126 9b3e 95e6 14be
00000040: 8029 1ebd d7ac 8cbd 31ab aa3c 0ca4 f43d
00000050: 850a 543e b0a8 5fbd 1a48 383e 980a 543d
00000060: bd1f 12bd 244c f8bd 32bc 05bb 1015 473e
00000070: 1c4b 203e b839 de3d 35f8 85bd 4114 47bd
00000080: 4a8c 013d 0630 793c 9d39 a63d 5559 f83c
00000090: 63c3 623d d2bb 073e 7337 533c c531 513e
000000a0: 0f86 b03c ddf2 733d 3d9f 91bd 4d30 853c
000000b0: 8cc4 e83d 6ad4 bcbb 2bef 6f3d 20bd 7f3d
000000c0: 0e71 2bbe c331 44bd 7bf2 e8bd def0 503e
000000d0: fa72 d13d 4283 98bd 9e56 c3bd 4d4a 4fbd
000000e0: db02 e33e 84d5 773c 16ea 9f3b bec1 ff3b
000000f0: 19ab acbd cdc1 233e cd53 7f3e 9f64 913d
00000100: 9200 533d 04a5 aa3d 1f41 e53c 697b b9bd
00000110: 3cec f2bd cdef 413d b6eb 34bd 9fcb d83d
00000120: 5f05 9f3c 2cb2 f0bd 5977 e7bd bc27 123d
00000130: 50f6 263e b17a a43d fdb4 f63a 947d 5c3c
00000140: 2cd5 20be c947 1ebd 07d6 833e 8266 1e3d
00000150: 34e8 cc3c 9f32 063d 5bdc 833e 66ca d13d
00000160: e6fa 6cbe 2dc7 edbd c5a9 1cbd 31d4 dbbd
00000170: f06c ac3d c8fb 23be bbb1 44be e843 813e
00000180: d9ba a1bd b774 5e3c d8a4 a83d 7ba2 d5bd
00000190: 68b4 5e3d 3127 8cbb 8b8a 9f3d d5c7 cd3c
000001a0: 93cb 10be 25ae 8cbd 4b46 02be 5f50 643e
000001b0: 25fb 1bbd 50a4 3cbe 55e1 96bd 9c7e 6e3d
000001c0: 2017 b4bd 2124 fd3c b2b0 cbbd d9b9 34bd
000001d0: 8721 203d 3908 dbbc 4b08 15be cf4d 3abd
000001e0: 2c2e 50be 411e 05bd 159a b13d 1be1 3fbe
000001f0: e86c 683d 3685 fabd 96f9 9d3d db50 a73c
