W__RNN/W_RNN/md2/v_1/train_iter_4500.pt (torch, 80523 bytes, 8 tensors)

h0 f4 [128]
0.20283802 -0.3527299 0.4862576 -0.47048405 -0.9277485 -0.62111914 1.2014791 -0.2311841
0.0072682337 -0.75666445 -1.0970322 -2.7390933 0.2452898 0.6920218 -0.5554072 -0.026912373
-0.47290263 -0.98619807 0.52708036 -0.40972364 -0.69434935 -1.4910069 0.073916376 0.7978206
-1.1403291 0.3735589 1.3136495 -0.1638109 1.312934 0.3778585 1.0555581 1.8212762
-0.15010904 0.050351504 0.8019432 -1.0281392 -0.75330794 0.47535947 -0.3122667 -0.9043838
-0.47463283 -0.632133 -1.2308866 0.43602574 -1.5126517 1.2313426 0.91546655 0.031366214
-0.27551195 0.091911435 0.45571488 -1.0189521 0.07372872 -0.28307095 -0.9255224 -0.77756584
0.07816739 1.1958262 0.84567654 -0.26269412 0.25561225 -0.62905437 1.0071863 -1.414306
-1.1582234 0.46468475 0.29936427 1.3076196 -0.34696415 -0.6397375 -0.1950364 0.62943643
0.15500632 0.50135624 0.104359224 0.60552585 -1.1669044 1.24926 0.7609066 -1.365354
-0.7021744 0.43840605 -0.112324804 -0.8677578 -0.7868032 1.8913969 1.0108591 0.4580684
1.1191444 -1.7408959 -0.65897685 -0.75558215 0.10550448 -0.22110657 -0.13194025 0.3076821
-1.091357 -0.6017163 -0.103380546 -0.40531033 -0.52652663 0.74260724 -0.11402838 0.15608793
0.8572271 0.70488757 1.1139159 -0.69490176 2.0022883 -0.34501496 0.08190662 -0.09193991
-0.040801574 -1.4776275 1.160523 -0.91285056 0.08520112 -1.305422 -0.92574924 1.7499565
0.08396725 -1.3817165 -0.23939252 -0.98572224 -2.0259795 -0.14122543 0.20965506 1.4340931
00000000: c5b4 4f3e 0399 b4be c2f6 f83e 49e3 f0be
00000010: ed80 6dbf aa01 1fbf 11ca 993f 86bb 6cbe
00000020: 5d2a ee3b c3b4 41bf 8d6b 8cbf 4e4d 2fc0
00000030: 402d 7b3e 5728 313f 2b2f 0ebf 5677 dcbc
00000040: 4b20 f2be 7a77 7cbf bdee 063f 4cc7 d1be
00000050: e1c0 31bf 50d9 bebf 7861 973d f93d 4c3f
00000060: 4ef6 91bf 1d43 bf3e ab25 a83f 0bbe 27be
00000070: 390e a83f ab76 c13e 871c 873f 941f e93f
00000080: 2fb6 19be 613d 4e3d 264c 4d3f 119a 83bf
00000090: cad8 40bf 5162 f33e 6ce1 9fbe b285 67bf
000000a0: 1303 f3be 78d3 21bf b18d 9dbf c43e df3e
000000b0: 929e c1bf a29c 9d3f 045c 6a3f dc79 003d
000000c0: e70f 8dbe 103c bc3d 7653 e93e 066d 82bf
000000d0: 15ff 963d adee 90be 09ef 6cbf 8e0e 47bf
000000e0: 3916 a03d d510 993f 427e 583f d87f 86be
000000f0: 9cdf 823e b509 21bf 7beb 803f fb07 b5bf
00000100: aa40 94bf 29eb ed3e 4646 993e 1460 a73f
00000110: 49a5 b1be d6c5 23bf 9fb7 47be bf22 213f
00000120: fab9 1e3e e258 003f 4aba d53d be03 1b3f
00000130: 205d 95bf c0e7 9f3f c6ca 423f ebc3 aebf
00000140: b4c1 33bf c276 e03e 8c0a e6bd 6025 5ebf
00000150: ef6b 49bf 4b19 f23f d563 813f f187 ea3e
00000160: 2040 8f3f add5 debf b5b2 28bf d56d 41bf
00000170: bc12 d83d c369 62be 581b 07be 8288 9d3e
00000180: 96b1 8bbf 140a 1abf 2eb9 d3bd d684 cfbe
00000190: 73ca 06bf 821b 3e3f b687 e9bd 84d5 1f3e
000001a0: 3c73 5b3f 8373 343f cc94 8e3f 15e5 31bf
000001b0: 7e25 0040 cda5 b0be a8be a73d fe4a bcbd
000001c0: 8d1f 27bd e622 bdbf 058c 943f 93b0 69bf
000001d0: ed7d ae3d 1118 a7bf e7fd 6cbf 93fe df3f
000001e0: 06f7 ab3d 16dc b0bf 5023 75be 4b58 7cbf
000001f0: a6a9 01c0 669d 10be d1af 563e 5d90 b73f

RNN.weight_ih_l0 f4 [128, 17]
-0.09717099 -0.14585312 -0.25720045 -0.15529522 -0.004502264 -0.31386894 -0.24751958 0.35237652
0.3509212 0.28561273 -0.019080505 -0.059275758 0.06983817 -0.044066474 0.071088865 -0.0614771
0.06337186 0.01134217 0.0056320024 -0.0710248 -0.46687475 0.15570942 0.295854 0.61584216
0.011580971 0.13498203 0.057514265 -0.27066094 -0.16994275 0.19972809 -0.11577251 -0.00359726
-0.01776808 0.0031772966 0.15363051 -0.12519608 -0.1409703 -0.16837656 -0.07393122 -0.16236632
-0.06355368 0.15842862 0.08566336 0.0047362223 -0.08276833 -0.27799347 0.096848704 -0.1616145
-0.02656454 0.10005697 0.08907912 -0.10196238 -0.07842095 0.0052784337 0.0033057956 -0.010552634
-0.031454537 0.12353109 -0.017702485 -0.05615772 0.03604528 0.18159795 0.32335812 -0.19697323
0.03159715 0.018762335 -0.29740402 0.2841339 -0.06622526 -0.046988543 -0.19650176 -0.10916181
-0.16218567 -0.14941788 0.14561097 0.16795143 0.22270036 0.17914642 0.11345212 -0.017172998
0.12703516 -0.017374875 0.062659144 0.046654273 -0.17577378 -0.34063345 -0.22533175 -0.10849887
-0.21410707 -0.13156499 -0.1748276 -0.3233754 0.21075481 0.21190865 0.11592598 0.19176157
0.082558624 0.14731142 -0.10665695 0.0878452 -0.15375975 -0.07761931 -0.040513515 -0.061606035
0.060474206 0.065688774 0.07874405 0.016059397 -0.012848702 -0.007389433 -0.026484232 -0.038642306
0.03794813 -0.025949337 0.029298387 0.020167368 0.035673685 0.04651511 -0.0053335 -0.17144011
0.062416803 -0.07794623 -0.19698659 0.16654056 -0.006310105 -0.085563086 -0.09014611 -0.087284125
-0.07435558 -0.17729987 0.34587923 -0.1376743 -0.03972475 -0.13749327 -0.045525182 0.19718787
0.09061078 -0.18220949 -0.07968628 -0.05417003 -0.13737066 0.010884914 -0.023298053 -0.112836435
-0.09258209 -0.1774489 0.035227414 0.33410355 -0.14044712 -0.16128463 -0.010950908 0.031214805
0.23197368 -0.13974777 -0.2029378 -0.25015727 -0.2725463 -0.12980399 -0.20810299 -0.19806014
-0.18465874 -0.13292402 -0.117383294 0.0473864 0.118246496 -0.29318374 0.29893473 -0.0021984114
-0.15965131 0.124123566 -0.27904895 0.23449932 -0.036114104 -0.18294315 0.13112405 0.2545047
0.41188535 -0.19243264 -0.23806503 -0.22064418 0.21242958 0.18395917 -0.16530345 -0.03581417
0.007968765 -0.2502018 -0.02178482 -0.104356654 -0.18261823 -0.13996261 -0.13286915 -0.124385096
-0.07429778 -0.22702652 -0.191302 -0.124587625 -0.16273317 0.01339136 -0.010889128 -0.15966547
-0.24242762 -0.048336394 0.17399834 -0.047350984 0.37255362 0.060965106 0.26623088 0.4993853
-0.08234111 0.0797529 0.24790339 -0.072760575 -0.14883141 -0.20685504 -0.2591621 0.0104661025
-0.29350486 -0.020069377 0.01616503 0.024056487 0.056413244 -0.18788514 -0.11310852 -0.07896976
-0.16114233 0.011090015 -0.08678542 -0.08048271 -0.025257494 -0.03742607 0.045520682 -0.01888645
0.31074584 0.32169667 -0.019979646 0.098567195 -0.010291717 0.104653016 -0.10644382 0.24550453
0.47704512 0.6086991 -0.09589616 0.04425542 0.24847385 -0.49285302 -0.35699776 -0.34916103
-0.12696816 -0.04454272 0.27498332 -0.46342784 0.12446023 -0.0074040284 -0.01646903 -0.051040206
00000000: 9601 c7bd 855a 15be c7af 83be b605 1fbe
00000010: ba87 93bb 6eb3 a0be c675 7dbe b26a b43e
00000020: f2ab b33e d53b 923e b84e 9cbc 23cb 72bd
00000030: 5107 8f3d 0c7f 34bd 0a97 913d 69cf 7bbd
00000040: 1bc9 813d 82d4 393c a98c b83b 7375 91bd
00000050: 350a efbe 4a72 1f3e 2d7a 973e d5a7 1d3f
00000060: 1dbe 3d3c bb38 0a3e 1494 6b3d 1294 8abe
00000070: 7905 2ebe 8585 4c3e 231a edbd 02c0 6bbb
00000080: 5d8e 91bc 313a 503b 5151 1d3e 6733 00be
00000090: 855a 10be e86a 2cbe 4069 97bd 5b43 26be
000000a0: 6f28 82bd 1d3b 223e 4670 af3d 5032 9b3b
000000b0: 7182 a9bd 2955 8ebe 9d58 c63d 467e 25be
000000c0: e19d d9bc abea cc3d 1d6f b63d a7d1 d0bd
000000d0: 2a9b a0bd b6f6 ac3b 0ca6 583b f4e4 2cbc
000000e0: 79d6 00bd defd fc3d cd04 91bc a305 66bd
000000f0: 37a4 133d d0f4 393e 328f a53e 5ab3 49be
00000100: 036c 013d 78b3 993c 5745 98be 007a 913e
00000110: 1ca1 87bd 0f77 40bd c237 49be 3a90 dfbd
00000120: 0014 26be 0001 19be 0b1b 153e 76fb 2b3e
00000130: 900b 643e 2972 373e 9659 e83d 63ae 8cbc
00000140: 8115 023e c155 8ebc 7053 803d 8d18 3f3d
00000150: 0bfe 33be 8267 aebe 5ebd 66be a834 debd
00000160: e23e 5bbe f9b8 06be 0206 33be 7691 a5be
00000170: 1cd0 573e 95fe 583e 9a6a ed3d 255d 443e
00000180: 7f14 a93d ced8 163e f66e dabd 2fe8 b33d
00000190: 3273 1dbe dff6 9ebd 80f1 25bd 9c56 7cbd
000001a0: cdb3 773d d687 863d 8f44 a13d ff8e 833c
000001b0: 5d83 52bc 0f23 f2bb 76f5 d8bc 6547 1ebd
000001c0: 806f 1b3d b493 d4bc 2c03 f03c 0936 a53c
000001d0: 921e 123d a186 3e3d a4c4 aebb ff8d 2fbe
000001e0: c3a8 7f3d 46a2 9fbd dab6 49be 9c89 2a3e
000001f0: ffc4 cebb b33b afbd 869e b8bd 05c2 b2bd
00000200: bd47 98bd 198e 35be 1517 b13e 7efa 0cbe
00000210: 6bb6 22bd 09cb 0cbe 9d78 3abd 9eeb 493e
00000220: 2592 b93d 2095 3abe 8f32 a3bd 65e1 5dbd
00000230: e5aa 0cbe a356 323c 8fdb bebc ca16 e7bd
00000240: ae9b bdbd 2ab5 35be 9f4a 103d 9f0f ab3e
00000250: 5fd1 0fbe cc27 25be 706b 33bc 31b6 ff3c
00000260: 828a 6d3e 0a1a 0fbe edce 4fbe 9d14 80be
00000270: 308b 8bbe 56eb 04be f318 55be 47d0 4abe
00000280: 2e17 3dbe 3c1d 08be a766 f0bd 3e18 423d
00000290: 382b f23d 2e1c 96be f90d 993e 3913 10bb
000002a0: a27b 23be 7f34 fe3d 81df 8ebe 9720 703e
000002b0: 62ec 13bd 7355 3bbe 6245 063e 714e 823e
000002c0: a3e2 d23e 100d 45be 52c7 73be 8cf0 61be
000002d0: 2487 593e cb5f 3c3e 4f45 29be e1b1 12bd
000002e0: 6c8f 023c 731a 80be 1476 b2bc f1b8 d5bd
000002f0: 4600 3bbe 5c52 0fbe da0e 08be 9dbd febd
00000300: 6f29 98bd a479 68be ace4 43be cc27 ffbd
00000310: 86a3 26be 6f67 5b3c 5068 32bc 587f 23be
00000320: f23e 78be 62fc 45bd 9f2c 323e 1bf3 41bd
00000330: 59bf be3e 8cb6 793d 6a4f 883e 6eaf ff3e
00000340: 75a2 a8bd 7d55 a33d 63da 7d3e 7f03 95bd
00000350: 4367 18be cfd1 53be e5b0 84be 047a 2b3c
00000360: 4546 96be 8968 a4bc 866c 843c 1c12 c53c
00000370: 9311 673d f664 40be 71a5 e7bd e6ba a1bd
00000380: 7f02 25be e5b2 353c 8ebc b1bd 1ed4 a4bd
00000390: cee8 cebc 144c 19bd e573 3a3d c2b7 9abc
000003a0: 141a 9f3e 6db5 a43e 5bac a3bc 99dd c93d
000003b0: 979e 28bc 5254 d63d 38ff d9bd 8a65 7b3e
000003c0: 423f f43e b4d3 1b3f 3565 c4bd 2c45 353d
000003d0: ee6f 7e3e 3b57 fcbe 69c8 b6be 3cc5 b2be
000003e0: f103 02be 6d72 36bd 9dca 8c3e 6a46 edbe
000003f0: 01e5 fe3d 7e9d f2bb 0fea 86bc 890f 51bd

RNN.weight_hh_l0 f4 [128, 128]
0.019020392 0.07208272 0.019237332 -0.034464233 0.09620632 -0.0367219 -0.047871947 -0.087377556
0.0024423876 -0.0323667 0.03654261 0.06614408 -0.042339664 -0.059217744 0.05703774 -0.021100651
-0.038969416 -0.03145727 -0.044814218 -0.048180893 0.0549541 -0.025626393 0.021490933 -0.005157933
-0.047015376 -0.024497032 0.027766163 0.06646684 0.06728516 -0.07756972 -0.095018566 -0.0039221193
-0.0282537 0.102969594 0.05070557 -0.056762945 0.03999211 0.027067186 0.06772058 0.12819032
0.049164318 0.071758464 -0.020912793 0.064582765 0.032806523 0.049007222 -0.16077335 0.043844305
-0.044113666 0.024692584 -0.005225274 -0.06563937 -0.078973815 0.120101616 0.085546166 -0.029678566
-0.0716673 -0.011605279 -0.010278708 0.09603569 0.020084996 0.067231536 0.06851592 -0.049520485
-0.080105126 -0.024004871 -0.02727118 0.023286669 0.052600104 -0.04061878 0.02023947 -0.002596176
0.038409043 0.049726665 -0.1698456 0.06574183 0.07620631 -0.015722258 -0.008840797 0.08387389
-0.11043671 0.07054439 0.110944025 0.009177383 0.06703914 -0.02397725 -0.038078442 -0.07206955
-0.06485679 0.029524993 -0.071654625 -0.005406879 0.09874531 -0.04668707 0.115991816 0.051633727
0.04338178 0.059681084 0.0033768727 0.029705422 -0.002037595 0.03896055 -0.05936932 -0.056943327
0.009852033 -0.115764596 -0.098770045 0.020040419 0.012429325 0.01282901 0.09855391 0.08375928
0.032995034 -0.12816393 0.06497499 0.06336191 0.020205947 -0.0064011696 0.08524078 0.06948245
-0.08102864 0.016953925 -0.094403036 0.12192532 0.02358132 -0.051723298 0.008491419 0.08550312
0.018222539 -0.07714847 -0.04607274 -0.014439133 -0.094169505 -0.054130156 -0.043178037 0.08869142
-0.054245353 0.09506674 -0.04430121 0.025087696 0.06238822 -0.06590734 -0.056009434 -0.02884237
-0.12211377 0.05195452 0.05766065 -0.1511191 -0.009491432 0.14249985 0.023702884 0.09982605
-0.11548406 -0.020532593 -0.013937128 0.13992456 0.082339995 0.0092793545 0.0017628089 0.024735179
0.10209378 0.03307711 0.002675651 0.009160012 -0.024949087 0.0701149 0.021388544 -0.033123862
-0.04142538 0.018417804 -0.03628655 -0.015667057 0.06113593 0.032187082 0.059130564 0.09101277
-0.0023682707 0.050637297 0.024218138 -0.06986193 0.0024126773 0.011466419 0.060977604 -0.017853998
0.04935062 -0.06809583 -0.1220134 -0.013120248 -0.09600036 0.029294115 0.016369699 0.10616723
-0.15724099 0.053732574 0.06854977 0.08483517 0.036168255 -0.08126853 -0.03346505 -0.055596787
0.014114389 0.016396541 0.03377439 0.041695427 0.0874335 -0.034001037 0.04125277 -0.013243208
0.013293975 0.009446221 0.08661147 -0.06811918 -0.070114344 0.026423277 -0.08475302 0.136045
0.048824456 0.081538014 0.0041433163 -0.056081086 0.11783882 -0.0942563 0.06921252 -0.01525452
0.049158342 0.014406132 0.05569034 0.03845628 0.104100116 0.08427532 0.08197479 0.033668514
0.09249054 -0.031162953 -0.10982166 -0.060082078 0.0027023805 -0.06844169 0.016989658 -0.025396956
0.070172705 -0.10940738 -0.011035901 0.028535321 -0.044384606 0.00047480862 0.027180042 0.046632454
0.012298501 0.085228726 0.031955734 -0.035516486 0.0015700886 0.03591465 0.024022881 -0.0130902175
00000000: a7d0 9b3c 1ba0 933d 9c97 9d3c 5e2a 0dbd
00000010: d207 c53d b469 16bd 6015 44bd 01f3 b2bd
00000020: 7710 203b f292 04bd b4ad 153d 8c76 873d
00000030: 5b6c 2dbd 4e8e 72bd 68a0 693d 46db acbc
00000040: 659e 1fbd 57d9 00bd 1d8f 37bd 5459 45bd
00000050: 8d17 613d 71ee d1bc c10d b03c e103 a9bb
00000060: 3293 40bd 00ae c8bc dd75 e33c c41f 883d
00000070: cdcc 893d e0dc 9ebd 1899 c2bd 1f85 80bb
00000080: 4e74 e7bc b9e1 d23d a5b0 4f3d 4380 68bd
00000090: c4ce 233d 01bc dd3c 16b1 8a3d 5344 033e
000000a0: 8660 493d 1af6 923d 4e51 abbc f843 843d
000000b0: 2260 063d ccbb 483d c5a1 24be 1696 333d
000000c0: 88b0 34bd 1a48 ca3c c638 abbb ef6d 86bd
000000d0: 06bd a1bd d6f7 f53d d432 af3d 7720 f3bc
000000e0: 4ec6 92bd 1124 3ebc 0768 28bc 5cae c43d
000000f0: 4a89 a43c b0b0 893d 1352 8c3d fed5 4abd
00000100: 280e a4bd dda5 c4bc cf67 dfbc afc3 be3c
00000110: 3573 573d e15f 26bd 3fcd a53c 9b24 2abb
00000120: cd52 1d3d 30ae 4b3d 01ec 2dbe a7a3 863d
00000130: 0e12 9c3d f7cb 80bc fdd8 10bc 13c6 ab3d
00000140: a42c e2bd 9479 903d 9f36 e33d bc5c 163c
00000150: d14b 893d f06b c4bc 24f8 1bbd 3399 93bd
00000160: a3d3 84bd 66de f13c a9bf 92bd 302c b1bb
00000170: fb3a ca3d f13a 3fbd 1e8d ed3d e37d 533d
00000180: 18b1 313d 2774 743d 864e 5d3b c958 f33c
00000190: 2c89 05bb 1995 1f3d 3e2d 73bd 683d 69bd
000001a0: 6c6a 213c fd15 edbd f347 cabd ce2b a43c
000001b0: 5ea4 4b3c c530 523c a2d6 c93d fc89 ab3d
000001c0: cd25 073d 683d 03be 9c11 853d e4c3 813d
000001d0: f186 a53c e7c0 d1bb b892 ae3d d14c 8e3d
000001e0: 58f2 a5bd f5e2 8a3c 6156 c1bd fbb3 f93d
000001f0: 9d2d c13c cfdb 53bd 981f 0b3c 431c af3d
00000200: 6f47 953c 0400 9ebd c5b6 3cbd 1d92 6cbc
00000210: f1db c0bd 95b7 5dbd 74db 30bd d9a3 b53d
00000220: 6030 5ebd 5ab2 c23d 3075 35bd b684 cd3c
00000230: ca8a 7f3d 6dfa 86bd 266a 65bd d546 ecbc
00000240: c916 fabd 43ce 543d 932d 6c3d f7be 1abe
00000250: f481 1bbc 7beb 113e 8d2c c23c 9a71 cc3d
00000260: e882 ecbd f833 a8bc 8d58 64bc 6248 0f3e
00000270: dfa1 a83d 6f08 183c 0d0e e73a 6ea1 ca3c
00000280: 8b16 d13d dd7b 073d fa59 2f3b e013 163c
00000290: 0762 ccbc 6798 8f3d 0737 af3c e3ac 07bd
000002a0: a9ad 29bd efe0 963c 35a1 14bd 3358 80bc
000002b0: ab69 7a3d 9ad6 033d e432 723d e764 ba3d
000002c0: fd34 1bbb 0e69 4f3d 1e65 c63c c613 8fbd
000002d0: 021e 1e3b a6dd 3b3c a7c3 793d 8c42 92bc
000002e0: e023 4a3d d475 8bbd 29e2 f9bd 4ff6 56bc
000002f0: d69b c4bd 36fa ef3c bf19 863c 346e d93d
00000300: c803 21be b016 5c3d d263 8c3d 10be ad3d
00000310: 2a25 143d 1d70 a6bd a612 09bd 75b9 63bd
00000320: 0a40 673c 0a52 863c 0457 0a3d d3c8 2a3d
00000330: 5610 b33d ac44 0bbd aaf8 283d 0afa 58bc
00000340: f9ce 593c 53c4 1a3c 5b61 b13d 1282 8bbd
00000350: 1c98 8fbd a175 d83c fe92 adbd 614f 0b3e
00000360: 27fc 473d 67fd a63d a8c4 873b 48b5 65bd
00000370: 7b55 f13d 7209 c1bd 4bbf 8d3d 18ee 79bc
00000380: 425a 493d b207 6c3c 8e1b 643d 5584 1d3d
00000390: 7132 d53d 8a98 ac3d 66e2 a73d ffe7 093d
000003a0: ae6b bd3d 7349 ffbc 2eea e0bd a018 76bd
000003b0: 6c1a 313b 282b 8cbd e52d 8b3c 470d d0bc
000003c0: b5b6 8f3d fa10 e0bd eccf 34bc e8c2 e93c
000003d0: a2cc 35bd bcef f839 aea8 de3c ac01 3f3d
000003e0: a77f 493c 668c ae3d 04e4 023d bc79 11bd
000003f0: 6ecb cd3a 3d1b 133d a2cb c43c 5a78 56bc

RNN.bias_ih_l0 f4 [128]
-0.023887934 0.104901806 0.019330937 -0.066628926 -0.049294923 0.051200308 -0.0596742 0.006065557
-0.06389908 0.014646092 0.044697624 0.04034032 -0.010447352 -0.07325766 -0.024085797 0.017125074
-0.018242612 0.05300673 0.057289604 -0.031987805 -0.063754715 0.02222984 0.049708612 -0.05956002
-0.03591949 -0.044471923 0.009380712 -0.011045682 0.022249442 -0.094458275 0.039277423 -0.0044560274
-0.0118273925 0.026127364 -0.008955047 0.00043528667 0.021703053 -0.06225558 -0.019705622 -0.008737809
0.04051429 0.027041065 0.07895128 0.076882385 -0.031330775 0.053374346 -0.036496513 0.01345897
-0.060041282 0.03369717 -0.013417713 0.063839205 0.029052248 -0.03652698 0.08908409 0.024928348
-0.020705817 0.040035136 -0.07905856 0.10211397 -0.04714086 -0.008173694 0.10902057 0.047154132
0.01215434 0.01286828 0.023593439 -0.03989527 -0.042157333 -0.090091206 0.11275084 -0.08037425
0.06604573 0.039224707 0.016242348 0.058696587 0.008050328 0.072446 -0.061909463 -0.096121214
0.021974433 -0.0412882 -0.0807227 -0.009138267 0.06056895 0.06008201 0.047802996 0.096073024
0.015502604 0.03128821 -0.013972843 0.0077377004 -0.063906364 0.0075347396 0.06070145 -0.018110204
-0.040920004 0.021975832 0.047181055 0.10405175 0.10680716 -0.03544321 0.016424086 -0.0018359628
-0.07737792 -0.043641016 0.08819934 0.0046694805 -0.046262287 -0.09757555 -0.012159797 -0.0149032315
-0.019229725 0.04821616 -0.03846825 0.023451826 0.015673295 0.024828129 0.09297122 0.0044789314
0.0017795796 -0.010326691 -0.02195266 0.033361305 -0.10958508 0.018351734 0.011027601 0.02656952
00000000: a1b0 c3bc c2d6 d63d ea5b 9e3c bf74 88bd
00000010: 79e9 49bd 6ab7 513d ef6c 74bd 94c1 c63b
00000020: 85dd 82bd 2af6 6f3c db14 373d e43b 253d
00000030: 5f2b 2bbc 1d08 96bd 944f c5bc e249 8c3c
00000040: 8871 95bc 961d 593d 81a8 6a3d a505 03bd
00000050: d591 82bd 5a1b b63c 429b 4b3d 35f5 73bd
00000060: 5120 13bd 3128 36bd 8fb1 193c f3f8 34bc
00000070: 7644 b63c 5773 c1bd 5de1 203d de03 92bb
00000080: aec7 41bc 0e09 d63c 30b8 12bc 3037 e439
00000090: 9aca b13c b5ff 7ebd af6d a1bc 0729 0fbc
000000a0: 50f2 253d 3985 dd3c 35b1 a13d 8374 9d3d
000000b0: b354 00bd 0f9f 5a3d 5e7d 15bd 0383 5c3c
000000c0: d9ed 75bd 0b06 0a3d f8d5 5bbc 21be 823d
000000d0: fbfe ed3c 519d 15bd b871 b63d 8936 cc3c
000000e0: 3f9f a9bc e2fb 233d 74e9 a1bd 2121 d13d
000000f0: c616 41bd f5ea 05bc 2d46 df3d b124 413d
00000100: ff22 473c 7ad5 523c 0747 c13c 3969 23bd
00000110: 2bad 2cbd bd81 b8bd eae9 e63d 419b a4bd
00000120: fc42 873d 16aa 203d ac0e 853c d56b 703d
00000130: 86e5 033c 925e 943d c794 7dbd 33db c4bd
00000140: ba03 b43c d11d 29bd f151 a5bd abb8 15bc
00000150: 2617 783d 8e18 763d 13cd 433d efc1 c43d
00000160: a2fe 7d3c 1128 003d 5aee 64bc 898c fd3b
00000170: 57e1 82bd fae5 f63b 15a2 783d da5b 94bc
00000180: bc9b 27bd a906 b43c ec40 413d 1519 d53d
00000190: b6bd da3d e62c 11bd ce8b 863c b0a4 f0ba
000001a0: 5178 9ebd ecc0 32bd dba1 b43d 7102 993b
000001b0: 867d 3dbd b1d5 c7bd e339 47bc af2c 74bc
000001c0: a887 9dbc 4f7e 453d e290 1dbd 0b1e c03c
000001d0: 4865 803c 5c64 cb3c b267 be3d 00c4 923b
000001e0: c840 e93a 4831 29bc 11d6 b3bc dda5 083d
000001f0: 246e e0bd 6056 963c 1cad 343c 52a8 d93c

RNN.bias_hh_l0 f4 [128]
0.03276811 0.10995064 -0.0650034 -0.031958207 -0.0629685 0.08836354 -0.048725914 -0.015669605
-0.025721468 -0.05413845 0.06918914 0.044392385 -0.035243932 0.03026758 0.016378697 -0.023981092
0.027622752 0.00693244 -0.04754593 -0.041557536 0.008530133 0.05826645 -0.057866096 0.041881237
-0.0856844 0.044257563 -0.024501428 -0.041807197 0.11097244 0.019631175 0.040661834 -0.02003385
0.06000725 0.04314167 0.009444101 -0.030184241 0.006547006 -0.038586006 -0.005248348 0.06513222
-0.004362358 -0.006026132 0.037076823 -0.03318141 -0.030060943 0.07485022 -0.016255204 0.067346156
-0.018053189 0.1315258 -0.09199676 0.0927188 0.10073894 0.090566084 0.0014998761 -0.07988116
0.06364412 0.0043879575 -0.07683327 -0.04283834 -0.10623133 -0.0505715 0.10269433 -0.03228855
0.034407247 0.020382592 -0.014389275 -0.028161094 -0.039787102 -0.04978171 0.017556531 -0.018121216
-0.017960588 0.07148115 0.058725413 0.07379751 0.08604316 0.024603507 0.044305626 0.034407265
0.011966644 0.05717976 -0.07602545 -0.08040591 -0.00071541936 -0.0014333251 0.016404299 0.11198099
-0.083250806 0.02620084 -0.040610015 -0.02348802 0.048020113 0.09071345 0.031893797 0.031771287
0.006996208 0.0017285808 -0.050060764 0.08140611 0.06631965 0.0755423 -0.0752383 0.011856332
0.042555224 0.00076224876 0.07120615 -0.045157645 -0.01630799 -0.017588653 -0.027566679 -0.0329312
0.042554148 -0.016368072 0.09063301 0.042246263 -0.02668723 -0.040556673 -0.008075024 0.005671164
-0.070358194 0.042905748 -0.0033686801 0.04188546 -0.031229945 0.0035729506 -0.050082687 -0.086214215
00000000: db37 063d cd2d e13d 8120 85bd 9ce6 02bd
00000010: a1f5 80bd f2f7 b43d d394 47bd 8b5d 80bc
00000020: d4b5 d2bc 48c0 5dbd 09b3 8d3d cad4 353d
00000030: f15b 10bd b7f3 f73c 9e2c 863c ff73 c4bc
00000040: 1c49 e23c 8629 e33b 85bf 42bd 3c38 2abd
00000050: f9c1 0b3c cda8 6e3d 0005 6dbd a98b 2b3d
00000060: 4d7b afbd 6b47 353d 38b7 c8bc 063e 2bbd
00000070: 8545 e33d 8fd1 a03c 068d 263d 071e a4bc
00000080: 2aca 753d 52b5 303d 6ebb 1a3c f144 f7bc
00000090: 4488 d63b 5c0c 1ebd 56fa abbb 0b64 853d
000000a0: 1cf2 8ebb dc76 c5bb dedd 173d 3be9 07bd
000000b0: 5e42 f6bc 124b 993d a229 85bc c8ec 893d
000000c0: 48e4 93bc b3ae 063e cc68 bcbd 5be3 bd3d
000000d0: 3850 ce3d b67a b93d 7e97 c43a bc98 a3bd
000000e0: d957 823d dbc8 8f3b c35a 9dbd 4177 2fbd
000000f0: d08f d9bd 1024 4fbd 6851 d23d 0041 04bd
00000100: 9dee 0c3d 65f9 a63c fec0 6bbc 18b2 e6bc
00000110: cdf7 22bd e8e7 4bbd b7d2 8f3c f272 94bc
00000120: 1522 93bc b664 923d 0f8a 703d 2623 973d
00000130: 6537 b03d 4b8d c93c d179 353d a2ee 0c3d
00000140: be0f 443c 5335 6a3d 3bb3 9bbd dbab a4bd
00000150: fb8a 3bba 69de bbba 4f62 863c 4a56 e53d
00000160: 667f aabd 25a3 d63c b056 26bd f369 c0bc
00000170: bdb0 443d f9c7 b93d 12a3 023d 9c22 023d
00000180: 7240 e53b 8c91 e23a 840c 4dbd 3fb8 a63d
00000190: 99d2 873d ecb5 9a3d 8a16 9abd 1041 423c
000001a0: 634e 2e3d a6d1 473a 88d4 913d 39f7 38bd
000001b0: 5598 85bc 1416 90bc 84d3 e1bc dee2 06bd
000001c0: 424d 2e3d 5616 86bc cd9d b93d 6b0a 2d3d
000001d0: 2e9f dabc c11e 26bd 1b4d 04bc 2cd5 b93b
000001e0: f517 90bd f0bd 2f3d 13c5 5cbb 1790 2b3d
000001f0: f1d5 ffbc 2a28 6a3b 8123 4dbd 1491 b0bd

actor.weight f4 [3, 128]
0.34923777 0.7391415 0.43523613 -0.42920694 0.2678871 -0.27693558 0.009199325 -0.297456
-0.07010997 -0.22542879 -0.73141444 -0.24275795 0.58858633 -0.017408907 0.5929104 -0.36972517
-0.4069049 -0.26261586 0.59682417 -0.6636667 0.09623369 0.17067501 0.49939936 0.011023705
0.11653819 0.16671155 -0.1920601 -0.13327545 0.27525696 -0.1874774 -0.18780617 -0.15770996
0.034712765 0.44380206 0.27847025 -0.08460042 0.5062379 0.14294392 0.013671682 0.5286218
-0.10085911 0.2935725 0.3932912 0.08603806 -0.020404875 0.30984974 -0.06518968 0.11378825
0.29654065 0.25302 -0.31041068 -0.16094244 0.5433261 0.44177404 0.56011385 -0.013811675
-0.009792285 -0.30957615 -0.0966904 -0.3132455 0.10797715 0.21610542 0.71000355 -0.12716018
0.0372102 -0.15485087 0.24623682 0.0800892 0.10111499 -0.09128334 -0.018029276 -0.06673598
0.29813182 -0.04317985 0.11691814 -0.026259786 0.6293773 -0.117362134 0.03588952 -0.2666221
0.18154924 0.45576528 -0.10870737 -0.09284173 0.3549732 0.48212934 0.28644332 0.09157068
-0.29912233 -0.08760572 0.15539579 0.32180187 -0.30092975 -0.32227543 0.0644986 0.15506096
0.33495894 -0.5965217 -0.11575437 0.5818543 0.4711627 0.27750638 0.081987925 -0.1362828
0.12679736 0.041408826 0.34757626 -0.22385786 0.22185102 -0.007848178 0.35656664 0.6438342
-0.0005780315 0.7148152 0.18686225 -0.23448117 -0.21213238 0.11027098 0.35710773 -0.25204685
-0.04311691 0.1936285 -0.035974063 0.06441077 0.032767225 0.3114358 -0.28373075 -0.11600663
-0.07292615 -0.35731623 -0.1825875 0.5823538 -0.42310065 -0.14616816 -0.07004317 0.35614756
0.42667022 0.4618796 -0.16193324 -0.12279657 -0.38348302 0.22844948 -0.35429123 0.42026037
0.24813142 0.19021651 -0.085215785 0.27911335 0.19271296 -0.48766425 -0.1826484 0.2651024
-0.30612603 -0.19801848 0.25084218 -0.051353365 -0.06995691 0.053804982 0.001074211 0.31219137
0.21313198 -0.12132334 -0.25659227 0.17407797 -0.44084007 -0.05046511 0.1803182 -0.18565714
0.16898835 -0.2903235 -0.30539826 -0.14515506 -0.12666307 -0.44606698 0.29462665 0.0089197615
-0.2356731 -0.15658829 0.3515727 0.032763515 -0.217642 -0.14061214 -0.27910152 -0.05895679
0.22935244 0.281397 -0.22509378 0.12376814 -0.11764057 -0.42298344 -0.3432693 0.34304425
0.028378306 0.0741283 -0.28894508 0.12714145 0.042971395 -0.06480381 -0.07868069 0.037274655
0.18803343 -0.21468252 -0.10966749 -0.057171136 -0.5908525 -0.2330735 -0.13177553 -0.014602795
-0.029994626 -0.34562287 0.24743849 0.03967248 -0.4330956 -0.36720556 -0.29517964 -0.057588182
0.050522435 -0.12129388 0.046860676 -0.22682442 0.0560198 0.2805693 0.304396 -0.18024457
-0.02973908 0.006321545 -0.06727726 -0.19198714 -0.5437662 -0.43297037 0.13915499 0.2996324
-0.0626074 0.004940001 -0.5573539 0.32935 0.0146833565 0.05002145 -0.62121785 -0.2153946
0.19893305 -0.4238819 -0.15145239 0.09718097 -0.09937408 -0.24372932 -0.158539 -0.43110102
0.46372774 -0.5161195 -0.1649542 -0.057580035 0.05056386 0.082172215 0.37344724 0.2930205
00000000: 4bcf b23e 6138 3d3f 45d7 de3e 03c1 dbbe
00000010: 7f28 893e 80ca 8dbe c4b8 163c 274c 98be
00000020: d195 8fbd ced6 66be fa3d 3bbf 8a95 78be
00000030: 98ad 163f 209d 8ebc fac8 173f 9e4c bdbe
00000040: d755 d0be 9675 86be 78c9 183f 10e6 29bf
00000050: 2b16 c53d 6ec5 2e3e 46b1 ff3e c59c 343c
00000060: 93ab ee3d 6fb6 2a3e 67ab 44be 5c79 08be
00000070: 7bee 8c3e 13fa 3fbe 4350 40be b87e 21be
00000080: f92e 0e3d 063a e33e a793 8e3e fc42 adbd
00000090: cf98 013f e45f 123e 31ff 5f3c c253 073f
000000a0: 398f cebd 224f 963e 775d c93e b934 b03d
000000b0: 2028 a7bc a0a4 9e3e 2b82 85bd d009 e93d
000000c0: 2dd4 973e d68b 813e 26ee 9ebe 18ce 24be
000000d0: 6b17 0b3f 3530 e23e 9f63 0f3f 5d4a 62bc
000000e0: d26f 20bc c480 9ebe 9e05 c6bd b761 a0be
000000f0: 2023 dd3d bd4a 5d3e cbc2 353f 4736 02be
00000100: b969 183d 3a91 1ebe 8125 7c3e ce05 a43d
00000110: 6015 cf3d c2f2 babd 22b2 93bc e0ac 88bd
00000120: bca4 983e 5bdd 30bd c772 ef3d c31e d7bc
00000130: df1e 213f 8f5b f0bd e400 133d b182 88be
00000140: 0be8 393e 115a e93e f8a1 debd ce23 bebd
00000150: 0cbf b53e a8d9 f63e b3a8 923e 6989 bb3d
00000160: 9026 99be a16a b3bd 1320 1f3e 37c3 a43e
00000170: 7713 9abe 4901 a5be d817 843d 4dc8 1e3e
00000180: bd7f ab3e a5b5 18bf a110 edbd 67f4 143f
00000190: 3d3c f13e 5115 8e3e 49e9 a73d b88d 0bbe
000001a0: 2bd7 013e 4d9c 293d 84f5 b13e ff3a 65be
000001b0: ea2c 633e a595 00bc e78f b63e 51d2 243f
000001c0: 0a87 17ba 21fe 363f d158 3f3e d51b 70be
000001d0: 3b39 59be c0d5 e13d d3d6 b63e 490c 81be
000001e0: 5b9b 30bd 8d46 463e 8a59 13bd cbe9 833d
000001f0: ed36 063d 8374 9f3e 2845 91be e294 edbd
00000200: 4e5a 95bd 27f2 b6be 38f8 3abe 2315 153f
00000210: a6a0 d8be 1bad 15be cb72 8fbd f958 b63e
00000220: 8574 da3e 7c7b ec3e d4d1 25be c57c fbbd
00000230: e357 c4be a9ee 693e a965 b5be 5e2c d73e
00000240: 2a16 7e3e 1ec8 423e 9d85 aebd f2e7 8e3e
00000250: 8c56 453e 21af f9be 2f08 3bbe 80bb 873e
00000260: 8dbc 9cbe 5bc5 4abe 636e 803e e857 52bd
00000270: 9245 8fbd 9d62 5c3d 8acc 8c3a 8cd7 9f3e
00000280: 453f 5a3e 5f78 f8bd 1060 83be 7f41 323e
00000290: cab5 e1be 81b4 4ebd 56a5 383e e81c 3ebe
000002a0: 480b 2d3e 48a5 94be 295d 9cbe 87a3 14be
000002b0: f7b3 01be e462 e4be 4ed9 963e 3124 123c
000002c0: 4a54 71be ae58 20be 5601 b43e 0933 063d
000002d0: 8bdd 5ebe a1fc 0fbe 65e6 8ebe ad7c 71bd
000002e0: 5edb 6a3e 4513 903e fc7e 66be 277a fd3d
000002f0: 8aed f0bd 4991 d8be fec0 afbe 7fa3 af3e
00000300: 9f79 e83c 94d0 973d 9cf0 93be 5e31 023e
00000310: c602 303d dcb7 84bd 5723 a1bd 4fad 183d
00000320: d68b 403e bcd5 5bbe 5999 e0bd 482c 6abd
00000330: 1c42 17bf d2aa 6ebe 2af0 06be 9040 6fbc
00000340: 4ab7 f5bc 7bf5 b0be 8460 7d3e 9c7f 223d
00000350: b5be ddbe 5e02 bcbe c921 97be 96e1 6bbd
00000360: 9df0 4e3d ed68 f8bd fbf0 3f3d a944 68be
00000370: 0575 653d c7a6 8f3e cbd9 9b3e 0892 38be
00000380: 5f9f f3bc f724 cf3b a9c8 89bd 4798 44be
00000390: 4334 0bbf 4bae ddbe a57e 0e3e 6b69 993e
000003a0: 4f38 80bd bbdf a13b bfae 0ebf 90a0 a83e
000003b0: 7692 703c 4be3 4c3d 2208 1fbf 6790 5cbe
000003c0: 1bb5 4b3e 0c07 d9be 5616 1bbe d106 c73d
000003d0: a384 cbbd 2e94 79be 0c58 22be 46b9 dcbe
000003e0: b96d ed3e 6820 04bf c1e9 28be 0bd9 6bbd
000003f0: 0d1c 4f3d e849 a83d 7a34 bf3e c806 963e

actor.bias f4 [3]
0.045392055 -0.015861996 -0.03823857
00000000: 05ed 393d 04f1 81bc 0ca0 1cbd

critic.weight f4 [1, 128]
-0.1513105 -0.07539415 0.03105599 0.0060241087 -0.09944571 0.15023685 0.09427654 -0.11998105
0.12238688 -0.2146755 0.02241405 -0.010377168 -0.1953035 -0.00048728706 0.21293318 0.073544875
-0.11456714 0.07277662 -0.0052971262 0.30396375 0.0580841 0.3370875 -0.13214149 0.0020770475
-0.16275547 0.11244118 0.031996045 -0.06378499 0.13135411 0.115637116 0.0011696535 0.11799709
-0.007284344 -0.023269784 0.057774793 -0.041117102 0.030903153 -0.04002817 -0.008359389 0.13019226
0.053237736 -0.07962914 0.07875226 0.007606414 0.042056497 0.018325819 0.04780583 0.14368609
0.15938382 0.21135165 0.14520258 0.16497605 0.050545637 -0.10446024 -0.12743874 -0.0021180336
0.14867759 -0.18462007 0.130115 0.13333702 0.08417819 0.017261887 0.053519905 -0.16158062
0.36918548 0.00885828 -0.08212559 -0.028518608 0.21623158 -0.25947306 0.37616336 -0.04682881
-0.13155112 -0.021176763 0.27470905 0.15186082 0.08780482 0.3268358 0.24411684 -0.05703146
0.10157994 0.022983866 -0.095829025 -0.0024458806 0.062898874 0.02479622 0.040904664 0.25910494
-0.10712947 0.06846061 -0.23501492 -0.143238 0.0083034225 -0.11753324 -0.04363362 -0.049883906
0.23385239 -0.046871737 -0.025372317 -0.03256248 0.010953034 -0.026179846 -0.119359896 0.18940279
0.09269493 0.016424015 0.41430807 0.017606331 0.27226064 0.037749477 0.0015678403 0.35343057
0.09990909 0.0628122 0.09379463 0.14635615 0.03377035 0.0047756713 0.1256421 -0.051303238
0.13840854 -0.09504246 0.14433359 -0.01415668 -0.28976995 0.014981208 0.072832994 0.0016043175
00000000: 24f1 1abe 4068 9abd 2269 fe3c e365 c53b
00000010: 31aa cbbd b0d7 193e 0f14 c13d a0b8 f5bd
00000020: f9a5 fa3d e5d3 5bbe ab9d b73c ff04 2abc
00000030: a4fd 47be 907a ffb9 280b 5a3e b29e 963d
00000040: 2da2 eabd e90b 953d 8493 adbb 23a1 9b3e
00000050: 98e9 6d3d bc96 ac3e 1950 07be 131f 083b
00000060: 5fa9 26be 9047 e63d 490e 033d b4a1 82bd
00000070: b181 063e 27d3 ec3d 0f4f 993a 75a8 f13d
00000080: 82b1 eebb 46a0 bebc 43a5 6c3d 686a 28bd
00000090: 9c28 fd3c 94f4 23bd d2f5 08bc 1f51 053e
000000a0: d00f 5a3d 9a14 a3bd dd48 a13d 3a3f f93b
000000b0: 6f43 2c3d 0720 963c 0cd0 433d 7222 133e
000000c0: 8335 233e 916c 583e fcaf 143e 7bef 283e
000000d0: f108 4f3d 40ef d5bd 4d7f 02be b5ce 0abb
000000e0: f03e 183e 0b0d 3dbe de3c 053e 8089 083e
000000f0: 9d65 ac3d cd68 8d3c b037 5b3d 6475 25be
00000100: e105 bd3e 5222 113c 7631 a8bd db9f e9bc
00000110: d06b 5d3e a7d9 84be 7c98 c03e 91cf 3fbd
00000120: 56b5 06be e47a adbc aaa6 8c3e 6781 1b3e
00000130: 03d3 b33d 0657 a73e c4f9 793e d299 69bd
00000140: 2509 d03d a948 bc3c 0242 c4bd 114b 20bb
00000150: 20d1 803d 7121 cb3c a68b 273d 67a9 843e
00000160: b266 dbbd 1435 8c3d c0a7 70be fbac 12be
00000170: 140b 083c 44b5 f0bd 2bb9 32bd 1153 4cbd
00000180: 0077 6f3e 94fc 3fbd 9bd9 cfbc 3c60 05bd
00000190: 5b74 333c 1e77 d6bc f672 f4bd cef2 413e
000001a0: d7d6 bd3d a88b 863c 3020 d43e 273b 903c
000001b0: bf65 8b3e 329f 1a3d fe7f cd3a daf4 b43e
000001c0: 239d cc3d afa3 803d 6617 c03d 63de 153e
000001d0: c752 0a3d 3c7d 9c3b 53a8 003e 5823 52bd
000001e0: f8ba 0d3e 9fa5 c2bd 2fcc 133e 6bf1 67bc
000001f0: ba5c 94be be73 753c 7729 953d f647 d23a
