W__RNN/W_RNN/md2/v_1/train_iter_0800.pt (torch, 79699 bytes, 6 tensors)

h0 f4 [128]
00000000: fd82 8ebf 7f68 ff3f 4bc1 0b3f 9296 3d40
00000010: 2cb8 9cbf cdf1 54be 3f15 7f3f feb9 0f3f
00000020: c1c2 c1bd 088e 9d3e 7fdb fe3e b3c8 e0be
00000030: 35da 983e 5689 e8ba 468f 22be 4060 4dbf
00000040: b5dc 9ebf 83b7 3abd 560c 0cbf de19 16be
00000050: e780 783e bf28 d3bf b0f3 a4be f8c1 9cbe
00000060: b5bf 25bf e8b8 99bf bcc1 cc3e 83e8 d9bd
00000070: d1cc 833e 2b43 45be 3a43 79be 21c5 9f3f
00000080: c1bb 473e f57a 7dbe c668 a3be 6b58 11bf
00000090: a43b a1bf ff1f 843e fcf3 4d3f 8cdf f33e
000000a0: 1b8f 2f3d 57b8 a5bf 9fe4 c9bd 2dc7 ad3e
000000b0: ec1b 0d3f 64d4 a83e 908b 4cbe e829 9b3f
000000c0: 3ef8 34c0 a66d 9c3f 8e59 dfbe 2191 1840
000000d0: 2b1d e83e a99d 84bf b172 91bf b1de 22bf
000000e0: 62ee e63e e046 babf 8710 a8bf 9e71 8b3f
000000f0: 1ac2 b53f 7cb7 5cbe be45 fa3e dec2 733f
00000100: 3815 febe 7df3 ed3e e235 d43f 9216 683e
00000110: e58e 5b3f f0a0 5ebf b8d7 3c3e ce3b 833d
00000120: 8de5 823f 5d7e 1e3f af13 ee3d 9213 673e
00000130: 2f62 13c0 a5c4 793e a6b6 e8be b3e2 743f
00000140: b348 7e3f 1bd4 78be fe8b e43f aad3 5abf
00000150: 8665 17bf fb7f 8fbf 45bf e8bf 1d04 ed3d
00000160: f17d ab3d c65f 92bf 962e 85bf bee9 cabe
00000170: cde6 2a3f 619b 6f3d d737 49bf 2124 91be
00000180: 0496 0c40 7268 7e3f 0768 1f3f e839 9c3f
00000190: 1858 9dbc 9eee a23f d98d bdbf 8ead b13e
000001a0: 63ff e33f 24f3 313e 708b 4a3e 191a 4b40
000001b0: 4113 af3d d4be da3f 3653 983f c563 923d
000001c0: 9cb6 82bf 3910 093f 767d 14bf 3e6d a63f
000001d0: d6c4 27be f501 d23f 34c7 ab3f 82bb 053f
000001e0: 58eb aebe 51d8 873e cb56 783e b2ec 0040
000001f0: ba9a 7ebf 6c0d 163e 424c 173f 9f8a 2c3f
-1.1133724 1.9953765 0.54591817 2.962315 -1.2243705 -0.20795365 0.99641794 0.56143177
-0.094609745 0.30772424 0.49776837 -0.4390312 0.2985398 -0.0017741125 -0.15874967 -0.8022499
-1.2411104 -0.045585167 -0.54706323 -0.14658305 0.24267922 -1.649681 -0.3221717 -0.30616736
-0.64745647 -1.2009554 0.39991558 -0.10640051 0.257422 -0.19263904 -0.24342051 1.2482034
0.19505216 -0.24753936 -0.31915873 -0.5677554 -1.2596326 0.2580566 0.80450416 0.4763149
0.042861085 -1.2946881 -0.09858059 0.33941022 0.5512073 0.3297454 -0.19975114 1.2122164
-2.8276515 1.2220962 -0.43623012 2.383858 0.45334753 -1.0360614 -1.1363126 -0.6362105
0.45103747 -1.4552879 -1.3130044 1.0894048 1.419986 -0.21554369 0.48881334 0.9521922
-0.49625564 0.4647483 1.6578944 0.2266486 0.85764915 -0.8696432 0.18441665 0.06407891
1.0226303 0.61911565 0.11624848 0.22566059 -2.3028677 0.2439142 -0.4545185 0.95658416
0.9932968 -0.24299662 1.7855222 -0.85479224 -0.5913929 -1.1210932 -1.8183371 0.1157305
0.08373631 -1.1435478 -1.0404842 -0.39631456 0.66758424 0.05849779 -0.7860083 -0.28347877
2.1966562 0.9937812 0.6226811 1.2205172 -0.019207045 1.272907 -1.4808913 0.34702724
1.7812313 0.17377907 0.19779754 3.1734679 0.08548594 1.7089486 1.1900394 0.07147936
-1.0211978 0.5354038 -0.5800394 1.3002088 -0.1638368 1.6406847 1.3420167 0.5223924
-0.34163928 0.26532224 0.24251859 2.0144467 -0.99454844 0.14653558 0.59100735 0.6739902

RNN.layer_encode.weight f4 [128, 145]
00000000: e9db d3bd f1c4 d83c f47a d23d fb39 cc3e
00000010: bbc0 05be dabe 36bd 36d5 cd3d 92a8 0cbe
00000020: f108 24be 0e5a a7bd 9795 de3d 64a8 38bd
00000030: 30ca 4bbd 7175 96bd 8ca4 823d f055 ecbd
00000040: 037d 13be ab16 a83d b5f7 47bc 9149 96bc
00000050: 5b9a aebd 0d47 6dbd 8f5b 083d 372e c2bc
00000060: 6e5a 7b3d 9df1 d23a fcee dcbc 1d6e a73c
00000070: 5f2a dfbc 9963 ebbc d7fb eebc 7c82 39bd
00000080: 33f8 6abb 16b6 573d b9ee 3b3c 2a6d 953c
00000090: f8e1 84bd f572 843c 7c59 bf3c 4fa8 b83d
000000a0: e016 9bbc 553b 103e ac7f 493d c08f ecbc
000000b0: c969 6cbd b31a d3bb c451 943c 3285 a53d
000000c0: 94f8 8b3d 95a7 e13d 2349 233d 0b11 7e3d
000000d0: 7f10 93bd d23d 023d 80c1 e73d 4797 ee3a
000000e0: ed5d a6bd 48d9 c0bc 1ddb 863d ae9b c4bd
000000f0: 9578 6dbd b7c8 8bbd c25c fbbd ead7 3fbd
00000100: bed2 24bb a670 8cbd 7a8f ca3c f414 63bd
00000110: c53e a2bd d76b a6bc cffd 773d f7b2 b9bd
00000120: b1b8 b2bb 795a a83c 8c5e e73c 2b26 d7bd
00000130: bac4 0bbd 2589 5e3d 0d5c a2bd 228f 393d
00000140: dcee 58bd b820 483d 9d1f 62bd 6a5d 853d
00000150: f739 d43b 19ba 903c 6ea2 9ebd 59c8 1d3d
00000160: d2db 13bd c346 61bd 14d8 d53c 27db 203d
00000170: 438d 85bd 2a0b 80bd 0faa 8abc bbda 55bc
00000180: 58d3 a33d eb8f b63b 4d6c 2dbd b0b7 553d
00000190: 8e34 5a3b cd61 de3c 2e20 403d 5b55 8d3d
000001a0: ed46 42bc 17eb 8fbd d6c0 2b3d aac1 91bd
000001b0: d36a 09bd ef43 443d 3e65 00bd f8f5 68bd
000001c0: b337 8fbd 4c54 82bd 7ee3 8f3d 68e7 03be
000001d0: 89d9 9d3d 4d56 303d 15e0 403c afd3 403d
000001e0: 1e34 debc 66d6 84bd 45db 1d3d cde8 55bc
000001f0: 3df3 8dbd e1e7 c63c a40f 8ebd b163 b33c
00000200: 218d 8dbd aef3 d2bc 0eb1 59bd 1708 e4bc
00000210: 4136 bf3c a1d8 a63c 6309 babd cc49 b5bd
00000220: 5575 97bd 90fd 8e3d 3bb7 a43b 1592 a03d
00000230: 02a9 253d 6a8c b6bd 0d8e 04bd 9287 a7bd
00000240: 33e0 323c 94b7 513e ee84 bd3c 14e3 593d
00000250: d334 debd 850f 8e3b ca41 0fbe 4ebb fdbd
00000260: aba2 a63d 7888 d53a 98d6 24be 5d31 48be
00000270: d281 49be d203 2a3e 0ed8 6a3c bffa 163d
00000280: 393d d33d 6013 90bd 9456 c0bc 16be d63c
00000290: 13f4 d6bb 4422 7fbb 4a50 83bd 555e 793d
000002a0: 88f7 86bd ac59 19bd bdc2 ffbc 923d 003d
000002b0: 81cb db3c b255 f73d dfb1 363d d8bb bf3b
000002c0: 42f5 77bc 967f a23d ed7e 013e 0d69 f93d
000002d0: 82f3 d9bc 1a49 853d 659b dabc f010 aa3d
000002e0: 323c 1f3d 421e 0fbc 4e8b 063d 477d fcbc
000002f0: ce04 a53b 2165 a33d cc08 0dbb ae66 d1bc
00000300: 1ee8 f53c 972f 40bd 655a 01bb b81c bd3c
00000310: 1aeb 2a3d d396 51bd 5406 4c3d 57fa 8bbd
00000320: 0c89 993d 98f4 be3c e13a a8bd 5627 07bc
00000330: 06fe 813d 274f 203c f5a6 b23c f6f4 843d
00000340: f0ca 633d 6b62 bf3d 7860 673d e817 783d
00000350: e343 81bc 4a47 35bd dc1a 753d 49b0 18bd
00000360: 963c 503d 4938 c03d 81d8 5ebc f6df 07bc
00000370: a079 1a3c 8886 e13c 2cf3 be3d 21a6 92bd
00000380: dca7 74b9 0a32 3abd b2e3 143d 01ee 013d
00000390: 7b83 833d 26c1 5dbd d6c9 ba3b 8c76 473d
000003a0: 9469 fc3d d965 0d3d 7c72 9c3d 367f b9bd
000003b0: d018 8ebd bb5e 403d 170e 02bd f08e 003e
000003c0: 17bc 80bd 207c 8ebc e854 89bd f0c1 5bbd
000003d0: ab46 78bd 1b5d f13c bb0d 763c 6f8c 9d3a
000003e0: 8c6a 563d 1a60 c03c abc3 923d 3c10 9ebc
000003f0: 4ed7 81bd 5021 793d 99d6 943d 9bd4 c4bc
-0.10344679 0.026461096 0.10277358 0.39887986 -0.13061802 -0.044615604 0.100504324 -0.1373618
-0.16019036 -0.081714734 0.10868376 -0.045082465 -0.049753368 -0.07346619 0.06379041 -0.11539829
-0.14403157 0.082074486 -0.012205054 -0.018345626 -0.08525535 -0.057929087 0.033290442 -0.023703678
0.061365537 0.0016093735 -0.026969425 0.020438248 -0.027241884 -0.028734015 -0.029172821 -0.045290455
-0.0035853505 0.052663885 0.01147049 0.01824053 -0.064884126 0.016168097 0.0233581 0.09016477
-0.018931806 0.14085133 0.049194023 -0.02887714 -0.057718072 -0.006442392 0.018105395 0.080820456
0.06834522 0.11018292 0.03986467 0.062027972 -0.07180881 0.031797238 0.11316204 0.0018203043
-0.08123384 -0.023541108 0.06584761 -0.09600006 -0.057976324 -0.06825393 -0.122735515 -0.04683677
-0.0025150026 -0.068574235 0.024726618 -0.055439904 -0.079221286 -0.020315094 0.060544785 -0.09067338
-0.005454146 0.020550953 0.028243326 -0.10505327 -0.03412316 0.05433001 -0.079277135 0.045302518
-0.05296217 0.048859328 -0.05520593 0.06511958 0.0064766365 0.017666863 -0.07745825 0.038521145
-0.03609831 -0.054999124 0.02610401 0.0392715 -0.06521084 -0.062521294 -0.016926793 -0.013052638
0.07999295 0.0055713556 -0.04233961 0.05217713 0.0033295485 0.027146244 0.04690569 0.06901046
-0.01185773 -0.07027262 0.04193195 -0.071170166 -0.03354914 0.04791635 -0.031346552 -0.0568752
-0.06993046 -0.063637346 0.070258126 -0.12881243 0.07707507 0.043051053 0.011772175 0.047076877
-0.02712446 -0.06486206 0.03853919 -0.013055992 -0.0693116 0.02428049 -0.06936577 0.021898123
-0.06911684 -0.025750961 -0.053147368 -0.027835889 0.0233413 0.020366969 -0.090838216 -0.08851966
-0.07395426 0.06981957 0.0050267256 0.07840363 0.04044438 -0.089135006 -0.032362033 -0.08180155
0.010917711 0.20480186 0.023134675 0.053195074 -0.10849919 0.004335346 -0.1398994 -0.12389241
0.08136495 0.0016291281 -0.16097486 -0.1955008 -0.19678429 0.1660302 0.014333738 0.036860224
0.10314412 -0.070349455 -0.023478784 0.026213687 -0.0065598576 -0.0038930336 -0.06411798 0.060880978
-0.065901816 -0.037439033 -0.031220788 0.031308718 0.026830437 0.12076892 0.044603225 0.00585125
-0.015134158 0.07934491 0.12646075 0.1217824 -0.026605371 0.06508084 -0.026685426 0.08304012
0.038875766 -0.008735241 0.032847695 -0.030821456 0.005035973 0.07978273 -0.0021520136 -0.025561657
0.030017909 -0.046920385 -0.0019737717 0.023084983 0.041728117 -0.051169228 0.049810722 -0.06834858
0.07496843 0.02330999 -0.08214355 -0.0082491245 0.06347279 0.009784496 0.021808127 0.06492035
0.05561346 0.093449436 0.056488484 0.060569674 -0.015779441 -0.04425744 0.05984007 -0.037277494
0.05083903 0.093857355 -0.013601423 -0.008293143 0.009428412 0.02752997 0.09323725 -0.07160593
-0.00023332186 -0.045457877 0.03634996 0.03172112 0.06421562 -0.05413928 0.0057003302 0.04869704
0.12324825 0.034520958 0.07639024 -0.09057467 -0.06938326 0.046965342 -0.03175172 0.12554526
-0.06285875 -0.017393172 -0.06705648 -0.05365175 -0.06061427 0.029463341 0.015017922 0.0012020002
0.052347705 0.023483325 0.07166227 -0.01929485 -0.06339894 0.060822785 0.07267494 -0.02402716

RNN.layer_encode.bias f4 [128]
00000000: 853d 61bd 2b82 c13d 114d e33b 74bb 0ebd
00000010: f948 a5bb d245 a83d 7735 43bd 95ac 90bb
00000020: 3e21 2ebd 303d 3f3d a955 893d 901f 8d3d
00000030: c893 c0bb 079a 953d 18c9 6b3d 3f22 63bd
00000040: 3495 b5bc 1b36 743d 8e9d 97bc b33c e83c
00000050: da79 6b3d e1c4 883d a56b 8a3d fcb9 a73d
00000060: 7f04 353d 6e76 9a3d 7dd1 43bd 51b1 64bd
00000070: 51f5 c53b 994b a3bd a75a 5c3d 9284 9fbc
00000080: a962 723c 821c 7fbd 9752 acbc e72b 1ebd
00000090: b46d 603d b244 bb3d 3560 823c 1f63 2dbc
000000a0: ef88 07bd dd14 833b 25f2 91bc 1718 123d
000000b0: 9272 cf3d 8310 cebd 0c48 403c 7016 84bc
000000c0: 21ab 53bb 645e dc3b 7f7a ccbc 07ec 75bc
000000d0: 1fc4 3c3d 8a64 94bd 5692 0fbb 5eb1 a03a
000000e0: e465 30bd 80a6 ebbd 9fca bcbd 40ba 143d
000000f0: 2a56 bb3c 137c 8bbd d553 36bd 16fc b43d
00000100: 0519 0c3d 7cb4 45bd 6106 5d3d 39bd 6e3d
00000110: c09c 8fbd 4bb7 e53c 7004 543d 3e4d e23d
00000120: e1fa b03c 65f1 21bd 5cda 27bd 56e8 8a3d
00000130: 6793 40bc 7966 c13d fcdb 243c 8ca5 163b
00000140: cc9d 8b3d afb2 013d 45aa a53d 79aa 413d
00000150: 1e6b c53c 55a3 55bd 2c6b cc3b 3a8e febc
00000160: 3cf9 4b3d 1bb5 fbbb 8e75 423d 3bfd 14bc
00000170: a1ec 943c 8a01 903d b355 c13d 3095 bc3d
00000180: 389a 04bd 05fa 823d 0647 273d 9f6a 2a3d
00000190: e0c5 3c3d 3278 efba e232 8a3d 8cd7 64bc
000001a0: 7912 7a3d 01bc 0f3d 2b0f 923d 7575 e83c
000001b0: d2f8 ccbb 3603 febc 6f50 6fbc be3e 71bd
000001c0: 9d54 0ebb 1e7b 363d 103c 4f3d aaa0 95bd
000001d0: 1955 12bd 95fa b53d 33d7 af3d f08e c23d
000001e0: d4c2 cf3c 5b42 bc3d 1237 6b3d de41 a13c
000001f0: 2848 e73d 0912 8e3d 314d 38bd 0995 873c
-0.05499031 0.09448656 0.0069366773 -0.034846738 -0.0050440994 0.08216442 -0.04765841 -0.0044151046
-0.04251217 0.046689212 0.067057915 0.06890786 -0.005876992 0.07304769 0.057564825 -0.05545258
-0.022165872 0.05962191 -0.018507745 0.028349256 0.057489254 0.06678177 0.06758813 0.081897706
0.04419374 0.0754212 -0.047807205 -0.055833165 0.006041207 -0.079734035 0.05379739 -0.019472394
0.01479403 -0.062283047 -0.021035476 -0.038616087 0.05479212 0.09143962 0.015915016 -0.010582714
-0.033089574 0.00400029 -0.017815659 0.035667505 0.101292744 -0.10061743 0.011735927 -0.01612398
-0.0032298046 0.0067251194 -0.024960754 -0.015009887 0.046085473 -0.07245739 -0.0021907291 0.0012259891
-0.04306592 -0.11506367 -0.092183344 0.036310434 0.022868235 -0.06810775 -0.044513542 0.08837144
0.034203548 -0.048267826 0.05396116 0.058285926 -0.070123196 0.028041502 0.051762044 0.11049889
0.021604003 -0.039536852 -0.040979728 0.06782596 -0.011753893 0.09443373 0.010062214 0.0022986857
0.06817207 0.031664547 0.08089117 0.047281716 0.024098929 -0.05215772 0.006238362 -0.031073678
0.049798235 -0.0076815016 0.04747539 -0.009093578 0.01817924 0.070315436 0.09440174 0.09208143
-0.032373637 0.06395344 0.040839218 0.041605588 0.046087146 -0.0018270074 0.067479864 -0.013967406
0.061052773 0.035091404 0.07131799 0.02837632 -0.0062552476 -0.03100739 -0.014606579 -0.058897726
-0.0021717914 0.044551007 0.05059439 -0.07306035 -0.035725687 0.08885685 0.08585968 0.094999194
0.025361456 0.09192344 0.057425566 0.019684728 0.112930596 0.06937034 -0.04499549 0.016550558

actor.weight f4 [3, 128]
00000000: 4ecd 9ebe 8cba c23e 715d 7c3e c809 fbbe
00000010: 6307 393e 9e96 c63e c659 163e 52d2 353e
00000020: 72e2 d9bc a74b a6be 08b0 3fbe 839a 10be
00000030: 55f3 cabe 2fea c23d 3b68 b43d e0ac 84be
00000040: 12a3 b73e 738f 96bd 90bd 893e 3b3e c43d
00000050: 5c86 4d3e 83cb 3b3e dc20 e43d 4da3 9a3e
00000060: 79cc 5d3e 17a6 523e 0d0f d33e 0d10 c13e
00000070: 23c8 3abe 69a9 0d3e f558 99bc d7d0 923e
00000080: c3f9 173e 937f 9a3e 42a1 593e 288c 973e
00000090: 2b6c 343d 9713 7a3d af3c 41bd 8341 53bd
000000a0: 1ccb 013c 3bfa ac3d 9472 b03e 4299 1c3e
000000b0: a6d0 973e daa9 46bc f48a 94be e91b 033e
000000c0: 9bc9 49be b3c3 eebd 80b2 a7be 16e7 3abe
000000d0: 4a25 8a3d 99c2 61be 4a74 82be 8053 223e
000000e0: 5fde e53d afd7 9d3e ce59 a23d 7c76 b93e
000000f0: 1675 b3bd 84f3 ce3c e122 d13d 9800 9e3e
00000100: 62ec 3a3e efe0 9e3e 30df 983e 798d e23e
00000110: 75ef 3dbd 0bb8 8b3e 893c d7be bbdc 0fbd
00000120: d415 28bd 9c8c 7dbe 70b5 9ebe 83a5 2c3e
00000130: 56d8 eb3e 438d d73d 1191 2e3e dc3c bbbd
00000140: 7d65 763e d0f5 923e 7178 493e 09c1 803e
00000150: 8879 243e 4fcb babe b625 a53e af7f e23d
00000160: d96e a7bd 74bc cfbd 0505 96be 814e 1ebe
00000170: 267b 8ebe ccff ecbe 7e77 3c3d f69e f5bd
00000180: 5a84 36be 3c3e 3b3e 629c 4fbe 1303 be3e
00000190: 2625 a1be 166e 7dbe 50d4 bf3c f190 513e
000001a0: 52f4 6a3d 3eff a5be 90d6 84be 43c3 9e3d
000001b0: fca7 5ebe fe1c a63e 2036 863d 3e1a 273d
000001c0: 0691 a73e 7d58 3fbe ba82 ad3d b38c e5bc
000001d0: 4810 823e 504b 253e c11a 5dbe 944f 723c
000001e0: 21fe 43bd 3103 cf3e 3893 a83e b0f7 c1bd
000001f0: 2ccc a7be 7aad d4be ea89 3ebe 91a2 1dbe
00000200: aa61 53be 2b78 71be 6307 51be 081b bcbd
00000210: 6f42 46be 2215 4bbe c3ff 85be 1309 b0be
00000220: 6d59 91be e522 173e efbe 7d3e c046 953d
00000230: 100f 93be 6fca 283e 1ce0 27be e99a fb3d
00000240: 3348 5dbe effe 2bbe e59d bbbd cc69 23be
00000250: 77ec c1be ee21 6c3e e2d1 48be 33ab 16be
00000260: c44b c6be c6e9 2bbd 4830 e4bd 28bd e3bd
00000270: adbe 453e 50c1 d5bc 89e0 923e dba0 90be
00000280: 2446 88be fce5 8ebe 6d81 b8bd e51f 88be
00000290: 77dc 613c 21fb 53bd 0e3a dabb 001c fa3e
000002a0: dc00 493e f724 293e d734 b1be 9535 77be
000002b0: 7114 0bbe 6061 8c3e 86e7 fdbd 2802 2b3c
000002c0: 9237 363e b124 3a3e 4b00 c93b d823 fc3d
000002d0: 151b aabe 8a38 9abe 8905 1d3e e420 6ebe
000002e0: 534f 0e3e 18ac e2bd ce6c b93d f27d 58be
000002f0: 93ea 653e 1b1f 973d dedc a13b ddd7 36be
00000300: e74d 5ebe 95aa 5dbe 0257 7fbe c630 07be
00000310: 088f d6bd 0a67 9abd 29d7 72bd b047 123e
00000320: b69d bfbd bd6b ee3e 0f3a 84bc c83b d5be
00000330: 18cc 2ebe af98 69bc 12b4 0a3e a710 02be
00000340: 53e3 7dbe 3daf c1be 759a 80be f165 b2be
00000350: 7ff1 2fbd c268 cc3d 5846 153d fb05 92be
00000360: 4d52 783e 9cf7 a13e 194c 78bd fd46 b93e
00000370: c51a 323e 0c70 103c 58ee 7b3e e312 6a3e
00000380: 355e c73e 6969 47be 9688 3e3e 455f 98be
00000390: 7f6f babd 737c a1bc 931c 513d deb6 89be
000003a0: 8b25 e83d 98f6 623e 2c02 3fbd 1954 8abe
000003b0: 97bf 183e 303f 35be 9f29 8f3e d35a 83be
000003c0: 7dac 1bbe 4d15 043e 5179 5eb9 8ce8 af3d
000003d0: 2074 b3bc b1fc 1d3e 05a8 82be c38e 993d
000003e0: 44f9 35be a350 9abe ff53 2dbe d5e5 873e
000003f0: f449 59be 2253 b53d f397 833e 8b35 b43e
-0.3101601 0.3803295 0.2464502 -0.490309 0.18069224 0.38786787 0.14682683 0.17756012
-0.026597235 -0.32479593 -0.18719494 -0.14121442 -0.39638773 0.09517323 0.08808943 -0.25913143
0.358666 -0.073515795 0.26902437 0.09582182 0.20070785 0.18339352 0.1113908 0.30202714
0.21660031 0.20571171 0.4122242 0.37707558 -0.18240409 0.13834156 -0.018719176 0.28674957
0.1484137 0.30175456 0.21252921 0.29599118 0.04404847 0.06105384 -0.047177013 -0.05157615
0.00792196 0.08446165 0.34462416 0.15292838 0.29651374 -0.012125457 -0.29012263 0.12803616
-0.19705813 -0.116584204 -0.32753372 -0.18252215 0.067453936 -0.2204689 -0.25479347 0.15852165
0.112240545 0.30828616 0.07927285 0.3622321 -0.08762567 0.025262602 0.10211731 0.30859828
0.18254235 0.31030986 0.2985778 0.4424856 -0.046370942 0.2728885 -0.42038372 -0.035122614
-0.041036442 -0.2476067 -0.309978 0.16860013 0.4606349 0.105249904 0.17047526 -0.091424674
0.24062152 0.28703165 0.19674851 0.25147274 0.16061985 -0.36483237 0.32255334 0.1105951
-0.081754394 -0.101433665 -0.29300705 -0.15459634 -0.2782833 -0.46288908 0.046012394 -0.1199321
-0.17823926 0.1828546 -0.20274499 0.3711172 -0.31473655 -0.24749026 0.023416668 0.20465447
0.05736191 -0.32421297 -0.25944948 0.07752087 -0.21743768 0.32443994 0.06553292 0.04079651
0.32727832 -0.186861 0.084722 -0.028021192 0.25403047 0.1614201 -0.21592237 0.014789481
-0.047849778 0.40432122 0.3292482 -0.09471071 -0.32772958 -0.41538602 -0.18607298 -0.15394045
-0.20642725 -0.23580997 -0.20412974 -0.09184843 -0.1936128 -0.1983228 -0.26171693 -0.34381923
-0.2838854 0.14759405 0.24779867 0.07288885 -0.2872243 0.16483472 -0.16394085 0.12285406
-0.21609573 -0.16796468 -0.09160975 -0.15958327 -0.3787572 0.23059818 -0.19611314 -0.14713745
-0.3872968 -0.04197099 -0.111420214 -0.11120063 0.19311018 -0.026093155 0.28686932 -0.28247723
-0.26616013 -0.2790984 -0.09009061 -0.26586834 0.013785473 -0.051753167 -0.0066597527 0.48849487
0.19629234 0.16518007 -0.34610626 -0.24141534 -0.13582017 0.2741804 -0.12397675 0.010437526
0.17794636 0.18178059 0.006134068 0.12311524 -0.33223787 -0.3012126 0.15334143 -0.23254734
0.13897447 -0.110679805 0.09053956 -0.21141794 0.22452764 0.0737898 0.0049396595 -0.17855783
-0.21709405 -0.21647103 -0.24935535 -0.132022 -0.104765 -0.075391844 -0.059287224 0.14285159
-0.09356253 0.46566573 -0.016140966 -0.41647172 -0.17070043 -0.014257594 0.13545254 -0.12701665
-0.24793749 -0.3782901 -0.2511784 -0.348434 -0.042954918 0.099809185 0.03644404 -0.28520188
0.24250145 0.31634223 -0.060619447 0.36186972 0.17393024 0.008815777 0.2460264 0.22858767
0.38939062 -0.19473805 0.18606791 -0.29760185 -0.091032974 -0.019712662 0.05105264 -0.2689733
0.11335286 0.2216438 -0.04663293 -0.27017286 0.14916836 -0.17699885 0.27961442 -0.2565523
-0.15202518 0.1289875 -0.00021216764 0.08589277 -0.021905959 0.15428425 -0.25518814 0.07497933
-0.17770869 -0.30139646 -0.16926573 0.26542535 -0.21219617 0.08853747 0.25701866 0.351971

actor.bias f4 [3]
00000000: 84fe bebc 3eae 16bd 1f52 d23c
-0.023314722 -0.036787264 0.025673924

critic.weight f4 [1, 128]
00000000: aae0 e23d 42fc ba3d 9046 99bd 2594 923d
00000010: 8972 523b f498 3fbd 3706 8dbd 9b5d db3d
00000020: 7b87 a33e d098 9c3d a747 8a3d e048 9d3d
00000030: a468 693d ca88 0f3d cd47 d1bd 6b00 603e
00000040: 0a3b 2ebe 5882 e1bc f6bd 823d 3cee 77bd
00000050: 952c 1c3b 15ce 58bd c249 bd3d ee0a 40bb
00000060: 563c ddbc ff8b 6abb 814e 1dbb 4d33 03be
00000070: 2d63 0c3c 92e9 2dbe ecfd 403e 2c4b 9bbd
00000080: 2f20 293e 3e1a ecbc 25b7 a9bd 6728 803d
00000090: fc54 db3d 4d34 ba3e 5f60 073e 1fe0 5b3d
000000a0: 4a7b ba3d e4a5 153d 947a e0bc e28d aebd
000000b0: c1dc 50bd dc40 5c3d 5f5b 013d 2c05 83bc
000000c0: d614 e33c c7de 59be 7f76 b63d f8f1 f2bc
000000d0: 7522 523e 18d5 18be 97b9 843e 8b92 453e
000000e0: 4ac8 0ebe 05d5 af3d 761f ffbd dcc7 e4bd
000000f0: ff9e 263e 2f43 4bbd c287 573a e6dc aabd
00000100: 8fcd fbbd 8f60 a03d a0e0 e33c 832e 08be
00000110: fb6b 8e3d 7fed 0d3c c3b4 77bd 755b 683e
00000120: 3d8e ed3d 4e9f 703c 8dca 593e fd6b 463e
00000130: 531f d7bc 0788 9fbc b636 243d 6c6a 663e
00000140: 5d28 8ebd 1664 d83a defc 963d 247e 873d
00000150: c0f2 323e f7f1 8b3d ae16 b83c 5213 033d
00000160: e460 f53c f5b7 7f3e bc4f 293c b403 09be
00000170: 6993 563d c39a 483e 57a8 733d 9767 5a3d
00000180: 7b45 653c 2a25 c1bd 0e0b 993e 4252 4a3e
00000190: ca76 d23d fbd6 9a3d 1c8f 683d a297 793d
000001a0: 164d bebc 7cc7 a63d 3895 2f3e 2b4c 93bd
000001b0: accf 273e 01c5 72bd 6b12 e4bd 89c2 813d
000001c0: 809f 1f3e ebe0 3b3e e625 11be 638a 51be
000001d0: d184 463d 8536 d4bd 9f55 edbc f3db 0c3e
000001e0: 4e2d d03d 2660 283e d22c f63b e211 afbd
000001f0: 8c9d fa3c 2e54 33bc a959 1a3e b36d 4ebe
0.110780075 0.091301456 -0.07484162 0.071571626 0.0032111725 -0.046776727 -0.06885951 0.10711213
0.319393 0.07646334 0.06751948 0.076799154 0.05698456 0.03504256 -0.10218773 0.2187516
-0.17014709 -0.027527973 0.063838884 -0.060529932 0.0023830284 -0.05293091 0.09242584 -0.002930339
-0.02700631 -0.003578901 -0.002400309 -0.12812538 0.008568567 -0.16983631 0.18846864 -0.07582697
0.16516183 -0.028821107 -0.08286885 0.06257706 0.10709569 0.36368027 0.13220356 0.053680535
0.09105547 0.03653516 -0.0274022 -0.08523156 -0.050991777 0.053772792 0.03158128 -0.015993677
0.027719896 -0.21276389 0.0890932 -0.029656395 0.20520957 -0.14925039 0.25922844 0.19294183
-0.13943592 0.08585552 -0.124571726 -0.11170933 0.1627159 -0.04962462 0.00082218286 -0.08342914
-0.122950666 0.07830917 0.02781707 -0.13298993 0.069541894 0.0086625805 -0.060475122 0.22691138
0.115993954 0.014686419 0.21268673 0.19377132 -0.026260054 -0.019474043 0.04009124 0.22501534
-0.069412924 0.001650932 0.07372449 0.06615856 0.17475414 0.068332605 0.022471752 0.032000847
0.029953428 0.24972518 0.010333952 -0.13380319 0.052386675 0.19590287 0.059486713 0.053321447
0.013993616 -0.094309166 0.29891247 0.19757941 0.102765635 0.075605355 0.056777105 0.060935624
-0.023230117 0.081435174 0.17146766 -0.07192262 0.16387814 -0.05926991 -0.111363254 0.06335933
0.15588188 0.18347518 -0.14174613 -0.20462947 0.048466507 -0.10361961 -0.028971491 0.13755779
0.10164891 0.16442928 0.007512667 -0.08548333 0.030592702 -0.010945363 0.15073265 -0.20159034
