W__RNN/W_RNN/md2/v_1/train_iter_3500.pt (torch, 80523 bytes, 8 tensors)

h0 f4 [128]
000000 a6 8a 51 3e d7 99 b3 be db f6 01 3f ad a9 f6 be
       0.20463046 -0.35078308 0.50767297 -0.48176327
000010 0f 6a 6d bf 13 69 1e bf 31 a6 9a 3f 25 86 5c be
       -0.9273996 -0.6187908 1.2081968 -0.21535547
000020 a3 31 ce 3c a7 1c 46 bf 82 6a 8d bf 4d a9 2f c0
       0.025170153 -0.7738747 -1.1048129 -2.7447083
000030 9d fb 84 3e 4e a5 32 3f ae e6 0e bf b9 0d 55 bd
       0.25973216 0.69783485 -0.5582074 -0.05201504
000040 ee e6 fa be 5e 71 7e bf 71 35 07 3f 01 02 d2 be
       -0.4900431 -0.99391735 0.5281592 -0.41017154
000050 e7 54 2b bf 5b dc bd bf 39 0c 6c 3d e9 93 50 3f
       -0.66926426 -1.4832872 0.057628844 0.81475693
000060 53 6b 94 bf 16 d9 c1 3e 8e e2 a8 3f f6 1f 31 be
       -1.1595253 0.37860936 1.3194139 -0.17297348
000070 40 3a ab 3f d6 f3 c4 3e c8 41 89 3f 04 60 ea 3f
       1.3377151 0.38467282 1.07232 1.8310552
000080 7d 48 11 be af 81 26 3d e9 03 51 3f 45 f5 84 bf
       -0.14187808 0.04065102 0.8164659 -1.038735
000090 07 e3 40 bf c3 74 f9 3e a6 ce 9e be c4 27 68 bf
       -0.75346416 0.48721895 -0.31017035 -0.9068568
0000a0 7c c3 f2 be 9c c3 24 bf c3 66 9f bf 70 16 d7 3e
       -0.47414768 -0.64360976 -1.2453235 0.42009306
0000b0 70 3c c4 bf e1 1d 9d 3f 6f 18 71 3f 28 fa ca 3c
       -1.5330944 1.2274743 0.9417791 0.024777487
0000c0 3e e1 90 be 07 a8 b2 3d db 43 ed 3e e8 79 82 bf
       -0.28296846 0.08723455 0.46340832 -1.0193453
0000d0 f3 46 a2 3d 3d d2 8c be 14 3b 6f bf c3 4c 51 bf
       0.07923689 -0.2750415 -0.9344952 -0.81757754
0000e0 a6 3e b4 3d ff 94 99 3f 13 0a 5c 3f ed e6 8f be
       0.08801012 1.1998595 0.8595287 -0.2810587
0000f0 66 5f 86 3e 41 0b 25 bf 6b 6f 84 3f 72 ed b6 bf
       0.26244658 -0.644703 1.0346502 -1.4291213
000100 e8 e4 96 bf 51 71 f4 3e ec 9a 96 3e 66 82 a9 3f
       -1.1788607 0.47742704 0.2941507 1.324292
000110 17 65 b2 be da 34 23 bf ce 89 3f be 10 e1 21 3f
       -0.3484275 -0.6375252 -0.18704912 0.63234043
000120 86 75 21 3e 71 35 04 3f 65 c2 ba 3d 7c f0 1c 3f
       0.15767488 0.51644045 0.09119109 0.6130445
000130 60 26 96 bf d8 c4 a0 3f ec 58 44 3f 52 0e b1 bf
       -1.1730461 1.2560072 0.76698184 -1.3832495
000140 27 d6 38 bf 79 43 e7 3e e2 6d e9 bd c3 74 66 bf
       -0.7220177 0.45168665 -0.113979116 -0.90021914
000150 79 7d 4d bf d8 11 f3 3f 27 44 84 3f bf df f4 3e
       -0.8026958 1.898982 1.0333298 0.47826955
000160 01 52 90 3f c0 7f de bf 7b eb 29 bf 91 79 42 bf
       1.1275026 -1.7382736 -0.6637494 -0.75966746
000170 6c fb f4 3d d2 b0 61 be 6e 65 14 be 61 99 9f 3e
       0.119620174 -0.22040108 -0.14491817 0.31171706
000180 dc b7 8c bf e9 d6 1d bf f8 8d bf bd c0 50 c8 be
       -1.099361 -0.6165605 -0.0935325 -0.39124107
000190 8d bf 03 bf 41 0b 40 3f e2 68 d6 bd 2a 73 2c 3e
       -0.5146416 0.7501717 -0.104692236 0.16840807
0001a0 f4 27 61 3f 5a 14 37 3f 56 df 8f 3f fe 2c 35 bf
       0.8795159 0.7151543 1.1240032 -0.7077178
0001b0 a2 36 00 40 af 16 b8 be 4c 7e 9b 3d 43 4f e1 bd
       2.0033345 -0.35954806 0.075924486 -0.11001446
0001c0 fc ce a2 bb 48 61 bd bf c2 44 95 3f a4 35 6d bf
       -0.004968522 -1.4795313 1.1661608 -0.92659974
0001d0 ae 9b c9 3d dd 30 a7 bf 84 c6 6b bf 64 24 e2 3f
       0.09844147 -1.3061787 -0.92099786 1.7667356
0001e0 c5 f8 a9 3d 13 73 b2 bf 5e bd 79 be 67 3a 80 bf
       0.08299402 -1.3941368 -0.24388644 -1.0017823
0001f0 01 d2 02 c0 4c 18 0c be e5 8a 63 3e 9d b5 b9 3f
       -2.0440676 -0.13681144 0.22220953 1.4508549

RNN.weight_ih_l0 f4 [128, 17]
000000 36 82 c0 bd 52 5f 14 be 22 48 53 be 71 f6 13 be
       -0.09399836 -0.14489487 -0.20632985 -0.14449479
000010 9a 57 5f bc 8b ed 8e be 78 62 6f be 25 55 af 3e
       -0.013631726 -0.27915606 -0.23377407 0.34244648
000020 8d d9 a1 3e 36 30 94 3e ec 42 d9 bc 27 cf 72 bd
       0.3161129 0.28943032 -0.026521169 -0.059279587
000030 61 5a 81 3d ac 7f 39 bd a6 26 84 3d 1f a2 8d bd
       0.063160665 -0.045287773 0.06452684 -0.06915688
000040 e8 24 86 3d d2 8e 32 ba 85 e9 87 bb a9 03 84 bd
       0.06550008 -0.0006811443 -0.0041477107 -0.064460106
000050 70 02 dc be dd c9 27 3e 86 04 9b 3e 6f 13 17 3f
       -0.4297061 0.16385598 0.3027689 0.5901403
000060 3b 39 b7 3c 87 8d de 3d 28 ce 65 3d bf ed 8b be
       0.022366157 0.10866838 0.05610481 -0.27329823
000070 a1 de 2e be af 75 45 3e bf 31 ed bd 80 ce d1 bb
       -0.17077114 0.19283174 -0.11581754 -0.0064027905
000080 15 bf 8e bc 9e a9 ff bc 75 7d 01 3e a4 0f 17 be
       -0.0174251 -0.03120881 0.12645514 -0.1475206
000090 89 72 15 be 63 26 24 be 4c 52 38 bd 4e 61 16 be
       -0.14594473 -0.16030268 -0.04500036 -0.14685556
0000a0 8c 57 28 bd 2d 40 f4 3d e7 bd 95 3d d9 58 e9 3c
       -0.041099116 0.11926303 0.073116116 0.028484749
0000b0 41 89 c1 bd 6a ca 88 be fc 06 e6 3d a7 11 27 be
       -0.09450007 -0.2671693 0.11231801 -0.16315328
0000c0 45 90 0b bd d0 96 da 3d af 75 db 3d 13 e5 96 bd
       -0.034073133 0.106732965 0.10715806 -0.07367911
0000d0 b7 90 b1 bd 97 a0 14 3c 2a 36 35 3d c2 b6 94 bc
       -0.0867018 0.009071491 0.044241108 -0.018153552
0000e0 b2 ed 65 bd ae 4e dc 3d 5e e2 01 bc 8f 30 8e bd
       -0.056134887 0.107571945 -0.007927505 -0.069428556
0000f0 31 73 27 3d 0f 7a 30 3e f2 6c 95 3e b3 63 34 be
       0.04088134 0.17234062 0.2918468 -0.17616157
000100 62 c1 bb 3c e0 8b 33 3c db c8 88 be 3a b5 86 3e
       0.02291936 0.010958642 -0.2671574 0.2631014
000110 f6 46 b5 bd 10 04 71 bd a3 ab 4a be b8 45 f4 bd
       -0.08851425 -0.058841765 -0.19792037 -0.1192736
000120 7e 90 07 be 1b e8 04 be fe f7 ff 3d f6 5a 0f 3e
       -0.13238713 -0.12979166 0.12498473 0.13999543
000130 47 93 54 3e f9 9d 3e 3e d7 38 e0 3d 63 ae 8c bc
       0.20759307 0.1861495 0.10948341 -0.017172998
000140 08 6d ff 3d 14 51 ea 39 0c fd 5c 3d d3 b2 47 3d
       0.12471968 0.00044692366 0.05395226 0.048754524
000150 1f 62 2d be f2 2a 9b be 71 fa 6a be 3a 74 c7 bd
       -0.16931961 -0.30306202 -0.22947098 -0.09738965
000160 94 95 52 be 97 a0 e4 bd 93 00 31 be 74 9c 9f be
       -0.20564872 -0.111634426 -0.17285375 -0.31174052
000170 e3 d5 2d 3e 3c 6a 70 3e 5d 31 d4 3d c9 e4 36 3e
       0.16976123 0.23478025 0.10360978 0.17860712
000180 ee 27 ad 3d c9 81 11 3e 5f 9d e9 bd 8f 6a ac 3d
       0.084548816 0.14209665 -0.11406969 0.08418762
000190 24 53 05 be 89 67 90 bd 80 f1 25 bd 9c 56 7c bd
       -0.13019997 -0.07050998 -0.040513515 -0.061606035
0001a0 cd b3 77 3d d6 87 86 3d 8f 44 a1 3d ff 8e 83 3c
       0.060474206 0.065688774 0.07874405 0.016059397
0001b0 5d 83 52 bc 0f 23 f2 bb 76 f5 d8 bc 65 47 1e bd
       -0.012848702 -0.007389433 -0.026484232 -0.038642306
0001c0 80 6f 1b 3d 3c 71 78 bc 2c 03 f0 3c 09 36 a5 3c
       0.03794813 -0.015163716 0.029298387 0.020167368
0001d0 92 1e 12 3d 9f 22 42 3d b4 a7 b2 3b c3 bf 15 be
       0.035673685 0.0473963 0.0054521207 -0.14623933
0001e0 54 3f 80 3d 9a ac 9e bd da b6 49 be 7c f4 3c 3e
       0.06262079 -0.07747765 -0.19698659 0.18452638
0001f0 61 1b 6a bc f4 d7 a9 bd d9 a3 b2 bd 31 fa af bd
       -0.014288754 -0.08293143 -0.08722658 -0.08592642
000200 dd b4 a0 bd 19 8e 35 be 10 68 a1 3e 62 ee 11 be
       -0.07846997 -0.17729987 0.31524706 -0.14251092
000210 29 83 af bc c4 21 ea bd 01 af 39 bd 7e 60 29 3e
       -0.021424847 -0.114322215 -0.045332912 0.16540715
000220 5e 8a d5 3d 7f b5 33 be 99 83 c9 bd 2b 68 7c bd
       0.10426782 -0.17549704 -0.098395534 -0.06162278
000230 d1 e3 01 be cc dd 43 3c 66 f1 4b bc 6a 69 e6 bd
       -0.12684561 0.011954736 -0.012447691 -0.11250575
000240 1b e7 cf bd 80 50 2d be 05 d3 c9 3c b0 8a a2 3e
       -0.10151502 -0.1692524 0.024636755 0.31746435
000250 f7 ac 12 be 87 56 25 be cb 37 ee bc de db 02 3d
       -0.14323793 -0.16146289 -0.029079339 0.031947963
000260 83 8e 6a 3e 19 cc 02 be 48 85 40 be 9d 14 80 be
       0.22905926 -0.1277317 -0.18800843 -0.25015727
000270 30 8b 8b be 08 3b e9 bd 0b e5 5c be b4 b8 58 be
       -0.2725463 -0.113882124 -0.21571748 -0.21164209
000280 c3 53 38 be 26 02 ef bd c6 63 03 be 53 53 33 3d
       -0.18000703 -0.11670332 -0.1283103 0.043780636
000290 d0 06 ca 3d d6 34 97 be 2d 61 9e 3e 94 01 7e 3a
       0.09864581 -0.29532498 0.30933514 0.0009689566
0002a0 04 56 23 be 4e 39 e9 3d 14 62 80 be 2d cf 51 3e
       -0.15950781 0.11387883 -0.25074828 0.20489188
0002b0 a8 bd f2 bc b6 4c 0f be 65 98 0c 3e 10 20 81 3e
       -0.02963145 -0.13994107 0.13730009 0.25219774
0002c0 ee 39 cb 3e 9e 86 3d be c6 92 74 be f2 bc 5c be
       0.39692634 -0.18508384 -0.23884115 -0.21556452
0002d0 26 01 4b 3e 08 30 48 3e 57 dc 3d be 20 ea 04 bd
       0.19824657 0.19549572 -0.18541084 -0.03244984
0002e0 93 c8 1d 3c 18 10 73 be ec e8 2a 3c 87 10 86 bd
       0.00963034 -0.23736608 0.010431509 -0.06546121
0002f0 8a 9d 4a be 9e 37 17 be c8 ab fb bd e8 4a f0 bd
       -0.19786659 -0.1476731 -0.12288624 -0.11733037
000300 de fc b2 bd c1 68 6f be 56 1e 42 be ed 9a f7 bd
       -0.08739637 -0.23379804 -0.18956885 -0.120900966
000310 d2 8e 1f be be 94 9b 3c 04 c0 ed 3a fd d8 15 be
       -0.15581825 0.018991824 0.001813889 -0.14633556
000320 69 24 52 be a0 5c 17 bd 2e 86 27 3e a1 28 30 bd
       -0.20521702 -0.03695357 0.16359779 -0.043007497
000330 67 9c ba 3e 80 84 ad 3d f3 8d 7b 3e 5e 60 f8 3e
       0.3644745 0.08472538 0.24565868 0.48511022
000340 65 d2 ae bd 18 bf c0 3d f3 2d 81 3e c1 a9 6b bd
       -0.08536223 0.09411448 0.2523037 -0.057534937
000350 fb 27 35 be fb aa 4b be 96 87 72 be 72 b6 19 3c
       -0.17691033 -0.19889443 -0.23684534 0.009381877
000360 53 aa 9a be da 94 e7 3a 7c 29 69 3c 58 af f7 3c
       -0.30208072 0.0017668263 0.014231082 0.030234978
000370 13 a8 40 3d f9 d7 39 be 69 2b b0 bd 2e f7 57 bd
       0.047035288 -0.18148793 -0.0860203 -0.052725963
000380 cb 90 23 be 78 bb ab 3a b7 a3 c2 bd f0 24 b4 bd
       -0.15973203 0.0013102135 -0.095038824 -0.08796108
000390 45 0e 6e bc 7a bb e7 bc 8c 28 93 3c 73 de e6 bc
       -0.014529769 -0.028287638 0.01796367 -0.028182244
0003a0 0a 19 94 3e bb 07 a2 3e bc d6 a5 bd 79 be b3 3d
       0.28925353 0.31646523 -0.08097598 0.08776564
0003b0 98 02 10 bb 2c ff bd 3d 5f f0 b7 bd 35 7a 75 3e
       -0.0021974202 0.09277186 -0.08981394 0.239724
0003c0 37 c4 ef 3e c4 4a 17 3f 87 51 b4 bd 50 b7 28 3d
       0.46829388 0.5909846 -0.088046126 0.041190445
0003d0 a5 0d 6a 3e d8 29 f0 be c3 8c bf be d7 61 b6 be
       0.22856767 -0.46906924 -0.3741208 -0.3562152
0003e0 35 2b 07 be 3d 32 6b bd 8c 65 86 3e 6b fe d0 be
       -0.13200076 -0.057420958 0.2624935 -0.40819106
0003f0 c7 27 ee 3d 4c 36 97 bb 04 1c a8 bc f3 0d 06 bd
       0.11628681 -0.004614627 -0.020521171 -0.032728147

RNN.weight_hh_l0 f4 [128, 128]
000000 bf cd 71 3c 1f 5d 78 3d 04 5b e2 3c da 00 5c ba
       0.014758526 0.060635682 0.02763129 -0.0008392461
000010 c1 38 aa 3d ff a4 26 bd 60 15 44 bd 06 df 41 bd
       0.08311606 -0.040684696 -0.047871947 -0.047331832
000020 61 7a 0f 3b d8 16 d0 bc e9 a6 18 3d 76 35 a2 3d
       0.0021893012 -0.025401518 0.037268553 0.07920353
000030 e7 b8 4d bd b2 07 82 bd 5c 5e 25 3d 00 ba 68 bc
       -0.050225165 -0.06349124 0.04037319 -0.014204502
000040 b2 00 04 bd c8 65 8d bc 93 85 6d bd fe fa 41 bd
       -0.032227226 -0.017260447 -0.057988714 -0.047358505
000050 b2 98 19 3d 61 b9 ee bc f1 e3 19 3c 79 52 31 3c
       0.037499137 -0.02914113 0.009392724 0.010822886
000060 06 10 43 bd a9 36 e0 bc 68 78 d1 3c 7a c0 b2 3d
       -0.047622703 -0.027369814 0.02557011 0.08728118
000070 72 d7 8b 3d b7 9e 6f bd d7 0a ab bd be 14 35 bc
       0.06828202 -0.05850097 -0.08351677 -0.011052309
000080 75 91 07 bd 35 3c c2 3d fe 33 32 3d d4 f1 6f bd
       -0.033097703 0.0948414 0.043506615 -0.058580235
000090 72 3b f5 3c 0f 16 22 3d 65 c8 98 3d db 16 ed 3d
       0.029935572 0.039571818 0.07460097 0.11576625
0000a0 ac 88 3a 3d cd 0e 9d 3d 7e 71 c4 bc d6 4a 97 3d
       0.045540497 0.07668839 -0.023979899 0.07387321
0000b0 22 60 06 3d c9 e7 1d 3d 5e 8e 40 be 4a ef 0b 3d
       0.032806523 0.038551126 -0.18804309 0.03416375
0000c0 7a 92 f1 bc 4f 82 ae 3c 60 f7 06 3c 19 b4 a1 bd
       -0.02948879 0.02130237 0.00823769 -0.07895679
0000d0 f1 6f b0 bd e7 67 f5 3d 97 f9 94 3d 77 20 f3 bc
       -0.08615101 0.119827084 0.07274168 -0.029678566
0000e0 a9 b3 82 bd d3 28 8b bc f3 ac b0 bc 9a 79 bf 3d
       -0.06381924 -0.01698724 -0.021566844 0.093493655
0000f0 4a 89 a4 3c b4 b3 85 3d d3 74 77 3d 84 d3 07 bd
       0.020084996 0.06528416 0.060414147 -0.0331607
000100 6d d5 aa bd 4b 35 bf bc 43 c5 97 bc 10 46 b7 3c
       -0.08341489 -0.023340842 -0.018526679 0.022372276
000110 35 73 57 3d 95 e4 71 bd 56 8f 02 3d f1 db ab 3c
       0.052600104 -0.059055883 0.031874977 0.0209789
000120 a1 3c 15 3d 8c 56 80 3d e5 3e 1a be 87 8b 3d 3d
       0.036434773 0.062665075 -0.15063055 0.04627564
000130 f7 d4 8b 3d c8 b9 a9 3b d0 fb 06 3c 13 c6 ab 3d
       0.06827729 0.0051796176 0.008238748 0.08387389
000140 7b db cf bd 62 db 69 3d c8 55 cd 3d bc 5c 16 3c
       -0.101492845 0.057093985 0.10026127 0.009177383
000150 ed b3 47 3d f6 bc ff bc 5c c3 1c bd 14 d5 91 bd
       0.048755575 -0.031218033 -0.038272247 -0.071207196
000160 3a 07 72 bd 0b 5a ec 3c ec 4a 19 bd 3b 31 c3 ba
       -0.059088923 0.02885153 -0.037424967 -0.0014891991
000170 51 29 a4 3d 89 bf 85 bd e3 76 d3 3d cc 11 03 3d
       0.08015693 -0.06530673 0.1032541 0.031999394
000180 9d f8 19 3d 79 c3 81 3d 19 f5 c2 3c c0 35 9b 3c
       0.03759061 0.063361116 0.023798512 0.018946528
000190 18 21 54 bc 2f 30 ca 3c 9e 95 95 bd 7e dd 06 bd
       -0.012947343 0.024681179 -0.07303928 -0.032926075
0001a0 6a 14 90 bb ef 95 e2 bd 41 06 d3 bd b4 cb 17 bc
       -0.004396965 -0.11063754 -0.10303927 -0.009264875
0001b0 53 79 87 3c b2 53 6e 3c 2e f8 d1 3d 9e 68 98 3d
       0.016537344 0.014546322 0.10252415 0.07441829
0001c0 84 5a eb 3c 98 d5 fc bd df c0 53 3d 23 69 70 3d
       0.028729685 -0.12345427 0.051697608 0.058694016
0001d0 ad 1d c3 3c 86 49 de bb 3a 75 a2 3d 96 49 91 3d
       0.023817861 -0.006783667 0.079325154 0.070941135
0001e0 8c 80 b8 bd 75 56 3e 3c d8 bc 9a bd 97 76 d3 3d
       -0.09008893 0.011617293 -0.0755555 0.103253536
0001f0 30 d8 70 3b 48 33 69 bd 8f 49 d0 3c d0 b5 86 3d
       0.0036749952 -0.05693367 0.0254257 0.06577647
000200 e6 e2 3d 3c 59 d1 ae bd 78 d2 48 bd 9a 71 20 bd
       0.011589741 -0.08536024 -0.049028844 -0.03917084
000210 0c 09 df bd 6e 19 5b bd dc a0 ef bc 74 5c 79 3d
       -0.108903974 -0.05349105 -0.029251508 0.060879186
000220 39 88 9a bd 6c b1 a6 3d 71 d6 17 bd 6a 80 9f 3c
       -0.07545514 0.08139309 -0.03706974 0.019470412
000230 fd 79 19 3d 9e c8 a1 bd d3 49 2b bd 32 58 2e bd
       0.037469853 -0.07899593 -0.04181845 -0.04256458
000240 1b 54 08 be 73 bf e8 3c 96 a6 48 3d f4 24 22 be
       -0.13313334 0.028411603 0.048986994 -0.15834409
000250 37 d9 14 bd 9f 3f dd 3d 9b bb f6 3c 6a b4 94 3d
       -0.036339965 0.108031504 0.030118754 0.07260974
000260 af 88 df bd fe 18 87 bc 92 e8 c0 bc 31 e7 17 3e
       -0.10914742 -0.01649141 -0.023548398 0.14834286
000270 41 f7 aa 3d d4 9e cb 3c de 89 95 3c 04 7c e2 3b
       0.08347941 0.024856009 0.018254217 0.0069117565
000280 87 db af 3d 4f 51 18 3d d2 8a 61 bc 4f cc 98 bb
       0.085867934 0.037186917 -0.0137660075 -0.0046630274
000290 48 8a 05 bd c0 cb c7 3d 0d 2b d8 3b bb 0d 13 bd
       -0.03260258 0.09755659 0.006596929 -0.035901766
0002a0 63 65 8e bd 98 43 0a 3d 04 a2 c7 bc b1 43 13 bb
       -0.06952932 0.03375587 -0.024369247 -0.0022470767
0002b0 ab a2 41 3d a7 78 17 3d ec 33 75 3d 73 e6 50 3d
       0.047274273 0.036980297 0.05986397 0.051001024
0002c0 47 89 fd 3a d5 be 62 3d b4 74 f0 3a ee 43 98 bd
       0.001934328 0.055357773 0.0018345327 -0.074348316
0002d0 44 53 8b 3a 87 12 21 3c 32 39 92 3d 99 86 01 bd
       0.0010629673 0.009831077 0.071398154 -0.031622503
0002e0 a7 80 02 3d 36 53 82 bd f4 09 c9 bd fd b3 db bb
       0.031860974 -0.063635275 -0.098163515 -0.006704806
0002f0 56 51 a9 bd 32 42 30 3d 5c e7 3f 3c 3f ef b3 3d
       -0.08267467 0.04303188 0.011712875 0.08785867
000300 ad e0 0d be 51 8e 35 3d ea 8c b4 3d 7b 57 b6 3d
       -0.13855238 0.044325177 0.0881594 0.08903404
000310 8d 31 b7 3c 67 26 a9 bd e1 22 31 bd b3 44 1a bc
       0.022362495 -0.08259278 -0.043246154 -0.009415793
000320 14 b2 fb 3a 37 bb 06 3d 68 77 3b 3d a2 8e f6 3c
       0.0019202852 0.032893386 0.04576817 0.03009731
000330 74 fa aa 3d bd 64 fd bc d7 a1 5e 3d c8 e3 dd bc
       0.083485514 -0.030931825 0.05435356 -0.027086154
000340 cf f2 cb bb 8a c6 a2 3a 48 e5 66 3d a5 c0 a7 bd
       -0.0062240134 0.0012418788 0.056371003 -0.08191041
000350 64 98 a5 bd 68 0c f1 3c bd f7 95 bd fb 34 f9 3d
       -0.08085707 0.029424861 -0.07322643 0.12168308
000360 d0 68 80 3d 20 55 7d 3d 2a 00 80 3c 5a 04 62 bd
       0.062699914 0.06184876 0.015625078 -0.05517993
000370 f9 f8 dd 3d 62 a4 cb bd f7 af 53 3d 45 ce 28 bc
       0.108385034 -0.09943463 0.051681485 -0.010303085
000380 81 23 4b 3d 9a 05 e9 3c 7d 20 30 3d fa 15 94 3c
       0.049594406 0.028445054 0.042999733 0.018076885
000390 2e ad b8 3d 25 fa b5 3d ae f6 b9 3d 79 3e 92 3c
       0.090174064 0.08885602 0.090802535 0.017852055
0003a0 aa 15 d0 3d 46 ef eb bc db 6c c8 bd 03 63 af bd
       0.10160382 -0.028800618 -0.097863875 -0.08563807
0003b0 8b f3 97 3c 2f 12 a8 bd 23 e2 a9 3b da cd a1 bc
       0.018548748 -0.08206593 0.0051844283 -0.019751478
0003c0 88 79 84 3d 79 8f c2 bd 31 e3 20 bb 6a 67 01 3d
       0.06468493 -0.095000215 -0.002454948 0.031592764
0003d0 2d f6 0a bd 34 94 5d 3c 98 ac aa 3c 72 f2 88 3d
       -0.033926178 0.013524104 0.020834252 0.06686868
0003e0 75 3f 52 bc 2c bf 99 3d 04 db 4b 3d 4f b6 42 bd
       -0.012832512 0.07507166 0.049769416 -0.047537144
0003f0 bc 16 43 bc 7e f2 10 3d 98 c1 51 3c 70 50 a9 bc
       -0.011907276 0.03538751 0.012802504 -0.020668238

RNN.bias_ih_l0 f4 [128]
000000 e1 00 e9 bc 82 f5 bf 3d 51 6f af 3c db 2f 8f bd
       -0.028442802 0.09372999 0.021415384 -0.069915496
000010 29 aa 67 bd 04 11 50 3d 86 3e 6d bd b7 a5 cc 3b
       -0.05655876 0.050797477 -0.057920955 0.0062453407
000020 f2 fc 93 bd 88 98 81 3c b0 6b 5b 3d 34 1d 1c 3d
       -0.0722598 0.015819803 0.053569496 0.038113788
000030 0f 2f 32 bc e2 e5 91 bd e3 1c fb bc 67 2b 10 3c
       -0.010875477 -0.07123925 -0.030653423 0.00879941
000040 24 00 8b bc a9 54 4e 3d 50 ca 3e 3d b3 90 1c bd
       -0.01696784 0.050373707 0.04657966 -0.038223933
000050 18 63 2a bd 5b ff 87 3c a6 70 38 3d e7 82 80 bd
       -0.04159841 0.016601255 0.045029305 -0.06274968
000060 16 73 f1 bc 63 29 39 bd 0a 3a 9b 3c c0 33 41 bc
       -0.029473823 -0.045205485 0.018948574 -0.011792123
000070 02 81 00 3d 85 be a9 bd f0 45 49 3d 3a 0c ca bb
       0.03137303 -0.08288292 0.049138963 -0.0061660083
000080 39 8d 3b bc 5e a9 e8 3c e8 4a cf ba 6a da d6 bb
       -0.011447244 0.028401073 -0.001581517 -0.0065567987
000090 03 35 6b 3c 04 50 96 bd df 95 9d bc 5a 26 3c bc
       0.014355901 -0.073394805 -0.019236503 -0.011483753
0000a0 f6 81 0c 3d 9a 24 ef 3c e7 da aa 3d ff cb 96 3d
       0.034303628 0.029192258 0.083425336 0.07363128
0000b0 b3 54 00 bd e1 9e 80 3d 62 f4 0d bd 22 e9 2c ba
       -0.031330775 0.06280304 -0.03465689 -0.0006596019
0000c0 8e 0e 5c bd 3a 63 c8 3c f7 31 85 bc e8 8c 68 3d
       -0.053724818 0.024461377 -0.016259177 0.056775004
0000d0 9e b0 f0 3c f5 f3 0e bd 44 71 cb 3d 89 36 cc 3c
       0.029381093 -0.034900624 0.09933713 0.024928348
0000e0 f7 c9 8c bc c0 f1 23 3d a9 b5 a1 bd d9 be dd 3d
       -0.017186148 0.040025473 -0.07895977 0.10827417
0000f0 c6 16 41 bd 8b 10 a0 ba 40 0a d6 3d 4c 4a 3a 3d
       -0.04714086 -0.0012211961 0.10451174 0.04548101
000100 ce 11 c8 3b ce c3 a1 3c 9d f2 08 3d 28 d9 35 bd
       0.006105638 0.019746687 0.0334345 -0.04439655
000110 2b ad 2c bd 67 48 9f bd 36 22 e4 3d 6d 17 96 bd
       -0.042157333 -0.077774815 0.11139338 -0.07328687
000120 8a f2 93 3d 3f ca 13 3d 66 94 73 3b ce 00 50 3d
       0.07223995 0.03608155 0.003716731 0.050782017
000130 9d 83 ac bb e2 6f 87 3d cf 61 78 bd 33 db c4 bd
       -0.005264713 0.06613137 -0.060640153 -0.096121214
000140 74 00 7f 3c 4c 0b fd bc bd 85 9f bd ab b8 15 bc
       0.015564073 -0.030889176 -0.077891804 -0.009138267
000150 e2 15 64 3d fe 3a 8d 3d 00 de 2a 3d b2 2b c4 3d
       0.05568493 0.068960175 0.041715622 0.09578647
000160 a8 c1 a3 3c 95 6a 20 3d 8d 3d 53 bc a1 7f 7d 3c
       0.019989803 0.039164145 -0.012893093 0.015472324
000170 20 ce 64 bd 98 18 b7 bb 75 23 67 3d 79 93 96 bc
       -0.05586064 -0.0055876486 0.0564303 -0.018380867
000180 03 c6 4d bd 82 04 af 3c 45 1d 44 3d 31 ea ca 3d
       -0.050237667 0.021364454 0.047879476 0.0990795
000190 b6 79 d5 3d 56 4f 07 bd 43 e2 ff 3c f2 0c 9c 3a
       0.10423605 -0.033034645 0.03123582 0.0011905713
0001a0 b5 1f 8f bd ce c1 3e bd 16 84 ac 3d 85 3f ea bb
       -0.069884695 -0.046571545 0.08423631 -0.0071486854
0001b0 62 52 53 bd b9 bf b9 bd 67 3f 3e bc 32 1c a5 bc
       -0.05159224 -0.09069771 -0.011611796 -0.020155046
0001c0 76 8c 11 bc e9 a2 39 3d aa a9 13 bd 11 7b cc 3c
       -0.008883586 0.04532138 -0.036050476 0.024961026
0001d0 ea 3a 8f 3b 64 cc 01 3d da 8f ca 3d a3 80 0a 3b
       0.004371037 0.031689063 0.09890719 0.0021133802
0001e0 6c 02 50 3c b3 0b 8f bc 93 67 eb bc ba 82 28 3d
       0.01269589 -0.017461633 -0.028735911 0.041140296
0001f0 85 06 e6 bd ac 5c 8f 3c ad 34 ba 3c 10 2b 3b 3c
       -0.11231712 0.017500244 0.022730196 0.011423841

RNN.bias_hh_l0 f4 [128]
000000 72 1f e7 3c 94 4c ca 3d aa db 80 bd bf 5c 10 bd
       0.028213236 0.09877887 -0.062918976 -0.0352447
000010 09 d6 8f bd c5 24 b4 3d 6a 66 40 bd fb c8 7d bc
       -0.07023246 0.08796076 -0.04697267 -0.015489812
000020 c9 99 0b bd 8a f1 58 bd 7c de 9f 3d 19 b6 2c 3d
       -0.034082208 -0.052964725 0.078061074 0.04216585
000030 e7 1c 12 bd 3c 3e 04 3d 9d be 20 3c 1c 54 04 bd
       -0.035672095 0.032285914 0.009811071 -0.032306775
000040 80 ba ec 3c 44 e2 8c 3b bf 9d 6e bd 49 c3 43 bd
       0.028897524 0.004299434 -0.058255907 -0.04779366
000050 1d 62 fb 3c c9 9a 57 3d d4 17 80 bd 1c 7b 1e 3d
       0.030686432 0.05263785 -0.06254545 0.038691625
000060 f9 47 a2 bd 3c 46 32 3d e4 ab 74 bc ae 4c 2e bd
       -0.07923884 0.043524012 -0.01493356 -0.042553596
000070 f2 f4 f5 3d e9 a4 ff 3c 96 f1 4e 3d 22 20 b2 bc
       0.1200961 0.031206565 0.050523363 -0.021743838
000080 c2 58 77 3d 77 05 3a 3d 28 c5 89 3c 34 46 18 bd
       0.06038738 0.045415368 0.016817644 -0.037176326
000090 49 bf 51 ba bd ac 4b bd 1c 9b 9c bb d4 88 7f 3d
       -0.0008001221 -0.049725283 -0.0047792327 0.06238635
0000a0 78 3a 2d bc e9 f2 7d bb 37 31 2a 3d 2b 3a 15 bd
       -0.010573022 -0.0038749522 0.04155084 -0.036432426
0000b0 5e 42 f6 bc 79 9a ac 3d 4a 2f 6c bc 2b 05 5a 3d
       -0.030060943 0.08427901 -0.0144155715 0.053227585
0000c0 72 4b 40 bc 24 73 fa 3d 87 3a c2 bd b4 6b af 3d
       -0.011736738 0.122289926 -0.094838195 0.085654646
0000d0 a3 fc ce 3d 61 cf bc 3d 37 8f 40 3c bc 98 a3 bd
       0.101067804 0.09219242 0.011752895 -0.07988116
0000e0 36 8d 89 3d e1 77 8f 3b f8 26 9d bd da 3b 16 bd
       0.06716387 0.0043783044 -0.07673448 -0.036678173
0000f0 d0 8f d9 bd d7 a9 32 bd 78 15 c9 3d 62 1b 0b bd
       -0.10623133 -0.043619003 0.09818548 -0.03396166
000100 3e 50 e8 3c 7e 52 df 3c 2b 09 95 bb f5 c8 05 bd
       0.028358575 0.027261015 -0.004548212 -0.03266235
000110 cd f7 22 bd 21 75 19 bd de b3 84 3c 0c c7 34 bc
       -0.039787102 -0.03746522 0.016199049 -0.011033785
000120 20 c8 40 bc d9 f4 8b 3d fa 3b 3d 3d 91 ed 86 3d
       -0.0117664635 0.0683381 0.046199776 0.06588281
000130 80 f2 94 3d 6f d2 95 3c d1 ac 3a 3d a2 ee 0c 3d
       0.07272816 0.01828882 0.045574967 0.034407265
000140 b2 11 b6 3b c7 66 8a 3d 06 e7 95 bd db ab a4 bd
       0.0055563087 0.067578845 -0.07319455 -0.08040591
000150 89 7b b7 bb 84 f3 f3 3b 9b 08 29 3c 0b c0 e4 3d
       -0.0055994433 0.007444801 0.010316993 0.11169442
000160 d3 4e a1 bd 16 94 0b 3d 78 ea 21 bd 4b 0d 81 bc
       -0.07876363 0.034076773 -0.039530247 -0.015753409
000170 54 a5 65 3d 0f e8 9e 3d fe 48 e2 3c cc 06 01 3d
       0.056065872 0.077591054 0.027622696 0.031500623
000180 00 23 18 bb a8 6f 92 3a 2c 30 4a bd 5b 89 9c 3d
       -0.002321422 0.0011172192 -0.049362347 0.07643386
000190 95 8e 82 3d b2 a4 9f 3d d6 81 77 bd 42 d7 73 3c
       0.063748516 0.07795085 -0.060426556 0.014882864
0001a0 88 ff 4c 3d b2 19 0e bb c1 b6 89 3d 78 5f 69 bd
       0.05004838 -0.0021682796 0.06724311 -0.05697581
0001b0 14 42 b1 bc 6a 7c 2f bc 32 56 dd bc da 65 1c bd
       -0.021637954 -0.010710815 -0.02701864 -0.03818307
0001c0 fb ad 58 3d fd cc 9d bc 67 91 be 3d 04 39 33 3d
       0.052900296 -0.019262785 0.09305077 0.043755546
0001d0 dc 9a 1b bd a1 04 0a bd 0b 2d 0c bb fd a2 58 3b
       -0.037989482 -0.03369582 -0.0021389152 0.0033056133
0001e0 70 79 73 bd 65 84 12 3d 3f 54 26 bc ed 6c 4b 3d
       -0.059441984 0.035770793 -0.010151922 0.049664427
0001f0 d5 1b 0b bd 4f 5a 32 3b 65 34 1d bd c2 95 cf bd
       -0.03396209 0.0027214473 -0.038380045 -0.10135986

actor.weight f4 [3, 128]
000000 a3 ff 95 3e 22 30 26 3f 26 74 c2 3e 1c d2 bd be
       0.29296598 0.64917195 0.3797924 -0.37074363
000010 b7 07 57 3e 55 93 8c be 30 f8 02 3c f0 4f 97 be
       0.20999037 -0.27456155 0.007993743 -0.29553175
000020 ef dd 8d bd 1a e4 6d be ac 90 2e bf c0 f0 6c be
       -0.06927096 -0.23231545 -0.681895 -0.23138714
000030 43 a8 08 3f 17 f8 ed bc 38 5b 0e 3f a0 d8 b6 be
       0.53381747 -0.029048963 0.5560794 -0.35712147
000040 f6 9a b6 be ae 23 80 be ac 77 04 3f ea 6f 1a bf
       -0.356651 -0.2502722 0.51745105 -0.6032702
000050 b9 d2 c4 3d 3a 33 0e 3e f0 e1 db 3e 81 2f aa 3c
       0.09610505 0.13886729 0.42945814 0.020774605
000060 eb 3c a6 3d 81 63 26 3e a5 11 4f be 07 a9 18 be
       0.08117088 0.16248895 -0.20221575 -0.14908229
000070 6a 05 88 3e 9b 3d 4a be 18 14 48 be d5 47 1d be
       0.2656663 -0.19750063 -0.19538915 -0.15359433
000080 ee 11 10 3d cd 63 be 3e 8c 0b 93 3e d4 3e ad bd
       0.03517335 0.37185517 0.28719747 -0.08459249
000090 c6 6a e0 3e 7d e5 18 3e c1 8a 3f 3c 2f 5a ee 3e
       0.43831462 0.14931293 0.011690796 0.4655318
0000a0 6d 84 d3 bd ab 0d 9c 3e a6 45 be 3e 72 a8 b8 3d
       -0.103279926 0.30479178 0.37162513 0.090165034
0000b0 20 28 a7 bc cb 51 94 3e 9c a0 3d bd 89 7b c0 3d
       -0.020404875 0.28968653 -0.046295747 0.093985625
0000c0 fe 58 9a 3e 47 00 87 3e 23 31 89 be 75 f4 1d be
       0.3014602 0.263674 -0.267953 -0.15425284
0000d0 25 9f fe 3e 5b 89 b3 3e b7 74 03 3f 5d 4a 62 bc
       0.49730793 0.3506573 0.5134997 -0.013811675
0000e0 22 4d 83 bc 99 69 a4 be d5 3b e6 bd 12 d7 89 be
       -0.01602799 -0.32111815 -0.11241881 -0.26921898
0000f0 20 23 dd 3d 52 30 3f 3e 11 d9 1c 3f f6 75 d2 bd
       0.10797715 0.18670776 0.6126872 -0.102764055
000100 df 24 f5 3c 83 61 1b be 09 3e 6b 3e 60 13 a6 3d
       0.029924808 -0.15173917 0.22972883 0.08109164
000110 60 15 cf 3d bd 63 fe bd fe e4 4a bc cd 11 b5 bd
       0.10111499 -0.12421367 -0.012383698 -0.08841286
000120 bd 5a 9c 3e 0a e4 a3 bc 2d 6d e2 3d 91 b3 b2 bc
       0.30537978 -0.020006198 0.1105598 -0.02181414
000130 3f 70 14 3f 25 04 09 be b1 1d 8e 3d b1 82 88 be
       0.57983774 -0.13380487 0.06939257 -0.2666221
000140 ed ee 35 3e ea d7 db 3e 87 aa b2 bd ce 23 be bd
       0.17766924 0.42938167 -0.08723932 -0.09284173
000150 be b2 a0 3e 18 f9 f2 3e d8 63 52 3e 0b 4d c6 3d
       0.3138637 0.47455668 0.205459 0.096826635
000160 15 27 99 be 33 3b 9c bd 17 1d 20 3e 6b 1e b1 3e
       -0.2991263 -0.07628479 0.15636097 0.3459352
000170 eb e2 8d be 09 1f 8a be 9a 5c 71 3d 5a 65 00 3e
       -0.27712187 -0.26976803 0.058926202 0.12538663
000180 ac 21 a9 3e 1c cd 09 bf dd fc ec bd 48 ce 01 3f
       0.33033502 -0.538286 -0.11571667 0.50705385
000190 26 5a d0 3e 62 c9 93 3e 5f 30 bb 3d 0f 3f 19 be
       0.40693778 0.2886458 0.091400854 -0.14965461
0001a0 8b 8b 12 3e 1e ba 25 3d e1 f3 b0 3e 12 3e 1f be
       0.14311044 0.0404607 0.34561065 -0.15551022
0001b0 25 13 61 3e 62 2a 01 bc c6 63 99 3e 74 e3 15 3f
       0.2197996 -0.00788364 0.29958934 0.5855019
0001c0 8e 19 6e bb 66 53 2a 3f da e9 14 3e 0e f2 73 be
       -0.003633115 0.66533506 0.14542332 -0.23822805
0001d0 23 f9 66 be a0 92 e3 3d d9 31 b1 3e 84 90 63 be
       -0.22555976 0.11111951 0.34608343 -0.22223097
0001e0 d3 c6 d4 bc bf 08 4f 3e f5 32 27 bd da a4 2e 3d
       -0.025973713 0.2021818 -0.04082008 0.042637683
0001f0 36 a9 6d 3d 9f 0f 9f 3e 1d 6b 8e be 02 30 c3 bd
       0.0580227 0.31066605 -0.27816096 -0.09530641
000200 16 86 07 bd 9f fe 9a be 12 70 13 be dc c6 07 3f
       -0.03308686 -0.30272385 -0.1439822 0.5303781
000210 a4 6e b7 be f3 b7 0b be 60 16 8c bd 94 53 b1 3e
       -0.358266 -0.1364439 -0.06840205 0.34634078
000220 c4 1e d9 3e ad 91 f1 3e a7 2d 27 be a4 5b 03 be
       0.42406285 0.47181454 -0.16326009 -0.12827927
000230 a8 ae ae be ac 56 64 3e 6e 1f a4 be ea 88 cf 3e
       -0.34117627 0.22298688 -0.3205523 0.40534145
000240 4a 8e 65 3e 5c a8 38 3e fe b5 3c bd d6 4d 83 3e
       0.2241756 0.18032974 -0.046072 0.25645322
000250 90 4e 40 3e 3e 97 e0 be fe 7a 02 be 70 18 66 3e
       0.18779969 -0.4386539 -0.1274223 0.2247026
000260 e1 7f 98 be c0 81 45 be e9 15 86 3e cb 0a 82 bd
       -0.29785064 -0.19287777 0.2618859 -0.06349715
000270 d4 67 7c bd 14 bd 58 3d 21 75 d5 ba 8e a9 88 3e
       -0.061622456 0.052914694 -0.0016285517 0.2669186
000280 d5 6c 59 3e a3 65 9a bd ac 33 87 be 48 40 32 3e
       0.21232922 -0.07538917 -0.2640661 0.17407334
000290 fd 2d cc be a9 70 71 bd 3a 18 33 3e 2d f9 07 be
       -0.39878836 -0.05894533 0.1748971 -0.13278647
0002a0 5e 75 1a 3e f6 6c 94 be a8 3a 9c be 86 5f 09 be
       0.15083835 -0.2898938 -0.305135 -0.13415346
0002b0 f7 b3 01 be c1 b1 d3 be 31 73 8e 3e 77 2d c1 3c
       -0.12666307 -0.41346553 0.2782226 0.02358125
0002c0 ab 97 6e be 97 2c 17 be 04 87 a1 3e cf 08 16 3d
       -0.23300044 -0.14763103 0.3154832 0.036629494
0002d0 b4 15 45 be 22 86 b5 bd 11 02 8b be ad 7c 71 bd
       -0.1924656 -0.088634744 -0.27150014 -0.05895679
0002e0 66 2b 59 3e ee 67 92 3e 72 cf 54 be 69 93 fb 3d
       0.21207961 0.28594917 -0.20782259 0.12283976
0002f0 8a ed f0 bd 00 2b d3 be 12 1f 8d be c1 70 97 3e
       -0.11764057 -0.41243744 -0.27562767 0.29578212
000300 e7 94 a1 3c 41 53 9a 3d 2b c8 82 be 52 27 fb 3d
       0.019724322 0.07535411 -0.2554334 0.12263359
000310 c6 02 30 3d 49 ca 6e bd d5 77 98 bd a9 bc 37 3d
       0.042971395 -0.058298383 -0.07444731 0.044857655
000320 04 84 20 3e 17 45 63 be c3 d0 d7 bd 11 55 3c bd
       0.1567536 -0.22194324 -0.10537865 -0.045979563
000330 b4 79 0c bf 01 cf 50 be b6 65 06 be 90 40 6f bc
       -0.54873204 -0.20391466 -0.13124737 -0.014602795
000340 6d 41 e2 bc 81 85 a0 be 1e 8b 4b 3e 9c 7f 22 3d
       -0.027619088 -0.31351855 0.19877288 0.03967248
000350 45 38 d3 be 04 0b b2 be 95 ed 7f be f7 f5 74 bd
       -0.41253868 -0.3477403 -0.24992974 -0.059804883
000360 1f ec 4e 3d 10 3d 04 be ab 53 3d 3d f9 cc 66 be
       0.05051815 -0.12913918 0.04622237 -0.22539128
000370 27 f9 45 3d 0a 4d 87 3e 67 26 8f 3e a4 16 2f be
       0.048333313 0.26425964 0.27958986 -0.1709848
000380 eb a2 97 bc ae 40 01 3c 49 7f 69 bd e6 7f 0e be
       -0.018510303 0.007888956 -0.057006154 -0.13915977
000390 1b 4b fe be b8 d2 dc be 9d 98 0e 3e 6c 15 a0 3e
       -0.49666676 -0.43129516 0.13925405 0.31266344
0003a0 20 22 5e bd 2d b3 4b 3c b6 76 0d bf 18 5c 93 3e
       -0.054231763 0.012432856 -0.55259264 0.287812
0003b0 c4 4d b6 3c 23 fc 4c 3d 31 d0 0d bf b2 0e 3c be
       0.022253878 0.050045144 -0.553958 -0.18364981
0003c0 f4 19 4b 3e 72 ee d1 be 18 68 05 be 64 d1 bb 3d
       0.19834119 -0.41002232 -0.1302799 0.091707975
0003d0 15 c8 c6 bd dd b6 74 be 78 fa 17 be a1 8e d8 be
       -0.09706131 -0.23897882 -0.1484164 -0.42296317
0003e0 a2 d3 d2 3e a2 ef 05 bf 47 bc 2a be fb e7 0d bd
       0.41177088 -0.52318776 -0.16673385 -0.034645062
0003f0 3a c5 1c 3d c9 ab 92 3d f4 53 c1 3e c9 e8 84 3e
       0.038274027 0.07161672 0.37759364 0.2595885

actor.bias f4 [3]
000000 c0 11 46 3d 90 57 3d bc 61 b5 47 bd
       0.04835677 -0.011556521 -0.04875696

critic.weight f4 [1, 128]
000000 fc 1f 14 be d8 93 a5 bd 45 9d a7 3c d4 d0 65 3c
       -0.14465326 -0.080848396 0.020460734 0.014026839
000010 53 63 b0 bd 6f 36 1a 3e 89 e8 bd 3d 9d 6b 00 be
       -0.086126946 0.15059827 0.09272868 -0.12541051
000020 50 70 f4 3d 5d c7 73 be 95 86 89 3c 76 93 25 bc
       0.119354844 -0.2380652 0.016787807 -0.010105958
000030 23 30 44 be 9d 84 a0 bb 31 05 52 3e a7 be 96 3d
       -0.19158988 -0.0048986212 0.20509793 0.07360583
000040 35 09 e5 bd fc 77 8f 3d 59 9a 42 bc 25 ab 9a 3e
       -0.11183397 0.07005307 -0.01187762 0.30208698
000050 b3 fb 74 3d aa 37 ac 3e e6 7a 08 be 11 26 b2 ba
       0.05981035 0.33636218 -0.13328132 -0.0013591667
000060 06 48 1d be 6d 9f e2 3d ca dc 08 3c 14 e0 51 bd
       -0.15359506 0.11065564 0.008353421 -0.05123909
000070 4d 2a 04 3e c0 3b 90 3d 36 e8 d4 bc 74 c9 f6 3d
       0.12906761 0.070426464 -0.025989633 0.12050143
000080 a4 7a 5a bc 8a 98 ce bc 89 c9 a0 3d 47 45 21 bd
       -0.013334904 -0.02521922 0.0785094 -0.03937271
000090 08 59 cc 3c aa 6e 04 bd 07 ff 95 bc e4 c3 fc 3d
       0.024944797 -0.0323321 -0.018310083 0.12342051
0000a0 c0 67 6e 3d 72 91 aa bd 4d fc 98 3d df 4a 8b 3a
       0.058204412 -0.08328523 0.074699976 0.0010627172
0000b0 6f 43 2c 3d 46 b3 bc 3c 71 be 46 3d ff 81 0f 3e
       0.042056497 0.023034703 0.048521463 0.14014433
0000c0 17 50 21 3e 14 64 55 3e 5b f6 1b 3e 42 95 25 3e
       0.15753208 0.20838958 0.15230696 0.16170219
0000d0 cf 70 55 3d 39 19 e4 bd 95 50 03 be b5 ce 0a bb
       0.052109536 -0.11137623 -0.12823708 -0.0021180336
0000e0 14 b4 0c 3e 64 5d 4c be 55 f2 08 3e 11 e7 0a 3e
       0.1374057 -0.199575 0.13373692 0.13564707
0000f0 9d 65 ac 3d 14 3f a2 3c 65 38 3c 3d c1 0c 23 be
       0.08417819 0.019805469 0.04595222 -0.15922834
000100 ae d5 b5 3e 81 52 36 bc ff ac a1 bd a4 32 27 bc
       0.35514587 -0.011128069 -0.078943245 -0.010204945
000110 d0 6b 5d 3e e2 ca 65 be 60 92 b1 3e 4b 33 8e bd
       0.21623158 -0.22440675 0.34681988 -0.06943377
000120 4a 20 f8 bd c1 7e 56 bd 96 c6 8a 3e 25 5b 14 3e
       -0.12115534 -0.052366976 0.27104634 0.14487894
000130 07 be aa 3d d5 d2 ac 3e b6 97 50 3e d2 99 69 bd
       0.08337026 0.33754602 0.20370373 -0.05703146
000140 42 3e ee 3d e8 81 9c 3c 22 b3 c4 bd 11 4b 20 bb
       0.116329685 0.019104913 -0.09604479 -0.0024458806
000150 e6 ad 70 3d 74 9c 9b 3c fb 4e 2b 3d 4e ed 80 3e
       0.058759592 0.018995501 0.04182337 0.2518105
000160 7e 4c e7 bd 3e ec 5b 3d 70 9f 78 be 76 bc 10 be
       -0.112938866 0.053692095 -0.2427957 -0.14134392
000170 bd db e1 3c dc f2 f6 bd 95 d7 1d bd 35 b7 25 bd
       0.0275706 -0.120580405 -0.038535673 -0.040457923
000180 71 2a 71 3e 9c d0 4e bd ea 7e 96 bd 12 bb e6 bc
       0.23551346 -0.050491914 -0.07348426 -0.028165374
000190 7d 0d f1 3b 46 54 f7 bc f6 fc f4 bd 87 a0 3d 3e
       0.0073563443 -0.030191552 -0.11962311 0.18518268
0001a0 9e 6c f0 3d 68 25 ce 3c 59 90 cf 3e 4a b7 9c 3c
       0.11739467 0.025164321 0.40539816 0.019130368
0001b0 83 6a 8b 3e 62 ec 06 3d d3 37 8a 3b ff e1 af 3e
       0.272297 0.032940276 0.0042180805 0.3435211
0001c0 ca e7 be 3d db ab 80 3d a3 1d 91 3d 07 56 18 3e
       0.09321554 0.06282779 0.07085731 0.14876567
0001d0 96 a7 c3 3c d7 a3 c3 3b e5 89 ea 3d 8b c6 55 bd
       0.023883622 0.005970459 0.114520825 -0.0521913
0001e0 1e fc 0b 3e 85 61 b3 bd b8 cb 15 3e 58 a7 42 bc
       0.13670394 -0.08758835 0.14628494 -0.011880718
0001f0 88 4f 5e be d7 b6 aa 3c a3 0a 92 3d 92 60 63 3c
       -0.21710026 0.020839138 0.07130935 0.013878005
