W__RNN/W_RNN/md2/v_1/train_iter_0500.pt (torch, 80523 bytes, 8 tensors)

h0 f4 [128]
000000 f8 48 52 3e a4 ee b5 be cf 6f 0e 3f ac d0 0c bf
       0.20535648 -0.3553363 0.55639356 -0.5500591
000010 c8 fa 77 bf a6 bc 1b bf f3 38 a5 3f 73 49 6a be
       -0.96867037 -0.6083473 1.2908005 -0.22879581
000020 c9 f1 e7 3b 3a 8d 50 bf 67 53 92 bf 2e 58 2f c0
       0.0070783836 -0.81465495 -1.1431702 -2.739757
000030 c2 c7 89 3e ae 99 30 3f b6 2e 0d bf ea 6d 87 bd
       0.26910216 0.68984497 -0.551494 -0.06612761
000040 58 26 0a bf db 97 89 bf a7 fe 05 3f 02 7d dc be
       -0.5396476 -1.0749468 0.52341694 -0.43064123
000050 2a 69 27 bf 9a 1a be bf 88 35 9b 3d 42 ab 5b 3f
       -0.6539484 -1.4851868 0.0757857 0.85808194
000060 b2 2d 98 bf d5 3c c4 3e 35 fd aa 3f 6f e7 2c be
       -1.1888945 0.3832766 1.3358523 -0.1688516
000070 ca 64 b5 3f 20 df d6 3e d6 cc 8e 3f 9f d7 f2 3f
       1.4171383 0.41967106 1.1156261 1.8972052
000080 5b c5 29 be 0d b9 55 3d 4e 30 5e 3f ba 5b 8b bf
       -0.16579191 0.05217843 0.8679246 -1.0887368
000090 2e 1e 47 bf 84 2d 0f 3f 75 6b bc be 50 8f 71 bf
       -0.77780426 0.55928826 -0.36800733 -0.943593
0000a0 39 d3 ef be 5e 96 1d bf 8b 72 a3 bf 16 a1 da 3e
       -0.46840838 -0.6155757 -1.2769331 0.42701024
0000b0 f6 ea d0 bf bc dd 9b 3f 2d 17 83 3f bd 2b 1c 3d
       -1.6321704 1.2177043 1.0241448 0.03812765
0000c0 1a 5f bd be df 71 0d 3e d5 22 f3 3e 35 cd 84 bf
       -0.3698662 0.1381297 0.47487512 -1.0375124
0000d0 dc 5b 18 3e c4 d1 8c be 2c b4 78 bf ee 82 6c bf
       0.14878792 -0.27503788 -0.9714992 -0.9238728
0000e0 e0 fa c5 3d 77 fc 9f 3f 4b 7b 6a 3f d7 8e 81 be
       0.09666991 1.2498921 0.9159438 -0.2530429
0000f0 62 f3 9f 3e 21 1b 2b bf c3 e2 88 3f a2 0e bd bf
       0.31240374 -0.6683827 1.0694202 -1.477009
000100 4d 4b 9e bf d8 b9 03 3f c5 87 92 3e bb 86 ac 3f
       -1.236673 0.5145545 0.2861921 1.3478616
000110 6a 15 c5 be ef 2d 20 bf 75 6a 12 be d4 d3 2e 3f
       -0.384929 -0.6257009 -0.14298423 0.68291974
000120 80 46 33 3e 50 21 0c 3f b3 96 b1 3d b1 15 1f 3f
       0.17507362 0.5473833 0.08671322 0.62142473
000130 1c 49 9b bf c1 b4 a8 3f 38 1b 51 3f ab 08 b7 bf
       -1.2131686 1.3180162 0.8168216 -1.429952
000140 d8 f8 47 bf 98 82 01 3f 26 44 06 be c4 36 76 bf
       -0.7811408 0.50589895 -0.13111934 -0.96177316
000150 9c 1c 5a bf 37 73 fd 3f f6 b7 91 3f 4c 2d 0c 3f
       -0.85199904 1.9800786 1.1384265 0.5475662
000160 f5 10 94 3f 42 79 dc bf fa ae 32 bf e9 63 37 bf
       1.1567675 -1.7224505 -0.69798243 -0.71636826
000170 c1 3e e8 3d 0f 4c 4f be 27 56 14 be dd b7 ac 3e
       0.11340094 -0.20243858 -0.1448599 0.33734027
000180 24 c3 98 bf 2d ee 29 bf 53 3c 6f bd 67 b1 c5 be
       -1.1934552 -0.6637905 -0.05840714 -0.3861191
000190 78 89 00 bf 78 b5 48 3f 02 5a c3 bd a7 1d 4f 3e
       -0.5020976 0.784019 -0.09538652 0.20226155
0001a0 69 91 73 3f 00 15 47 3f e9 1d 92 3f a7 20 44 bf
       0.95143753 0.7776642 1.1415378 -0.76612324
0001b0 45 cb 02 40 c2 89 e2 be db 0b 61 3d 39 59 17 be
       2.0436566 -0.44245726 0.054942947 -0.1478013
0001c0 87 ea 34 3d b2 1b be bf 35 c3 97 3f 95 7d 74 bf
       0.044168975 -1.4852202 1.1856447 -0.9550412
0001d0 37 c4 0a 3e 09 d3 ab bf 8f b4 78 bf 44 03 ef 3f
       0.13551413 -1.3423778 -0.9715051 1.8672872
0001e0 0b f0 9f 3d fb 85 b1 bf b4 8f 85 be 4c 73 80 bf
       0.078094564 -1.3869013 -0.260862 -1.0035186
0001f0 42 81 07 c0 d1 99 4b be 48 69 7d 3e 30 45 c2 3f
       -2.1172643 -0.19882895 0.24747193 1.5177364

RNN.weight_ih_l0 f4 [128, 17]
000000 72 90 80 ba 38 48 a7 3d b8 a5 81 bd 9a c8 d8 bc
       -0.0009808673 0.081680715 -0.063304365 -0.026462842
000010 79 ee da bc 2e 48 1d bc 21 e2 b5 3c 88 0d ed 3d
       -0.02672504 -0.0095997285 0.022202553 0.115748465
000020 e2 a8 e3 3d 1f 7b b2 3d 79 2a 2d bd 4d 07 2e bd
       0.11116196 0.0871489 -0.042276833 -0.04248743
000030 d1 8f 96 3c 77 11 4f 3d a8 d4 48 3d be 97 3b bd
       0.018379124 0.050553765 0.04903093 -0.04579901
000040 6b 8a 94 3d be 3f 47 bd 7a f7 81 bd 7d 9f 7f bc
       0.07252964 -0.048644774 -0.063460305 -0.01560199
000050 05 f4 82 bc 77 97 0e 3d 87 88 fb 3d f2 c9 ed 3d
       -0.015985498 0.034812417 0.122819 0.11610784
000060 da 3b 41 bd 66 74 c7 3d 09 95 31 3d 12 0a 01 be
       -0.04717622 0.09738998 0.04335502 -0.12601498
000070 1d 98 91 bd dc 5b 0f 3e 55 b4 a7 bc e9 6e cc bc
       -0.071090914 0.13999885 -0.020471731 -0.02495523
000080 98 24 1b bd 40 a9 10 bc 35 34 ef 3c 17 ed 88 bb
       -0.037876695 -0.008829415 0.029199699 -0.004178654
000090 ca 1a 30 3c b6 3f b6 bd 66 87 74 bc 26 5b cf bd
       0.0107485745 -0.08898871 -0.01492486 -0.10124807
0000a0 13 c8 ef 3a e6 c2 c7 3c 63 b6 5c 3d cc e4 0a bd
       0.001829388 0.024384927 0.053884875 -0.033909604
0000b0 c7 18 f1 3b 61 7d 2a be f7 73 d1 3d 62 89 aa bd
       0.00735769 -0.16649391 0.10227197 -0.08326985
0000c0 c4 c2 5a bd 05 72 05 3e ac df 9b 3d 8e 52 9d 3d
       -0.0534084 0.13031776 0.076110214 0.07681762
0000d0 6b e5 8b bd c9 a3 86 3c 6d 6a 1e 3d d3 f1 23 bd
       -0.068308674 0.01643552 0.038675714 -0.040025543
0000e0 f9 5d 97 bd a5 66 62 3d c2 08 c9 bb ea 1c be bd
       -0.07390971 0.05527367 -0.006135077 -0.09282859
0000f0 c2 4d 94 3d 59 71 be 3d f9 34 13 3e f5 3e 21 be
       0.072413936 0.09298963 0.14375676 -0.15746672
000100 88 11 01 3d f6 11 bd bb 4f df da bd a0 bc 2a 3e
       0.03151086 -0.0057699634 -0.10687124 0.16673517
000110 33 9b 70 bd 95 66 74 3d f2 47 30 bd 44 fd d2 3c
       -0.05874176 0.059668142 -0.043037362 0.025755532
000120 ed 79 93 bd 47 c1 1c 3d ff a1 27 3d 62 15 3a bd
       -0.0720099 0.03827026 0.040925976 -0.04543055
000130 04 53 5f 3d c2 de cb b9 c5 ee cc 3d c9 96 c5 bc
       0.05452253 -0.00038885145 0.10006479 -0.024119752
000140 d6 0b 15 3e 45 c0 e1 3c 77 9c 9f 3d 7d 96 03 3d
       0.14555296 0.027557502 0.07793515 0.03212594
000150 70 ee f8 bd 62 05 45 be d1 79 04 be bc 35 79 bc
       -0.12154853 -0.19240335 -0.12937094 -0.015210565
000160 ac 80 18 be c0 b7 5b bd 39 a1 d4 bc 7d 87 cf bd
       -0.14892834 -0.053642035 -0.025955783 -0.10133264
000170 f2 95 3d 3c 92 17 44 3d 6c 70 08 b9 21 2a 13 3e
       0.011571394 0.04787404 -0.00013011851 0.1437154
000180 c3 f1 a8 3d d4 d3 f8 3d ba 1a 84 bd c9 b5 a6 3d
       0.082492374 0.12149778 -0.0645041 0.081401415
000190 83 47 c9 bb 61 79 74 bd 90 85 1e bd 9c 56 7c bd
       -0.006142558 -0.05968607 -0.038701594 -0.061606035
0001a0 cd b3 77 3d d6 87 86 3d 8f 44 a1 3d ff 8e 83 3c
       0.060474206 0.065688774 0.07874405 0.016059397
0001b0 5d 83 52 bc 0f 23 f2 bb 76 f5 d8 bc 65 47 1e bd
       -0.012848702 -0.007389433 -0.026484232 -0.038642306
0001c0 80 6f 1b 3d a2 ed 0c 3c 43 db 3b 3d bd db f6 3c
       0.03794813 0.008601578 0.0458634 0.030134076
0001d0 8e 17 2c 3d 1c 00 2f 3d 78 2a ef 3c a2 9b 26 bd
       0.04201465 0.042724714 0.029195055 -0.040675767
0001e0 88 34 2f 3d 9b 3d a5 bd a5 66 8a bd 94 e0 2d 3d
       0.042774707 -0.08068391 -0.06757859 0.042450503
0001f0 b9 6f 7f bd c8 f8 4f bc 28 97 6f 3b c6 32 0a 3d
       -0.062362406 -0.012693591 0.0036558602 0.033739828
000200 cb c7 10 3d 90 25 b4 bd e7 61 3f 3e 94 83 2e be
       0.035346787 -0.08796227 0.1868969 -0.1704238
000210 ce 4f 81 bd 80 ca dc bd ad e9 0f bd 77 f3 9f 3d
       -0.0631405 -0.10780811 -0.03513496 0.07810109
000220 b8 27 b4 3d 17 14 07 be c2 0e 41 bc 5c 85 35 3d
       0.08796638 -0.13191257 -0.011783304 0.044316635
000230 ec 87 0f be f0 4d 2b bd 41 07 95 3c e2 87 01 be
       -0.14016694 -0.041822374 0.018191935 -0.12649491
000240 b1 d6 72 bd c9 4a ef bd 4b b0 1e bd f5 d7 88 3e
       -0.059286777 -0.11684186 -0.038742345 0.26727262
000250 f9 b8 11 be 53 fa 90 bd b9 1b e0 bd 64 26 69 3d
       -0.14230718 -0.070789956 -0.10942788 0.056921378
000260 ad 42 44 3e 55 d8 71 bd 3b 5e c9 bd d5 41 08 be
       0.1916606 -0.0590442 -0.09832426 -0.13306363
000270 52 8a dd bd ff b2 c9 bd ad 8e f4 bd 4a 74 e4 bc
       -0.10817398 -0.09848594 -0.11941276 -0.027887482
000280 3f 81 af bd dc 86 af bd cf 57 75 bd 41 24 1e 3c
       -0.085695736 -0.08570644 -0.059898194 0.009652198
000290 bf 1a bb 3c 7a 8b 35 be a4 fd 86 3e f0 53 06 bd
       0.022839902 -0.17728987 0.26365387 -0.032794893
0002a0 3c 8a d9 bd ad 98 d9 3d 98 e2 28 be 51 62 0f 3c
       -0.10622069 0.10624824 -0.16492689 0.008751468
0002b0 9e f8 6f 3c f0 8f 3a 3d c8 81 60 3d 4c e4 16 3d
       0.014646677 0.045547426 0.05481127 0.036838815
0002c0 c6 a4 39 3d 67 33 94 bd 5a 3e b2 bd 5e 0f 39 bd
       0.045323156 -0.07236367 -0.08703299 -0.04518067
0002d0 bc dd c7 3d aa 95 1c 3e 91 f9 15 be 24 e2 05 bd
       0.09759089 0.15291467 -0.14645983 -0.032686368
0002e0 47 62 61 bc c8 8c d3 bd cd 3b e4 bb df cc a6 bc
       -0.013756341 -0.10329586 -0.0069651366 -0.020361362
0002f0 92 62 ed bd 5f ab b8 bd 7e fb 04 be 3b a5 d3 bd
       -0.115910664 -0.090170614 -0.12986562 -0.103342496
000300 35 a0 f3 bb 02 0b b6 bd 10 24 14 be e8 50 ce bd
       -0.0074348697 -0.08888818 -0.14466882 -0.100740254
000310 fa a2 f2 bd 13 eb dd bc ce 7b 9b 3d 93 b1 e3 bd
       -0.118474916 -0.027089631 0.07591973 -0.11117854
000320 a9 44 da bd 91 73 05 bd 1b 53 d7 3d af 87 99 3c
       -0.10657627 -0.032580916 0.10513898 0.018741457
000330 2d d3 8f 3e 0d c8 36 3d 77 69 46 3e ce 1c 87 3e
       0.28090802 0.044624377 0.19376169 0.26389164
000340 ea 9c b4 bd 8a cc c7 3d c6 b8 6b 3e 05 51 78 bd
       -0.088189915 0.097558096 0.23019704 -0.06062414
000350 a5 ec aa bd f4 69 0e be 78 f7 14 be c3 20 0d bc
       -0.083459176 -0.13907605 -0.14547527 -0.008613768
000360 40 fe 82 be 9c ac 92 3c 63 56 78 3b 23 82 67 3d
       -0.25584602 0.017904572 0.0037893287 0.056520592
000370 df bf 17 bd a6 bd b4 bd 1a 17 79 bd 9a 73 d8 3c
       -0.037048217 -0.08825235 -0.060813047 0.02642231
000380 5e b5 d9 bd c8 70 98 3c 9a c7 94 bd 45 fb ed ba
       -0.10630296 0.018608466 -0.072646335 -0.0018156549
000390 9c 24 b1 bc af 3e 8d bd ec 7c 96 bc 40 bb 6c bd
       -0.021623902 -0.068967216 -0.018370114 -0.057795763
0003a0 0f d4 68 3e 2c ce 6b 3e 8f 3e 7f bd 9a 09 61 3d
       0.22737144 0.23027867 -0.06231552 0.054940797
0003b0 c5 10 34 3d d3 ef 48 3d 8f f2 87 bd 2a 02 dd 3d
       0.043961305 0.04905684 -0.06638061 0.107914284
0003c0 59 58 a5 3e be 3c 7f 3e 16 93 79 bd bc 12 e5 3c
       0.32293966 0.24925515 -0.060931288 0.027963035
0003d0 61 dc 5f 3e ea b3 a6 be cd a5 57 be 73 b0 2c be
       0.21861412 -0.3255914 -0.21059342 -0.16864185
0003e0 d7 74 b3 bd 88 78 0a bd 3a 05 5f 3e cf 29 5c be
       -0.0876252 -0.033806354 0.21779338 -0.21500324
0003f0 50 5d c9 3d d9 23 56 3d 10 6a 8f bd 67 58 d4 3c
       0.09832251 0.05228028 -0.07002652 0.02592106

RNN.weight_hh_l0 f4 [128, 128]
000000 28 51 ba 3b 80 4e 89 3d 88 ce cd 3c 59 7d 15 3d
       0.005685944 0.06704426 0.025122896 0.036496494
000010 8a 5a 5d 3d 03 f3 31 bd f5 31 71 bd 3b 85 0a bd
       0.054041423 -0.043444645 -0.058885533 -0.033818465
000020 1b c7 a5 3c cb 2c dc 3c 95 97 0b bc e2 e5 6f 3d
       0.020236542 0.026876828 -0.008520027 0.058568843
000030 65 9f e5 bd 56 ef 40 bd 95 f8 7d 3d 97 84 71 3c
       -0.11212043 -0.04710325 0.062004644 0.014741085
000040 53 70 2c 3c 26 fd e3 3a ff a7 22 bd 2c 98 3e bd
       0.010524827 0.001739417 -0.039710995 -0.04653184
000050 96 70 e8 3c 14 2a 17 bd 32 4d fd bc c3 92 ba 3c
       0.028373998 -0.036905363 -0.030920599 0.02277506
000060 ca 6e 96 bd d8 4e 1c bc c3 54 89 3d ff df ae 3d
       -0.0734535 -0.009540282 0.0670562 0.085388176
000070 95 62 81 3c bd 53 9b bc 09 c8 9a bd 08 aa 8e bc
       0.015794078 -0.018960828 -0.07557685 -0.017415062
000080 d8 d0 b1 3c a3 9d 9e 3d 45 4d f4 3c f9 2d 30 bd
       0.02170603 0.077449106 0.029822001 -0.043012593
000090 07 f3 84 3c fd 20 60 3d 65 c8 98 3d 65 dd b5 3d
       0.016229166 0.05471896 0.07460097 0.08880118
0000a0 f3 8c ae 3d 98 7f 75 3d f0 e9 19 bc 34 66 8e 3d
       0.08522978 0.059936136 -0.009394154 0.069530874
0000b0 22 60 06 3d 8d 9b c7 bb 6b b5 b1 bd df 35 b3 3d
       0.032806523 -0.006091541 -0.08677181 0.087505095
0000c0 9a 62 1f bd 44 78 d6 3c c6 6d 24 3d 5e 75 84 bd
       -0.038912393 0.026180394 0.04014375 -0.064676985
0000d0 ac 54 86 bd 9c fc b9 3d 2c c5 43 3d 66 da f2 bc
       -0.06559119 0.090813845 0.04779546 -0.029645156
0000e0 d4 67 02 bd e5 69 39 bc 56 4a 8c bc fa 5b 97 3d
       -0.0318373 -0.011316751 -0.01712529 0.0739059
0000f0 e2 19 60 3c ea 9e 0d 3d c1 8c 58 3d d5 92 c6 bc
       0.013678046 0.03457538 0.05286861 -0.024239937
000100 ee b3 43 bd 2b 94 4b 3c 6e db 66 bd 82 c0 f0 3c
       -0.047779016 0.012425463 -0.05636161 0.02938867
000110 09 68 27 3d 47 61 c6 bb 40 d8 7f 3d 60 37 22 3d
       0.0408707 -0.006054077 0.06246209 0.03960359
000120 39 12 6b 3c ec cc 41 3d 7d 1b bc bd 9a a6 3a 3c
       0.014347606 0.04731457 -0.091849305 0.01139226
000130 fa ab 8c 3d a3 e8 51 bc 3e d1 07 bd 13 c6 ab 3d
       0.068687394 -0.012811813 -0.033158533 0.08387389
000140 fc 38 a8 bd e8 09 7b 3d 44 9e a6 3d 09 c5 ae 3c
       -0.08213994 0.061288744 0.081356555 0.021334188
000150 92 ca 64 3d 16 c6 80 bc 95 49 59 bc 52 40 86 bb
       0.05585725 -0.015719455 -0.013262172 -0.004097023
000160 5b d1 8e bd 5c 8d 0d 3c e5 61 4e bc a0 8e 80 3b
       -0.06973525 0.00863966 -0.012596582 0.003923252
000170 a2 25 02 3d 36 aa 8e bd 16 a6 ba 3d b1 fd 04 3d
       0.03177417 -0.06966059 0.0911371 0.0324685
000180 89 a4 65 3d a4 1b 06 3d e7 db 80 3d e9 55 bf 3c
       0.056065116 0.032741204 0.06291943 0.023356395
000190 2f b1 fe bc c9 96 ed 3c d6 95 4f bd 0e a9 c7 bc
       -0.031090347 0.029002564 -0.050680004 -0.024372604
0001a0 a5 06 bb 3b f4 eb 9b bd 37 0a bb bd ba d5 26 3b
       0.005707579 -0.07613364 -0.09132808 0.002545698
0001b0 ac fa a6 3d 5b f9 69 3c b7 6d 8b 3d 51 68 85 3d
       0.081532806 0.014280642 0.06808036 0.065140374
0001c0 14 24 f6 bb 39 ec cd bd 5d c6 91 3d a4 a7 40 3d
       -0.007511625 -0.100548215 0.07117913 0.047034875
0001d0 d1 48 56 3c 99 e8 0e bd cf 05 66 3d d2 d5 2d 3d
       0.013078884 -0.03488979 0.056157883 0.042440243
0001e0 97 ca 47 bd ae 09 9a bc 69 23 36 bd e3 5f ad 3d
       -0.04877719 -0.018803444 -0.044467364 0.084655546
0001f0 30 c3 b1 bb e7 5d 8f bd 50 dc b8 3c 01 3b 90 3d
       -0.0054248795 -0.07000332 0.02256599 0.07042504
000200 56 01 3b 3d bb 2a 8f bd 08 7b 03 bd c9 73 82 bc
       0.04565557 -0.06990572 -0.032099754 -0.015924351
000210 e0 cc ac bd 33 78 df bc 82 e5 af bc 99 84 74 3d
       -0.08437514 -0.027278995 -0.021471743 0.059696767
000220 79 50 51 bd 3d fa 92 3d b7 29 2f bd 3e 73 59 3c
       -0.051102135 0.071766354 -0.04276439 0.013272105
000230 72 9b dd bc d4 63 65 bd 8a 2e 01 bd 24 86 d6 bc
       -0.027051661 -0.056003407 -0.031538524 -0.02618701
000240 c2 96 b5 bd b4 43 ba 3c 87 5b 66 3d 91 0a e2 bd
       -0.088666454 0.022737361 0.05623963 -0.11037172
000250 49 73 3b bd c4 be 35 3d 49 61 19 3d c0 d6 67 3d
       -0.04576424 0.04437138 0.037446294 0.056601286
000260 f8 7b 94 bd fb 54 9a bc ff 7a 21 bb 45 04 cb 3d
       -0.07250208 -0.01883935 -0.0024639962 0.09912924
000270 e5 70 1b 3d 23 aa 5f 3d 09 f6 1b 3d 8c 36 19 bb
       0.03794946 0.054605614 0.038076434 -0.002337846
000280 cf 49 b3 3d 25 0d 83 3d 4a c3 00 bd 76 96 46 bc
       0.08754312 0.063989915 -0.031436242 -0.012120834
000290 7a 51 3c bd 1f df cd 3d c4 df 8e b9 31 98 34 bd
       -0.04597614 0.100523226 -0.0002725107 -0.044090454
0002a0 04 00 46 bd ae 06 a4 3c 98 0e 93 bc bf 94 3e ba
       -0.04833986 0.020022716 -0.017951295 -0.00072700897
0002b0 63 c1 21 3d e6 95 b9 3c ff dd b8 3d 94 cf 16 3c
       0.03949107 0.022654485 0.090267174 0.009204764
0002c0 5d 76 dc bb 7c 44 47 3d 2a d0 27 3d 34 02 74 bd
       -0.006727977 0.048649296 0.040970005 -0.059572414
0002d0 8b 00 06 ba de 51 c0 3c 06 8d ad 3d 2d fc 08 bd
       -0.0005111775 0.023476537 0.08474164 -0.03344362
0002e0 bd be 43 3d be ff 6c bd 2f 6b 99 bd 9e de 6f 3c
       0.047789324 -0.057861082 -0.07491147 0.014640478
0002f0 7c 2c 9a bd ff fd 68 3d d5 ed c9 3b 31 75 94 3d
       -0.07528016 0.056882855 0.006162385 0.07248915
000300 6b 06 96 bd 0c b2 4f 3d 2a 9f 8d 3d 10 a3 8a 3d
       -0.07325443 0.050706908 0.06915124 0.06769383
000310 78 11 ed 3b 9d 45 81 bd 9b 39 5e bd d6 b4 72 3c
       0.0072347485 -0.06312106 -0.054254156 0.014813622
000320 c8 49 34 bd 06 2e e5 3c 4e 21 87 3d 1d dc f9 3c
       -0.044015676 0.027976047 0.06598149 0.030500466
000330 ba c4 8c 3d e6 8e 06 bd c5 a1 38 3d b8 ba 0e bd
       0.0687346 -0.032851122 0.04507615 -0.034846038
000340 d3 60 c1 bc d0 2d d6 bb 62 53 a3 3d b7 4f b4 bd
       -0.02360574 -0.006536223 0.079748884 -0.08804267
000350 a2 e3 9c bd c2 95 d3 3c 35 95 84 bd e2 dc 44 3d
       -0.07660605 0.025828246 -0.064737715 0.048062213
000360 7f 77 ac 3d 8c 2c 36 3d da 74 30 bc 0d 4f 90 bd
       0.084212296 0.044476077 -0.010770047 -0.07046328
000370 5d 3b 99 3d 83 7a 98 bd d0 f1 96 3d 90 5e c5 3c
       0.07482026 -0.07445242 0.07370341 0.024092942
000380 6c c3 81 3d f9 0d fc 3c 24 50 75 3d df 8e 63 3c
       0.06336102 0.030768381 0.05989088 0.013889044
000390 3e 93 93 3d 09 a9 c9 3d 35 b8 cc 3d c4 ae 95 3c
       0.072058186 0.09846694 0.09996072 0.018271811
0003a0 2b d4 95 3d b1 ed 0e bd a5 b7 87 bd 1f e4 84 bd
       0.073158585 -0.03489465 -0.06626824 -0.06488823
0003b0 f8 58 55 3d 94 d0 a8 bd cf 7a a5 bc fd 1c 4b bd
       0.0520868 -0.08242908 -0.020200161 -0.049588192
0003c0 2c 59 5f 3d 74 07 98 bd 3a 45 98 3b ea 77 53 3d
       0.0545284 -0.074232966 0.0046469243 0.05162803
0003d0 af 74 1c bd 3d a0 f8 3c a5 d9 ac bb 9a 57 72 3d
       -0.038197216 0.030349845 -0.0052749687 0.059165575
0003e0 35 9c 0a 3c 9a a8 17 3d 6d fa 62 3d 91 41 fb bc
       0.008460094 0.037026025 0.055414606 -0.030670913
0003f0 60 35 8f bc 76 b8 80 3c 30 8b da 3c 65 4c 5a 3c
       -0.017481506 0.015712958 0.026677698 0.013323878

RNN.bias_ih_l0 f4 [128]
000000 d8 0c cf bc 3c 4d a4 3d ca a4 a9 3c 09 9c 96 bd
       -0.025274679 0.08022544 0.02070846 -0.0735398
000010 0e 91 08 bd ce 92 72 3d 54 b8 58 bd 73 5b 75 3c
       -0.03334146 0.059222035 -0.052910164 0.0149754165
000020 ca 53 c5 bd 14 fa 1a 3c 64 c4 52 3d 75 5d 21 3d
       -0.09635122 0.009459037 0.051456824 0.03939577
000030 d3 d8 95 bc bc 6a ac bd 4c 1d 23 bd 03 2f 05 bd
       -0.018291866 -0.084187955 -0.03982286 -0.032515537
000040 0c e2 f7 bc d1 2e 4a 3d 0f f4 36 3d 18 0a 7a bd
       -0.030259155 0.049361054 0.044666346 -0.061044782
000050 63 c1 3c bd d2 1b 1b bb 53 9d 57 3d 88 0f 49 bd
       -0.046082865 -0.0023667705 0.05264027 -0.049087077
000060 a3 4f 98 bc d4 f8 30 bd ea d4 a7 3c d8 7f a5 3c
       -0.018592661 -0.04320605 0.020487268 0.020202562
000070 e2 51 a5 3b 66 50 bb bd cb d5 00 3d 40 31 7b bc
       0.0050451616 -0.09146194 0.03145389 -0.015331566
000080 ec 1a a5 bc 41 f1 19 3d d6 83 0f 3c 2d 6e a8 3c
       -0.020154439 0.037583593 0.0087594595 0.020560348
000090 35 1d b7 3b 30 98 85 bd df 95 9d bc 53 ff d1 bc
       0.0055881985 -0.06523168 -0.019236503 -0.025634443
0000a0 2f e1 56 3d 40 d1 c8 3b 79 1c aa 3d a9 72 c0 3d
       0.052460846 0.00612846 0.08306212 0.0939687
0000b0 31 40 98 bc 25 c6 89 3d 42 92 11 bd 17 d4 09 bd
       -0.018585296 0.06727246 -0.035539873 -0.03364953
0000c0 db 6c 41 bd f5 24 09 bc a6 0e 3c b9 e8 dd 73 3d
       -0.047222953 -0.008370628 -0.00017934534 0.0595378
0000d0 a4 1d 8d 3c 02 4b 41 bd ec d2 bb 3d 48 5a de 3c
       0.017226048 -0.047190674 0.091710895 0.027142659
0000e0 01 6b cd 3a 88 b2 1e 3d 68 1a 85 bd 31 39 f4 3d
       0.0015672148 0.03874448 -0.06499177 0.11924971
0000f0 e0 86 24 bd ba 04 64 3a 00 d9 8d 3d d3 be a8 3d
       -0.04016769 0.0008698214 0.06926155 0.08239522
000100 24 87 16 3c 91 c2 e5 3c 24 eb 86 3d 7f 2c 3a bd
       0.0091874935 0.028046878 0.06587818 -0.04545259
000110 3e 39 fc bc 53 b8 5c bd 7e 1c 87 3d e8 2e 25 bd
       -0.030789014 -0.053886723 0.06597231 -0.040327936
000120 8b 9a b2 3d 2c 37 5a 3d ba cc 6e 3c 33 71 3b 3d
       0.08720883 0.053275272 0.014575178 0.045762252
000130 f0 18 21 bd 5f 4a 2c 3d f1 a5 8b bd 92 be b6 bd
       -0.039330423 0.042063113 -0.0681876 -0.08923067
000140 3e 60 80 ba e0 51 49 bd 06 c9 54 bd 44 1b 8c ba
       -0.0009794307 -0.049150348 -0.051949523 -0.0010689278
000150 9b 71 5f 3d 12 4a 3d 3d 82 f1 ff 3c 26 96 81 3c
       0.054551702 0.046213217 0.03124309 0.015818667
000160 3e d6 74 3d 26 1f ee 3c a3 fd 64 bc 47 ca 30 3c
       0.05977463 0.029067587 -0.013976487 0.010790414
000170 da 9b 7f bd c7 de 57 bc c1 17 a8 3d 87 2b 59 ba
       -0.06240449 -0.013175673 0.08207656 -0.0008284379
000180 e9 f2 3d bd e9 dd fe 3c 9e cc 45 3d 80 d7 af 3d
       -0.046374235 0.031111674 0.04829084 0.08586025
000190 87 05 cd 3d 13 a0 51 bd 9a 48 7a 3d 85 61 72 3b
       0.1001082 -0.05117805 0.061104394 0.0036984396
0001a0 66 9d 5e bd 29 e4 20 bd fa 6e 94 3d 06 5a 48 3b
       -0.054349326 -0.03928009 0.072477296 0.0030571236
0001b0 bf de 50 bd 20 83 a6 bd c8 e5 e0 bc b1 76 36 bd
       -0.050993677 -0.08130479 -0.027453318 -0.044546787
0001c0 d6 14 14 bd 8f bd 1a 3d 20 e8 f8 bc c8 d3 e6 3c
       -0.036152683 0.037778433 -0.030384123 0.028177157
0001d0 8a 0b ce b8 dc 86 18 3d ef 73 9d 3d 1c 58 5d bc
       -9.824995e-05 0.037237987 0.07688128 -0.013509776
0001e0 f3 ef 8c 3b 97 fb c3 bc e5 45 ec bc 81 9e 6e 3d
       0.004301065 -0.023923678 -0.028841922 0.05825663
0001f0 90 3e ae bd 24 2e e7 3b 08 2a c9 3b c9 45 07 3d
       -0.085080266 0.007055061 0.0061390437 0.033025537

RNN.bias_hh_l0 f4 [128]
000000 e7 89 00 3d 52 a4 ae 3d 51 4e 82 bd 28 35 1f bd
       0.031381514 0.08527435 -0.06362594 -0.038869053
000010 f1 92 40 bd c8 65 c5 3d 38 e0 2b bd 0c 81 dd bb
       -0.047015134 0.09638554 -0.04196188 -0.0067597684
000020 bc 47 6e bd 7f ff 72 bd dd 8a 9b 3d 46 f6 31 3d
       -0.05817388 -0.05932569 0.075948454 0.043447755
000030 76 7d 30 bd 6e 69 9e 3c 69 31 28 3a 00 c7 96 bd
       -0.0430884 0.019337382 0.0006416054 -0.07362175
000040 1a b1 7f 3c 54 66 57 3b 0a 74 76 bd 56 9e 90 bd
       0.015606189 0.0032867389 -0.060169257 -0.0706145
000050 3b a5 d6 3c 68 e9 09 3d f4 02 61 bd 9a 71 56 3d
       0.026201835 0.03366986 -0.054934457 0.052354433
000060 10 ff 8b bd c8 76 3a 3d 18 76 5b bc 54 ff 2c bc
       -0.06835759 0.045523435 -0.013394855 -0.010558922
000070 95 09 c0 3d 4f 5d b9 3c 74 81 06 3d b7 35 fd bc
       0.093768276 0.0226275 0.0328383 -0.030909402
000080 9b ae 53 3d 14 a2 5f 3d be 7b de 3c 3e cf 24 bc
       0.05168019 0.05459793 0.027158614 -0.010059176
000090 48 c2 1c bc f7 3c 2a bd 1c 9b 9c bb d4 92 45 3d
       -0.009567805 -0.041562047 -0.0047792327 0.04823573
0000a0 01 85 f8 3b b5 ae dc bc 6a b4 28 3d 9c d9 83 bc
       0.0075842147 -0.026938776 0.04118768 -0.016094975
0000b0 29 d9 8d bc c1 c1 b5 3d 02 a7 7a bc 4d c9 a5 3c
       -0.017315464 0.08874846 -0.015298607 0.02023759
0000c0 a6 89 ab bb a1 35 b7 3d 2a 4c a1 bd 3c 14 b5 3d
       -0.005234915 0.08945776 -0.07875855 0.0884175
0000d0 f4 17 b6 3d c8 a3 a3 3d 38 38 87 3b cc 0f 9f bd
       0.088912874 0.07990223 0.004126575 -0.07766685
0000e0 69 f5 af 3d 08 fd 4a 3b b9 8b 80 bd 2c 8f d2 bc
       0.0859173 0.0030973572 -0.0627665 -0.025703035
0000f0 dd 47 cb bd 3b 19 2a bd 43 e4 80 3d fd 7f 41 3b
       -0.09925816 -0.041527968 0.062935375 0.002952575
000100 ad c7 00 3d ae a8 11 3d c8 84 e4 3c 46 1c 0a bd
       0.031440426 0.035561256 0.027895346 -0.03371837
000110 7e ce e8 bc d7 71 5e bc 72 62 ef bc 7a 9c b3 3c
       -0.028418776 -0.013576946 -0.029221747 0.0219252
000120 49 e1 51 3b 53 2b af 3d dc b5 69 3d 7a 4b 79 3d
       0.003202515 0.08553185 0.0570582 0.060862996
000130 79 5c 1e 3d be 62 bd bb bb c2 1b 3d e4 27 29 3d
       0.038662408 -0.0057795933 0.038027506 0.04129781
000140 6c 03 34 bc 45 01 4a 3d 88 8b 41 bd 33 25 94 bd
       -0.010987144 0.049317617 -0.047252208 -0.07233658
000150 d2 9d dc bb 50 b5 7a bc cc 16 23 b9 d1 f3 01 3d
       -0.006732681 -0.015302017 -0.00015553384 0.031726662
000160 5e a8 1f bd 00 72 c4 3c 71 5a 26 bd f7 67 a7 bc
       -0.038978927 0.02398014 -0.040613595 -0.020435316
000170 a0 d7 4a 3d af 5d 8f 3d 85 30 5a 3d ee eb 48 3d
       0.049522042 0.070002906 0.053268928 0.049053125
000180 5a 1e ca 3a c8 00 32 3c d1 80 48 bd ad 76 81 3d
       0.0015420422 0.010864444 -0.048950974 0.06321464
000190 d2 34 74 3d 62 f8 74 3d bc 54 fa bc fd 76 8e 3c
       0.059620686 0.05980719 -0.030557983 0.017390722
0001a0 c9 50 86 3d f3 e0 a7 3b 85 43 63 3d e4 91 3f bd
       0.06558377 0.0051232516 0.055484314 -0.04676999
0001b0 f0 5a ac bc 20 bd ac ba 1e 8e 2f bd 35 27 80 bd
       -0.021039456 -0.0013178922 -0.042860143 -0.06257478
0001c0 6f f8 d1 3c ad 97 db bc 3b 2c ca 3d 5f 65 40 3d
       0.025631158 -0.026805723 0.098717175 0.046971675
0001d0 4c e9 2d bd 43 94 e6 bc 15 f5 c5 bc 82 cf 49 bc
       -0.042458817 -0.028146869 -0.024164716 -0.01231754
0001e0 ed ed 8a bd d7 18 f0 3c 09 11 28 bc 5f c4 88 3d
       -0.06783662 0.02930872 -0.010257968 0.0667808
0001f0 84 5f dc bb 46 17 fd bb 8d 29 61 bd 61 58 a3 bd
       -0.0067252535 -0.0077237217 -0.054971267 -0.07975841

actor.weight f4 [3, 128]
000000 7d d4 28 3e c7 36 91 3e 43 c5 54 3e 39 1c 1a be
       0.16487308 0.28362104 0.20778374 -0.15049829
000010 bb aa 0f 3d 85 1e 47 be 73 7d 93 bb 61 75 7a be
       0.03507493 -0.19445236 -0.0045010387 -0.24458839
000020 ef 4c 86 bd 38 49 00 be f1 7f b2 be 2e fb 45 be
       -0.06557643 -0.1252793 -0.34863237 -0.19334099
000030 57 98 8e 3e e4 21 28 bd da 93 8a 3e 21 e8 74 bd
       0.278506 -0.041047946 0.27065927 -0.059791688
000040 d3 d5 1c be 1a 68 d7 bd 43 1c 77 3e 86 a8 c0 be
       -0.15315942 -0.10517903 0.24131875 -0.37628573
000050 1b 0a cc 3d d8 9a 16 3c f4 b7 ec 3d 65 30 14 3d
       0.09962865 0.009192191 0.11558524 0.036178965
000060 df 98 c4 3c 48 15 0b 3e ad 3a 24 be bf 6b f6 bd
       0.023998676 0.13582337 -0.16038008 -0.1203227
000070 0e 07 0f 3e 39 8d dd bd 2c fa f1 bd 02 e4 08 be
       0.13967535 -0.10817952 -0.118152946 -0.13368228
000080 34 77 7b 3b cc 26 4f 3e 74 81 0d 3e 23 e8 aa bd
       0.003837061 0.20229644 0.13818914 -0.08345058
000090 9c 3c 29 3e 53 d9 35 3c c1 8a 3f 3c 4d 80 1c 3e
       0.16527027 0.011099177 0.011690796 0.15283318
0000a0 80 9d df bc 6f 9f 6d 3e e0 bf 7e 3e a5 50 e3 3c
       -0.027296782 0.2320535 0.24877882 0.027748415
0000b0 20 28 a7 bc 34 6e 2a 3e 39 1b df bc 3e 73 73 3c
       -0.020404875 0.16643602 -0.02723466 0.014859019
0000c0 a1 5d 5d 3e a0 f8 4a 3e 9b 5a 59 be 0f 14 17 be
       0.21617748 0.19821405 -0.2122597 -0.14753745
0000d0 b9 2a 95 3e 9d a4 36 3e 8e bd 4f 3e 47 fc 5b bc
       0.29134157 0.17836232 0.20287153 -0.013426847
0000e0 99 e0 0e bd 45 a1 67 be 94 00 e6 bd 33 ed 12 be
       -0.03488216 -0.22620113 -0.11230579 -0.14348297
0000f0 1b 23 e0 3d fa 53 b7 3c fb 8d 86 3e bd da b6 bd
       0.10944196 0.02237891 0.26280198 -0.0892844
000100 4a ff 0e bd f8 ea 08 be 05 59 0b 3e 63 cc 6c 3d
       -0.03491143 -0.13370883 0.13608177 0.057812106
000110 85 d6 a2 3d 13 cd 3b be 97 a1 f3 bc ea 33 81 bd
       0.079510726 -0.18339948 -0.029740138 -0.0630873
000120 43 33 2c 3e 9c 26 69 bc 58 7e 83 3d 0d 0f 01 bd
       0.1681643 -0.014230397 0.064205825 -0.031508494
000130 c7 6a 10 3e 60 37 88 bd fe b6 2c 3d b1 82 88 be
       0.14103232 -0.06651187 0.042166702 -0.2666221
000140 d9 df 0e 3e 81 d6 7e 3e 20 87 b7 3c e8 ee 67 bd
       0.13952579 0.24886514 0.0224033 -0.056624323
000150 a0 d2 0f 3e 40 7a 65 3e 66 b3 6a 3d c5 1b 51 3d
       0.14045191 0.22409916 0.057299994 0.051051874
000160 64 b5 20 be f7 ca b9 bd 72 2c b6 3d 2a 14 00 3e
       -0.15694195 -0.090719156 0.08895196 0.12507692
000170 d0 1f c0 bd 4c c0 92 bd 71 4b 0d 3e 9e dc bb 3d
       -0.09381068 -0.07165584 0.1379831 0.09172939
000180 78 35 82 3e ff df 84 be 68 5b ec bd 7a 57 41 3e
       0.25431418 -0.25952145 -0.11540872 0.18881026
000190 67 61 17 3e ea 89 26 3e 1e 74 d7 3d 77 99 2c be
       0.1478325 0.16263548 0.105201945 -0.16855417
0001a0 b1 d3 f2 3d 0b 0e b3 bc 26 d1 05 3e ec 88 a4 bc
       0.11856783 -0.021857282 0.13068065 -0.02008482
0001b0 af d8 3b 3e 33 e1 2e bc 92 f1 25 39 d4 e9 8d 3e
       0.18344377 -0.010673809 0.00015825618 0.2771746
0001c0 e6 17 3c 3b 60 78 90 3e ea 97 c0 3d 83 e6 4a be
       0.0028700768 0.2821684 0.09403975 -0.19814496
0001d0 ef 29 0d be e7 c4 54 3d 3f bf 65 3e 6d 06 99 3b
       -0.13785528 0.051945593 0.22436236 0.0046699555
0001e0 53 62 79 bc d6 02 a8 3d b4 62 17 bd 2d 53 3e 3d
       -0.015221196 0.08203666 -0.036959365 0.04646604
0001f0 71 ce c7 3d b7 69 52 3e 3e b5 e1 bd 0b a3 0c bd
       0.097561724 0.2054814 -0.11020897 -0.034335177
000200 18 40 cc 3c 57 77 10 be f1 91 db bc 24 78 57 3e
       0.024932906 -0.14108025 -0.026802989 0.21041924
000210 7d 3f a6 bd 1e 3b ac bd 95 e0 20 bd 56 05 90 3e
       -0.08117578 -0.08409713 -0.039276678 0.2812907
000220 8e b1 ce 3e ff 8c 97 3e 8b 42 d4 bd b8 35 4f 3d
       0.40369838 0.2959976 -0.103642546 0.05058834
000230 94 0b 10 be 4d ba 2f 3e db 5f 03 be fe 11 b8 3d
       -0.14066917 0.17160912 -0.12829535 0.08987807
000240 28 fc ab 3d d2 26 2f 3c 23 52 f6 bc 92 22 25 3e
       0.08397704 0.010690408 -0.030068463 0.16126469
000250 63 6d cc 3d 28 dc 9c bc d0 33 8b 3d fb d7 43 3e
       0.09981801 -0.019147947 0.06796992 0.19125359
000260 2e bc b4 bd 02 42 46 be c7 0c 06 3e 8c 91 b8 bc
       -0.08824955 -0.19361117 0.13090812 -0.02253034
000270 97 72 3b 3a 73 81 db bc 48 3a b1 bc 44 17 f2 3d
       0.0007150559 -0.026795125 -0.021634236 0.11820844
000280 e7 f1 b7 3d 6e 8f 8f 3c 26 03 4b be 8c cb 2f 3e
       0.08981686 0.017524447 -0.1982542 0.1716749
000290 32 9e 28 be 01 cb 7a bd 3a 18 33 3e 17 f0 2f bd
       -0.16466597 -0.061228756 0.1748971 -0.042953577
0002a0 00 09 15 3d 31 63 52 be 33 bf 67 be 3f cc a6 bd
       0.036385536 -0.20545651 -0.2263153 -0.081444256
0002b0 f7 b3 01 be 45 2d fe bd 79 f7 3d 3e c6 96 a0 ba
       -0.12666307 -0.12410978 0.18551435 -0.0012251965
0002c0 a7 ad 53 be 80 64 ae bd 73 b3 50 3e f9 86 81 3d
       -0.20671712 -0.085152626 0.20380954 0.06324572
0002d0 f7 1f 7a bd 05 c5 b3 bd 22 8c e3 bc 08 ee 72 bd
       -0.06106564 -0.08777813 -0.027776781 -0.059309036
0002e0 63 ea 02 3e 07 55 6e 3e 16 96 bd bc 4b 42 ff 3d
       0.12784724 0.23274623 -0.023142856 0.12463816
0002f0 6f 2d f3 bd 4a 3d 4d be 5b 6b 3f bc 1d b7 3f 3e
       -0.118739 -0.20042911 -0.01168331 0.18722196
000300 e2 d8 1d bc 27 39 88 3d 3c 7e d7 bd 1c 25 12 3e
       -0.009634228 0.06651526 -0.10522124 0.14271969
000310 38 02 3e 3d 99 84 d3 bd 20 f2 df bd 91 aa f6 bc
       0.046388835 -0.10328025 -0.109348536 -0.03011063
000320 19 31 c4 3c 31 27 f5 bd 31 ea 98 3b 9c 6a d5 bd
       0.023949193 -0.11970366 0.0046665897 -0.10420725
000330 0f 34 5f be cc 0f c1 3c 09 85 c9 bd 90 40 6f bc
       -0.21797203 0.023567103 -0.098398276 -0.014602795
000340 07 9c 16 3c 3c d5 4f be 7e 9a f6 3c 50 c9 09 3b
       0.009192473 -0.20296186 0.030102964 0.0021024533
000350 23 c3 6b be 2f a5 0e be ee ee 50 be ab b5 20 bc
       -0.23023658 -0.139302 -0.20403644 -0.009808938
000360 eb 99 f0 3c 4a 03 cb bd 5e 9c c8 3d 4a 77 96 bd
       0.029370269 -0.09912737 0.0979545 -0.07346971
000370 3f 0d 1b 3d 43 ad de 3d b3 0e 6f 3e 3a 79 28 be
       0.03785443 0.10872891 0.23345451 -0.16452494
000380 ec 89 13 3d 59 ac 22 3d 52 1f 05 be 67 c7 ab 3d
       0.036020204 0.039715145 -0.13000229 0.08387642
000390 96 76 91 be 1e a5 ac be 1d b4 bc 3d 39 2b 98 3e
       -0.28410786 -0.33719724 0.092140414 0.29720476
0003a0 04 ec 50 bd 2e 2a 5d 3c f2 91 89 be 85 46 2d 3d
       -0.051006332 0.013498826 -0.2686916 0.04230358
0003b0 0c 72 c2 3c 22 ee 67 3d ef d2 19 be 5b 62 c6 bd
       0.023736022 0.056623586 -0.15021871 -0.096867286
0003c0 34 b0 2a 3d e9 07 1a be e3 bd 3f bd 4d de 12 3e
       0.041671947 -0.1504208 -0.04681195 0.14342614
0003d0 49 ef 41 bd 29 88 34 be 0d ff 7f bd 69 1b 01 be
       -0.04734734 -0.17630066 -0.062499095 -0.12608112
0003e0 71 ee 7c 3e e1 91 dd be 27 74 d6 bd 4b 5c e8 bc
       0.24700333 -0.4327536 -0.10471373 -0.028364321
0003f0 69 dc 54 bd 7b e0 36 bb 35 b4 71 3e 95 cb cd 3d
       -0.051968012 -0.0027904797 0.236039 0.10048596

actor.bias f4 [3]
000000 ee 06 cc 3c dd 57 e0 bc 9a 8c 8c bc
       0.024905648 -0.027385646 -0.017156888

critic.weight f4 [1, 128]
000000 38 45 18 be ff 71 03 be 47 5d 66 bc eb 6e 31 3c
       -0.14870155 -0.12836455 -0.014060325 0.010829668
000010 4d e8 92 bd f6 35 1f 3e 5e 8a a9 3d e5 1c d7 bd
       -0.07173214 0.15547928 0.082783446 -0.10503558
000020 10 4e af 3d 21 03 92 be a4 c8 ca bc 05 d4 8c 3c
       0.08559811 -0.28518012 -0.024753876 0.017190943
000030 87 1b 46 be 28 c6 c3 ba d3 2d 26 3e ba 7a a8 3d
       -0.19346438 -0.0014936375 0.16228418 0.08226533
000040 af ab b8 bd 91 43 f8 bc db d9 3c bd 7c c6 8a 3e
       -0.09017121 -0.030305656 -0.0461062 0.27104557
000050 eb 68 06 3c f0 b7 9a 3e 01 71 ec bd 8f ad 09 bd
       0.008203725 0.30218458 -0.11544991 -0.033612784
000060 b6 7f 13 be 1d 7a ae 3d bc e2 14 bd 26 07 29 bd
       -0.14404187 0.08519385 -0.036349043 -0.041266583
000070 88 71 e3 3d 89 1d 94 3b 6d 66 41 bd a0 32 98 3d
       0.11105639 0.0045201224 -0.04721682 0.07431531
000080 0e a4 65 3b b2 2d 50 bd 06 8b c2 3d d7 21 c5 bc
       0.0035040411 -0.05082483 0.09499173 -0.024063988
000090 64 43 3e bc ed e6 45 bd 07 ff 95 bc 4b be b1 3d
       -0.011612747 -0.04831593 -0.018310083 0.08678874
0000a0 a1 d8 bb bd a7 f7 f6 bd ad 9d 64 3d 95 0f 57 39
       -0.09172178 -0.12058955 0.055814434 0.00020509803
0000b0 59 55 2d 3d 83 e2 bd 39 9b de 80 3c 21 87 95 bc
       0.042317722 0.00036217654 0.015731147 -0.018252911
0000c0 34 9b 0f 3e cb 1c 3e 3e 5e f8 19 3e 3b 74 1a 3e
       0.14024049 0.18565671 0.15036151 0.15083401
0000d0 89 a4 10 3d 84 6a 22 be d9 12 e2 bd 79 8d 05 bb
       0.035313163 -0.15860945 -0.11038751 -0.0020378514
0000e0 ea f7 b1 3d 1f 6e 62 be fe b4 f6 3d c6 33 01 3e
       0.08689864 -0.2211232 0.1204624 0.12617406
0000f0 5b 78 b9 3d 16 42 26 ba f3 74 52 3c f5 0e 25 be
       0.09056159 -0.0006342245 0.012845266 -0.16118987
000100 c3 27 63 3e ba 0c 81 bd 47 a6 9e bd 95 6e a6 3b
       0.22183137 -0.063012555 -0.07746559 0.0050791004
000110 63 db 3d 3e 2e c5 14 be a1 52 a0 3d 80 53 c6 bd
       0.1854072 -0.14528343 0.0782826 -0.09683895
000120 76 d2 e5 bd 1b ce e1 bd 5b 54 78 3e f5 24 74 3c
       -0.11221783 -0.110256396 0.24250929 0.014901389
000130 ed 4a 49 3d 84 14 eb 3d df 02 1b 3e 55 09 51 bd
       0.04914372 0.114785224 0.15137814 -0.05103429
000140 bc c0 d2 3d 2c 63 00 bc 24 d4 38 be 27 9a db bb
       0.102906674 -0.007836144 -0.18049675 -0.006701726
000150 db 5c 68 3d c5 d1 a8 3b 32 84 e5 3c 9b 9d 9e 3c
       0.05672918 0.0051519596 0.028017137 0.019362262
000160 f5 f5 e6 bd 74 23 59 3b f6 e8 3b be 21 e9 b4 bd
       -0.11277381 0.0033132704 -0.18350586 -0.08833528
000170 3a 1c ec bc 94 cc 34 be 08 11 f2 bd eb c7 c1 bd
       -0.028822053 -0.17656165 -0.11819655 -0.094619595
000180 07 6d 2c 3e f5 77 89 bd 63 cd 0c be 4e 3a 54 bd
       0.16838466 -0.06712333 -0.13750224 -0.051813416
000190 5d e2 c4 bc 47 45 20 bd 19 0b c9 bd d6 e2 26 3e
       -0.02403372 -0.039128568 -0.0981657 0.16297469
0001a0 64 e7 2c 3e 0b e2 e9 3c 1e c2 b3 3e 79 ee 87 bb
       0.16885144 0.028550168 0.35109037 -0.004148301
0001b0 1f e4 80 3e 25 9a 05 3d 09 40 5c bc e6 1f 84 3e
       0.25174043 0.032617707 -0.013443002 0.25805587
0001c0 91 7a 52 3d 2e ef 6e 3d a1 9d d5 3c 04 fd 0d 3e
       0.05138642 0.05833357 0.02607614 0.13866049
0001d0 9b b3 78 3b 3f 4f e9 39 41 e2 78 3d 16 1f d5 bd
       0.003794885 0.00044500266 0.060762648 -0.1040632
0001e0 a9 21 ad 3d 1e 7a c2 bd f1 f6 07 3e 66 e1 29 bd
       0.08453686 -0.09495948 0.13277794 -0.041474722
0001f0 40 b6 af 3d 28 1d 46 bc d0 e5 a8 3c fd 36 56 3c
       0.08579683 -0.012091912 0.020617396 0.013074634
