W__RNN/W_RNN/md2/v_1/train_iter_1600.pt (torch, 79699 bytes, 6 tensors)

h0 f4 [128]
-1.0903243 1.913551 0.48568287 2.8282838 -1.215087 -0.24264073 0.9780485 0.43758917
-0.045621745 0.23065016 0.49472147 -0.4507922 0.26693678 -0.050556943 -0.16707535 -0.85517365
-1.3051368 -0.15210472 -0.56334716 -0.2140322 0.1955764 -1.6954705 -0.37470928 -0.3585121
-0.65070295 -1.1709824 0.37226418 -0.067383185 0.2934564 -0.14102927 -0.31376705 1.1749581
0.19981079 -0.25436628 -0.35063738 -0.5654899 -1.3132377 0.09816481 0.8933295 0.43083194
-0.05023207 -1.3625668 -0.20553407 0.33838472 0.5230335 0.2596792 -0.2716432 1.1137549
-2.8789515 1.1861565 -0.46084425 2.2816224 0.42257863 -1.0821466 -1.1594296 -0.61048454
0.4313307 -1.3939593 -1.2049243 1.0826285 1.3492734 -0.23828968 0.4461689 0.9209333
-0.5461058 0.3509088 1.6487408 0.12790328 0.93887883 -0.8156011 0.0909498 -0.008907388
0.95373636 0.5618231 0.09572425 0.22731821 -2.2540317 0.18185325 -0.47620928 0.8351977
0.9703312 -0.19492662 1.7326698 -0.9236447 -0.63828325 -1.084662 -1.822503 0.12971479
0.090276 -1.149212 -0.9880918 -0.35714486 0.63244104 -0.04303605 -0.88987815 -0.37087798
2.0890074 0.91916215 0.5277728 1.1167182 -0.11343371 1.2648102 -1.4817737 0.32328862
1.7288688 0.12871917 0.09587203 3.0997283 0.05570975 1.5781732 1.0318812 0.04368032
-1.0928227 0.52058536 -0.45762524 1.2763748 -0.23052205 1.6019804 1.2649229 0.45691502
-0.4254713 0.11119207 0.25548065 1.946791 -0.96521765 0.16513628 0.54093814 0.59479046
00000000: bf8f 8bbf 3def f43f 6dab f83e 9a02 3540
00000010: f987 9bbf d076 78be 6361 7a3f b00b e03e
00000020: dedd 3abd 8e2f 6c3e 224c fd3e 3cce e6be
00000030: f0ab 883e cc14 4fbd cd15 2bbe a9ec 5abf
00000040: b90e a7bf 57c1 1bbe 8537 10bf 422b 5bbe
00000050: 2e45 483e 2d05 d9bf e5d9 bfbe e68e b7be
00000060: 7894 26bf c0e2 95bf 6999 be3e 3200 8abd
00000070: eb3f 963e fa69 10be 13a6 a0be 0765 963f
00000080: 339b 4c3e 4c3c 82be be86 b3be f2c3 10bf
00000090: 2c18 a8bf a20a c93d 3eb1 643f 0196 dc3e
000000a0: 25c0 4dbd 9768 aebf 8677 52be c340 ad3e
000000b0: 86e5 053f acf4 843e d114 8bbe 858f 8e3f
000000c0: be40 38c0 fad3 973f c7f3 ebbe 1a06 1240
000000d0: 3a5c d83e c883 8abf 3068 94bf b748 1cbf
000000e0: 61d7 dc3e 426d b2bf f63a 9abf 9293 8a3f
000000f0: feb4 ac3f 3602 74be 4070 e43e 49c2 6b3f
00000100: 97cd 0bbf 51aa b33e f009 d33f 14f9 023e
00000110: 5d5a 703f 3ccb 50bf e443 ba3d 4bf0 11bc
00000120: 1128 743f a4d3 0f3f 130b c43d 1bc6 683e
00000130: 0e42 10c0 bd37 3a3e b4d1 f3be 84cf 553f
00000140: a067 783f d89a 47be 20c8 dd3f fb73 6cbf
00000150: 8866 23bf 34d6 8abf c747 e9bf f4d3 043e
00000160: a0e2 b83d 6119 93bf 96f3 7cbf b1db b6be
00000170: a8e7 213f 9246 30bd 0ecf 63bf b8e3 bdbe
00000180: 4cb2 0540 364e 6b3f 1e1c 073f 9ff0 8e3f
00000190: ef4f e8bd 4de5 a13f c3aa bdbf 1686 a53e
000001a0: 934b dd3f f5ce 033e 8e58 c43d f361 4640
000001b0: e82f 643d 9401 ca3f af14 843f 23ea 323d
000001c0: 9de1 8bbf 1545 053f db4d eabe 4060 a33f
000001d0: f90d 6cbe b20d cd3f fee8 a13f c4f0 e93e
000001e0: 60d7 d9be abb8 e33d 5cce 823e 7330 f93f
000001f0: 8118 77bf 7c19 293e ec7a 0a3f 3044 183f

RNN.layer_encode.weight f4 [128, 145]
-0.117070444 0.04929616 0.19465928 0.6323672 -0.22453122 -0.242984 0.064399056 -0.10955266
-0.1174538 -0.20842467 0.12820175 0.0645081 -0.022320535 -0.13715552 0.08022531 -0.16406702
-0.039307263 0.07700535 -0.008572933 -0.009100451 -0.09961295 -0.04561686 0.03249695 -0.019160988
0.061733123 0.02279945 -0.034730118 -0.039170742 -0.03019321 -0.025257643 -0.037912652 -0.048695743
-0.022054417 0.054972127 0.021841707 0.01604874 -0.060536258 0.017280951 0.03320047 0.091376856
-0.012232773 0.15123686 0.06022677 -0.041113097 -0.05000754 0.004385392 0.031027222 0.07936721
0.07872741 0.10791457 0.042120446 0.0607895 -0.06847077 0.036803942 0.1073018 0.020203225
-0.088951945 -0.015706941 0.07410942 -0.10097953 -0.051368404 -0.0498754 -0.12272188 -0.04966799
0.0001372784 -0.07431196 0.052840687 -0.061287653 -0.08416778 -0.019810447 0.06104764 -0.09593776
-0.006692143 0.023020104 0.02841276 -0.10493094 -0.021269133 0.028967507 -0.039638527 0.046384923
-0.044203218 0.057655793 -0.05886861 0.075937584 0.010864385 0.0095623955 -0.080799505 0.041481268
-0.03581073 -0.05651746 0.007413211 0.037819482 -0.073446944 -0.056188814 -0.013252452 -0.008431704
0.059325516 0.008206698 -0.03538914 0.062285617 0.00071597623 0.044276666 0.028298657 0.0666452
-0.007948173 -0.084220156 0.028521538 -0.08635864 -0.022731632 0.042372752 -0.078021646 -0.056944642
-0.069539286 -0.06117312 0.07690901 -0.14577866 0.07603353 0.023855468 0.0028646316 0.043966454
-0.014909396 -0.04108111 0.034284994 -0.013451223 -0.052124612 0.01168755 -0.06563771 0.03212136
-0.07511867 -0.024708578 0.06514835 -0.018964902 0.023869578 0.021023436 -0.08475008 -0.11602977
-0.07349885 0.067487404 0.006391334 0.079160005 0.046683498 -0.11648309 -0.046740662 -0.0901692
0.03643615 0.2991608 -0.019872066 0.03283711 -0.078083225 0.027687827 -0.19496174 -0.22519693
0.19571778 0.105075054 -0.13338871 -0.20315236 -0.22052386 0.1579207 -0.015670676 0.06944691
0.1049715 -0.08388163 -0.04864073 0.025296401 -0.0027758796 -0.021972932 -0.07905109 0.0858418
-0.06835512 -0.034151565 -0.057491474 0.038979005 0.036863122 0.102030426 0.025442244 0.008056656
-0.01951595 0.06358116 0.14091001 0.12317888 -0.022196662 0.068421245 -0.008873241 0.08304037
0.02597987 -0.007860373 0.045543764 -0.039700516 0.020343095 0.082298025 0.007166415 -0.030388596
0.04177435 -0.029849071 -0.008329847 -0.0111292135 0.029081881 -0.03914231 0.032771215 -0.07738612
0.07860332 0.020614082 -0.070032984 0.008442504 0.061717857 0.017935224 0.015662944 0.06731382
0.043916024 0.094602086 0.058675062 0.040376227 -0.04190204 -0.054104336 0.052341443 -0.059633482
0.03179523 0.088536486 -0.010226867 -0.021039322 -0.03163221 0.017419443 0.09388004 -0.06982344
-0.0021932838 -0.044207994 0.04526966 0.04027211 0.06253846 -0.041419726 0.035280563 0.04320949
0.106838115 0.029710228 0.075073324 -0.10305406 -0.074546166 0.043003734 -0.039816365 0.1988479
-0.0636867 -0.027192742 -0.06019918 -0.048703644 -0.06483779 0.036672223 0.004416221 -0.0100393165
0.048196685 0.020372683 0.06706674 -0.035800498 -0.0779383 0.045157913 0.08321562 -0.03278994
00000000: a1c2 efbd c5ea 493d c354 473e d1e2 213f
00000010: 83eb 65be ccd0 78be a7e3 833d 255d e0bd
00000020: 9e8b f0bd 476d 55be 5247 033e d31c 843d
00000030: 8ed9 b6bc 7f72 0cbe 2b4d a43d 2f01 28be
00000040: a700 21bd fbb4 9d3d 7d75 0cbc 0f1a 15bc
00000050: e001 ccbd bfd8 3abd 861b 053d 81f7 9cbc
00000060: dfdb 7c3d eac5 ba3c 2b41 0ebd 8071 20bd
00000070: c057 f7bc 1ee9 cebc 4c4a 1bbd 3075 47bd
00000080: 77ab b4bc 742a 613d 61ed b23c a678 833c
00000090: def4 77bd c890 8d3c 37fd 073d ca23 bb3d
000000a0: f86b 48bc d6dd 1a3e 58b0 763d 3566 28bd
000000b0: b5d4 4cbd 56b3 8f3b cd2c fe3c 478b a23d
000000c0: d63b a13d 5002 dd3d 7d86 2c3d 69fe 783d
000000d0: 673a 8cbd bbbf 163d 0cc1 db3d 3c81 a53c
000000e0: 702c b6bd d8ab 80bc aec6 973d 5bce cebd
000000f0: ad67 52bd 264a 4cbd 9c55 fbbd aa70 4bbd
00000100: 64f2 0f39 de30 98bd 7a6f 583d c308 7bbd
00000110: 2860 acbd 8549 a2bc 170d 7a3d 047b c4bd
00000120: c449 dbbb a894 bc3c e0c1 e83c 08e6 d6bd
00000130: 9b3c aebc 444d ed3c 025c 22bd 1efe 3d3d
00000140: 6f0e 35bd 7b28 6c3d 3620 71bd 2a85 9b3d
00000150: 8900 323c 98ab 1c3c 367a a5bd 43e8 293d
00000160: 46ae 12bd da7e 67bd 85ea f23b 9ae8 1a3d
00000170: 5a6b 96bd 3e26 66bd d020 59bc 2125 0abc
00000180: 50ff 723d 6375 063c 34f4 10bd 341f 7f3d
00000190: 5ab0 3b3a 735b 353d 96d2 e73c 477d 883d
000001a0: 0e39 02bc 9e7b acbd 00a6 e93c ccdc b0bd
000001b0: b037 babc 0d8f 2d3d d0c9 9fbd c93e 69bd
000001c0: 9d6a 8ebd aa90 7abd 7982 9d3d 0047 15be
000001d0: 78b7 9b3d 8b6c c33c 8bbc 3b3b 2b16 343d
000001e0: 8a46 74bc aa44 28bd 6c6e 0c3d 8562 5cbc
000001f0: 9e80 55bd 237d 3f3c 106d 86bd b091 033d
00000200: d1d7 99bd a569 cabc 806c 853d 485c 9bbc
00000210: 228a c33c 5739 ac3c 7391 adbd 04a1 edbd
00000220: 9186 96bd d636 8a3d 656e d13b a41e a23d
00000230: 3237 3f3d b08e eebd 2373 3fbd a1aa b8bd
00000240: 133e 153d 9b2b 993e beca a2bc 3580 063d
00000250: 19ea 9fbd 95d1 e23c 0da4 47be 069a 66be
00000260: 3e6a 483e 9731 d73d 0d97 08be 2c07 50be
00000270: 02d1 61be f7b5 213e ca5f 80bc 2e3a 8e3d
00000280: 4cfb d63d 22ca abbd 813b 47bd 663a cf3c
00000290: 88eb 35bb 9400 b4bc 8ae5 a1bd d3cd af3d
000002a0: c5fd 8bbd 83e2 0bbd 2e7c 6bbd 73a8 1f3d
000002b0: c9fd 163d 54f5 d03d 416c d03c 1100 043c
000002c0: eadf 9fbc d736 823d b74a 103e 3545 fc3d
000002d0: c6d5 b5bc 7020 8c3d 1261 11bc 1211 aa3d
000002e0: bdd3 d43c cbc8 00bc 198c 3a3d 029d 22bd
000002f0: 90a6 a63c de8b a83d 3fd4 ea3b 81f1 f8bc
00000300: 951b 2b3d 0a86 f4bc e979 08bc 4e57 36bc
00000310: 203d ee3c b053 20bd 1c3b 063d 9d7c 9ebd
00000320: c7fa a03d ddde a83c 746d 8fbd 6e52 0a3c
00000330: ddcb 7c3d e4ec 923c 934f 803c d4db 893d
00000340: 4ae1 333d bdbe c13d 4355 703d 8b61 253d
00000350: 79a1 2bbd 829c 5dbd fb63 563d 3d42 74bd
00000360: b73b 023d 9e52 b53d 978e 27bc a85a acbc
00000370: c790 01bd 38b3 8e3c 2e44 c03d 97ff 8ebd
00000380: 32bd 0fbb 7113 35bd ae6c 393d 5ef4 243d
00000390: 2a14 803d bba7 29bd 5a82 103d 6ffc 303d
000003a0: f1cd da3d dd62 f33c 0bc0 993d 020e d3bd
000003b0: a9ab 98bd af24 303d 7c16 23bd c99e 4b3e
000003c0: 2c6e 82bd 50c3 debc 6a93 76bd 797d 47bd
000003d0: adc9 84bd 9d35 163d f2b5 903b f27b 24bc
000003e0: e369 453d 9de4 a63c 495a 893d 8ba3 12bd
000003f0: 1e9e 9fbd 81f7 383d f36c aa3d be4e 06bd

RNN.layer_encode.bias f4 [128]
-0.038446493 0.123131186 -0.0030099705 0.0013857278 -0.007212601 0.090811186 -0.041839704 -0.021046292
-0.028944569 0.08958414 0.08466307 0.08220296 0.008164666 0.09561095 0.067578726 -0.0509543
-0.017877473 0.07168595 -0.023680644 0.05172638 0.06370592 0.05134983 0.07687861 0.09098604
0.06514626 0.06889433 -0.053264715 -0.051740445 0.024211813 -0.08784156 0.06891517 -0.020437695
0.030863851 -0.0782709 -0.021195624 -0.03015758 0.056968994 0.10218329 0.015915016 0.00071322575
-0.027050938 -0.013069762 -0.016433587 0.029995732 0.098501064 -0.105515875 0.027293649 -0.025253963
0.0074450243 0.0027269856 -0.014179954 -0.022744771 0.05288909 -0.080628954 -0.00773076 0.0063620345
-0.055563398 -0.11867153 -0.103222676 0.050778806 0.029031172 -0.052364007 -0.022103623 0.10643002
0.050431803 -0.052334104 0.06420057 0.06731384 -0.070123196 0.034312103 0.06499779 0.1193167
0.021481276 -0.046586245 -0.037631884 0.085214935 -0.02470843 0.117520005 0.02217088 0.004441787
0.07948131 0.0325773 0.073870696 0.054931484 0.03791081 0.0045633176 0.014641599 0.005880813
0.04675357 -0.004041323 0.051672217 -0.016899798 0.025421647 0.08258754 0.10493284 0.1054183
-0.007926888 0.06826061 0.05402984 0.063172095 0.049232606 0.019796882 0.067871004 -0.008749012
0.06878776 0.045537718 0.0842321 0.045126274 -0.00010760274 -0.03450834 -0.026064811 -0.046539232
0.008491174 0.055149484 0.05213041 -0.089405484 -0.0319598 0.08634405 0.109446235 0.11112976
0.030347345 0.11430718 0.041474745 0.003745374 0.10186416 0.053760093 -0.038456768 0.026814025
00000000: 127a 1dbd 342c fc3d ed42 45bb 4fa1 b53a
00000010: af57 ecbb 37fb b93d 1c60 2bbd 4669 acbc
00000020: 291d edbc e477 b73d d563 ad3d 075a a83d
00000030: 17c5 053c accf c33d b766 8a3d 75b5 50bd
00000040: c773 92bc 15d0 923d e9fd c1bc 0adf 533d
00000050: 4078 823d 3354 523d 8872 9d3d e456 ba3d
00000060: 676b 853d 7818 8d3d 1a2c 5abd caed 53bd
00000070: da57 c63c 47e6 b3bd 6623 8d3d f46c a7bc
00000080: 30d6 fc3c 7e4c a0bd 72a2 adbc 070d f7bc
00000090: 5258 693d 7945 d13d 3560 823c c5f7 3a3a
000000a0: ee99 ddbc 8e22 56bc bb9f 86bc 9cb9 f53c
000000b0: edba c93d b518 d8bd ee96 df3c 66e1 cebc
000000c0: 64f5 f33b 3ab7 323b 0a53 68bc 3e53 babc
000000d0: 3ba2 583d cb20 a5bd 5152 fdbb 9d78 d03b
000000e0: 7296 63bd 0f0a f3bd 6966 d3bd 70fd 4f3d
000000f0: c8d2 ed3c a47b 56bd a812 b5bc fbf7 d93d
00000100: 9491 4e3d 495c 56bd 977b 833d d7db 893d
00000110: c09c 8fbd d98a 0c3d 901d 853d 505c f43d
00000120: 80f9 af3c 38d1 3ebd e423 1abd 2b85 ae3d
00000130: 5569 cabc 54ae f03d b59f b53c 698c 913b
00000140: 19c7 a23d c66f 053d 8549 973d d6ff 603d
00000150: 5e48 1b3d e287 953b 51e3 6f3c d6b3 c03b
00000160: ac80 3f3d 136d 84bb 3fa6 533d 7271 8abc
00000170: 0f41 d03c a823 a93d 07e7 d63d 8de5 d73d
00000180: c7df 01bc 38cc 8b3d 654e 5d3d 5f60 813d
00000190: 21a8 493d 122d a23c f4ff 8a3d 0458 0fbc
000001a0: 99e0 8c3d c285 3a3d e181 ac3d 54d6 383d
000001b0: c8a8 e1b8 9e58 0dbd df85 d5bc ec9f 3ebd
000001c0: 911e 0b3c 6de4 613d b286 553d 391a b7bd
000001d0: 47e8 02bd 26d5 b03d 5925 e03d 0098 e33d
000001e0: ff9a f83c e219 ea3d 6ce1 293d f374 753b
000001f0: 289e d03d 8b33 5c3d d884 1dbd 16a9 db3c

actor.weight f4 [3, 128]
-0.33730012 0.44962433 0.29576966 -0.60547674 0.26224115 0.50767475 0.23797144 0.26467377
0.043777633 -0.3964916 -0.2009447 -0.1509669 -0.44838405 0.11656894 0.13966528 -0.23586996
0.48811173 -0.021012824 0.41229126 0.1042503 0.32106185 0.15341176 0.23488285 0.38817546
0.29093164 0.22998102 0.5104735 0.50325483 -0.24386925 0.14466643 -0.05126288 0.36722338
0.24753675 0.3331739 0.3085658 0.42857605 0.10143018 0.09659635 -0.047177013 -0.036888782
-0.03070001 0.099343166 0.4810001 0.20311645 0.33280057 -0.039000824 -0.40997773 0.15718214
-0.24837494 -0.10531872 -0.37838233 -0.21993713 0.13671504 -0.25782117 -0.21920365 0.2456947
0.024374008 0.4808153 0.015296966 0.41818282 -0.08632462 -0.024557082 0.15160845 0.4254471
0.21229838 0.39703104 0.34251478 0.62189734 -0.046370942 0.36751032 -0.46676514 -0.007548046
-0.0025171135 -0.3865666 -0.3719297 0.22991526 0.5816007 0.07562235 0.23050608 -0.032271434
0.38670138 0.39835528 0.2391382 0.41053078 0.22322398 -0.5190423 0.40540817 0.10071738
-0.030371077 -0.08504142 -0.36968517 -0.22986019 -0.34332752 -0.5651521 0.08484857 -0.11692955
-0.25742605 0.24593134 -0.20258102 0.49480882 -0.3544604 -0.30868626 0.11618497 0.30621636
0.05393038 -0.37368083 -0.26470295 0.0840287 -0.1927639 0.48740047 0.011710998 0.12086173
0.38035476 -0.20765676 0.12326874 -0.07036574 0.33968088 0.18788356 -0.27099743 0.04975047
0.034984473 0.5321798 0.46921283 -0.088443846 -0.34308207 -0.53433144 -0.17997606 -0.24359134
-0.39664048 -0.32992697 -0.28789097 -0.11205636 -0.274501 -0.26142564 -0.3718259 -0.50081915
-0.506911 0.13905744 0.3468953 0.015141181 -0.49734205 0.12552254 -0.2949472 0.07419831
-0.3477143 -0.2630429 -0.1994663 -0.20648508 -0.48236462 0.32811922 -0.4054701 -0.20491053
-0.47106782 -0.06140452 -0.18220869 -0.24426201 0.27201852 -0.0531998 0.3225493 -0.3464575
-0.47152546 -0.3325359 -0.15720628 -0.3592003 -0.02412431 -0.11689083 -0.0066597527 0.49764544
0.24470015 0.21189724 -0.43692014 -0.288627 -0.1934238 0.3509334 -0.19157158 -0.023658166
0.14717513 0.13868189 -0.017752431 0.17829698 -0.38352582 -0.46932074 0.15530482 -0.38769194
0.21747561 -0.2812311 0.09367612 -0.26439843 0.33712056 0.097009756 0.035772897 -0.28985706
-0.25701442 -0.28394467 -0.3101875 -0.27918088 -0.104765 -0.15043277 -0.057048157 0.14473353
-0.08306798 0.56871223 -0.008946848 -0.598336 -0.27853113 -0.012211836 0.13968918 -0.21613671
-0.37713414 -0.456878 -0.2744342 -0.49761847 -0.066011794 0.118565105 -0.03223519 -0.4000915
0.2700812 0.33267924 -0.22367933 0.4207238 0.21297723 -0.07732873 0.2195542 0.21146499
0.48549187 -0.27089277 0.19828355 -0.4404715 -0.2485618 -0.11538015 -0.041706987 -0.34220797
0.088042036 0.2596264 -0.059524637 -0.3059847 0.17259116 -0.31042337 0.38043183 -0.45151994
-0.1534647 0.12756588 -0.045369342 0.31994155 -0.091364875 0.20288889 -0.40592223 0.096234806
-0.2974682 -0.41100368 -0.2858247 0.34289283 -0.35886878 0.11190516 0.27772266 0.44183028
00000000: 9ab2 acbe 2935 e63e 1f6f 973e 8600 1bbf
00000010: 7944 863e f9f6 013f c9ae 733e 5283 873e
00000020: 2d50 333d f200 cbbe 73c4 4dbe 1197 1abe
00000030: 9892 e5be b2bb ee3d 6a04 0f3e e587 71be
00000040: c8e9 f93e 1623 acbc d717 d33e 2e81 d53d
00000050: 3862 a43e f917 1d3e 2185 703e efbe c63e
00000060: fef4 943e 2580 6b3e 64ae 023f 4fd5 003f
00000070: dcb8 79be 7023 143e 07f9 51bd b404 bc3e
00000080: 467a 7d3e c595 aa3e 56fc 9d3e 526e db3e
00000090: a0ba cf3d 4fd4 c53d af3c 41bd b118 17bd
000000a0: 967e fbbc 6e74 cb3d a545 f63e c2fd 4f3e
000000b0: d664 aa3e 54bf 1fbd 9ae8 d1be 5bf4 203e
000000c0: 0056 7ebe 57b1 d7bd 54bb c1be 3337 61be
000000d0: 07ff 0b3e 2301 84be ec76 60be 6497 7b3e
000000e0: 00ac c73c 6c2d f63e 20a0 7a3c 0f1c d63e
000000f0: f6ca b0bd ef2b c9bc 3f3f 1b3e 34d4 d93e
00000100: bf64 593e a747 cb3e 195e af3e aa34 1f3f
00000110: 75ef 3dbd 502a bc3e d7fb eebe 9955 f7bb
00000120: 28f6 24bb 0fec c5be 926d bebe e86e 6b3e
00000130: c9e3 143f e4df 9a3d c909 6c3e 0d2f 04bd
00000140: b9fd c53e 39f5 cb3e a5e0 743e 1731 d23e
00000150: d494 643e f5df 04bf a991 cf3e ea44 ce3d
00000160: c4cc f8bc 322a aebd 6047 bdbe 7860 6bbe
00000170: a0c8 afbe cfad 10bf 16c5 ad3d c378 efbd
00000180: 59cd 83be 6dd5 7b3e 6671 4fbe 9557 fd3e
00000190: d57b b5be 200c 9ebe 63f2 ed3d 64c8 9c3e
000001a0: 1ae6 5c3d 1853 bfbe 2587 87be 3d17 ac3d
000001b0: e663 45be 8e8c f93e 7cdf 3f3c 5b86 f73d
000001c0: dcbd c23e f9a3 54be 5274 fc3d ea1b 90bd
000001d0: a7ea ad3e 8c64 403e 2dc0 8abe 26c7 4b3d
000001e0: e14b 0f3d ef3c 083f aa3c f03e 0c22 b5bd
000001f0: 74a8 afbe f2c9 08bf a54b 38be 0270 79be
00000200: 7614 cbbe 30ec a8be 7266 93be ce7d e5bd
00000210: 658b 8cbe 95d9 85be f75f bebe af35 00bf
00000220: ebc4 01bf 1365 0e3e 439c b13e b712 783c
00000230: 9ea3 febe fb88 003e 5203 97be 49f5 973d
00000240: 9c07 b2be 8fad 86be e540 4cbe d370 53be
00000250: 7ff8 f6be 3eff a73e c799 cfbe 11d4 51be
00000260: cd2f f1be 4e83 7bbd ea94 3abe d21f 7abe
00000270: 0346 8b3e 09e8 59bd 2f25 a53e e162 b1be
00000280: c96b f1be 2542 aabe affa 20be 1ae9 b7be
00000290: 58a0 c5bc 7664 efbd 0e3a dabb 62cb fe3e
000002a0: ad92 7a3e 97fb 583e ffb3 dfbe ebc6 93be
000002b0: e310 46be 8bad b33e 572b 44be c5ce c1bc
000002c0: 14b5 163e a002 0e3e 8c6d 91bc 7c93 363e
000002d0: 7f5d c4be cf4a f0be 3a08 1f3e 8f7f c6be
000002e0: edb1 5e3e 86fd 8fbe 44d9 bf3d 3b5f 87be
000002f0: 119b ac3e 0dad c63d 9a86 123d 2568 94be
00000300: 6597 83be 3261 91be e5d0 9ebe ccf0 8ebe
00000310: 088f d6bd 0c0b 1abe 54ab 69bd 0735 143e
00000320: 8c1f aabd 2097 113f cd95 12bc 8c2c 19bf
00000330: a29b 8ebe 2714 48bc ae0a 0f3e f152 5dbe
00000340: ba17 c1be eaeb e9be a482 8cbe d9c7 febe
00000350: 3131 87bd 43d2 f23d 0c09 04bd cbd8 ccbe
00000360: 1548 8a3e ef54 aa3e 320c 65be 1c69 d73e
00000370: b416 5a3e 865e 9ebd d1d2 603e 478a 583e
00000380: 6492 f83e 75b2 8abe d80a 4b3e 7b85 e1be
00000390: fc86 7ebe 6e4c ecbd f2d4 2abd e235 afbe
000003a0: 624f b43d c0ed 843e 1bd0 73bd 07aa 9cbe
000003b0: bdbb 303e d0ef 9ebe f6c7 c23e 9f2d e7be
000003c0: da25 1dbe a1a0 023e 34d5 39bd 61cf a33e
000003d0: 821d bbbd 1bc2 4f3e 0ad5 cfbe c116 c53d
000003e0: c04d 98be 136f d2be 9d57 92be a68f af3e
000003f0: a6bd b7be 882e e53d aa31 8e3e 9437 e23e

actor.bias f4 [3]
-0.037722696 -0.052452456 0.0691345
00000000: 1d83 1abd 63d8 56bd 6496 8d3d

critic.weight f4 [1, 128]
0.21888223 0.09725473 -0.070069306 0.061032645 -0.0026725535 -0.02615124 -0.027115267 0.11200521
0.31849855 0.10092659 0.0308902 0.08080912 0.13971399 0.06200249 -0.1093113 0.24047577
-0.16671345 -0.0137753915 0.08430558 0.0054549887 0.018063096 -0.031725682 0.09969481 0.015914686
0.14953153 0.012415389 0.01908787 -0.047880705 0.12310539 -0.1368879 0.20148402 -0.052469343
0.19369516 -0.029918145 -0.071268745 0.084508665 0.101413205 0.3684262 0.13220356 0.05039391
0.12929031 0.057218503 -0.022790134 -0.091482684 -0.06710496 0.06536988 0.030630317 0.002137098
0.016871002 -0.16642015 0.077450596 -0.029445821 0.21359606 -0.1738289 0.2597314 0.20070899
-0.13012339 0.10501013 -0.13170238 -0.10280406 0.182773 -0.11539058 0.033390798 -0.07597301
-0.11072899 0.10320444 0.036930893 -0.124687456 0.069541894 0.009487834 -0.06879525 0.23351406
0.13893595 -0.005579675 0.26956806 0.20321749 -0.007688187 0.0671945 0.04146207 0.22946571
-0.04753052 0.05782257 0.09538485 0.11138011 0.2207515 0.043098148 0.02070231 0.044675987
0.01816029 0.27146935 0.05524521 -0.1748815 0.123208866 0.25097144 0.05544815 0.04867628
0.034087073 -0.08358881 0.3150976 0.20656237 0.13898866 0.11475988 0.061041307 0.10163281
0.1545198 0.078754045 0.17420773 -0.05675902 0.16686602 -0.060185738 -0.09972985 0.09729329
0.17688109 0.34409082 -0.097432345 -0.31141007 0.07947432 -0.08673148 -0.051977914 0.14789166
0.103181265 0.20100698 0.023288356 -0.07391034 0.012381736 -0.021119583 0.14883575 -0.1930798
00000000: aa22 603e 7d2d c73d 7f80 8fbd 5efd 793d
00000010: 0226 2fbb 203b d6bc d620 debc fd62 e53d
00000020: 3e12 a33e 9ab2 ce3d 720d fd3c 407f a53d
00000030: 2f11 0f3e 53f6 7d3d 9ade dfbd 483f 763e
00000040: eeb6 2abe 2eb2 61bc 67a8 ac3d c3bf b23b
00000050: 0ff9 933c caf2 01bd cb2c cc3d 845f 823c
00000060: cb1e 193e ea69 4b3c 2a5e 9c3c 8f1e 44bd
00000070: ae1e fc3d 572c 0cbe d451 4e3e 18ea 56bd
00000080: 0658 463e e616 f5bc 59f5 91bd e112 ad3d
00000090: bab1 cf3d 5ca2 bc3e 5f60 073e d869 4e3d
000000a0: ae64 043e f35d 6a3d 60b2 babc 465b bbbd
000000b0: 536e 89bd a5e0 853d 6eec fa3c 8e0e 0c3b
000000c0: 0e35 8a3c 0b6a 2abe 6b9e 9e3d 5d38 f1bc
000000d0: edb8 5a3e 3400 32be 84fb 843e a886 4d3e
000000e0: 113f 05be 8d0f d73d fddc 06be ef8a d2bd
000000f0: d828 3b3e e551 ecbd cac4 083d bd97 9bbd
00000100: e1c5 e2bd d95c d33d d944 173d 235c ffbd
00000110: fb6b 8e3d dc72 1b3c 86e4 8cbd 4f1e 6f3e
00000120: 3a45 0e3e b5d5 b6bb d304 8a3e 3f18 503e
00000130: 30ed fbbb 459d 893d 22d4 293d 0ff9 6a3e
00000140: 5daf 42bd 5cd7 6c3d 2259 c33d 411b e43d
00000150: ae0c 623e af87 303d e497 a93c 2bfe 363d
00000160: e3c4 943c 08fe 8a3e cd48 623d 2314 33be
00000170: ee54 fc3d 547f 803e 991d 633d c760 473d
00000180: e39e 0b3d 9c30 abbd 7954 a13e 1685 533e
00000190: 0b53 0e3e 3a07 eb3d 7306 7a3d dd24 d03d
000001a0: 703a 1e3e cd49 a13d 8363 323e 257c 68bd
000001b0: edde 2a3e 5285 76bd 2a3f ccbd b441 c73d
000001c0: 5120 353e ac2c b03e 9c8a c7bd 2471 9fbe
000001d0: 6fc3 a23d 46a0 b1bd cbe6 54bd e970 173e
000001e0: b350 d33d c6d4 4d3e 39c7 be3c 4e5e 97bd
000001f0: c4dc 4a3c fa02 adbc 6668 183e b6b6 45be
