W__RNN/W_RNN/md2/v_6/train_iter_2500.pt (torch, 80523 bytes, 8 tensors)

h0 f4 [128]
00000000: 45a7 45bf 02d5 813f a66b 89bf 4c67 be3e
00000010: 1ac6 36be 1c6b d53f 78c7 9b3d d7b9 3abf
00000020: 0f02 783e 71c7 f1bd ed4a 2dbf 827e 343f
00000030: 44d2 93be d8c2 9abf 1e7e 0abe 7fc9 9c3e
00000040: 0423 86bf b357 783f f918 983d 9d6f 35bf
00000050: aeb2 273f 526f ddbe eb1d d33e 578f 8c3f
00000060: 5584 803e 5514 11bf b9a2 ddbe 412b 6e3f
00000070: 8386 d53e 2e1b 17bf 8d09 37bd 7b9a c53f
00000080: 2ce8 913f 08fe e5be 2844 e2bf 0873 4b3f
00000090: 7422 163f e6cb 55bf b8de 07bd 0acd d33e
000000a0: 65ea 43be 76ea 36bf 2929 98bf b40f f7be
000000b0: eb3b cf3e 3a33 adbf a3d7 8ebe 6cd2 1ebf
000000c0: 3827 053f 8428 37bf c546 ef3e ff08 a3bf
000000d0: 669a b2bf 966f ddbe 8713 adbf e30b 7d3f
000000e0: b473 2dbd bbbe 993f 2da4 893f 80bd b43f
000000f0: a400 303f 71c5 8a3f 0ae6 9e3d 0144 0dc0
00000100: 4a4b f33f 1256 193e ddbe d4be 93a1 ddbf
00000110: 96f0 943f 22fd 56bf 027f c1bf d5c5 bfbd
00000120: e841 eb3e 6809 efbf 717b 463f 3e8c 2ebd
00000130: 9b78 acbf f0fe 5dbf 139e 56be d6e3 a43f
00000140: 4c3e debe b08e a03f 3dc7 ad3f 0e43 ccbf
00000150: 134c 35be b360 5f3e b897 6ebd 11ea 02bf
00000160: 409f 313f 8366 a83e 7e45 a73f 746d 6ebe
00000170: 562e 043f 2bfb b2be 3997 d8be 7af8 a03f
00000180: 66a3 e6bf d217 83bf d644 2cbe 6aa0 2dbe
00000190: 5b2c c93e c07a b73d 071b 333e 7cd5 533f
000001a0: 9c6c 21bf 905c 8b3f 054e babe cff7 c9bd
000001b0: 5e76 1cbf 4a15 0a40 0819 9f3f 209c 3cbe
000001c0: 2523 ea3d 6784 a7bd 9a19 b33e cf10 9b3e
000001d0: 4e59 623e f149 82bf 916b 69bf 77e7 523f
000001e0: eb3a a6bd a855 73bf ed1d 70bf 2de7 e53e
000001f0: 3173 84bf 301c 9dbe 3d45 333f 3360 31bf
-0.7720836 1.014313 -1.0735977 0.37188184 -0.17849007 1.6673312 0.07606405 -0.7293982
0.24219535 -0.118056186 -0.6769245 0.70505536 -0.28871357 -1.2090712 -0.13524672 0.3062248
-1.0479436 0.9700882 0.07426638 -0.70873433 0.6550702 -0.43248993 0.41233763 1.0981244
0.2510096 -0.5667165 -0.4328821 0.9303475 0.41704187 -0.5902585 -0.044686843 1.5437769
1.1398978 -0.44920373 -1.767705 0.794724 0.5864632 -0.8351425 -0.033171386 0.4136737
-0.19132383 -0.7145151 -1.1887561 -0.48254168 0.404754 -1.3531258 -0.27898893 -0.6203983
0.5201297 -0.71546197 0.4673368 -1.273712 -1.3953369 -0.43249196 -1.3521584 0.9884626
-0.04234667 1.2011331 1.0753227 1.4120331 0.6875098 1.0841504 0.0775872 -2.2072756
1.9007351 0.1497424 -0.41551867 -1.7314934 1.1635921 -0.8398 -1.5116885 -0.09363905
0.4594872 -1.8674746 0.77532107 -0.042614214 -1.3474306 -0.8671713 -0.20958738 1.288203
-0.43406904 1.2543545 1.3576428 -1.5957963 -0.17704801 0.21814232 -0.05825016 -0.51138407
0.6938362 0.3289071 1.3068082 -0.2328394 0.51633203 -0.3495725 -0.42302874 1.2575829
-1.8018615 -1.0241644 -0.16823134 -0.16955724 0.39291653 0.089589596 0.17490779 0.82747626
-0.6305635 1.0887623 -0.3638765 -0.09861719 -0.61118114 2.1575494 1.2429514 -0.18418932
0.114324845 -0.081795506 0.3498047 0.3028626 0.2210438 -1.0178815 -0.9117976 0.8238444
-0.081167065 -0.95052576 -0.93795663 0.44902936 -1.0347654 -0.30685568 0.70027524 -0.69287413

RNN.weight_ih_l0 f4 [128, 17]
00000000: 9464 94bc c59d 413e 2b4a 7f3e f80e ed3e
00000010: 26d0 aa3c 3b7b 223e 6f9f c13e 273c b5bd
00000020: 08bc d5bd ccee 15be f23e eebd db77 603d
00000030: 2888 023d 74ac bbbd eccc 0ebc ca96 c2bd
00000040: c6d9 63bd a36f 083d f33a 41bd 6a9c b1bd
00000050: 4b24 afbd 56c5 9ebd b60c 3ebd 4a58 e0bd
00000060: da79 0c3c 32bd c5bd b92a cdbc 2e46 4a3d
00000070: 66e5 4e3e f33b cf3d 6694 e3bd f9b9 a23d
00000080: f41e d4bd dbbd 4d3e a971 86bd f834 83bd
00000090: 58e6 02be ea90 7ebd b75f 413a a165 78bd
000000a0: 488e b0bd 9af5 ecbd b6f7 bbbd 5878 2dbd
000000b0: 993b f1bd 164f 3b3d df35 28bd e0cc 4cbb
000000c0: eb51 78bd d6b3 85bd add2 2e3e 551c 61bd
000000d0: 7268 863e bd08 8a3e a51f f83e 1fdf 353e
000000e0: e232 633e 4b49 293e be9c 1ebe bc40 6cbd
000000f0: 088d 013c d85c 93bd fc91 723d a065 cebd
00000100: 8614 29bd 1bc9 013b 67a1 8cbd c58a d3bd
00000110: 7bdb 163e 7db5 da3c 54b9 703e d3bf ef3e
00000120: 1f09 4c3d 6305 763e b818 d33e 02b6 31be
00000130: 36a9 aabe d817 46be fd44 cdbd 5b2b 2fbd
00000140: b33a 5b3e a27c c1bd 6ea7 12bd 6ab6 c63c
00000150: 994c 89bc 2865 543e 233e 9ebe 0d28 8dbe
00000160: 49a9 bebe ad1c c9bd d626 77be 5107 28be
00000170: 0d8d 573e cf18 cb3d bb86 4f3e 3502 bb3d
00000180: 8b50 1dbe 5488 ad3d 8de6 5a3d 0d9e 8e3d
00000190: 1aa6 a4bc 913d c1bc f120 debd 227b 2abe
000001a0: dd4d eabd 8edd a4bd e654 a6bd ab91 debd
000001b0: 2665 23be 1248 09bd 1ed5 68bd 1f08 f0bd
000001c0: 6933 73bd d330 c53d 8945 663e b96b 4cbe
000001d0: 50df 643d b8ee 7dbd b6e4 0c3e 671b 27bd
000001e0: e437 20be 6b70 a63d 75f7 ab3e 0065 39be
000001f0: e3e7 a1be cb99 87be c494 c03e be0d 9c3e
00000200: 3df5 0e3e 9abb 9b3c 04f6 af3b c242 cc3b
00000210: b2fd c33d cac8 f63d 7105 393d 1556 98bd
00000220: d085 e3bd 5aea cfbd 5b3a 8bbd 1f61 f4bd
00000230: 9790 2cbd e81a dabd 5f8f 85bd 8cdd 5cbc
00000240: 65d8 1cbe ea51 03be dc7a 8d3c b06c 3c3e
00000250: a70d 263e 2051 e33d 0b43 c73c d131 20be
00000260: 1d30 933d 29a3 15be 0d66 473d bb56 513e
00000270: ff75 f33e a1b1 913c ebc2 9f3d 0f25 673e
00000280: 2698 c9bd 0492 bdbd aaff 0abe f8c4 663d
00000290: 0bf8 6fbd 6aa9 3a3e 2ef7 d03c 7baf 4d3d
000002a0: b008 bebd 86a2 2abe 953d 4f3e 5555 a8bd
000002b0: 4281 9bbe 23c8 01bf 04a3 b33d 9f68 22bd
000002c0: 2974 83be 0688 f83e 7253 c23e 36f7 ac3e
000002d0: 8d23 98bd 1596 04be 116d 193d a8b0 b5bd
000002e0: 72f3 233d b7f7 e53d 565e 97bc 4742 53be
000002f0: f247 423d 87a9 823e 1d99 fd3e da4b 47bd
00000300: 80ee c73d 230e 733e 7455 bdbe 1c69 9bbe
00000310: a009 5abe 1ba9 523e d94f f93d e78a 7fbc
00000320: 1058 cabd 5aa9 54bb 1945 b73b 1e70 263e
00000330: 1fac 2dbe ad75 efbd de8e b7bd 49d2 c8bd
00000340: ed4b 54bc 8255 3fbd 1725 7cbd c663 a53d
00000350: 0900 f13d 7243 b8bc 530f 22be d028 8f3d
00000360: 2aa8 a8bb c64f 80be 5f96 fcbc aa52 583d
00000370: dd41 0b3e bb88 933e dedd 0e3e 88b5 813e
00000380: a4c1 003f 2c08 d1bd 4309 93be 9eb4 c4be
00000390: d5fb 15be bbaf 35be 0f63 e0bd 6e4c fbbd
000003a0: 12da 84be 154f 0ebe b451 e3bd ad70 c7bc
000003b0: af5f c73d c40a 14bd 1c1d db3d fe1f 43be
000003c0: 4871 7cbd 2ee8 c63c ca7a 71be 2459 c1bd
000003d0: 0fcf 55bd 1c6e 6dbd bea1 94bd ae4d 96bd
000003e0: cedf 10be f35c 15be f837 4a3e 2eed 25be
000003f0: c30d b03d 8616 8e3c 1258 9c3d 5dc3 c3be
-0.018114366 0.1890784 0.24930637 0.46300483 0.020851206 0.15867321 0.3781695 -0.08849364
-0.10436255 -0.14641875 -0.116330996 0.054801803 0.03186813 -0.09163752 -0.008715849 -0.09501417
-0.055627607 0.03330959 -0.04717536 -0.08672412 -0.08551844 -0.077524826 -0.04639884 -0.1095434
0.008573974 -0.09655227 -0.025044786 0.049383335 0.20204696 0.10118856 -0.11112289 0.07945628
-0.10357466 0.20091955 -0.06564648 -0.06406587 -0.12783182 -0.06214992 0.00073766283 -0.060643796
-0.08620888 -0.11570282 -0.091781065 -0.042351097 -0.117789455 0.04572972 -0.041067 -0.0031250045
-0.060624998 -0.065284416 0.17072554 -0.05495866 0.2625156 0.26959792 0.48461643 0.17760895
0.22187379 0.16531865 -0.1548948 -0.057678923 0.00790716 -0.07195443 0.059221253 -0.10077977
-0.04127934 0.0019803706 -0.068667226 -0.103292026 0.14732163 0.026697868 0.23508197 0.46826038
0.049813386 0.24025492 0.41229796 -0.17354587 -0.33332223 -0.19345033 -0.10022924 -0.042765956
0.2140911 -0.094476 -0.035804205 0.024256904 -0.016760157 0.20741713 -0.30906782 -0.2756962
-0.3723853 -0.098199226 -0.24135908 -0.16409041 0.210499 0.09916841 0.2026624 0.0913128
-0.15362756 0.08473268 0.053442527 0.069637395 -0.020098735 -0.023588927 -0.10846127 -0.16648534
-0.114406325 -0.08050071 -0.08121662 -0.10867628 -0.15956554 -0.033515997 -0.05684387 -0.11720299
-0.0593752 0.09628453 0.22487463 -0.19962968 0.05587703 -0.061995238 0.13759121 -0.040797617
-0.1564632 0.08126911 0.33587232 -0.18104935 -0.31622228 -0.26484522 0.376135 0.30479234
0.13960738 0.019010354 0.0053699035 0.006233544 0.09569873 0.12050016 0.045171205 -0.07438294
-0.11109507 -0.10152121 -0.0679824 -0.11932587 -0.04213008 -0.10649663 -0.065214865 -0.013480555
-0.15316923 -0.12824216 0.017270498 0.18400836 0.16216145 0.11099458 0.02432396 -0.15644003
0.07186911 -0.14613022 0.048681308 0.20443241 0.4755096 0.017784895 0.078008495 0.2257273
-0.09843473 -0.09256366 -0.1357409 0.056340188 -0.05858616 0.18228689 0.02550849 0.05021618
-0.09279001 -0.1666356 0.20238335 -0.08219401 -0.30372053 -0.5069601 0.08771327 -0.039650556
-0.2567456 0.48541278 0.3795429 0.33782357 -0.07428656 -0.12947877 0.03745753 -0.08871585
0.04002709 0.112288885 -0.0184776 -0.20630752 0.047431894 0.25519964 0.4953088 -0.048656322
0.09762287 0.23735861 -0.36979258 -0.3035363 -0.21292734 0.20572321 0.12173433 -0.015597082
-0.09880078 -0.0032449574 0.005592954 0.16253707 -0.1696019 -0.11692367 -0.08962797 -0.09805734
-0.012957555 -0.046712406 -0.06155881 0.08075671 0.11767585 -0.022493098 -0.15826158 0.06990206
-0.005147 -0.25060862 -0.030833421 0.05281321 0.13599344 0.28815255 0.13951823 0.2533381
0.5029547 -0.10206637 -0.28718004 -0.3841905 -0.14646848 -0.17742817 -0.10956394 -0.12270437
-0.25947624 -0.13897355 -0.11099568 -0.02434572 0.09735047 -0.03614308 0.106989115 -0.19055173
-0.06163147 0.024280634 -0.23581997 -0.0944083 -0.05219942 -0.057966337 -0.072574124 -0.07339035
-0.14147875 -0.14586239 0.19747913 -0.16203758 0.08596375 0.017344724 0.076339856 -0.38234988

RNN.weight_hh_l0 f4 [128, 128]
00000000: a14c 053c e9de c2bd 0ca3 3b3d 3a8a e2bd
00000010: 15a9 a4bd 41e6 f8bc 496b 4bbd 5c23 ba3d
00000020: 512b 2abd 04f4 4cbd 7dcb c8bc 3a45 19be
00000030: e080 883d 3a37 563d 0278 18bd c5fe 983c
00000040: f890 813d 67bb 8abd f60c 9dbc 60c8 84bd
00000050: 198b 32bc 01ef 25bd 16d5 88bc cde1 c7bb
00000060: 3fd3 e7bc 585f 183d c5df 09bd 94bf ee3c
00000070: 9634 8abd d2a9 833a f039 043e 2d6e cf3c
00000080: d9d3 1a3d d7af a33d ddfe 7fbd c497 3e3d
00000090: d622 b9bd c6e6 80bc 14df 5d3d 495f 84bd
000000a0: c51b 89bd 5a7e a53c 381d f3bc 402b 2b3d
000000b0: a952 40bd 1980 4dbd 2407 2fbe bd19 463e
000000c0: 9e6e 8a3d 7797 12bd 10eb 69bc 2ef2 45bc
000000d0: 78b2 a73d 9022 913c ffa7 343d 83c5 4dbd
000000e0: b6f5 38bd 9083 7dbd b306 81bc 1936 bf3d
000000f0: 5684 bb3d 4536 9b3d df80 3b3d 4f1a 5fbd
00000100: 9567 64bd 903c afbd 19f0 99bd cfb7 9e3c
00000110: 1381 0fbe 7535 f8bb bb04 a7bd fcc9 36bd
00000120: d1ca d9bc 1255 fc3c c2b2 5f3d 0154 01be
00000130: 72de 473d 5acb 60bd d956 663d 892c 99bc
00000140: fd86 d8bd ee03 44bd 4a8a 68bd fbdd f23c
00000150: 07ed dd3c 6b1e 25bd d168 18bd b0ee 2f3e
00000160: 5f94 8d3d ace5 79bd 1fa4 07be b981 573d
00000170: 8e64 a1bd 1d1e 31bd 3725 57bd aca2 6f3d
00000180: e3da fdbd 531c a03d 7aa7 a83d 8adf b8bc
00000190: 902b 973d 5298 3e3d d1c0 5f3d 17a4 b83d
000001a0: 1935 dcbb cd3b f63b 189e 023d 3e8b 0cbd
000001b0: eb6b 1cbd 27e7 663d 8129 c13d 59bf d8bc
000001c0: 23ca 113d 36bc 053e ada7 613d 52a5 5d3d
000001d0: 3141 11bd f7c4 873d 0a81 d43d f4d7 0cbd
000001e0: f121 a63d 24a7 66bb 7e1d b3bc 68ae fe3d
000001f0: acd9 903d e9c0 023d 7f29 02be c4e9 9e3c
00000200: 94d8 bbbd 7b9d 47bd 9c42 153d 10f4 133b
00000210: aec2 aabd fe8b ee3c 7716 d53d db7b c83b
00000220: 55a1 653a 8410 083d 5e44 063e 5fcb 4abd
00000230: d283 67bc 6236 73bd a213 b0ba 727d 4ebd
00000240: cce8 c63c 9528 df3d a7fc b23d bc32 023e
00000250: 8639 91bd 1bb3 85bd ed02 c2bc af99 dabd
00000260: 20bb 09bd 4fa8 79bc 8519 6cbb 558e bfbd
00000270: 1abe f8bd fd7f d93c e4ba c83d f3b9 16bd
00000280: 885a 0f3d ee49 11bc e6d9 063d 07da 4e3d
00000290: 646e c13c 2268 da3b afb8 a0bd 9675 24bd
000002a0: 9e98 823d c090 803d 488a b33d bb4a b2bd
000002b0: b51a 0c3d 3fa7 aa3c 3c26 e3bc 46ca a13c
000002c0: 30ba 41bc 9289 0fbc 8bb0 80bc 26dd ce3d
000002d0: 58f1 b8bd 04b0 963d 55c5 07be f8e7 c538
000002e0: b49f 8c3d d196 2bbe e0e0 293b cf27 9bbd
000002f0: dfc7 dcbd 998d d23d 0f31 9e3d 4857 20bc
00000300: d224 df3b 1ac5 91bd e779 183c 0c88 6fbd
00000310: a57b 9b3c e4cd 383b 1b6c d73d 5de6 8d3d
00000320: d0ff b0bd 5ec0 953d 3e98 583d 6800 0fbd
00000330: 7f4d 6f3d 6204 e43c 1043 4c3c c284 09bd
00000340: 08b8 bdbd 5124 2abd 56c5 a7bc 6d62 ad3d
00000350: 76d8 d4bd 40a8 7bbb 479e c1bd 86a2 193d
00000360: 629d e3bc f21c bdbc 58ff c33c 5be8 08bd
00000370: 086b ab3c b939 d3bc ff68 98bd 897e 36bc
00000380: 521d 40bd 0df9 93bd 0662 8dbd b75d a5bc
00000390: 425f eb3c c672 38bd 0127 62bd a69b e83d
000003a0: ffd6 05bd b5fe 7dbc d985 a43d 98a3 393d
000003b0: b046 303b 67c3 b03c 3d94 84bc d1d3 253d
000003c0: e6b7 96bc 6c7e 8abd cab9 303d 3851 c03d
000003d0: 1d6d 7c3b 1070 47bc 17ea 8a3d 74b7 0c3d
000003e0: ffef d63c dc59 c6bc ca12 713d eafc 113b
000003f0: 870e 14bd 841b 06bc 3ff0 943d f035 583d
0.008135946 -0.09515173 0.04580979 -0.11061521 -0.08040062 -0.030383231 -0.049662862 0.090887755
-0.041545216 -0.0500374 -0.024511093 -0.14967814 0.06665206 0.052298762 -0.037223823 0.018676171
0.06326479 -0.067740254 -0.01917122 -0.06483531 -0.010897421 -0.040511135 -0.01670317 -0.0060999156
-0.028298972 0.037200302 -0.03366067 0.029144086 -0.06748311 0.0010045117 0.12912726 0.02532109
0.03779969 0.07992523 -0.062498916 0.046531454 -0.090398476 -0.015735041 0.054167822 -0.06463487
-0.0669475 0.02020185 -0.029677019 0.041789293 -0.04695383 -0.05017099 -0.17092568 0.19345756
0.0675938 -0.03578898 -0.014277235 -0.012081666 0.08188337 0.017716676 0.044105526 -0.05023719
-0.045156203 -0.061893046 -0.015750265 0.0933649 0.091561005 0.075787105 0.045777198 -0.05446845
-0.055762846 -0.08556473 -0.07516498 0.019374756 -0.14014082 -0.007574732 -0.08155199 -0.04462622
-0.026585968 0.030802283 0.054613836 -0.12629701 0.048796125 -0.05488143 0.056235168 -0.018697994
-0.10572622 -0.04785531 -0.056772508 0.029646864 0.027090563 -0.040312212 -0.037209336 0.17180896
0.06913065 -0.061010048 -0.13246201 0.052613948 -0.078805074 -0.04324161 -0.052525725 0.058504745
-0.12395265 0.078179024 0.082350686 -0.02256753 0.07381356 0.046531983 0.054627243 0.09015673
-0.006720197 0.007514453 0.03188905 -0.03431248 -0.038188856 0.056372788 0.09431744 -0.02645843
0.035593163 0.13060078 0.05509155 0.05411274 -0.035462562 0.06629365 0.10376175 -0.034385636
0.081119426 -0.0035194838 -0.021864649 0.12435609 0.070727676 0.031922255 -0.12711142 0.019398578
-0.091721684 -0.04873417 0.036440477 0.0022575893 -0.083379135 0.029119488 0.104046755 0.0061182803
0.0008759697 0.033218876 0.13112018 -0.049510356 -0.0141305495 -0.059378035 -0.0013433585 -0.050412603
0.024280928 0.10896412 0.08739596 0.12714666 -0.0709105 -0.06528302 -0.023683036 -0.10673844
-0.033625722 -0.015237882 -0.0036025953 -0.093533196 -0.12145634 0.026550287 0.098012716 -0.03679843
0.034998447 -0.008867724 0.032922648 0.050500896 0.023612209 0.0066652456 -0.078477256 -0.0401512
0.06376766 0.06277609 0.087666094 -0.0870566 0.034205157 0.020831702 -0.027728193 0.019749772
-0.011824176 -0.008760827 -0.015709182 0.101007745 -0.09030408 0.07357791 -0.1325887 9.4368996e-05
0.068663985 -0.1675675 0.002592139 -0.07575952 -0.1078031 0.10280914 0.07724201 -0.0097864345
0.0068098092 -0.07117672 0.0093064075 -0.058479354 0.018979857 0.0028198892 0.10518666 0.06928704
-0.08642542 0.07312082 0.052879564 -0.034912497 0.058423515 0.027834121 0.012467161 -0.033573873
-0.09263617 -0.04153854 -0.02047984 0.08466039 -0.10392849 -0.0038399845 -0.09454017 0.03750851
-0.027785007 -0.023085091 0.023925468 -0.033424716 0.02092506 -0.02578436 -0.074419014 -0.011138567
-0.046902962 -0.07225237 -0.06903462 -0.020186288 0.028731946 -0.04503133 -0.05521298 0.113578126
-0.03267574 -0.015502621 0.08033342 0.04532203 0.0026897602 0.02157755 -0.016183967 0.040485207
-0.018398236 -0.06762394 0.043145932 0.09390491 0.0038517185 -0.012172714 0.0678293 0.034354642
0.026237486 -0.02421277 0.05885581 0.0022275993 -0.036146667 -0.008185271 0.07272386 0.052785814

RNN.bias_ih_l0 f4 [128]
00000000: d763 2dbd 7681 603c f914 233d b798 a1bd
00000010: d0a5 c03b 1c17 cf3d 7870 c73d 4645 41bd
00000020: 43d2 93bc e47d 31bd 4443 173c e06d 1fbd
00000030: caaf 9e3d a780 993d ad1d a83c 0e73 423c
00000040: 29a0 c63d b4ab 89bd 207b acbc e9a6 bc3d
00000050: 8054 9d3d 1f24 dcbb 92e4 ba3c 3b2f a13d
00000060: 7c23 6f3d 8955 323d 8863 583d 29af a7bc
00000070: 1164 2cbd 1475 dc3d cc85 813d 9d3d e63d
00000080: e213 acbd 2b0f 33bd 2606 b03d 9e45 343d
00000090: dc67 1abc d964 91bb 43bc 61bd c726 3ebd
000000a0: 595e be3d 648e 64bd 4ebe 97bc c6eb 89bc
000000b0: d9b3 04bd a3a8 273d 339a 363c 4006 d2ba
000000c0: 7dd4 9b3d 9a99 5e3d 7da7 72bc cdea 083e
000000d0: 04cd 1d3c 6034 9d3d e727 52bd a7eb 5bbd
000000e0: 36d4 16bc bef6 d03d 058e 1bbd 1711 4fbc
000000f0: 55d3 46bd c803 923d 505b 923d c9af 513d
00000100: 3d01 783d a250 c23d 8bc5 c5bc d8f4 38bd
00000110: ab99 973d 5209 bfbd c2fc 22bd 8c91 59bd
00000120: 7be7 723d 4597 7fbb aecd 8d3d 2e00 bb3d
00000130: 7595 a43d 36a7 c9bd e438 363d e99e 743b
00000140: 0b6b b53d ea7a 6c3d 6942 c93c 2e17 aebd
00000150: 0dda 953c 06be 5e3d e618 b03d 0727 4dbc
00000160: d05e 9b3d ad6d 4e3d 59f5 de3b da19 6b3d
00000170: 8f07 613d f957 2e3d 2ebc b93c 8d3c 80bd
00000180: 68f2 b63d e2ce 82bc c931 5e3d ddb1 36bd
00000190: 8472 653d b2b9 b63d 97f9 c1ba 2ac8 5dbd
000001a0: a454 41bd f4ed 453d 8eae c93c 3356 43b9
000001b0: 0f38 b23d 3031 b4bc 60b9 fc3d f257 9dbb
000001c0: dbe5 0fbd 09e3 06bd 5a9c b7bd 5525 163c
000001d0: b0d6 f0bd ca10 d63d fcf5 573c b742 42bb
000001e0: 7165 cf3c 0377 d8bd 24e9 82bb bf42 2ebd
000001f0: 56c2 373d 5b2d 8ebd 2a6b c1bc 56a8 1c3c
-0.042331543 0.013702741 0.039814923 -0.07890456 0.0058791414 0.1011183 0.097382486 -0.047185205
-0.018044597 -0.04333295 0.009232346 -0.038923144 0.07748373 0.074952416 0.020521963 0.0118682515
0.09698517 -0.06722203 -0.021054804 0.09211523 0.07682133 -0.006718173 0.022814069 0.078703366
0.05838345 0.043538604 0.052829295 -0.020469265 -0.04208762 0.107645184 0.06324348 0.112422206
-0.0840223 -0.043715637 0.08594923 0.044011705 -0.009424176 -0.004437071 -0.05511118 -0.0464237
0.09295339 -0.055799857 -0.018523362 -0.016836058 -0.03239808 0.04093231 0.011145162 -0.0016023591
0.07608888 0.054345705 -0.01481044 0.1337082 0.009631399 0.07676005 -0.051307585 -0.053691532
-0.0092058685 0.10203312 -0.037977237 -0.012638352 -0.048541386 0.071296275 0.07146323 0.051193032
0.060548056 0.09488036 -0.024142047 -0.045155376 0.07402357 -0.093279496 -0.03979183 -0.05311732
0.05930279 -0.0039000076 0.06923996 0.09130894 0.08036319 -0.09846346 0.04448785 0.0037326163
0.088583075 0.057734407 0.0245678 -0.08500515 0.018292451 0.05438044 0.08598499 -0.012521512
0.075864434 0.050397564 0.00680415 0.0573977 0.05493885 0.042564366 0.022672739 -0.06261549
0.08932954 -0.01596779 0.054246698 -0.044603217 0.056017414 0.08922137 -0.0014799115 -0.05414597
-0.04719986 0.048322633 0.024619367 -0.00018628761 0.087020986 -0.02199611 0.12340045 -0.0048017437
-0.035131317 -0.03293136 -0.089653686 0.009164174 -0.117596984 0.10452421 0.013181206 -0.0029641816
0.025316926 -0.10569575 -0.0039950777 -0.042544123 0.044863068 -0.069422446 -0.02361067 0.009561619

RNN.bias_hh_l0 f4 [128]
00000000: 44ed e53d dd93 9e3d 0eab 6d3d 392b 3cbd
00000010: f065 523d 49e1 a83d 7d3e 04bc acee e23d
00000020: 9bb3 90bd 63ba c43d cca9 9bbb 46f7 fb3c
00000030: db9f 50bd e372 0b3d 9fe7 bc3c 43dc 7a3d
00000040: 4403 883d 818c 723d f9aa 853c 91d3 84bc
00000050: 547e 61bd b875 503d f186 9b3d 04db 67bc
00000060: 3376 b63d 3277 babc 74b1 813d 19f6 643d
00000070: 2aa9 803d 5d74 43bd 4ca0 943d b178 963d
00000080: de5d 1a3d 02e3 7c3c 99ad 39bd 17b4 c63d
00000090: 805e 8abc ef75 2fbd 802e 4a3c ef6a 413d
000000a0: 8775 3e3d 0a1a 27bd 90b0 993d a1f1 973d
000000b0: 8107 173b 1bb9 92bc 5de0 9abc 5711 063e
000000c0: 62df 173c bd79 b13d bfa7 583d c8c3 543b
000000d0: a72c b43d 98c1 0ebd e97e a83b 22e9 403c
000000e0: 1de8 8d3d 60d2 09bd 00af 3e3d 52c4 89bc
000000f0: c9c6 43bd 2248 f53c cfb2 13bc 3cd6 963d
00000100: c51b b73d 3770 913d e059 76bd ecb1 8e3c
00000110: ef43 02bd dd1f 09bd 150b e73d 29a4 833d
00000120: 9e9f 213d 90b0 493c 6137 c13b c3ee 873c
00000130: 84f3 1ebd 6eb9 b9bb 5718 e73d 966e 183d
00000140: 572d 12bd d336 77bc 7e83 cf3d d331 903c
00000150: 1f12 97bc 340a d73d 07b4 c83d 672e 553c
00000160: 483c 883d 253f acbd 727b c5bb 038e a43d
00000170: bf54 003e 0859 f53d 38db c03d 120f 5dbd
00000180: 95be fd3d edcc 0dbd f864 73bc 1e3e 723c
00000190: 7d71 c7bb 814f bdbc 0b85 22bd 5a4c 193d
000001a0: a073 03bd 9fa0 183d ee86 593c 88c9 28bd
000001b0: 77f1 c43d 826f 1ebc 3b08 1f3d 7a56 003d
000001c0: 4dea 343d d3de dc3d f89d bbbd 8a50 343d
000001d0: 0925 a93c 36ce f43d 01be 913d 7656 36bd
000001e0: b60c 5f3c 3242 83bd fb88 bc3d 9504 b83b
000001f0: 962a e4bc a6d4 adbd 4f96 6fbd 2f8e 933d
0.112268955 0.077430464 0.05802446 -0.045939658 0.051366746 0.08246095 -0.008071539 0.11080679
-0.07065507 0.09605863 -0.004750466 0.030757558 -0.0509337 0.03404511 0.023059664 0.061245214
0.06641248 0.059216026 0.016316878 -0.016214164 -0.055052117 0.050893515 0.075940974 -0.0141513385
0.089092635 -0.022761915 0.063326746 0.05589876 0.062822655 -0.047718395 0.07257137 0.07347239
0.037687175 0.015434982 -0.04533157 0.09702318 -0.016890764 -0.04283708 0.012340188 0.04722112
0.0464988 -0.040796317 0.0750438 0.07419134 0.0023045244 -0.01791053 -0.018905813 0.13092552
0.009269567 0.08665798 0.05289435 0.0032465328 0.08797579 -0.034852594 0.005142082 0.011774333
0.06929038 -0.033647895 0.04655361 -0.016817246 -0.047797 0.029941622 -0.009014799 0.07365081
0.089408435 0.071014814 -0.060144305 0.017418824 -0.031803068 -0.033477653 0.112814106 0.064277954
0.039458863 0.012310162 0.0058964943 0.016593343 -0.038806453 -0.005667857 0.11283939 0.037214838
-0.03568777 -0.015088755 0.10132502 0.017601883 -0.018441258 0.10499993 0.097999625 0.013011551
0.06652123 -0.08410481 -0.0060266787 0.08034899 0.12532328 0.11979872 0.09416813 -0.05396945
0.12389866 -0.03461926 -0.014855616 0.014785318 -0.006086527 -0.0231092 -0.03967766 0.03742633
-0.03209269 0.037262555 0.013276799 -0.04120782 0.09616368 -0.00967014 0.03882621 0.03133247
0.04416876 0.10784688 -0.091609895 0.04402212 0.020647543 0.11953394 0.071163185 -0.04451605
0.01361387 -0.0640911 0.092058145 0.0056157806 -0.027852338 -0.08487825 -0.058492955 0.07204854

actor.weight f4 [3, 128]
00000000: 0334 323e 45ab 08be b903 07be c0cc b33e
00000010: fdeb b83e 55c8 443e 717b 063d 2ea2 453e
00000020: 032a 10be a550 6e3e 1d0b a73e c1fd 8bbd
00000030: 14f5 14be f33c 043e 420e b43e 71d5 8cbe
00000040: 749b 55be 016a 8a3d a724 17bc 5c72 8dbe
00000050: 6a16 a8be 1030 413e db33 85be 535c 1ebe
00000060: dd36 b63e a391 993e 4c65 b83c 9d9c a0bd
00000070: da04 a33d f0f4 a13e 935a 83be 6fc4 c93d
00000080: 2944 3dbe 22e6 7e3e 1113 9b3c 1c54 1fbc
00000090: d5ac 053e 4264 c6be 9759 d13e abb6 373d
000000a0: d218 98be 3863 433e ecce 93be 5011 a53e
000000b0: 2a55 863d 316d d63e b388 af3e 04ef 0f3d
000000c0: 0303 943e e1b2 c4be 460f 123e d9af 853e
000000d0: e738 e7bd ef48 c7be 6c0c 323c 9a59 49be
000000e0: 7634 f6bd 205c 9bbc 26b1 49be aab7 543d
000000f0: f1b9 c6bd 1bf2 19be 3268 84be ef2f 4fbe
00000100: 2de0 943e 3780 6a3d 6168 113e bf10 a13e
00000110: 40bd 8bbc 4621 af3e 6570 94be 74de 503e
00000120: 9583 693d 2d8f 94bd c87d c8be 0380 493e
00000130: 0455 1f3e 98ab 303e 847d ea3e 0dac df3e
00000140: 6531 603b f230 983d 312d 66bd febc 7c3e
00000150: 484b 9a3e d3e3 433e 1395 303e c6ed 3f3e
00000160: 9215 413e d764 51be ed0a 9f3e 4cf7 f43e
00000170: 2d19 cc3e 02ae 93be 84aa f9bd d864 ffbc
00000180: 8cd3 833e 94cb b33e 887b a33e 5c5c 003e
00000190: 2d37 f83e 0530 da3e 69ae 3cbe 6f51 903d
000001a0: 1bfb 52be 50b8 c93d 714f 3fbd ec19 6e3d
000001b0: b5ba 7b3e f4f3 94bc fba6 c23e 97f7 a63d
000001c0: e70f cc3e 2f53 4abd 89b1 6abc b75c ff3d
000001d0: a6c4 8c3e 876f e63e 3883 a53e 9928 a33e
000001e0: 17c2 0dbe 1bbc 093e 243a 21be 4304 d13e
000001f0: 0c3c 173e 9ec6 e23c ec54 083e 3979 9f3d
00000200: f1ba e4bd cdae 803e d796 8d3e e8a3 76be
00000210: 0c83 813b b8ca edbe 69e1 2e3e 8fa1 6ebb
00000220: e909 ba3e 228b d7be c0e2 b9bd fef0 a23e
00000230: b89b c83d 17c4 6dbe 634b 7dbe 8ab6 663e
00000240: 0149 88be 98f9 ffbd 4d63 143c 250c d2bd
00000250: 1b20 483e ca03 5ebe 82f8 473e d896 133e
00000260: 8a61 a6be 6830 8bbe a2eb cbbc dd18 bc3e
00000270: bab8 9bbd 2723 7cbe f3da 5abe 9f78 6f3d
00000280: ef57 e73d 2dc0 26be f674 17bd 5da8 223d
00000290: fd73 90bd bb41 023e 0e9e 95bd 2025 71be
000002a0: 6b40 75bd 5042 babe 221c 833e 33d5 993c
000002b0: 1b24 e2bd 5af5 95be 66a6 0fbe 94ee a23b
000002c0: d182 b6be e1f3 7c3e 7985 95be c747 6fbe
000002d0: 0936 083e 6114 a93d 9aeb 9fbd e80f 50be
000002e0: fac0 a93e 7882 893d c716 00be eb59 65be
000002f0: 3e66 25be 951f 06be d8f8 ec3d 546e b63e
00000300: 7aae d3be c7c0 7e3e 59fc adbe bf8e 83be
00000310: 47b8 9cbe 0fce 3dbe 1ba4 fd3e 6f4a adbd
00000320: f7c3 713e fa08 093e b874 e7bd e765 2e3d
00000330: 6bdd 9fbe cd16 8d3e 24df 4abe 837a babe
00000340: f889 a93c 5038 85be 9f7b 3abd e6ff 60be
00000350: ccbb 16be b80b 44be 07d4 27be 13d5 90be
00000360: 1f91 633d ccbe a93e 7daa 98be 6428 96be
00000370: 8b26 14be 1acc 843e 0b7e 823d 2807 223d
00000380: 1409 99be 1ddb 98be 2b45 f0be a4c3 423e
00000390: 8a12 53be 3343 74be c681 023e 6322 cdbe
000003a0: ba18 a0bd 8d29 a1be a588 5c3e 9561 633d
000003b0: 19d0 c5bd 2b1c d5be ff6f 76be fc35 81be
000003c0: 844a 8dbe 06f0 a33d ba70 48be e356 4bbe
000003d0: f755 10be 845a 90be f3cc a2be 25a5 f3bd
000003e0: 50b0 42bd 3347 7cbe 2e1c 803e 914c a1be
000003f0: cf85 513c 437f 823c 47b4 013d 5d1d 2b3e
0.17402653 -0.13346584 -0.13185014 0.3511715 0.36117545 0.19217046 0.032832567 0.19300148
-0.14078526 0.23272951 0.32625666 -0.06835509 -0.14546615 0.12913875 0.35167128 -0.27506593
-0.20860082 0.067585 -0.009225047 -0.27626312 -0.328296 0.1886599 -0.26016125 -0.15464906
0.35588732 0.29993924 0.02250924 -0.078423716 0.0795991 0.31632185 -0.2565504 0.0985192
-0.18483032 0.24892476 0.01892999 -0.009724643 0.13054211 -0.38748366 0.40888664 0.04485194
-0.29706436 0.19080818 -0.28868806 0.3223977 0.065592125 0.4188018 0.3428398 0.035140052
0.28908548 -0.38417724 0.14263639 0.26110724 -0.1129015 -0.3892283 0.010867219 -0.19663087
-0.12021725 -0.018964827 -0.19696483 0.05193297 -0.09703434 -0.15033762 -0.25860745 -0.20233129
0.29077283 0.05725118 0.14199974 0.3145809 -0.017058015 0.34205073 -0.28992 0.20397359
0.057010252 -0.07253871 -0.39158463 0.19677739 0.15559775 0.17252958 0.45798886 0.43685952
0.003420913 0.074312106 -0.05619544 0.2468147 0.3013556 0.19129877 0.17244367 0.18743047
0.18855885 -0.20448624 0.31063023 0.47844923 0.39862958 -0.28843695 -0.121907264 -0.031176016
0.25747335 0.35116255 0.31930184 0.12535232 0.48479596 0.4261476 -0.18425907 0.07046782
-0.20603602 0.09849608 -0.04670662 0.05813019 0.24582942 -0.018182732 0.3801802 0.08152693
0.39855883 -0.049395736 -0.014324554 0.12468856 0.2749378 0.45006964 0.32326674 0.3186691
-0.1384357 0.13450663 -0.15744835 0.40823564 0.14769 0.027682599 0.13313645 0.07786793
-0.11168469 0.25133362 0.27654144 -0.24085963 0.0039523896 -0.46443725 0.17078175 -0.0036412214
0.36335686 -0.42098337 -0.09076452 0.31824487 0.09795326 -0.23219334 -0.24735789 0.2253057
-0.26618198 -0.12498778 0.009056878 -0.10256223 0.19543497 -0.21681133 0.19528392 0.14413011
-0.3249629 -0.2718537 -0.024892632 0.3673772 -0.07603593 -0.24622785 -0.21372585 0.058464643
0.11296069 -0.16284247 -0.036976777 0.039711345 -0.07053373 0.12720387 -0.07305537 -0.23549318
-0.059875887 -0.36378717 0.256074 0.01877842 -0.11042043 -0.2928875 -0.1402832 0.0049722884
-0.3564668 0.24702407 -0.29203394 -0.23367225 0.13301863 0.0825584 -0.07808609 -0.20318568
0.33155042 0.06714338 -0.12508689 -0.22397582 -0.16152284 -0.13097985 0.11570901 0.3563105
-0.41344053 0.24878226 -0.33981588 -0.25694844 -0.30609342 -0.18535636 0.49539265 -0.08461463
0.23609911 0.1338233 -0.11301559 0.04257765 -0.31223616 0.27556458 -0.19811684 -0.36421594
0.020695671 -0.26019526 -0.04552805 -0.21972618 -0.14720076 -0.19145095 -0.16389476 -0.28287563
0.05555832 0.3315338 -0.29817572 -0.2932769 -0.14467828 0.25936967 0.06371697 0.039557606
-0.2988974 -0.2985467 -0.4692777 0.19019943 -0.20612541 -0.2385376 0.12744817 -0.40065297
-0.07817216 -0.31477013 0.21536501 0.055512983 -0.09658832 -0.41623053 -0.2406616 -0.252365
-0.27595913 0.08004765 -0.19574252 -0.19857363 -0.14095293 -0.28194058 -0.3179699 -0.11896733
-0.047531426 -0.24636535 0.250215 -0.31503728 0.01278825 0.015929824 0.031666066 0.1671042

actor.bias f4 [3]
00000000: f267 763c d878 1ebc 0071 1cbc
0.015039431 -0.009672366 -0.009548426

critic.weight f4 [1, 128]
00000000: 8487 a73d 9250 253e df61 1bbc df9d 16be
00000010: 6945 bc3c 8172 343d 1d25 4f3e 6ffa fd3d
00000020: 1b55 8ebd 7b0f c4bd 3930 3a3d 9db2 313e
00000030: 1a78 363e 5bfd 173c 0cce 4f3e e038 503d
00000040: 4af9 413e 721e 00be 7fa9 633d 32b0 2c3e
00000050: a4f7 87bd 9ff6 45bc 44cf e63d 7a6b 19be
00000060: 6372 c53d 1801 2f3e c8b4 2dbe 0a4f 44bd
00000070: 89fa 10be f422 473e c4f3 c0bc 0cd9 4a3e
00000080: 16ec 163d 2f00 413e c1a1 8fbb cf2c 363d
00000090: 8d3d e6bc 83c5 a8bd 8670 6e3d 1f4a 9e3b
000000a0: 8c0f c23d ec72 27be 9eae 1cbe 6581 06bd
000000b0: 7576 af3d ad5d 43be ee8b 173e 10f0 c33d
000000c0: 7480 0dbd b1f0 a9bd 98cf c0bc 091c d53d
000000d0: a6c2 87bc 6e20 33bd 55d8 0a3e 4505 da3c
000000e0: c26a 25bc a714 e9bd fcb7 c93d 7a7b 333d
000000f0: f577 833e e0d7 333e b4f8 5c3d 8956 12be
00000100: 3e10 4dbc 7fb2 543d e7e8 e0bc 264c 7cbd
00000110: b907 723d 58a3 ecbd 27da 283e 5ed7 083e
00000120: 92cb 553d 84c0 893c 4567 42bd 8d03 1abd
00000130: d809 5b3c 6f48 023c d60a dbbc 2660 ec3d
00000140: 0568 51bd 8219 1d3e a9a0 0ebe a512 ecbd
00000150: 09fd ae3b f7ee 593d 2f93 253d c277 8f3e
00000160: 8d82 6f3e 8d34 e63d d589 6c3d 669b 4e3d
00000170: b508 273e f384 723c a9b8 3b3e 56b7 96bc
00000180: 8ad1 323e 37a0 a1bc 3e8e d23d 4e44 9c3c
00000190: 371b 513c 2e07 54bc 639c 5b3d f0f9 43be
000001a0: 7ac6 c83d f3da 233e 3a35 6c3e e8bd 03be
000001b0: b1ee f43c d208 263e 8c08 d93d 8cf6 6a3e
000001c0: 2735 12bd 9eb6 553d 0cef cf3d 89f8 3cbe
000001d0: 2100 94bd 08a9 79bd 9285 ed3d 0633 45bd
000001e0: 9b8f 3fbd 0d34 c6bd 9d87 0a3e f01c 05be
000001f0: 4e9d 963d 5886 3c3e 5cd4 803d 55c0 1cbe
0.081801444 0.16144016 -0.0094837835 -0.1470866 0.022982316 0.044054512 0.20229001 0.12401282
-0.06949826 -0.09573265 0.045456145 0.17353292 0.17819253 0.009276713 0.20293444 0.05083549
0.18942752 -0.12511614 0.055581566 0.16864088 -0.066390306 -0.012082725 0.112700015 -0.14982405
0.09640958 0.17090261 -0.16963494 -0.04792694 -0.14158072 0.19446927 -0.023553737 0.1980936
0.036846243 0.18847726 -0.0043832962 0.044476327 -0.028105522 -0.08240797 0.05821278 0.0048306133
0.094756216 -0.16352433 -0.15300986 -0.032838244 0.08567516 -0.19078703 0.14799473 0.09567273
-0.03454633 -0.08297861 -0.023536488 0.10405738 -0.016572308 -0.0437321 0.13559087 0.02661384
-0.010096254 -0.11380892 0.09849545 0.04381893 0.25677457 0.17562819 0.05394812 -0.14290823
-0.0125160795 0.05192804 -0.027454806 -0.06159606 0.059089396 -0.11554593 0.16489469 0.13363406
0.052196093 0.016815431 -0.047461767 -0.037601043 0.013369046 0.00795184 -0.026738565 0.11541776
-0.05112459 0.15341762 -0.13928474 -0.11526994 0.0053402227 0.05320641 0.04042357 0.28021055
0.23389645 0.11240492 0.057748634 0.05044117 0.16311915 0.014802205 0.18332161 -0.018397968
0.17462745 -0.019729717 0.10281037 0.019075539 0.012762836 -0.012941165 0.05361594 -0.19138312
0.098034814 0.16001491 0.2306718 -0.12865412 0.029898973 0.16214302 0.10597333 0.22945613
-0.03569522 0.05217611 0.101530164 -0.18454184 -0.07226587 -0.060952216 0.11597742 -0.048144363
-0.046767812 -0.09677897 0.13528295 -0.1299932 0.07354222 0.18410623 0.06290504 -0.15307744
