W__RNN/W_RNN/md2/v_6/train_iter_5000.pt (torch, 80523 bytes, 8 tensors)

h0 f4 [128]
0	0xbf369ad4	-0.7133
1	0x3f792b26	0.97331464
2	0xbf8bcc58	-1.0921736
3	0x3ebb9615	0.3663794
4	0xbe2c5f1b	-0.16833155
5	0x3fcf2c59	1.6185409
6	0x3cbaee12	0.022818599
7	0xbf3e5f23	-0.7436392
8	0x3e5e19bb	0.21689503
9	0xbdc8800d	-0.09790049
10	0xbf283766	-0.6570953
11	0x3f3f4e90	0.7472925
12	0xbe981e87	-0.2971079
13	0xbf9e36cb	-1.2360471
14	0xbe01815a	-0.12647
15	0x3ec12f48	0.37731385
16	0xbf87ff35	-1.0624758
17	0x3f6d3bae	0.9266919
18	0x3d35a2a6	0.044344567
19	0xbf3bcb91	-0.7335749
20	0x3f2400ed	0.6406391
21	0xbec1ebb7	-0.3787515
22	0x3ed680de	0.41895193
23	0x3f8a82a2	1.0821116
24	0x3e8035cd	0.25041047
25	0xbf13f021	-0.5778828
26	0xbee3d4fc	-0.44498432
27	0x3f6553ea	0.8958117
28	0x3eb9442e	0.3618483
29	0xbf121987	-0.570702
30	0xbdafc393	-0.08582225
31	0x3fc41c42	1.5321124
32	0x3f9289c9	1.1448299
33	0xbed55b67	-0.41671297
34	0xbfe3b226	-1.7788742
35	0x3f441a57	0.7660269
36	0x3f19bd7c	0.60054755
37	0xbf47eb36	-0.7809328
38	0xbbaa0dbc	-0.0051896255
39	0x3ecef22a	0.40419132
40	0xbe5577da	-0.20846501
41	0xbf1fb011	-0.6237803
42	0xbf910c27	-1.1331834
43	0xbef95ba5	-0.48702732
44	0x3ec2e8a2	0.3806811
45	0xbfa797ab	-1.309316
46	0xbe60dee0	-0.2196002
47	0xbf2835df	-0.657072
48	0x3efceb99	0.49398497
49	0xbf2a3064	-0.6648009
50	0x3edab4e7	0.42716143
51	0xbf9d2845	-1.2277914
52	0xbfb38c39	-1.4027168
53	0xbeda08b4	-0.42584765
54	0xbfa8b12a	-1.3179066
55	0x3f7b2f58	0.98119116
56	0xbc9ac7d3	-0.018894112
57	0x3f9676de	1.1755025
58	0x3f86ebfa	1.0540764
59	0x3fad064d	1.3517548
60	0x3f281bda	0.656675
61	0x3f88587e	1.0652006
62	0x3db148ef	0.08656489
63	0xc0096897	-2.1470087
64	0x3fea94e9	1.8326694
65	0x3e40b3c1	0.1881857
66	0xbebf533b	-0.37368187
67	0xbfd73858	-1.681407
68	0x3f90fc30	1.1326962
69	0xbf4b61af	-0.7944593
70	0xbfbf73fc	-1.4957271
71	0xbce2a1c0	-0.027665019
72	0x3edc107e	0.42981333
73	0xbfed3766	-1.8532531
74	0x3f4368a6	0.76331556
75	0xbd4a1c8b	-0.049343627
76	0xbfaabeeb	-1.3339514
77	0xbf51342e	-0.81720245
78	0xbe3cc3e2	-0.18434098
79	0x3fa2c2b6	1.2715671
80	0xbecc3a0c	-0.39888036
81	0x3f9cee01	1.2260133
82	0x3faf64be	1.3702619
83	0xbfcac7b4	-1.5842195
84	0xbe2f1425	-0.17097528
85	0x3e7083ca	0.23487774
86	0xbd532a17	-0.051553812
87	0xbf03ce1f	-0.5148639
88	0x3f2bd048	0.67114687
89	0x3e9079fe	0.28218073
90	0x3fa8658e	1.3155992
91	0xbe824d26	-0.25449485
92	0x3f059868	0.5218568
93	0xbead5cf9	-0.33859995
94	0xbedbb6c4	-0.42912877
95	0x3f9febbd	1.2493817
96	0xbfe7450e	-1.8067949
97	0xbf80c88f	-1.0061206
98	0xbe4f4d44	-0.20244318
99	0xbe33544e	-0.17512628
100	0x3eb9560b	0.36198458
101	0x3ca56b7c	0.020192854
102	0x3e1ffd68	0.1562401
103	0x3f4ec37e	0.8076705
104	0xbf1d1482	-0.6135942
105	0x3f886ded	1.0658547
106	0xbeaa6075	-0.33276716
107	0xbdd91b2f	-0.10600888
108	0xbf1783b5	-0.59185344
109	0x4006a778	2.1039715
110	0x3f94b160	1.161663
111	0xbe48846c	-0.19581765
112	0x3da3c845	0.07997183
113	0xbdca2b41	-0.09871531
114	0x3eadc05b	0.33935818
115	0x3e8fc283	0.28078088
116	0x3e4a880d	0.19778462
117	0xbf86e757	-1.0539349
118	0xbf6f28e0	-0.93421745
119	0x3f3fe2bf	0.7495536
120	0xbde9abde	-0.11409734
121	0xbf616bbc	-0.88055015
122	0xbf6c55be	-0.9231833
123	0x3eca34c5	0.39493385
124	0xbf7d7205	-0.99002105
125	0xbe9a2b16	-0.30110997
126	0x3f22b532	0.6355773
127	0xbf346d54	-0.7047932

RNN.weight_ih_l0 f4 [128, 17]
0	0xbd3e6070	-0.04647869
1	0x3e725bdd	0.23667856
2	0x3e8bbdf5	0.27293363
3	0x3efe2a68	0.49641728
4	0x3d071cc8	0.032986432
5	0x3e42beac	0.19018048
6	0x3ed45123	0.41468152
7	0xbe18e9b2	-0.14932898
8	0xbdc2d9b5	-0.095141806
9	0xbe2fb6d7	-0.17159592
10	0xbe0487fe	-0.12942502
11	0x3ce9c45c	0.028536014
12	0x3c039c94	0.008032937
13	0xbd9266eb	-0.07148536
14	0xbc414a7d	-0.011797545
15	0xbde34673	-0.110974215
16	0xbd4b5c8a	-0.0496488
17	0xbc6e0150	-0.01452668
18	0xbd8132c4	-0.06308511
19	0xbdf8424c	-0.1212202
20	0xbdbd477c	-0.0924215
21	0xbd9ec556	-0.077524826
22	0xbd764521	-0.06012452
23	0xbde0584a	-0.1095434
24	0x3c48a827	0.012247122
25	0xbda93dd1	-0.08263744
26	0xbd152740	-0.036414385
27	0x3d45bf71	0.048278276
28	0x3e96905e	0.29407018
29	0x3de079b3	0.10960712
30	0xbdec8abe	-0.115499005
31	0x3d73790f	0.059441622
32	0xbe02d720	-0.12777376
33	0x3e7d369d	0.24727865
34	0xbdeb0762	-0.114760175
35	0xbd4b51e4	-0.049638644
36	0xbe02e658	-0.12783182
37	0xbca5a27a	-0.020219076
38	0x3c98ee5e	0.01866835
39	0xbd6d103a	-0.057876803
40	0xbdb0deae	-0.08636223
41	0xbdfb3033	-0.12265053
42	0xbdd7ce73	-0.10537424
43	0xbd42b870	-0.047539175
44	0xbdd5b59d	-0.104350306
45	0x3da6d1d9	0.08145494
46	0xbd654891	-0.055977408
47	0x3c951c85	0.018202076
48	0xbd16fdeb	-0.03686325
49	0xbdf25086	-0.11831765
50	0x3e3465bb	0.17616932
51	0xbda2f6f1	-0.079572566
52	0x3ea1478f	0.31499907
53	0x3e87e247	0.26539823
54	0x3f07b29d	0.5300692
55	0x3e4b1ef3	0.19836025
56	0x3e8329f5	0.25617948
57	0x3de97d8f	0.114009015
58	0xbe6b6695	-0.2298835
59	0xbdd7ea69	-0.10542757
60	0x3c7404b4	0.014893699
61	0xbddb2096	-0.10699575
62	0x3d046c0d	0.032329608
63	0xbdc63300	-0.09677696
64	0xbd1ab9fb	-0.03777502
65	0xbb38d834	-0.002820504
66	0xbd8868dd	-0.06660626
67	0xbd9d8382	-0.07691099
68	0x3e0c16ac	0.13680524
69	0x3d84c139	0.06482167
70	0x3e548acb	0.2075607
71	0x3eff938a	0.4991725
72	0x3d2d72d3	0.042345833
73	0x3e952727	0.29131433
74	0x3ef028fc	0.4690627
75	0xbe5fa991	-0.21842028
76	0xbebdf4e6	-0.37100905
77	0xbe368c92	-0.17827061
78	0xbe08672d	-0.13320608
79	0xbd10ffa3	-0.035400044
80	0x3e89862e	0.26860183
81	0xbdbde67b	-0.09272476
82	0xbd083260	-0.033251166
83	0x3d4da319	0.05020437
84	0xbd3ad656	-0.045614563
85	0x3e6afbb1	0.22947575
86	0xbe93fbfd	-0.2890319
87	0xbe925d5e	-0.2858686
88	0xbeb6875e	-0.35650152
89	0xbe1b8828	-0.15188658
90	0xbe8d2894	-0.2757002
91	0xbe3938a3	-0.18088011
92	0x3e829fb4	0.2551247
93	0x3e1c0c64	0.15239102
94	0x3e456d2c	0.19279927
95	0x3db97524	0.09055546
96	0xbe18f797	-0.14938198
97	0x3dfb450e	0.122690305
98	0x3d292180	0.041291714
99	0x3d84395e	0.064562544
100	0xbd497233	-0.049181174
101	0x3c853a1c	0.01626306
102	0xbdddd6d6	-0.10831992
103	0xbe2f31f7	-0.17108904
104	0xbdf2b0d7	-0.11850136
105	0xbc656ada	-0.014002526
106	0xbdbeda2d	-0.093189575
107	0xbd223bc5	-0.039607782
108	0xbe3647f6	-0.17800888
109	0xbd068603	-0.032842647
110	0xbd85d627	-0.06534987
111	0xbe180760	-0.14846563
112	0xbd97d708	-0.07414061
113	0x3dc33c1d	0.0953295
114	0x3e83856b	0.25687727
115	0xbe59b5f4	-0.21260816
116	0x3d91c47b	0.07117554
117	0xbe39f939	-0.18161477
118	0x3e08f84b	0.13375966
119	0xbd0b49d8	-0.03400597
120	0xbe48ee4e	-0.19622156
121	0x3e01247e	0.12611577
122	0x3ecdcee5	0.4019691
123	0xbe4d6575	-0.20058234
124	0xbeba1405	-0.363434
125	0xbe98ec20	-0.2986765
126	0x3ecda8a2	0.4016772
127	0x3eae0dfa	0.33995038
128	0x3e015f08	0.12633908
129	0x3c214a34	0.009844352
130	0x3baff604	0.0053699035
131	0xbbb86088	-0.005626742
132	0x3e3c8d3e	0.18413255
133	0x3de58a5d	0.11208031
134	0x3d9cfd0c	0.07665452
135	0xbda27e02	-0.0793419
136	0xbe284a90	-0.16434693
137	0xbdd65e62	-0.10467221
138	0xbce4acf9	-0.027914511
139	0xbdc8dd55	-0.09807841
140	0xbd088167	-0.033326533
141	0xbdea0264	-0.11426237
142	0xbd2f6c68	-0.042827994
143	0xbb0bb833	-0.0021319508
144	0xbe17ba27	-0.14817105
145	0xbde7137f	-0.112830155
146	0x3c539e62	0.012916179
147	0x3e6cff66	0.23144302
148	0x3e0bdebe	0.13659188
149	0x3dfbd686	0.122967765
150	0x3d0ca8f2	0.034340806
151	0xbe638d6c	-0.22221917
152	0x3dec19ff	0.11528396
153	0xbdfef141	-0.12448359
154	0x3d9582ea	0.073003605
155	0x3e7c6780	0.24648857
156	0x3f072de7	0.52804416
157	0x3c45dc07	0.012076384
158	0x3d4cd318	0.050006002
159	0x3e76700d	0.24066181
160	0xbe003025	-0.12518366
161	0xbd8b69c1	-0.0680728
162	0xbe02339e	-0.12715003
163	0x3d9ffbc8	0.07811695
164	0xbd802c44	-0.06258443
165	0x3e4b11f1	0.19831063
166	0xbd2edff7	-0.04269406
167	0x3d8ac455	0.067757286
168	0xbdfb82d8	-0.12280816
169	0xbe2dddec	-0.16979188
170	0x3e80b8e9	0.25141075
171	0xbe06ceb2	-0.13164786
172	0xbe9db7ba	-0.30804235
173	0xbf083fcb	-0.5322234
174	0x3dc8f67b	0.098126374
175	0xbd8afee8	-0.06786901
176	0xbea1fc36	-0.31637734
177	0x3f0582d4	0.5215275
178	0x3edf1ab5	0.43575063
179	0x3eaadd6c	0.33372056
180	0xbdd85918	-0.10563868
181	0xbe00940d	-0.12556477
182	0x3db25e62	0.08709408
183	0xbdf09902	-0.11747934
184	0x3d11ba41	0.035578016
185	0x3de1e0d5	0.110292114
186	0x3c9eab17	0.019368691
187	0xbe685c2f	-0.22691415
188	0x3dea4d42	0.11440517
189	0x3e8556f8	0.26042914
190	0x3f05e93d	0.5230902
191	0xbd2557f6	-0.04036709
192	0x3e1dcdd3	0.15410547
193	0x3e2e5efb	0.1702842
194	0xbec5fc85	-0.3866922
195	0xbea472fd	-0.3211898
196	0xbe4de3dc	-0.20106453
197	0x3e5dbb43	0.21653466
198	0x3e18d4d3	0.14924936
199	0xbd0096f7	-0.03139397
200	0xbd956ce4	-0.0729616
201	0x3ca0156d	0.019541467
202	0xbc6d10ed	-0.014469367
203	0x3e4351a9	0.1907412
204	0xbe682d39	-0.22673501
205	0xbe31f568	-0.17378771
206	0xbe116f47	-0.14202605
207	0xbe10e642	-0.14150336
208	0xbcb6c1db	-0.022309234
209	0xbd3f1cb0	-0.046658218
210	0xbdd68370	-0.104742885
211	0x3e1107a9	0.14163078
212	0x3e216276	0.15760216
213	0xbd2c1da4	-0.042020455
214	0xbe29f3b3	-0.1659687
215	0x3d9b2bcf	0.07576715
216	0x3cd0c1ea	0.02548309
217	0xbe44895d	-0.19193025
218	0xbcbecd91	-0.023291381
219	0x3d5ffc7c	0.054684147
220	0x3e009bfc	0.12559503
221	0x3ea32ed3	0.31871662
222	0x3e19e8b0	0.1503017
223	0x3e825f91	0.25463536
224	0x3f102fa8	0.5632272
225	0xbde412b8	-0.11136383
226	0xbe816bf6	-0.2527768
227	0xbeca7c9f	-0.39548203
228	0xbde8361e	-0.11338447
229	0xbe461640	-0.19344425
230	0xbd8b191f	-0.06791901
231	0xbd9da9ff	-0.0769844
232	0xbe987dd8	-0.2978351
233	0xbddb56fe	-0.10709952
234	0xbe22ffe4	-0.15917927
235	0xbc9a323e	-0.018822785
236	0x3da90830	0.08253515
237	0xbd8521e0	-0.06500602
238	0x3e154f22	0.14580968
239	0xbe2eb319	-0.17060508
240	0xbdf96490	-0.12177384
241	0xbc4b3f27	-0.012405193
242	0xbe7f347d	-0.24922366
243	0xbe14d984	-0.145361
244	0xbdda1666	-0.106488034
245	0x3c54ed41	0.012996019
246	0xbc939a5d	-0.018017942
247	0xbd9c656f	-0.076365344
248	0xbe0851e2	-0.13312486
249	0xbe3a96c3	-0.18221574
250	0x3e709c79	0.2349719
251	0xbe4ddbbc	-0.20103353
252	0x3d9f2ad1	0.077718385
253	0x3d073a67	0.03301468
254	0x3ddb6499	0.10712547
255	0xbec6f7d0	-0.3886094

RNN.weight_hh_l0 f4 [128, 128]
0	0x3a88f9fa	0.0010450475
1	0xbdab37bb	-0.08360239
2	0x3d05d0a8	0.032669693
3	0xbdb1740a	-0.08664711
4	0xbdc8db55	-0.09807459
5	0xbca1c048	-0.019745007
6	0xbd738a33	-0.05945797
7	0x3ddce294	0.10785404
8	0xbd70fba1	-0.058833722
9	0xbd8e74fd	-0.069559075
10	0xbcfcf0af	-0.030876486
11	0xbe3fb5d6	-0.18721709
12	0x3d56f717	0.052481737
13	0x3d888c26	0.06667356
14	0xbd3c1a56	-0.045923553
15	0xbc77e786	-0.015130883
16	0x3d53a4e0	0.05167091
17	0xbd09382c	-0.033500835
18	0xba84bc60	-0.0010126941
19	0xbd8362d0	-0.06415331
20	0xbd16815b	-0.036744457
21	0xbd6e29c6	-0.058145307
22	0x3b1c856f	0.0023883244
23	0xbd42dbcf	-0.047572907
24	0xbcf268d3	-0.029591
25	0x3c52cc3c	0.012866076
26	0xbc24ee38	-0.010066561
27	0x3d013007	0.031539943
28	0xbda781bb	-0.08179041
29	0xbce025f6	-0.027361851
30	0x3dee5538	0.11637348
31	0x3cc4a2ec	0.024003468
32	0x3d3421b3	0.04397745
33	0x3d8ce834	0.06880227
34	0xbd9a75e3	-0.07542016
35	0x3d01429e	0.03155767
36	0xbdb2e4ca	-0.08735044
37	0xbd586db5	-0.052839
38	0x3d9273fa	0.07151027
39	0xbd99d876	-0.0751199
40	0xbdb772e0	-0.089574575
41	0xbc85229e	-0.016251858
42	0xbd03d605	-0.032186527
43	0x3d16973f	0.036765333
44	0xbd60301c	-0.05473338
45	0xbd5e6311	-0.054293696
46	0xbe3f3edb	-0.18676321
47	0x3e3d09ef	0.1846082
48	0x3d5f8d81	0.054578308
49	0xbda185e7	-0.07886868
50	0xbb1cbc7f	-0.0023916063
51	0xbd58eb45	-0.052958746
52	0x3d877389	0.066138335
53	0xbbf78b11	-0.00755442
54	0x3b3feb70	0.0029284619
55	0xbda586eb	-0.08082374
56	0xbda272d1	-0.07932056
57	0xbd87f67c	-0.0663881
58	0xbcf52943	-0.029926902
59	0x3da08c9f	0.07839321
60	0x3db271db	0.087131225
61	0x3d5043ac	0.050845787
62	0x3cd32d44	0.02577842
63	0xbd94ec58	-0.072716415
64	0xbd538641	-0.051641706
65	0xbdd0d754	-0.101973206
66	0xbd95b435	-0.073097624
67	0x3cb5a468	0.022173122
68	0xbe194d39	-0.14970864
69	0xbc6db703	-0.014508965
70	0xbd9f0685	-0.077649154
71	0xbd7c558e	-0.06160503
72	0xbcb5cef1	-0.022193404
73	0x3cae09bd	0.021244878
74	0x3d0f5c47	0.035000112
75	0xbe090818	-0.13381994
76	0x3d594365	0.053042788
77	0xbda37922	-0.079820886
78	0x3d74acf2	0.059735246
79	0xbc93082a	-0.017948229
80	0xbde331c9	-0.1109348
81	0xbdc9134d	-0.098181345
82	0xbd8519c0	-0.06499052
83	0x3cdb4048	0.02676405
84	0x3cb6e71b	0.022326997
85	0xbd6f0e75	-0.058363397
86	0xbd5ac873	-0.05341382
87	0x3e24330c	0.16035098
88	0x3d92c2dd	0.071660735
89	0xbd85642c	-0.06513247
90	0xbe1f0522	-0.15529302
91	0x3d44a082	0.048004635
92	0xbdc70858	-0.09718388
93	0xbd3f4319	-0.04669485
94	0xbd7863ad	-0.060641933
95	0x3d7f5096	0.062332712
96	0xbe0f5aed	-0.13999529
97	0x3d9146e1	0.07093597
98	0x3dac21b7	0.08404868
99	0xbc7be13e	-0.015373526
100	0x3d9afb3c	0.075674504
101	0x3d41fc1d	0.047359575
102	0x3ce36e1c	0.027762465
103	0x3dc9e89e	0.09858821
104	0xbd4481eb	-0.047975462
105	0xbc50b842	-0.012739243
106	0x3be9a441	0.0071301763
107	0xbdcc11a7	-0.099643044
108	0xbcb890c5	-0.022529969
109	0x3d2e7bb7	0.042598452
110	0x3db309ba	0.087420896
111	0xbd20406b	-0.039123934
112	0x3cf820e9	0.03028913
113	0x3e03e794	0.12881309
114	0x3d1cfc2d	0.03832643
115	0x3cfeb68d	0.031092906
116	0xbd7b707b	-0.061386567
117	0x3d685437	0.05672094
118	0x3dc12fed	0.09432969
119	0xbd07a12e	-0.033112697
120	0x3d8645c0	0.065562725
121	0xbc7340de	-0.0148470085
122	0x3b4e6e50	0.0031498857
123	0x3df7965d	0.120892264
124	0x3d5895ca	0.052877225
125	0x3d02c0e9	0.031922255
126	0xbe0ca7cc	-0.13735884
127	0x3c2892ff	0.010288953
128	0xbda3e717	-0.08003061
129	0xbcd43a37	-0.025906665
130	0x3ccd496b	0.025059422
131	0x3ba1ed7d	0.004941641
132	0xbdc6e339	-0.09711308
133	0x3c73c4c0	0.014878452
134	0x3dfff6d6	0.12498252
135	0x3c0c1bad	0.00855152
136	0xba26742d	-0.0006349709
137	0x3c233b28	0.009962834
138	0x3e0a0193	0.13477163
139	0xbcb092e6	-0.021554422
140	0x3c0edc63	0.0087195365
141	0xbe08b13c	-0.1334886
142	0xbc452440	-0.012032568
143	0xbcfccb6a	-0.030858714
144	0x3bed840c	0.007248407
145	0x3e0826a3	0.13295989
146	0x3dda422f	0.10657155
147	0x3db9bc65	0.090691365
148	0xbd8189c1	-0.063251026
149	0xbd927c06	-0.07152562
150	0xbd76c915	-0.06025036
151	0xbe1aa53d	-0.15102096
152	0xbd45f95e	-0.04833352
153	0xbd2cf682	-0.042227276
154	0xbc960003	-0.018310552
155	0xbd9fbed1	-0.07800067
156	0xbe67c5dd	-0.22634073
157	0xbd06ca78	-0.032907933
158	0x3da8da76	0.08244793
159	0xbce01022	-0.027351443
160	0x3d3e6f66	0.046492957
161	0xbb57ee21	-0.0032948332
162	0xbbee96f0	-0.0072811767
163	0x3d72e7e9	0.059303198
164	0xbc9f0e73	-0.01941607
165	0x3c7d3ef1	0.015456901
166	0xbd62126d	-0.055193353
167	0xbdafee11	-0.085903294
168	0x3d0f3d7e	0.034970753
169	0x3d6b37f3	0.057426404
170	0x3de7700b	0.113006674
171	0xbddf2e4b	-0.108975016
172	0x3d122f49	0.035689626
173	0x3c40cde3	0.011767837
174	0xbcca10f4	-0.024666287
175	0xbb83f2cc	-0.0040267464
176	0xbcc23790	-0.023708135
177	0xbbe7e7fb	-0.007077215
178	0xbd0119bd	-0.031518687
179	0x3d816ec3	0.06319954
180	0xbe000b08	-0.12504208
181	0x3d988f59	0.074492164
182	0xbe36eea6	-0.17864475
183	0x3b83ebd0	0.004025914
184	0x3da384ea	0.07984336
185	0xbe8ac194	-0.27100813
186	0xbca184db	-0.01971667
187	0xbdf76205	-0.120792426
188	0xbdbbd0a7	-0.09170657
189	0x3d94fec3	0.072751544
190	0x3da6ac0e	0.081382856
191	0x3b493fc3	0.003070817
192	0x3c7ccb4b	0.015429328
193	0xbda377f8	-0.079818666
194	0xbd068b8d	-0.03284793
195	0xbe0da0a6	-0.13830814
196	0xbce4a84f	-0.027912287
197	0x3bae3f9c	0.0053176414
198	0x3e010111	0.12598063
199	0x3dc9c44e	0.09851895
200	0xbd8d9709	-0.06913573
201	0x3de100dd	0.10986493
202	0x3d64c1db	0.055848937
203	0xbcec3471	-0.0288336
204	0x3cda0a56	0.026616257
205	0x3c75ccff	0.015002488
206	0x3c6f8280	0.014618516
207	0xbd82050f	-0.06348621
208	0xbe044c86	-0.12919816
209	0xbd342cf3	-0.04398818
210	0x3b19aff5	0.0023450826
211	0x3d9344b2	0.07190837
212	0xbde9c7cc	-0.11415061
213	0xbcc923ed	-0.024553264
214	0xbde66fb6	-0.11251776
215	0x3d1e324c	0.038622186
216	0xbbc323a0	-0.0059551746
217	0x3b811b5a	0.003940028
218	0x3c572ae4	0.0131327845
219	0xbd169977	-0.03676745
220	0x3b78f622	0.0037988503
221	0xbc890abb	-0.01672875
222	0xbe0e77aa	-0.13912836
223	0xbb1d09cf	-0.0023962145
224	0xbdbfe369	-0.09369547
225	0xbd907499	-0.07053489
226	0xbdaed8ff	-0.085374825
227	0xbb962d56	-0.004583041
228	0x3d46b4c0	0.04851222
229	0xbd2f16ef	-0.04274648
230	0xbccad767	-0.024760915
231	0x3de3f7a7	0.1113122
232	0xbd69063c	-0.05689071
233	0xbd4859cd	-0.048913766
234	0x3dda7078	0.10665983
235	0xbcf9b33a	-0.03048097
236	0xbbb0566f	-0.0053813974
237	0xbbce6b60	-0.006299421
238	0xbc88e3a8	-0.016710117
239	0x3c93da86	0.018048536
240	0xbcae7a6c	-0.02129861
241	0xbdae1e9c	-0.08501932
242	0x3d6b91f0	0.057512224
243	0x3da1b2fc	0.07895467
244	0xbd0fd0e5	-0.035111327
245	0xbd0569df	-0.03257167
246	0x3d36bb35	0.04461213
247	0x3d13be30	0.03607005
248	0x3c3e7b40	0.011626065
249	0xbc2eec8c	-0.010676514
250	0x3db9813d	0.09057853
251	0xbaf18998	-0.0018427847
252	0xbc9b8e49	-0.018988745
253	0xbc061b84	-0.008185271
254	0x3d933a46	0.07188849
255	0x3cf0bf7f	0.029388187

RNN.bias_ih_l0 f4 [128]
0	0xbd4881d6	-0.048951946
1	0x3c3b53f4	0.01143359
2	0x3ce05673	0.027384972
3	0xbdb3ec60	-0.08785319
4	0x39b69060	0.00034821313
5	0x3dcac477	0.09900754
6	0x3dd79806	0.10527043
7	0xbd41441b	-0.04718409
8	0xbb51e8df	-0.003202967
9	0xbd09dc08	-0.033657104
10	0x3beaf9f2	0.007170909
11	0xbd164d94	-0.036695078
12	0x3d973181	0.07382489
13	0x3d6b6493	0.057468962
14	0x3ce8401d	0.028350884
15	0x3cc9e962	0.024647418
16	0x3de37de8	0.11107999
17	0xbd9642f7	-0.07336991
18	0xbcc79072	-0.02436087
19	0x3dc6518b	0.09683522
20	0x3d896be1	0.067100294
21	0x3a642d4a	0.00087042584
22	0x3c7a7fe1	0.015289278
23	0x3da29d33	0.079401396
24	0x3d914763	0.07093694
25	0x3d68d730	0.056845844
26	0x3d0fe3cf	0.035129365
27	0xbd207d68	-0.039182097
28	0xbd553fa3	-0.05206264
29	0x3de6d0e3	0.11270311
30	0x3d5e5b8c	0.054286525
31	0x3df4fb05	0.11961941
32	0xbdb4a119	-0.088197894
33	0xbd0789f4	-0.033090547
34	0x3db477ca	0.088119105
35	0x3cc9faaf	0.024655668
36	0xbbf1c2da	-0.0073779644
37	0x3a941678	0.00112982
38	0xbd36183b	-0.0444567
39	0xbd9832c7	-0.0743156
40	0x3dbef520	0.09324098
41	0xbd930793	-0.07179179
42	0xbcaea03c	-0.02131664
43	0xbc49aebe	-0.012309728
44	0xbb922f2e	-0.0044611907
45	0x3d4f258c	0.050572917
46	0x3c9c6b46	0.01909412
47	0x3b456844	0.0030121962
48	0x3d3a92b3	0.04555006
49	0x3d543424	0.051807538
50	0xbc3aa9f2	-0.011393057
51	0x3def31a9	0.11679394
52	0xb9f24e8b	-0.00046216356
53	0x3d85ec58	0.065392196
54	0xbd3f4dd8	-0.046705097
55	0xbd705850	-0.05867797
56	0xbcc22ffa	-0.023704518
57	0x3db8b221	0.090183504
58	0xbd410b5d	-0.047129977
59	0xbcf03cdb	-0.029325893
60	0xbcf59f20	-0.029983103
61	0x3da3ef4f	0.08004629
62	0x3d599b10	0.053126395
63	0x3d725f9e	0.05917322
64	0x3da99a3a	0.082813695
65	0x3dc2a771	0.09504593
66	0xbccb30d3	-0.024803555
67	0xbd6135d8	-0.05498299
68	0x3d962acf	0.07332384
69	0xbdbd4faa	-0.0924371
70	0xbd4fe6cd	-0.05075722
71	0xbd081e4b	-0.033232015
72	0x3d732395	0.059360106
73	0x3bae1e5c	0.0053136777
74	0x3d7a694c	0.061135575
75	0x3d990cc7	0.0747314
76	0x3daca53d	0.08429954
77	0xbdd1727f	-0.102269165
78	0x3d941bc3	0.07231858
79	0x3c952fa4	0.018211193
80	0x3db925b8	0.090403974
81	0x3d681a77	0.056665864
82	0x3c29ee16	0.0103717055
83	0xbdd6c4e6	-0.10486774
84	0x3cb3073f	0.021854041
85	0x3d139071	0.036026422
86	0x3d8caf85	0.06869415
87	0x3bf211fe	0.0073873987
88	0x3d9cdd39	0.076593824
89	0x3d0daa4f	0.034586247
90	0x3cc3d428	0.023904875
91	0x3d98aaa3	0.07454421
92	0x3d906171	0.070498355
93	0x3d292d6b	0.04130308
94	0x3ba87579	0.005140957
95	0xbd52aa19	-0.05143175
96	0x3dbfd97b	0.09367653
97	0xbc7b443a	-0.015336091
98	0x3d86f6ae	0.06590019
99	0xbd2e9c47	-0.042629506
100	0x3d575041	0.05256677
101	0x3dc24977	0.094866686
102	0xbc517b1e	-0.012785701
103	0xbd8489a3	-0.064715646
104	0xbd32fbfe	-0.04369735
105	0x3d329416	0.043598257
106	0x3c3b0841	0.011415542
107	0xbb7bfef0	-0.0038451515
108	0x3dac437b	0.084113084
109	0xbc22da61	-0.009939761
110	0x3de9130b	0.11380585
111	0x3be3b8c4	0.006949516
112	0xbcd4aceb	-0.02596136
113	0xbd70d80f	-0.0587998
114	0xbdc0087e	-0.0937662
115	0xbb94e4ed	-0.0045438916
116	0xbe0a6e2e	-0.13518593
117	0x3e01b0ef	0.12665151
118	0x3ccc645e	0.024950203
119	0xbd1f1c19	-0.038845155
120	0x3c4d7c25	0.012541805
121	0xbdc84b5c	-0.09779999
122	0xbce56745	-0.028003344
123	0xbd24b03f	-0.040207144
124	0x3c70c36e	0.014695032
125	0xbd8e2d5b	-0.069422446
126	0xbc965180	-0.01834941
127	0xbbd0910f	-0.0063649486

RNN.bias_hh_l0 f4 [128]
0	0x3dd85e45	0.105648555
1	0x3d99ee34	0.07516137
2	0x3d3ac145	0.045594472
3	0xbd60d27a	-0.054888226
4	0x3d3bbe57	0.04583582
5	0x3da48ea6	0.080350205
6	0xb940cfb8	-0.00018387928
7	0x3de2ef54	0.110808045
8	0xbd649c9c	-0.055813417
9	0x3dd88b35	0.10573427
10	0xbbdf3645	-0.0068118894
11	0x3d071bda	0.032985546
12	0xbd5f9c69	-0.054592524
13	0x3c87ac62	0.01656169
14	0x3cfd0a18	0.030888602
15	0x3d979a04	0.07402423
16	0x3da4e100	0.08050728
17	0x3d595df9	0.053068135
18	0x3c552b61	0.013010831
19	0xbc3c517c	-0.011494037
20	0xbd84a7c4	-0.06477311
21	0x3d6f8ae3	0.058482062
22	0x3d8c1dde	0.06841634
23	0xbc5c6b10	-0.01345326
24	0x3dd02bd2	0.10164608
25	0xbc1ae79b	-0.009454633
26	0x3d3ae336	0.04562684
27	0x3d185041	0.03718591
28	0x3d5876c1	0.052847628
29	0xbd2ebcc4	-0.04266049
30	0x3d824856	0.06361453
31	0x3da5360b	0.080669485
32	0x3d094376	0.0335116
33	0x3cd57bce	0.026060011
34	0xbd30ca39	-0.043161605
35	0x3d9f0fee	0.0776671
36	0xbc733687	-0.014844543
37	0xbd18a8a5	-0.037270207
38	0x3cbc5f0a	0.022994537
39	0x3c9e5858	0.019329235
40	0x3d3fa30c	0.046786353
41	0xbd689ad0	-0.056788266
42	0x3d93f824	0.072250634
43	0x3da136c4	0.07871774
44	0x3cf7bcd9	0.030241417
45	0xbc077e7b	-0.008269901
46	0xbc338461	-0.010956855
47	0x3e0acb16	0.13554034
48	0xbcae3d1a	-0.02126937
49	0x3dac46f1	0.084119685
50	0x3d66a71e	0.05631172
51	0xbc5fee6d	-0.013667685
52	0x3d9f808e	0.07788192
53	0xbd3d5188	-0.046220332
54	0x3c1fa7a7	0.009744561
55	0x3bde6d76	0.006787951
56	0x3d606d5c	0.054791793
57	0xbd3a5be7	-0.0454978
58	0x3d1931a6	0.037400864
59	0xbd093c53	-0.033504795
60	0xbcef85e5	-0.02923865
61	0x3d1e7b2b	0.03869168
62	0xbce01054	-0.027351536
63	0x3da72e20	0.081630945
64	0x3de4b55d	0.11167405
65	0x3d91c701	0.07118035
66	0xbd790f72	-0.060805745
67	0x3bf8bf6f	0.00759118
68	0xbd05218e	-0.032502703
69	0xbd05ac75	-0.03263517
70	0x3dd09607	0.101848654
71	0x3dac5dda	0.08416338
72	0x3d21dbcd	0.03951626
73	0x3cb052c2	0.021523837
74	0xbb10aff6	-0.0022077537
75	0x378648d0	1.600795e-05
76	0xbd0ed41d	-0.034870256
77	0xbc1b36f5	-0.009473552
78	0x3e100be3	0.14067034
79	0x3d53bc6e	0.051693372
80	0xbd0ab7f4	-0.033866838
81	0xbc845c44	-0.016157277
82	0x3db270a8	0.08712894
83	0xbb142738	-0.0022606384
84	0xbc73c9c4	-0.014879648
85	0x3db17389	0.08664615
86	0x3da54aac	0.08070883
87	0x3d06d799	0.032920454
88	0x3d89bab4	0.06725064
89	0xbdcca0c2	-0.099915996
90	0x3c356ff9	0.01107406
91	0x3dc7abac	0.09749541
92	0x3e10438c	0.14088267
93	0x3df2c3b4	0.11853734
94	0x3d9cf38c	0.076636404
95	0xbd2f4028	-0.042785794
96	0x3e0352cc	0.12824553
97	0xbd0b368a	-0.03398756
98	0xbb51db7b	-0.003202169
99	0x3c894a9a	0.016759206
100	0xbc1c4214	-0.009537239
101	0xbc8f1052	-0.017463837
102	0xbd50d40d	-0.050983477
103	0x3cdc0252	0.026856575
104	0xbcea3605	-0.028590212
105	0x3d0546bf	0.03253817
106	0x38993d74	7.307055e-05
107	0xbd37c60b	-0.044866603
108	0x3dbefcde	0.09325574
109	0x3b1c6232	0.002386224
110	0x3cef77a0	0.029231846
111	0x3d3078a5	0.043083806
112	0x3d5a79bb	0.053338747
113	0x3da7e45c	0.08197853
114	0xbdc40a1b	-0.0957224
115	0x3cf85531	0.03031406
116	0x3b487380	0.0030586421
117	0x3e110fa3	0.14166121
118	0x3da9d867	0.082932286
119	0xbda4a726	-0.080396935
120	0x3a5bd994	0.00083866087
121	0xbd662d4d	-0.056195546
122	0x3d8b5dcc	0.06805
123	0x3c024c3e	0.007952748
124	0xbd6da6c0	-0.058020353
125	0xbdadd4a6	-0.08487825
126	0xbd5a097b	-0.053231698
127	0x3d65e030	0.056122005

actor.weight f4 [3, 128]
0	0x3e907eb6	0.28221673
1	0xbe45f774	-0.19332677
2	0xbe31bb72	-0.17356661
3	0x3ece2602	0.40263373
4	0x3eec1800	0.4611206
5	0x3e9c9a1a	0.3058632
6	0x3d989354	0.074499756
7	0x3ea4ca72	0.32185704
8	0xbe0d3e95	-0.13793404
9	0x3e6407fa	0.22268668
10	0x3eedb838	0.4642961
11	0xbde11cc3	-0.10991814
12	0xbdecfcd1	-0.115716584
13	0x3de31247	0.110874705
14	0x3eec7d62	0.4618941
15	0xbe8b2b31	-0.2718139
16	0xbe90db70	-0.28292418
17	0x3da8b1c2	0.082370296
18	0x3d4038e8	0.04692927
19	0xbe92ff7e	-0.2871055
20	0xbeb683c8	-0.35647416
21	0x3e982abe	0.2972011
22	0xbe7f7f9a	-0.2495102
23	0xbe1a8f9e	-0.15093848
24	0x3f01f640	0.5076637
25	0x3ee344d0	0.44388437
26	0xbbb07803	-0.0053854003
27	0xbdc29c05	-0.095024146
28	0x3d0aa54c	0.033849046
29	0x3e97a26c	0.29616106
30	0xbe6d9e1a	-0.23204842
31	0x3db90f5f	0.09036135
32	0xbe41e0d5	-0.18933423
33	0x3ec6f623	0.38859662
34	0x3cc85d29	0.024458485
35	0xbcba7586	-0.022761118
36	0x3e0051ea	0.12531248
37	0xbeda6502	-0.42655188
38	0x3f008ad0	0.5021181
39	0x3c3eba01	0.0116410265
40	0xbe95bf85	-0.2924768
41	0x3e2b9702	0.16756824
42	0xbed6bd9c	-0.41941535
43	0x3f02c4d9	0.51081616
44	0x3d4c7f12	0.04992587
45	0x3f1cd01c	0.6125505
46	0x3ef2450a	0.47318298
47	0x3d3b282a	0.0456926
48	0x3e972cc2	0.29526335
49	0xbecbee3b	-0.39830193
50	0x3ea91172	0.33021122
51	0x3ebdb093	0.37048778
52	0xbdcec240	-0.10095644
53	0xbf0158ee	-0.5052632
54	0x3c3f41f4	0.011673439
55	0xbe8e9c6f	-0.27853724
56	0xbe16107b	-0.14654724
57	0xbc876e8d	-0.016532207
58	0xbe88337e	-0.26601785
59	0x3d8803af	0.066413276
60	0xbdd313ad	-0.10306487
61	0xbe626bb6	-0.22111401
62	0xbeb30d2b	-0.34970984
63	0xbed0d99f	-0.40791032
64	0x3ee8b21f	0.45448396
65	0x3cb2ebed	0.021841014
66	0x3e68e619	0.22744025
67	0x3ec0b41d	0.37637416
68	0xbca896d8	-0.02057974
69	0x3ed1feef	0.4101481
70	0xbeadf730	-0.33977652
71	0x3e7aaec1	0.24480726
72	0x3d078f0f	0.033095416
73	0xbe1516c6	-0.14559469
74	0xbef0c958	-0.47028613
75	0x3e6e0a7f	0.23246191
76	0x3e8c7b7c	0.2743796
77	0x3ddf5e95	0.10906712
78	0x3f25fd28	0.6483941
79	0x3f1551d4	0.58327985
80	0x3d3f0596	0.046636187
81	0x3de488cf	0.11158907
82	0xbe092b15	-0.1339534
83	0x3e93b45c	0.2884854
84	0x3e960c05	0.29306045
85	0x3e84ecf7	0.2596204
86	0x3e2b20cc	0.1671173
87	0x3e74ab5e	0.23893496
88	0x3e71fbb5	0.23631175
89	0xbe816aa1	-0.25276664
90	0x3ef9c4ca	0.4878295
91	0x3f341ec8	0.7035947
92	0x3f0ef63f	0.5584449
93	0xbea99b72	-0.33126408
94	0xbe2538e1	-0.16134979
95	0x3d423f77	0.047423806
96	0x3e82e5c1	0.25565913
97	0x3eeb4a41	0.4595509
98	0x3eeea9c8	0.46613908
99	0x3e278d51	0.16362502
100	0x3efbbd8d	0.49168053
101	0x3f19badd	0.60050756
102	0xbe57eaac	-0.21085614
103	0x3e248fc7	0.16070472
104	0xbe293d5c	-0.16527313
105	0x3dac236e	0.08405195
106	0xbd4089fe	-0.0470066
107	0x3db71d2c	0.08941111
108	0x3ec8178b	0.39080462
109	0xbd4b24ba	-0.049595572
110	0x3ee11adb	0.43965802
111	0x3d994f14	0.07485786
112	0x3f114f98	0.56762075
113	0x3c9cb2fc	0.019128315
114	0xbc8dcffe	-0.017311092
115	0x3de77822	0.113022104
116	0x3e4afeca	0.19823757
117	0x3f1e599e	0.61855495
118	0x3eb8a5c4	0.3606397
119	0x3eb97323	0.36220655
120	0xbe4235c4	-0.18965822
121	0x3dcf9352	0.10135521
122	0xbe659743	-0.22420983
123	0x3f0c1f9e	0.54735744
124	0x3d8e2242	0.06940128
125	0x3ce2c69e	0.027682599
126	0x3dcdea56	0.10054462
127	0x3d612a1c	0.0549718
128	0xbe308eb2	-0.17241934
129	0x3e9803a3	0.29690275
130	0x3ead23e4	0.33816445
131	0xbe744986	-0.23856172
132	0xbcc2e45a	-0.023790527
133	0xbf2863d6	-0.6577734
134	0x3e083d77	0.13304697
135	0xbdb6abcd	-0.08919487
136	0x3eba779c	0.3641938
137	0xbeecfe4b	-0.4628776
138	0xbe48c30c	-0.19605654
139	0x3eaae4b4	0.33377612
140	0x3d9520f2	0.072816744
141	0xbe44c946	-0.19217405
142	0xbebe713d	-0.3719577
143	0x3e5f0938	0.2178086
144	0xbe98dd9e	-0.2985658
145	0xbe013892	-0.12619236
146	0xbcf9f017	-0.030509992
147	0xbe628574	-0.22121221
148	0x3e555a3c	0.20835203
149	0xbe931963	-0.28730306
150	0x3e34d7fd	0.17660518
151	0x3e0d3e43	0.13793282
152	0xbee46040	-0.44604683
153	0xbebd9e3f	-0.37034795
154	0x3d49d9e2	0.049280055
155	0x3ebe6b83	0.371914
156	0xbd2bb195	-0.041917402
157	0xbe6e4d10	-0.23271585
158	0xbe4e3249	-0.2013637
159	0x3d6769c4	0.05649735
160	0x3dd68724	0.10474995
161	0xbe82bc5c	-0.25534332
162	0xbd168f4c	-0.036757752
163	0x3cb8c4f1	0.022554846
164	0xbd87d06a	-0.06631549
165	0x3e0f4378	0.13990581
166	0xbe1ae35d	-0.15125795
167	0xbe9ca11b	-0.30591664
168	0xbd184735	-0.037177283
169	0xbea49f37	-0.3215272
170	0x3e9482bf	0.29006
171	0xbda72988	-0.08162218
172	0xbd8161be	-0.06317471
173	0xbee26960	-0.4422102
174	0xbe5a8d9c	-0.21343082
175	0x3c7a575c	0.015279617
176	0xbea5fa6f	-0.32417628
177	0x3e86d978	0.2633779
178	0xbecd4345	-0.40090385
179	0xbeb22ed9	-0.34801367
180	0x3e0fe34a	0.14051548
181	0x3d8c31ae	0.06845413
182	0xbd537ec2	-0.051634558
183	0xbe5bc6a0	-0.21462488
184	0x3eb95549	0.3619788
185	0x3da05f2f	0.07830655
186	0xbe272d1a	-0.16325799
187	0xbe5d05f3	-0.215843
188	0xbe47878d	-0.19485302
189	0xbe35c0d0	-0.17749333
190	0x3de9ed4d	0.11422215
191	0x3ed5d6c1	0.41765407
192	0xbf03ee92	-0.51535904
193	0x3eb11d48	0.34592652
194	0xbecbbf85	-0.39794555
195	0xbe99fce6	-0.3007576
196	0xbee9507b	-0.45569214
197	0xbe65462f	-0.22390054
198	0x3f0d2991	0.5514155
199	0xbdde3f51	-0.108519204
200	0x3e894db6	0.268171
201	0x3e0fa2a3	0.14026885
202	0xbde89e1d	-0.11358283
203	0x3bd42a20	0.0064747483
204	0xbed358bb	-0.41278633
205	0x3ed9641f	0.424592
206	0xbea8cfff	-0.32971188
207	0xbefcf072	-0.49402195
208	0x3c4c5d09	0.012473353
209	0xbe90a59f	-0.2825136
210	0xbc3b0434	-0.011414576
211	0xbe9ace25	-0.302354
212	0xbe1254e7	-0.142902
213	0xbe7e0c71	-0.24809434
214	0xbe2083f7	-0.1567534
215	0xbeb35594	-0.35026228
216	0x3c3d914f	0.011570289
217	0x3ee109d6	0.43952817
218	0xbed29d90	-0.41135836
219	0xbee351a5	-0.44398227
220	0xbe874662	-0.26420885
221	0x3e87f537	0.26554272
222	0x3d650e01	0.05592156
223	0x3b9e1128	0.0048238225
224	0xbe9224b1	-0.28543618
225	0xbeb3747c	-0.35049808
226	0xbf1592f7	-0.58427376
227	0x3e6da43e	0.23207185
228	0xbe65c72d	-0.22439261
229	0xbeb5ed65	-0.3553268
230	0x3db8d711	0.09025396
231	0xbed970f3	-0.42468986
232	0xbdb1c28e	-0.086796865
233	0xbe8e7bc9	-0.27828816
234	0x3e589b60	0.21153021
235	0x3cfc2e81	0.030783894
236	0xbe39109a	-0.18072739
237	0xbee8d70e	-0.45476574
238	0xbe8698ee	-0.2628855
239	0xbe6271e3	-0.22113757
240	0xbece5275	-0.40297285
241	0x3d7a5306	0.061114334
242	0xbe3b9c7d	-0.18321414
243	0xbe282bfb	-0.16423027
244	0xbdda93b9	-0.10672707
245	0xbed169f7	-0.40901157
246	0xbea9c8e8	-0.33161092
247	0xbe24db74	-0.1609934
248	0xbdabf22e	-0.083958015
249	0xbe6d2fe9	-0.23162808
250	0x3e989b61	0.29806045
251	0xbeca925f	-0.39564797
252	0x3d298c8c	0.0413938
253	0x3c827f43	0.015929824
254	0x3d20a696	0.03922137
255	0x3e301fa2	0.17199567

actor.bias f4 [3]
0	0x3ba0df0f	0.004909403
1	0x3bb6ac6b	0.005574753
2	0xbbc990da	-0.006151301

critic.weight f4 [1, 128]
0	0x3d953cf4	0.072870165
1	0x3e3e5cc9	0.18590082
2	0xba318b45	-0.0006772767
3	0xbdeb1b68	-0.11479837
4	0x3cd58192	0.02606276
5	0x3d1927a0	0.037391305
6	0x3e64fd6d	0.223623
7	0x3dd8ad67	0.10579949
8	0xbbdf56a0	-0.0068157464
9	0xbdc90c05	-0.09816746
10	0x3d63f556	0.055653892
11	0x3e39d93e	0.18149278
12	0x3e412a54	0.18863803
13	0x3cda1d06	0.026625168
14	0x3e5a1348	0.21296418
15	0x3da18b8d	0.07887945
16	0x3e3e412c	0.18579549
17	0xbe0508a4	-0.12991577
18	0x3d0678b8	0.03282997
19	0x3e3891c0	0.18024349
20	0xbda011ac	-0.07815871
21	0x3bc0425d	0.005867286
22	0x3e255d5a	0.16148892
23	0xbd84bc1c	-0.064811915
24	0x3dea3f19	0.11437816
25	0x3e44f550	0.19234204
26	0xbe3b12fc	-0.1826896
27	0xbd41a0b5	-0.047272403
28	0xbda3c163	-0.0799587
29	0x3e65782e	0.22409126
30	0xb9caa15b	-0.00038648662
31	0x3e5e97a3	0.21737532
32	0x3c37e9f6	0.011225214
33	0x3e65116d	0.22369929
34	0x3d56e304	0.052462593
35	0x3d16746e	0.03673213
36	0xbd037be9	-0.03210059
37	0xbdab0147	-0.08349853
38	0x3d736b15	0.059428293
39	0x3b3a0c42	0.0028388654
40	0x3dc54372	0.09632005
41	0xbe4cfffa	-0.20019522
42	0xbe326055	-0.1741956
43	0xbd273b18	-0.04082784
44	0x3da6cd4c	0.08144626
45	0xbe375851	-0.17904784
46	0x3e2c3930	0.1681869
47	0x3da58363	0.08081701
48	0xbd27dbb6	-0.040981017
49	0xbdb1fcd6	-0.08690803
50	0xbd2af806	-0.04174044
51	0x3e01f4a9	0.12690987
52	0xbbc6210b	-0.0060464195
53	0xbd1e1b95	-0.038600523
54	0x3e0e9509	0.1392404
55	0x3c9d414c	0.019196175
56	0xbd085d99	-0.033292387
57	0xbdbbf81c	-0.091781825
58	0x3dc60db5	0.09670583
59	0x3da42350	0.08014548
60	0x3e90bead	0.28270474
61	0x3e2e6301	0.17029954
62	0x3d7a5394	0.061114863
63	0xbe25d7f5	-0.16195662
64	0xbc0ec32c	-0.008713525
65	0x3d0d384c	0.034477517
66	0xbcde0950	-0.02710405
67	0xbd2af440	-0.04173684
68	0x3d34e4c2	0.044163473
69	0xbe0c8f99	-0.13726653
70	0x3e267922	0.16257146
71	0x3dfb35a9	0.12266094
72	0x3d85dc7f	0.06536197
73	0x3c6712de	0.014103619
74	0xbd4e91e9	-0.05043212
75	0xbd593d0b	-0.05303673
76	0x3c54ae33	0.012980985
77	0xbb869097	-0.004106592
78	0xbd0545fe	-0.032537453
79	0x3e0863c2	0.13319305
80	0xbd514ee5	-0.05110063
81	0x3e416dd9	0.1888956
82	0xbdf14bc2	-0.11782028
83	0xbdf8724d	-0.12131176
84	0x3c521ae1	0.012823791
85	0x3d816fd3	0.06320157
86	0x3cf4ef54	0.029899277
87	0x3e9f73a3	0.3114291
88	0x3e79900d	0.24371357
89	0x3dd115c6	0.10209231
90	0x3dc7ab90	0.0974952
91	0x3d7606ef	0.060065206
92	0x3e314734	0.17312318
93	0x3bbdf306	0.005796793
94	0x3e0abf9e	0.13549659
95	0x3da25ae2	0.07927491
96	0x3e3fc508	0.18727505
97	0xbc446de5	-0.0119890915
98	0x3db988af	0.090592735
99	0x3ada2439	0.0016642875
100	0x3ccb2078	0.024795756
101	0xbc104197	-0.0088047
102	0x3cef3466	0.02919979
103	0xbe15db6b	-0.14634483
104	0x3de3d186	0.11123948
105	0x3e3a4b21	0.18192722
106	0x3e82af06	0.25524157
107	0xbdff6289	-0.12469966
108	0x3c469a9b	0.012121822
109	0x3e2abf21	0.16674472
110	0x3de9a095	0.11407582
111	0x3e803024	0.25036728
112	0xbd450d03	-0.048108112
113	0x3cb2be46	0.021819245
114	0x3ded05a9	0.11573345
115	0xbe2b73f4	-0.16743451
116	0xbd16a8f1	-0.03678221
117	0xbd64059c	-0.055669412
118	0x3e0604d0	0.13087773
119	0xbd25fa61	-0.040521983
120	0xbd0a1b21	-0.03371728
121	0xbd9cd81d	-0.07658408
122	0x3e10a7df	0.14126538
123	0xbe002e77	-0.12517725
124	0x3d8f88c1	0.070085056
125	0x3e3c8658	0.18410623
126	0x3dc9c3aa	0.09851773
127	0xbd9f68dc	-0.07783672
