W__RNN/W_RNN/md2/v_6/train_iter_2000.pt (torch, 80523 bytes, 8 tensors)

h0 f4 [128]
0	0xbf4883f2	-0.7832633
1	0x3f81a9a7	1.0129899
2	0xbf889c14	-1.0672631
3	0x3ec91657	0.39274856
4	0xbe2af2ec	-0.1669423
5	0x3fdb0b5f	1.7112845
6	0x3da97bcf	0.08275568
7	0xbf381b24	-0.71916413
8	0x3e7a305b	0.24432509
9	0xbdf7f435	-0.12107126
10	0xbf28aa9c	-0.6588533
11	0x3f384424	0.71978974
12	0xbe8cb950	-0.27485132
13	0xbf9c09cc	-1.219049
14	0xbe003de6	-0.12523612
15	0x3e97e55a	0.2966717
16	0xbf845002	-1.0336916
17	0x3f7d00f5	0.98829585
18	0x3d9778cf	0.07396089
19	0xbf325fb3	-0.69677275
20	0x3f2a18b9	0.66443974
21	0xbee716ab	-0.45134482
22	0x3eca535e	0.3951673
23	0x3f8f3a32	1.1189635
24	0x3e7b3961	0.24533607
25	0xbf0c6126	-0.54835737
26	0xbedfa389	-0.43679455
27	0x3f6d3d93	0.9267208
28	0x3ed38eac	0.41319788
29	0xbf14c8fd	-0.58119184
30	0xbcfc7a21	-0.030819954
31	0x3fc56f0b	1.5424513
32	0x3f924313	1.142672
33	0xbee72ef6	-0.45153016
34	0xbfe30e5f	-1.7738761
35	0x3f4b9e71	0.7953864
36	0x3f15cd34	0.5851624
37	0xbf5729cd	-0.8404816
38	0xbd334f4c	-0.043776795
39	0x3ece24e2	0.40262514
40	0xbe498fe3	-0.19683795
41	0xbf3a9843	-0.7288858
42	0xbf9a704a	-1.2065518
43	0xbef6bf85	-0.48192993
44	0x3ed095f6	0.4073941
45	0xbfafa314	-1.3721642
46	0xbe909cb2	-0.2824455
47	0xbf210f36	-0.62913835
48	0x3f028a9f	0.5099277
49	0xbf357e5b	-0.7089593
50	0x3ef53ad1	0.47896436
51	0xbfa350b9	-1.275901
52	0xbfb2e2f2	-1.3975508
53	0xbedaf53d	-0.42765227
54	0xbfac794a	-1.3474514
55	0x3f805c3f	1.0028151
56	0xbd5e88a1	-0.05432952
57	0x3f994d4d	1.1976715
58	0x3f8c6b0a	1.0970166
59	0x3fb61461	1.4224969
60	0x3f2e12cf	0.6799745
61	0x3f8d4396	1.103625
62	0x3dccca0a	0.099994734
63	0xc00db532	-2.2141843
64	0x3ff3d767	1.905011
65	0x3e16ffd3	0.14746027
66	0xbec58198	-0.38575435
67	0xbfe0fe44	-1.7577596
68	0x3f975fbb	1.182609
69	0xbf543021	-0.8288594
70	0xbfc2a574	-1.5206742
71	0xbdc8ebc8	-0.09810597
72	0x3eecc37d	0.46242896
73	0xbfef3aff	-1.8689879
74	0x3f423b3d	0.7587164
75	0xbd1cc9e9	-0.038278494
76	0xbfa83dcc	-1.3143859
77	0xbf63692d	-0.8883236
78	0xbe425a74	-0.18979818
79	0x3fa607b2	1.2971098
80	0xbee4ab04	-0.44661725
81	0x3f9f2d25	1.2435652
82	0x3fafa336	1.3721683
83	0xbfcc5544	-1.5963521
84	0xbe2fefe1	-0.1718135
85	0x3e667e9b	0.22509234
86	0xbd540ebc	-0.051771864
87	0xbf03e183	-0.5151598
88	0x3f2fbd6a	0.686484
89	0x3ea8e620	0.3298807
90	0x3fa68c92	1.3011649
91	0xbe7622d5	-0.24036725
92	0x3f093a4a	0.5360457
93	0xbeb867cc	-0.3601669
94	0xbed0306b	-0.4066194
95	0x3fa00c16	1.2503688
96	0xbfe3876a	-1.77757
97	0xbf846c8a	-1.0345623
98	0xbe1ab82a	-0.15109316
99	0xbe335f41	-0.17516805
100	0x3ecdb619	0.40177992
101	0x3de0ca9d	0.109761454
102	0x3e495cf4	0.19664365
103	0x3f55e54c	0.83553004
104	0xbf2286d4	-0.6348698
105	0x3f8d15ff	1.1022338
106	0xbeb69112	-0.35657555
107	0xbdda853e	-0.10669945
108	0xbf1b5a47	-0.6068463
109	0x400af306	2.171083
110	0x3f9e5fdc	1.2373004
111	0xbe3b6f7d	-0.18304248
112	0x3df02016	0.1172487
113	0xbd9b78f7	-0.075914316
114	0x3eaa8d3e	0.33310884
115	0x3ea01d95	0.3127257
116	0x3e6827d9	0.2267145
117	0xbf80f604	-1.0075078
118	0xbf643e3c	-0.8915746
119	0x3f514744	0.8174937
120	0xbd92db62	-0.0717075
121	0xbf7662df	-0.96244615
122	0xbf6fc8d0	-0.9366579
123	0x3eec95e9	0.46208122
124	0xbf863fe1	-1.0488244
125	0xbe967ec6	-0.29393595
126	0x3f35d328	0.71025324
127	0xbf2eecc5	-0.6833003

RNN.weight_ih_l0 f4 [128, 17]
0	0xbc9aaf98	-0.018882558
1	0x3e40e4ab	0.1883723
2	0x3e6f9c82	0.23399547
3	0x3ee493fb	0.4464415
4	0x3c80a66c	0.015704356
5	0x3e20bc6f	0.15696882
6	0x3eb21b82	0.34786612
7	0xbde71913	-0.112840794
8	0xbdd93c49	-0.106072016
9	0xbe030a77	-0.12796961
10	0xbdd66031	-0.10467566
11	0x3d584306	0.052798294
12	0x3c8164b2	0.015795086
13	0xbd47b295	-0.048754293
14	0xbb99fc06	-0.004699233
15	0xbdc57352	-0.09641136
16	0xbd5f0d7e	-0.054456227
17	0x3d40e6ad	0.04709499
18	0xbd62e53b	-0.055394392
19	0xbdb19c6a	-0.08672412
20	0xbd945c6f	-0.07244193
21	0xbd9ec556	-0.077524826
22	0xbcaa1515	-0.020762006
23	0xbdd28924	-0.10280064
24	0xbc05a80e	-0.008157743
25	0xbdc5bd32	-0.09655227
26	0xbcf38a85	-0.029729137
27	0x3d595551	0.05305988
28	0x3e313503	0.17305379
29	0x3dbcaedd	0.0921304
30	0xbdd148dd	-0.10218976
31	0x3da4be89	0.08044154
32	0xbdafdee2	-0.085874334
33	0x3e413c07	0.18870555
34	0xbd38d14b	-0.045121472
35	0xbd8334f8	-0.06406587
36	0xbe02e658	-0.12783182
37	0xbd7e90ea	-0.06214992
38	0x3a415fb7	0.00073766283
39	0xbd7865a1	-0.060643796
40	0xbdb08e48	-0.08620888
41	0xbdecf59a	-0.11570282
42	0xbdbbf7b6	-0.091781065
43	0xbd2d7858	-0.042351097
44	0xbdf13b99	-0.117789455
45	0x3d219f82	0.03945876
46	0xbd49dd91	-0.049283568
47	0xbc86ae49	-0.016440528
48	0xbd5aa63f	-0.0533812
49	0xbd774f2f	-0.06037825
50	0x3e2a3a54	0.16623813
51	0xbd7c3202	-0.06157113
52	0x3e774de2	0.24150804
53	0x3e84069a	0.25786287
54	0x3eec2abd	0.46126357
55	0x3e2fdbf8	0.17173755
56	0x3e63daf3	0.22251491
57	0x3e3c2ce7	0.18376504
58	0xbe2cb6b0	-0.16866565
59	0xbd4d80dc	-0.050171718
60	0x3c942439	0.018083679
61	0xbd785b5b	-0.060634
62	0x3d7e59a7	0.062097218
63	0xbdcb830d	-0.09937105
64	0xbcb96df4	-0.022635438
65	0x3bb9e4ee	0.0056730425
66	0xbdb4bd64	-0.08825186
67	0xbdb777a6	-0.08958368
68	0x3e10ed8d	0.14153118
69	0x3d312556	0.043248497
70	0x3e709695	0.23494942
71	0x3ee8e6ea	0.45488673
72	0x3d339153	0.043839764
73	0x3e6dbd53	0.23216753
74	0x3ec2924d	0.38002244
75	0xbe3c4638	-0.18386161
76	0xbe9f8104	-0.3115312
77	0xbe36843c	-0.17823881
78	0xbdbe39c1	-0.092883594
79	0xbd281c69	-0.04104272
80	0x3e4132ef	0.18867086
81	0xbdb415ca	-0.087932184
82	0xbd21fce0	-0.0395478
83	0x3d14ad2e	0.03629797
84	0xbc870ca4	-0.01648552
85	0x3e427a40	0.18991947
86	0xbe8fd99c	-0.2809571
87	0xbe89be0b	-0.26902804
88	0xbeb8f7ae	-0.36126465
89	0xbdcfdc7e	-0.101494774
90	0xbe507442	-0.20356849
91	0xbe201c24	-0.15635735
92	0x3e60c09d	0.21948476
93	0x3db9aa5c	0.090656966
94	0x3e2e193e	0.17001817
95	0x3dc367f2	0.0954131
96	0xbe132b3e	-0.14371964
97	0x3d7c5e96	0.06161364
98	0x3dafd6d9	0.08585901
99	0x3db182f3	0.08667555
100	0xbcac3f67	-0.021026326
101	0xbd32df56	-0.04367002
102	0xbdb07df5	-0.086177744
103	0xbe2a7b22	-0.16648534
104	0xbdd860f2	-0.10565366
105	0xbd6bdd74	-0.05758424
106	0xbdb40ce3	-0.087915204
107	0xbdcfa2dc	-0.10138485
108	0xbe236526	-0.15956554
109	0xbcdb2e16	-0.026755374
110	0xbda09112	-0.0784017
111	0xbde57c69	-0.1120537
112	0xbd927108	-0.07150465
113	0x3dbec9b0	0.093158126
114	0x3e66f0c1	0.22552778
115	0xbe4c1a3c	-0.19931883
116	0x3d6910ca	0.056900777
117	0xbbc3a002	-0.005970002
118	0x3e0d5a3a	0.1380395
119	0xbd5090d2	-0.05091936
120	0xbe2350e6	-0.15948829
121	0x3d744f46	0.059645914
122	0x3e9c72bc	0.30556285
123	0xbe269c98	-0.16270673
124	0xbe9894e2	-0.2980109
125	0xbe7c3f95	-0.2463363
126	0x3ebba068	0.36645818
127	0x3e991ca0	0.29904652
128	0x3df573d3	0.11984982
129	0x3c8c77be	0.017146941
130	0x3baff604	0.0053699035
131	0x3c070ac3	0.008242312
132	0x3da92c1d	0.08260367
133	0x3df28c01	0.1184311
134	0x3d0e284f	0.03470641
135	0xbd92bd81	-0.07165051
136	0xbdcc406a	-0.099732235
137	0xbdd0a01d	-0.10186789
138	0xbd93628d	-0.071965314
139	0xbe06b74f	-0.13155864
140	0xbd05d0e8	-0.03266993
141	0xbdd87e71	-0.10570992
142	0xbda66564	-0.081248075
143	0xbcbc30e0	-0.022972524
144	0xbe15a00b	-0.14611833
145	0xbe06c1cf	-0.1315987
146	0x3cad8886	0.021183264
147	0x3e3a26b6	0.1817883
148	0x3e38277d	0.17983814
149	0x3dbdab22	0.092611566
150	0x3cbb0c65	0.022833059
151	0xbe15193f	-0.14560412
152	0x3d90647b	0.07050415
153	0xbe1c8e40	-0.15288639
154	0x3d264640	0.04059434
155	0x3e42fc09	0.19041456
156	0x3eea1846	0.45721644
157	0x3cec7583	0.028864628
158	0x3d8fa1bf	0.070132725
159	0x3e5ae83f	0.21377657
160	0xbdecb461	-0.11557842
161	0xbdc61a9b	-0.09673043
162	0xbe019c74	-0.12657338
163	0x3d46fd54	0.048581436
164	0xbcd0973c	-0.02546274
165	0x3e3cb843	0.18429665
166	0x3d6e890b	0.058236163
167	0x3d4e7c26	0.050411366
168	0xbd8da342	-0.069159046
169	0xbe1beaf3	-0.15226345
170	0x3e484fcd	0.19561692
171	0xbda6c5b3	-0.08143177
172	0xbe99eef6	-0.30065125
173	0xbef63ad6	-0.48091763
174	0x3db54511	0.08851064
175	0xbd04e4b3	-0.032444667
176	0xbe6cced2	-0.2312577
177	0x3ef9d8e9	0.48798302
178	0x3ebdb287	0.37050268
179	0x3e9c3e2a	0.30516177
180	0xbd9ce82b	-0.0766147
181	0xbdf3d00d	-0.11904917
182	0xbb575205	-0.0032855284
183	0xbd244065	-0.040100474
184	0x3d07c9f3	0.03315158
185	0x3ddd782d	0.10813937
186	0xbccd2f08	-0.02504684
187	0xbe31804e	-0.173341
188	0x3d1e1671	0.03859562
189	0x3e7c6f9b	0.24651949
190	0x3ef60870	0.48053312
191	0xbd47e157	-0.048798885
192	0x3da6f821	0.081527956
193	0x3e6a3542	0.22871879
194	0xbeae4375	-0.3403584
195	0xbe8f9459	-0.28042868
196	0xbe483d43	-0.1955462
197	0x3e503101	0.20331194
198	0x3df117d8	0.11772126
199	0xbc901e9e	-0.017592724
200	0xbdb7ae3d	-0.0896878
201	0xbbc2a45a	-0.0059400024
202	0x3c2d1f27	0.010566509
203	0x3e2f3092	0.17108372
204	0xbe16c388	-0.14723027
205	0xbdfa82c8	-0.12231976
206	0xbdc6c0bc	-0.0970473
207	0xbda256d9	-0.07926721
208	0xbc5011fc	-0.0126996
209	0xbd3f739e	-0.04674112
210	0xbd5118c2	-0.051049
211	0x3dab25d8	0.083568275
212	0x3df7ac87	0.12093454
213	0xbd2af1ab	-0.04173438
214	0xbe0b7750	-0.13619733
215	0x3d8e8239	0.06958432
216	0xbb8703b7	-0.004120316
217	0xbe814e6e	-0.2525515
218	0xbd0525f0	-0.032506883
219	0x3d6a62c8	0.05722311
220	0x3e10c58e	0.14137861
221	0x3e8be315	0.27321687
222	0x3df7d46c	0.12101063
223	0x3e76da0b	0.24106614
224	0x3ef4b819	0.47796705
225	0xbdc66351	-0.09686912
226	0xbe8bf342	-0.27334028
227	0xbea96887	-0.3308756
228	0xbe09fef1	-0.13476159
229	0xbe2cc297	-0.16871105
230	0xbdf5dce8	-0.12005025
231	0xbdf3ca8d	-0.11903868
232	0xbe88e8be	-0.26740068
233	0xbe131534	-0.14363557
234	0xbde20226	-0.11035566
235	0xbd088ed5	-0.03333934
236	0x3dd0e018	0.101989925
237	0xbd670898	-0.05640468
238	0x3da20cf6	0.07912628
239	0xbe337a3c	-0.17527097
240	0xbd14a40f	-0.03628927
241	0x3d100658	0.0351623
242	0xbe60c208	-0.21949017
243	0xbe031031	-0.12799145
244	0xbd5537c1	-0.052055124
245	0xbd3dae96	-0.046309076
246	0xbdb745cc	-0.089488596
247	0xbdbe76a3	-0.09299972
248	0xbe22a930	-0.15884852
249	0xbe086070	-0.13318038
250	0x3e4cbd54	0.19994098
251	0xbe0854b7	-0.13313566
252	0x3dc9c7f1	0.09852589
253	0x3cc765f0	0.0243406
254	0x3d5e3e9f	0.05425894
255	0xbeabc154	-0.33545935

RNN.weight_hh_l0 f4 [128, 128]
0	0x3ca48fb6	0.020088058
1	0xbd959f31	-0.07305754
2	0x3d7462b2	0.059664436
3	0xbdccedff	-0.10006332
4	0xbd91d538	-0.071207464
5	0xbcff1ef1	-0.031142684
6	0xbd544907	-0.051827457
7	0x3db9ef7d	0.09078882
8	0xbd293730	-0.041312397
9	0xbd54d6cb	-0.051962655
10	0xbc3eaf6d	-0.011638504
11	0xbe02a49b	-0.12758105
12	0x3db44f4a	0.08804186
13	0x3d5028e7	0.050820258
14	0xbcdce8d8	-0.026966497
15	0x3cfb2546	0.030657422
16	0x3d8a98ff	0.06767463
17	0xbd85f857	-0.06541508
18	0xbc94a4fb	-0.018145075
19	0xbd4c46e5	-0.049872298
20	0xbc5c805e	-0.0134583395
21	0xbd150b70	-0.03638786
22	0xbcb80258	-0.022462055
23	0xbc4521e0	-0.012032002
24	0xbc95c6af	-0.018283216
25	0x3d5e066f	0.054205354
26	0xbc67157f	-0.014104246
27	0x3cf65ea5	0.030074427
28	0xbd8a80c4	-0.06762841
29	0x3c851de4	0.016249605
30	0x3e0b27e5	0.13589437
31	0x3d1018c6	0.035179876
32	0x3d1ad3d9	0.03779969
33	0x3de1607d	0.11004732
34	0xbd9361ce	-0.07196389
35	0x3d342605	0.04398157
36	0xbdbcf0de	-0.09225629
37	0xbc6f6c51	-0.014613227
38	0x3d4569ae	0.048196487
39	0xbd80e0fb	-0.062929116
40	0xbd77938c	-0.060443446
41	0x3d1f3916	0.0388728
42	0xbd5b7737	-0.05358049
43	0x3d3cb815	0.04607399
44	0xbd2d18e5	-0.04226007
45	0xbd3d97e3	-0.04628743
46	0xbe1d3de1	-0.15355636
47	0x3e3f23d2	0.18666008
48	0x3d8af52e	0.067850456
49	0xbd105ad0	-0.035242856
50	0xbcca07a7	-0.024661852
51	0xbc6030e1	-0.013683529
52	0x3d9a5b9b	0.075370036
53	0x3cacae49	0.0210792
54	0x3d06e4a0	0.032932878
55	0xbd27c2d1	-0.040957276
56	0xbd369866	-0.044578932
57	0xbd9123cb	-0.07086905
58	0xbc1952ee	-0.009358151
59	0x3dcc6773	0.09980669
60	0x3ddf020a	0.10889061
61	0x3daeef45	0.08541731
62	0x3d37b015	0.04484566
63	0xbd54967b	-0.05190132
64	0xbd41ce55	-0.047315914
65	0xbdb5a566	-0.08869438
66	0xbd9366b8	-0.071973264
67	0x3c74286b	0.0149022145
68	0xbe05af1e	-0.13055083
69	0x3bac8b06	0.0052655963
70	0xbda672ec	-0.08127388
71	0xbd268f1b	-0.04066382
72	0xbcd6949e	-0.026193913
73	0x3ce9a6b6	0.028521877
74	0x3d6fc177	0.05853411
75	0xbe1638fa	-0.14670172
76	0x3d324b42	0.043528803
77	0xbd23fdac	-0.040036842
78	0x3d5bbc79	0.05364654
79	0xbb91c10e	-0.0044480627
80	0xbdc095d1	-0.09403575
81	0xbcf4f27d	-0.029900784
82	0xbd3a9925	-0.045556206
83	0x3d2a5997	0.041589346
84	0x3d06cc5b	0.032909732
85	0xbd092d13	-0.03349025
86	0xbcfd487c	-0.030918352
87	0x3e32207e	0.17395207
88	0x3da4ca71	0.08046425
89	0xbd14de47	-0.036344793
90	0xbdea923c	-0.11453673
91	0x3d86a9f6	0.06575386
92	0xbd84f14b	-0.064913355
93	0xbd34d4c4	-0.04414822
94	0xbd3e4ba6	-0.046458863
95	0x3d8a44c5	0.06751398
96	0xbdf806d3	-0.121106766
97	0x3d9da37c	0.07697198
98	0x3db512ad	0.08841453
99	0xbc7c687f	-0.015405773
100	0x3d9dc4c4	0.07703546
101	0x3d490314	0.0490752
102	0x3d8f0103	0.06982615
103	0x3dce4689	0.10072047
104	0x3cafd89d	0.021465594
105	0x3cc2c4d2	0.023775492
106	0x3d6ca32f	0.05777281
107	0xbd20453b	-0.039128523
108	0xbd2269fe	-0.039651863
109	0x3d7dfabb	0.062006693
110	0x3dd508a8	0.10402042
111	0xbc253e69	-0.0100856805
112	0x3d3352cc	0.043780133
113	0x3e058afd	0.13041301
114	0x3d8c72e5	0.06857852
115	0x3d62ae3a	0.055341937
116	0xbd1cf951	-0.038323704
117	0x3d87cd45	0.06630949
118	0x3deeb493	0.116555355
119	0xbccb5a4b	-0.024823328
120	0x3dab040a	0.0835038
121	0xbc4b5c7a	-0.012412185
122	0xbb3d2354	-0.0028860169
123	0x3e0999b6	0.13437542
124	0x3db089a9	0.086200066
125	0x3d02c0e9	0.031922255
126	0xbdee23b4	-0.116279036
127	0x3bdbec6e	0.006711534
128	0xbdbd94ce	-0.09256898
129	0xbd330bfd	-0.043712605
130	0x3d2e3f06	0.042540573
131	0x3b68472c	0.0035442812
132	0xbd9e5dc3	-0.077327274
133	0x3c8abfa1	0.016937079
134	0x3dd21f38	0.10259861
135	0x3c9b2336	0.018937688
136	0x3c885857	0.016643686
137	0x3d0ddf1f	0.034636613
138	0x3dfb2f94	0.12264934
139	0xbd430f14	-0.0476218
140	0xbc3ed909	-0.011648425
141	0xbd6ba448	-0.057529718
142	0xbb363d2f	-0.0027807464
143	0xbd3ac904	-0.04560186
144	0x3ca13b87	0.019681705
145	0x3de72280	0.11285877
146	0x3db33620	0.08750558
147	0x3df61cab	0.12017187
148	0xbd804433	-0.06263008
149	0xbd8cae69	-0.068692036
150	0xbc242f66	-0.010021066
151	0xbdad55ea	-0.084636524
152	0xbd1b4a8d	-0.037912894
153	0xbc2761f5	-0.010216226
154	0xbc194f20	-0.009357244
155	0xbda4e8da	-0.080522254
156	0xbdeb1c8f	-0.114800565
157	0x3d0b26b9	0.033972476
158	0x3dbe7cf3	0.09301176
159	0xbcfefb31	-0.031125637
160	0x3d0f5a88	0.034998447
161	0xbc70409c	-0.014663842
162	0x3d283e28	0.0410749
163	0x3d6ef4bd	0.05833887
164	0x3d37ffda	0.044921733
165	0x3c135b87	0.00899399
166	0xbd929941	-0.07158137
167	0xbd3b0b48	-0.045665056
168	0x3d84cd67	0.0648449
169	0x3d91d3a7	0.071204476
170	0x3dac8a6e	0.08424841
171	0xbda387a9	-0.079848595
172	0x3d183fa6	0.037170075
173	0x3cb74cee	0.02237555
174	0xbced4564	-0.028963752
175	0x3cdc4d89	0.02689244
176	0xbc3e60b8	-0.011619739
177	0xbac1c5fa	-0.0014783733
178	0xbc98223f	-0.018571017
179	0x3dc90979	0.0981626
180	0xbd9629e0	-0.07332206
181	0x3d9475a2	0.07248999
182	0xbdf938a2	-0.12169005
183	0xbae61f41	-0.0017556922
184	0x3d9cb371	0.07651413
185	0xbe0f0d3a	-0.1396989
186	0xba75b320	-0.00093727
187	0xbd835b6b	-0.06413921
188	0xbde0eeda	-0.10983057
189	0x3db86dfe	0.09005354
190	0x3da7bd55	0.08190409
191	0xbbd59315	-0.0065177777
192	0x3b26faf6	0.0025479174
193	0xbd592120	-0.053010106
194	0x3c0834dc	0.008313384
195	0xbd4b2353	-0.049594235
196	0x3c813d54	0.015776314
197	0x3c1894c1	0.009312809
198	0x3de1e7b6	0.110305235
199	0x3d8a2d71	0.067469485
200	0xbd9c9c88	-0.076470435
201	0x3d8a6fe6	0.06759624
202	0x3d6de8a1	0.05808318
203	0xbcadfeb1	-0.02123961
204	0x3d500919	0.050789926
205	0x3d1474c4	0.03624417
206	0x3c0a80b4	0.008453537
207	0xbcecf1b3	-0.028923845
208	0xbdaf763b	-0.085674725
209	0xbd351a82	-0.044214733
210	0xbc8ef850	-0.017452389
211	0x3da15743	0.07877972
212	0xbdd86478	-0.10566038
213	0xbb9df471	-0.0048203995
214	0xbda35896	-0.07975881
215	0x3d085621	0.033285264
216	0xbc89084d	-0.016727591
217	0xbcbc5592	-0.022990022
218	0x3d0995ff	0.033590313
219	0xbd29d1c0	-0.0414598
220	0x3cb99b5a	0.022657085
221	0xbcb4c89a	-0.02206831
222	0xbd853326	-0.065038964
223	0xbccbf95a	-0.024899174
224	0xbd4dc40e	-0.0502358
225	0xbd55139e	-0.05202066
226	0xbd99544c	-0.074867815
227	0xbc643136	-0.013927748
228	0x3d053dc0	0.032529593
229	0xbd4141ae	-0.047181778
230	0xbd4e5354	-0.050372437
231	0x3ddf0c20	0.108909845
232	0xbce42cc0	-0.02785337
233	0xbb690cde	-0.0035560648
234	0x3da8e05b	0.082459174
235	0x3d98882c	0.07447848
236	0xbc7e87f1	-0.015535341
237	0x3c89aac2	0.016805056
238	0xbcad057e	-0.021120783
239	0x3d2817e4	0.04103841
240	0xbcb31e3b	-0.021865001
241	0xbd7feb43	-0.062480222
242	0x3d27f80a	0.041008033
243	0x3dd87586	0.10569291
244	0x3c53b234	0.012920905
245	0xbba59b6f	-0.0050539295
246	0x3d704301	0.05865765
247	0x3d1db9c0	0.038507223
248	0x3cf93ee7	0.030425502
249	0x3b1cb40e	0.0023911032
250	0x3d719fba	0.058990218
251	0x3b829f5c	0.0039862823
252	0xbccf2007	-0.025283827
253	0xbc061b84	-0.008185271
254	0x3daaf68e	0.08347808
255	0x3d968f30	0.073515296

RNN.bias_ih_l0 f4 [128]
0	0xbd1a4b8c	-0.037669703
1	0x3c8d4fc5	0.017249951
2	0x3d219403	0.039447796
3	0xbd961f46	-0.07330184
4	0x3c10b5cd	0.008832407
5	0x3de665d7	0.11249893
6	0x3dca6adb	0.09883662
7	0xbd50b8c2	-0.05095745
8	0xbc92f704	-0.017940052
9	0xbd2d9a7a	-0.04238365
10	0x3ae1fa11	0.0017240663
11	0xbd0eded2	-0.034880467
12	0x3da9ea85	0.08296684
13	0x3d907e43	0.070553325
14	0x3cd3b8c6	0.025844943
15	0x3c1d433b	0.0095985485
16	0x3dc8c4eb	0.09803184
17	0xbd963d1a	-0.07335873
18	0xbc44770e	-0.0119912755
19	0x3db4d629	0.0882991
20	0x3da21328	0.0791381
21	0x3b70fe87	0.0036772804
22	0x3ca0aac3	0.019612676
23	0x3dae0344	0.084967166
24	0x3d69c714	0.05707462
25	0x3d158abf	0.03650927
26	0x3d6ce974	0.057839826
27	0xbcbdcca9	-0.023168879
28	0xbce8dca8	-0.02842553
29	0x3dd27055	0.10275332
30	0x3d69dc1b	0.057094675
31	0x3dd538da	0.10411234
32	0xbdac13e2	-0.0840223
33	0xbd531cb0	-0.05154103
34	0x3db2e16d	0.08734403
35	0x3d19b173	0.037522744
36	0xbb4d4a80	-0.0031324923
37	0xbb8df994	-0.0043327305
38	0xbd33eff8	-0.043930024
39	0xbd483d24	-0.048886433
40	0x3db89c4c	0.09014186
41	0xbd4f6acc	-0.05063896
42	0xbc8d1cda	-0.017225672
43	0xbc6a832b	-0.014313499
44	0xbd0ba6a9	-0.034094486
45	0x3d390510	0.045170844
46	0x3c26c674	0.010179151
47	0xbc281106	-0.010257965
48	0x3d8a2721	0.067457445
49	0x3d63b83b	0.055595618
50	0xbc9af787	-0.018916858
51	0x3e01aafa	0.12662879
52	0x3bf939d1	0.007605769
53	0x3da814e3	0.08207109
54	0xbd5d9d81	-0.054105286
55	0xbd6e2ab6	-0.0581462
56	0xbc63a921	-0.013895304
57	0x3dd4cc6f	0.10390555
58	0xbd326641	-0.04355455
59	0xbc947f92	-0.018127237
60	0xbd4473a7	-0.047961857
61	0x3d91226d	0.07086644
62	0x3d93f385	0.07224182
63	0x3d541719	0.05177984
64	0x3d575ce9	0.05257884
65	0x3dbee834	0.09321633
66	0xbd0b60b7	-0.03402778
67	0xbd2d3f98	-0.042296976
68	0x3d92ba1f	0.07164406
69	0xbdb85d25	-0.09002141
70	0xbd283e52	-0.04107506
71	0xbd3ec2ba	-0.046572424
72	0x3d7c0985	0.061532516
73	0xbbff3f68	-0.007789541
74	0x3d9134d9	0.07090158
75	0x3db5b4f5	0.088724054
76	0x3da049b9	0.078265615
77	0xbdb4192b	-0.08793863
78	0x3d1eb25b	0.03874431
79	0x39b545c5	0.00034574993
80	0x3db48f6a	0.088164166
81	0x3d7a47d6	0.061103664
82	0x3cbe0222	0.023194376
83	0xbda62b12	-0.08113684
84	0x3ca478c5	0.020077119
85	0x3d85a148	0.065249026
86	0x3da9b966	0.08287315
87	0xbc7650f4	-0.015033949
88	0x3d8f9e7c	0.0701265
89	0x3d4f4fac	0.05061309
90	0x3c36f29e	0.011166243
91	0x3d38bbe7	0.045101073
92	0x3d59063c	0.05298446
93	0x3d338cc5	0.04383542
94	0x3cbf6e35	0.02336798
95	0xbd8534e3	-0.06504228
96	0x3daff098	0.085908115
97	0xbcc9eea4	-0.024649926
98	0x3d5a814c	0.053345963
99	0xbd54c217	-0.05194291
100	0x3d714e86	0.058912776
101	0x3dbc077d	0.09181116
102	0x3c951dbf	0.01820266
103	0xbd4da023	-0.050201546
104	0xbd477630	-0.048696697
105	0x3d656ac6	0.05601003
106	0x3ce7c9e7	0.028294517
107	0x3c7b2d10	0.015330568
108	0x3da2a75e	0.07942079
109	0xbcd6391d	-0.02615028
110	0x3dfa415c	0.122194976
111	0xbbc51a0b	-0.0060150675
112	0xbd19c8a9	-0.03754488
113	0xbd077351	-0.03306896
114	0xbdbcdf60	-0.09222293
115	0x3c434f84	0.0119208135
116	0xbdd708fe	-0.10499762
117	0x3dbbc9b3	0.091693304
118	0x3c73fbaa	0.014891544
119	0x3b180d76	0.0023201383
120	0x3cdf4cd4	0.027258314
121	0xbddf3624	-0.108989984
122	0xbb867a7c	-0.0041039567
123	0xbd27b489	-0.040943656
124	0x3d139835	0.036033828
125	0xbd8e2d5b	-0.069422446
126	0xbccf8cbd	-0.025335664
127	0x3c9254b0	0.017862648

RNN.bias_hh_l0 f4 [128]
0	0x3def796c	0.11693081
1	0x3da5d7a3	0.0809777
2	0x3d6c2a12	0.05765731
3	0xbd253852	-0.040336914
4	0x3d5e7eaf	0.054320034
5	0x3dc03004	0.09384158
6	0xbbd8d749	-0.006617461
7	0x3ddb34ef	0.10703456
8	0xbd907cc4	-0.07055047
9	0x3dc6ac1c	0.09700796
10	0xbc48d8db	-0.012258734
11	0x3d0e8ab0	0.03480023
12	0xbd3a2a67	-0.045450594
13	0x3cf2dc48	0.029646054
14	0x3ce882b4	0.028382637
15	0x3d719055	0.058975536
16	0x3d8a2808	0.067459166
17	0x3d5969b1	0.05307931
18	0x3ccfea8f	0.025380401
19	0xbca41696	-0.020030301
20	0xbd5800fe	-0.05273532
21	0x3d7b0a1b	0.061288934
22	0x3d94f885	0.07273964
23	0xbc013ae2	-0.007887574
24	0x3db3c7fa	0.08778377
25	0xbcf40cbd	-0.02979123
26	0x3d8bf46b	0.068337284
27	0x3d59e75c	0.053199157
28	0x3d9ca40c	0.07648477
29	0xbd577de0	-0.052610278
30	0x3d880889	0.06642253
31	0x3d8573ee	0.065162525
32	0x3d1a5dde	0.037687175
33	0x3bf95978	0.0076095425
34	0xbd33f728	-0.04393688
35	0x3db96a0c	0.0905343
36	0xbc2da7c4	-0.0105990805
37	0xbd2f0881	-0.04273272
38	0x3cc0afde	0.02352136
39	0x3d37548f	0.044758376
40	0x3d32f171	0.043687288
41	0xbd11f677	-0.035635438
42	0x3d9c58ef	0.0763415
43	0x3d9d1c3e	0.076714024
44	0x3a1f69dc	0.0006081143
45	0xbc60005c	-0.013671961
46	0xbca2ca3f	-0.01987183
47	0x3dfa68b1	0.122269996
48	0x3a274638	0.0006381008
49	0x3db4091e	0.087908015
50	0x3d47d5e1	0.048787955
51	0xbb7b30b0	-0.003832858
52	0x3db006b2	0.08595027
53	0xbcf20133	-0.029541587
54	0x3b19a495	0.0023444046
55	0x3befd9e1	0.0073196744
56	0x3d844d7c	0.064600915
57	0xbd0226fd	-0.031775463
58	0x3d27d6c6	0.04097631
59	0xbcb6bb61	-0.022306146
60	0xbd416712	-0.047217436
61	0x3cf1c2c5	0.029511819
62	0xbc06f124	-0.008236203
63	0x3d9809ee	0.07423769
64	0x3da6c9a8	0.081439316
65	0x3d8e07ca	0.069350794
66	0xbd8f6be5	-0.07003001
67	0x3ca61c67	0.020277215
68	0xbd0c0313	-0.03418262
69	0xbcf78ed5	-0.030219475
70	0x3de46a51	0.11153091
71	0x3d910b91	0.07082284
72	0x3d2ac1a9	0.041688595
73	0x3c09f6b0	0.008420631
74	0x3bf7a9ca	0.007558082
75	0x3c6583dc	0.0140084885
76	0xbd278af2	-0.040903993
77	0x3b9f26fc	0.004856942
78	0x3ddb5509	0.107095785
79	0x3d0a8f30	0.03382796
80	0xbd13e48f	-0.036106642
81	0xbc400326	-0.011719501
82	0x3dccb364	0.099951535
83	0x3cafe249	0.021470206
84	0xbc887363	-0.016656583
85	0x3ded4c76	0.115868494
86	0x3dc25484	0.09488776
87	0x3c2c0478	0.010499112
88	0x3d78f7fc	0.06078337
89	0xbdabce22	-0.08388926
90	0xbada2e4b	-0.0016645876
91	0x3d8b5f05	0.06805233
92	0x3dfca8ce	0.123368844
93	0x3df7f365	0.12106971
94	0x3dc247bd	0.09486339
95	0xbd66ffb7	-0.056396212
96	0x3df6bcbf	0.12047719
97	0xbd315cbd	-0.043301333
98	0xbc811369	-0.015756326
99	0x3bf3fa07	0.007445577
100	0xbb5122d3	-0.0031911626
101	0xbca81859	-0.020519422
102	0xbca3ccc6	-0.019995105
103	0x3d29745d	0.04137074
104	0xbd09952f	-0.03358954
105	0x3d381d69	0.044949923
106	0x3c8adeeb	0.016951999
107	0xbcd275d2	-0.025690947
108	0x3db560c5	0.08856348
109	0xbc627f65	-0.013824319
110	0x3d1a182e	0.037620716
111	0x3cf6bc6e	0.030119147
112	0x3d2b077c	0.041755185
113	0x3ddc96a2	0.107709184
114	0xbdc0e0ff	-0.094179146
115	0x3d3f9b13	0.04677875
116	0x3d082de9	0.03324691
117	0x3dda8720	0.10670304
118	0x3d953ea4	0.072873384
119	0xbd20b176	-0.03923174
120	0x3c7edb92	0.015555279
121	0xbd8a0158	-0.067385375
122	0x3dbc4fe6	0.09194927
123	0x3bec7645	0.0072162473
124	0xbd163f6a	-0.03668157
125	0xbdadd4a6	-0.08487825
126	0xbd76a714	-0.060217932
127	0x3da48e57	0.08034962

actor.weight f4 [3, 128]
0	0x3e0c6734	0.13711244
1	0xbe064775	-0.13113196
2	0xbde75071	-0.1129464
3	0x3e9f3f7f	0.3110313
4	0x3e9c6a68	0.30549932
5	0x3e18818f	0.14893173
6	0x3c43f2ae	0.011959715
7	0x3e1a8a4d	0.1509182
8	0xbdf25cb7	-0.1183409
9	0x3e5a067a	0.21291533
10	0x3e812072	0.25220066
11	0xbd89d547	-0.067301326
12	0xbe20d3aa	-0.15705743
13	0x3e0bb691	0.13643862
14	0x3ea88a91	0.32918218
15	0xbe8de24b	-0.2771171
16	0xbe6524b2	-0.2237728
17	0x3db96bf5	0.09053794
18	0xbc2b3c9f	-0.010451465
19	0xbe9025f1	-0.28153947
20	0xbea2d4b9	-0.3180292
21	0x3e419da7	0.18907796
22	0xbe81ac6a	-0.25326854
23	0xbe0b10ba	-0.135806
24	0x3e97cf86	0.29650515
25	0x3e7687a7	0.24075185
26	0xbc80b23e	-0.015709992
27	0xbd34d7f3	-0.044151258
28	0x3dcf59d8	0.10124558
29	0x3e9fd075	0.31213728
30	0xbe844d7f	-0.25840375
31	0x3dc59be7	0.09648877
32	0xbe3d4429	-0.18483032
33	0x3e38dfac	0.18054074
34	0x3d20b447	0.039234426
35	0xbca4ea49	-0.020131247
36	0x3e13dcdb	0.14439718
37	0xbec12d86	-0.37730044
38	0x3ec1d1c6	0.37855357
39	0x3c95e9a4	0.018299885
40	0xbe9288d6	-0.28620023
41	0x3e324511	0.17409159
42	0xbe80b612	-0.2513891
43	0x3e9014ec	0.28140962
44	0x3d9885b7	0.07447379
45	0x3ebea3d5	0.3723437
46	0x3e8fc2e7	0.28078386
47	0x3cda4dec	0.026648484
48	0x3e8b6566	0.27225798
49	0xbec3d904	-0.38251507
50	0x3d9f947b	0.07791992
51	0x3e52a265	0.20569761
52	0xbdf4f154	-0.11960092
53	0xbeb12fe5	-0.34606853
54	0x3bce9cc8	0.006305311
55	0xbe4a25d1	-0.19740988
56	0xbdeb72ff	-0.11496543
57	0xbcba6ba2	-0.022756401
58	0xbe5771ce	-0.21039507
59	0x3d3a8854	0.04554017
60	0xbdf4ce79	-0.11953444
61	0xbe2b03ac	-0.1670062
62	0xbe805145	-0.25062004
63	0xbe26deb2	-0.16295889
64	0x3e66054c	0.22462958
65	0x3d56350c	0.052296683
66	0x3dbeb2ed	0.09311471
67	0x3e9c3d8f	0.30515715
68	0xbd31c890	-0.043404162
69	0x3e9fbf65	0.3120071
70	0xbe8ab516	-0.27091283
71	0x3e386556	0.18007407
72	0x3db63397	0.08896559
73	0xbda67d0e	-0.08129321
74	0xbeb85446	-0.36001796
75	0x3e4eb7d3	0.20187311
76	0x3dd68f91	0.10476602
77	0x3e3788c0	0.1792326
78	0x3ecc7ab3	0.39937362
79	0x3ed0b86d	0.40765706
80	0xbad3351f	-0.0016113854
81	0x3d4e1db0	0.05032128
82	0xbce12554	-0.02748362
83	0x3e59532a	0.21223131
84	0x3e9086db	0.28227887
85	0x3e3f17e3	0.18661456
86	0x3e28dd27	0.16490613
87	0x3e1142bb	0.14185612
88	0x3e40c779	0.18826093
89	0xbe415efe	-0.18883893
90	0x3e847c1d	0.2587594
91	0x3ec89e8b	0.3918346
92	0x3eac30b0	0.33630896
93	0xbe8ddd55	-0.27707925
94	0xbdf630ef	-0.12021052
95	0xbcf93c95	-0.030424396
96	0x3e78f40a	0.24311844
97	0x3e8debab	0.27718863
98	0x3e89b64e	0.268969
99	0x3de2fbb0	0.11083162
100	0x3efb982b	0.49139532
101	0x3ec1bfe5	0.37841716
102	0xbe410b7a	-0.18852034
103	0x3c959fa6	0.018264603
104	0xbe5f1159	-0.21783961
105	0x3dfdf987	0.12401109
106	0xbd64345b	-0.055713993
107	0x3d452988	0.04813531
108	0x3e540d4c	0.20708197
109	0xbd41a0bb	-0.047272425
110	0x3eb5482e	0.3540663
111	0x3dac65b5	0.084178366
112	0x3ebc9698	0.36833644
113	0xbd6a64bc	-0.057224974
114	0xbcfd4cd9	-0.030920433
115	0x3df18832	0.11793555
116	0x3e9e73aa	0.3094762
117	0x3ebabfc7	0.3647444
118	0x3e99f939	0.30072954
119	0x3ea2e170	0.3181262
120	0xbe1d58b5	-0.1536587
121	0x3df724ed	0.1206759
122	0xbe22f317	-0.15913044
123	0x3eb60aca	0.35555106
124	0x3e20d0ee	0.157047
125	0x3ce2c69e	0.027682599
126	0x3e1c31ab	0.15253322
127	0x3dcfa2d1	0.10138477
128	0xbde2dd3a	-0.11077352
129	0x3e6f6a7a	0.23380461
130	0x3e7e7a8c	0.24851435
131	0xbe66174f	-0.22469829
132	0x3bd108ba	0.006379214
133	0xbedd275b	-0.43194088
134	0x3e31ae78	0.17351711
135	0x3ca31ab1	0.019910188
136	0x3eaf1972	0.341991
137	0xbecdefc7	-0.40221998
138	0xbd3f0f51	-0.046645466
139	0x3e9c4a90	0.30525637
140	0x3dceaf70	0.10092056
141	0xbe787b04	-0.24265677
142	0xbe8058bb	-0.25067696
143	0x3e61b819	0.22042884
144	0xbe7e260b	-0.248192
145	0xbe34027f	-0.17579077
146	0x3b143156	0.0022612414
147	0xbdcce257	-0.100041084
148	0x3e3a8e28	0.18218291
149	0xbe7125a6	-0.23549518
150	0x3e482c8f	0.19548248
151	0x3e03b476	0.12861809
152	0xbe9330c1	-0.28748134
153	0xbe75ea2f	-0.24015115
154	0xbc998d76	-0.018744212
155	0x3eae2fe7	0.34020922
156	0xbdc86289	-0.09784419
157	0xbe8377b7	-0.25677273
158	0xbe5e19a0	-0.21689463
159	0x3d600dfb	0.054700833
160	0x3de757ef	0.11296069
161	0xbe03082b	-0.12796085
162	0xbd781c23	-0.06057371
163	0x3d0abcfd	0.03387164
164	0xbd9f4557	-0.077768974
165	0x3deaafb5	0.11459295
166	0xbd46d84a	-0.048546113
167	0xbe66af77	-0.22527872
168	0xbd3a4ed1	-0.04548532
169	0xbebfdc84	-0.37472928
170	0x3e6c6913	0.23086958
171	0x3d2bc48f	0.0419355
172	0xbe0ebc68	-0.13939059
173	0xbe8226e3	-0.25420293
174	0xbdf90b60	-0.12160373
175	0xb8c18154	-9.2270464e-05
176	0xbeb43546	-0.35196894
177	0x3e72c762	0.23708871
178	0xbe81166f	-0.25212428
179	0xbe4c2609	-0.19936384
180	0x3e06c772	0.1316202
181	0x3da99619	0.08280582
182	0xbdaf7db7	-0.085689
183	0xbe47bb69	-0.19505085
184	0x3ea15c32	0.31515652
185	0x3d9af565	0.075663365
186	0xbddb2105	-0.10699657
187	0xbe61c8c1	-0.22049238
188	0xbe1ae511	-0.15126444
189	0xbdd44c14	-0.10366073
190	0x3ddfb3ca	0.10922964
191	0x3eada6d1	0.33916333
192	0xbeb8ed19	-0.3611839
193	0x3e78b092	0.24286106
194	0xbe9ad882	-0.30243307
195	0xbe67ce3a	-0.22637263
196	0xbe8f1386	-0.27944583
197	0xbe2a281b	-0.16616862
198	0x3ef1ab3e	0.4720096
199	0xbda59d20	-0.0808661
200	0x3e50df11	0.20397593
201	0x3dfbfb4d	0.12303791
202	0xbdf1985b	-0.117966376
203	0x3cfd7d40	0.030943513
204	0xbe8d35e4	-0.27580178
205	0x3e7ee485	0.24891861
206	0xbe2d6109	-0.16931547
207	0xbeb5c3c6	-0.35500926
208	0x3ccd2e18	0.025046393
209	0xbe811a38	-0.25215316
210	0xbd6b56b5	-0.057455737
211	0xbe49e319	-0.19715537
212	0xbe1168e9	-0.14200176
213	0xbe45280b	-0.19253556
214	0xbe294761	-0.16531135
215	0xbe80735e	-0.25088018
216	0x3d36db1e	0.04464256
217	0x3e9f41e8	0.3110497
218	0xbe91658e	-0.28397793
219	0xbe681b0f	-0.22666572
220	0xbde7442f	-0.11292302
221	0x3e7f6da4	0.24944168
222	0x3d846dca	0.06466253
223	0x3d00ead6	0.031473957
224	0xbe963c8c	-0.2934307
225	0xbe6ead62	-0.23308328
226	0xbedfe97d	-0.43732825
227	0x3e3109d6	0.17288908
228	0xbe6ec5eb	-0.23317687
229	0xbe5155c7	-0.20442878
230	0x3dfa51e8	0.122226536
231	0xbebaff7a	-0.36523038
232	0xbda100fd	-0.078615166
233	0xbeabd72b	-0.33562598
234	0x3e5792e2	0.21052125
235	0x3d67a5d3	0.056554627
236	0xbd76d75c	-0.060263976
237	0xbeca4def	-0.39512584
238	0xbe6eabcf	-0.23307727
239	0xbe88f259	-0.26747397
240	0xbe80fd60	-0.2519331
241	0x3da61d9f	0.081111185
242	0xbe4577b1	-0.1928394
243	0xbe4ed877	-0.20199762
244	0xbe2f1336	-0.17097172
245	0xbe5f5662	-0.21810296
246	0xbe9eb563	-0.30997762
247	0xbde4d7cf	-0.11173975
248	0xbd08a2bb	-0.033358317
249	0xbe7ce984	-0.24698454
250	0x3e73ba1d	0.23801465
251	0xbe8fa5f3	-0.28056297
252	0xb9efb050	-0.00045716995
253	0x3c827f43	0.015929824
254	0x3bc8e7e4	0.006131159
255	0x3e1d73a2	0.15376142

actor.bias f4 [3]
0	0x3c80acf8	0.015707478
1	0xbc87113b	-0.016487708
2	0xbbbed267	-0.0058234218

critic.weight f4 [1, 128]
0	0x3db503ed	0.088386394
1	0x3e1d08ed	0.15335436
2	0xbc94f6f5	-0.018184165
3	0xbe1a44e5	-0.15065344
4	0x3cedcbfc	0.029027931
5	0x3d2e7c00	0.042598724
6	0x3e4d1c44	0.20030314
7	0x3df8c62b	0.121471725
8	0xbda62f48	-0.08114487
9	0xbdc8eb7c	-0.0981054
10	0x3d36fb87	0.04467347
11	0x3e2ecd78	0.17070568
12	0x3e33eea4	0.17571503
13	0x3b9d781c	0.004805578
14	0x3e501a63	0.20322566
15	0x3d35de9d	0.044401754
16	0x3e3b33b8	0.18281448
17	0xbe1c4615	-0.15261109
18	0x3d6768f0	0.05649656
19	0x3e25ffaf	0.16210817
20	0xbd80c1aa	-0.062869385
21	0xbc3ed115	-0.011646529
22	0x3dd919fa	0.10600658
23	0xbe2e61f7	-0.17029558
24	0x3dc08de8	0.094020665
25	0x3e2de0ff	0.1698036
26	0xbe30a868	-0.17251742
27	0xbd5330b2	-0.05156011
28	0xbe1d5d47	-0.15367614
29	0x3e431a06	0.19052896
30	0xbd0b43ed	-0.034000326
31	0x3e45c55a	0.19313565
32	0x3d16ec16	0.036846243
33	0x3e365199	0.17804565
34	0xbc92a6a9	-0.017901735
35	0x3d37fdea	0.044919886
36	0xbd2fba77	-0.042902436
37	0xbda4c8dd	-0.08046124
38	0x3d67f439	0.056629393
39	0x3bd446ff	0.00647819
40	0x3dae20e6	0.08502369
41	0xbe191699	-0.14950027
42	0xbdf4135e	-0.119177565
43	0xbd08fe12	-0.033445425
44	0x3db8a370	0.09015548
45	0xbe47e769	-0.1952187
46	0x3e15c5bf	0.14626215
47	0x3dc9b608	0.09849173
48	0xbd039c53	-0.032131504
49	0xbda3f6f4	-0.08006087
50	0xbccdc572	-0.025118563
51	0x3dcc27da	0.099685386
52	0xbcebbdb4	-0.028776981
53	0xbd544501	-0.05182362
54	0x3e0e4b1f	0.13895844
55	0x3ca2a988	0.01985623
56	0xbc2cec2c	-0.010554355
57	0xbe058b62	-0.13041452
58	0x3dbf9ef9	0.093564935
59	0x3cc8b0b0	0.024498314
60	0x3e80e639	0.25175646
61	0x3e32ddbb	0.17467396
62	0x3d5c6a47	0.05381229
63	0xbe0f5d0f	-0.14000343
64	0xbc2d5a3d	-0.0105805965
65	0x3d375951	0.044762913
66	0xbd141ae8	-0.036158472
67	0xbd99ff78	-0.0751943
68	0x3d775113	0.060380053
69	0xbddde8a9	-0.10835392
70	0x3e2a1f66	0.1661354
71	0x3e0c71b3	0.13715248
72	0x3d2adce8	0.04171458
73	0x3c88cf89	0.016700523
74	0xbd4e15dc	-0.050313815
75	0xbd1834f6	-0.037159882
76	0x3c33b8de	0.010969369
77	0x3b885ac8	0.0041612126
78	0xbcb4c18a	-0.022064943
79	0x3decbea4	0.11559799
80	0xbd616c33	-0.055034827
81	0x3e176d3d	0.14787765
82	0xbe0f9c93	-0.14024572
83	0xbde301aa	-0.11084302
84	0x3ba0f2a4	0.0049117375
85	0x3d4bb8ff	0.049736973
86	0x3d07d1ed	0.033159185
87	0x3e8c94fd	0.2745742
88	0x3e6ce421	0.231339
89	0x3ddccb7f	0.10781001
90	0x3d473abc	0.048639998
91	0x3d4ceb7c	0.050029263
92	0x3e278743	0.16360192
93	0x3c899917	0.016796632
94	0x3e3b4f76	0.1829203
95	0xbd0b08af	-0.03394383
96	0x3e33ec49	0.17570604
97	0xbcd1e554	-0.025622047
98	0x3dda8e15	0.10671631
99	0x3cb6325a	0.022240806
100	0x3c48434a	0.012223074
101	0xbca862f3	-0.020554995
102	0x3d4f9514	0.05067928
103	0xbe555a7b	-0.20835297
104	0x3dba35b6	0.09092276
105	0x3e1d83ab	0.15382259
106	0x3e661d1f	0.22472046
107	0xbe0a646e	-0.13514873
108	0x3ca3c158	0.019989654
109	0x3e28feb9	0.16503419
110	0x3dd87467	0.10569077
111	0x3e6848da	0.2268404
112	0xbd0193cf	-0.031635102
113	0x3d4c2088	0.04983571
114	0x3dd54bdc	0.1041486
115	0xbe42078a	-0.18948188
116	0xbd9f8996	-0.07789914
117	0xbd79f1a8	-0.061021477
118	0x3de5d7aa	0.11222775
119	0xbd5dbc21	-0.05413449
120	0xbd55d348	-0.052203447
121	0xbdec093d	-0.115251996
122	0x3e05dce0	0.13072538
123	0xbdfdea75	-0.12398235
124	0x3d994f83	0.07485869
125	0x3e3c8658	0.18410623
126	0x3d809f96	0.062804386
127	0xbe2f4763	-0.17117076
