W__RNN/W_RNN/md2/v_6/train_iter_1000.pt (torch, 79699 bytes, 6 tensors)

h0 f4 [128]
00000000: 0f23 e6bc 91f2 063f 76d7 47c0 9df6 48bf
00000010: 2ae5 d93f 1758 b5bf 4c83 1ec0 6023 833f
00000020: b97b 69c0 122c 813f ef88 af3e 1d1b 02bf
00000030: a0a9 1ac0 9e33 e6bf 2fc4 143f b073 6b3f
00000040: f02f 2d3f 2fd1 923f 5937 2c3e 7567 643f
00000050: 4d48 db3f 932c c43f 58f7 67bf 971c d1bf
00000060: 8b4e 75bd 4a6b 4c3f eb40 6c3e b07d 80bf
00000070: 0647 a3bf a895 953e 1516 0dbf 44c9 fbbe
00000080: ccc1 12bf 80ff 5cbc 2e04 3dbf 5700 9fbf
00000090: 0760 26be ad79 91bf ba13 cabf 64ff b43e
000000a0: 6fd4 893e 7d72 6ebf 9f42 82bc 4d27 1340
000000b0: e9cb b83f 5308 70be eabd 94bf 20ba 323f
000000c0: f7e4 fb3e 655c 1a3e 5cf2 9bbe 7f9b cb3f
000000d0: db81 ffbd 5b66 82bd 5214 67bf fd7d 30bf
000000e0: 1263 8dbf ffc5 8ebe a620 edbd e986 763f
000000f0: 198b 603f 02c1 b3bf 3a5e 96be 4850 573e
00000100: 5015 2e3f 66c5 dcbe d7cc 943e 4db6 a03f
00000110: 7bbd 233f 7a9f 88be 1d64 5a3d 4b45 8f3f
00000120: 9649 11bf 8fea 23c0 d915 1fbf 33b7 a0bd
00000130: 9130 1a3e 18ec 86bf e73c 653f 6442 8bbe
00000140: b711 f0be 3ca4 c4be eb4a 28bd d451 cf3f
00000150: 1919 a3bf 18c6 8b3f 9914 cc3e 7989 353c
00000160: 0582 0cbf ae48 03bf a067 a7bf f822 0740
00000170: f99f 9cbf 53e0 45bd 1651 c6bf 3017 523f
00000180: 2d3e 243e d9a2 f7bf b675 22bf bb77 8cbe
00000190: 8078 06c0 3d26 82be c56f ffbf 1574 6f3d
000001a0: 7a08 dfbe 8163 2d3d 6808 b1bf f824 2e3f
000001b0: dfdf 233f b6ac c93d 6720 a0bf e809 003f
000001c0: ec10 5fbf cbfe e7be b386 c4bf fbb7 c43e
000001d0: bdc7 9dbe 2488 e8bf 0a41 5dbf 89f9 9ebe
000001e0: c3c4 9fbc bfaf 5e3e 5f38 d6bf a281 92be
000001f0: 3f75 e23f 7543 f6be 30fb a3be 47b8 783e
-0.02809289 0.52713877 -3.1225257 -0.785013 1.702306 -1.4167508 -2.4767637 1.024517
-3.6481764 1.0091574 0.3428416 -0.5082262 -2.416603 -1.7984502 0.5811185 0.919734
0.6765127 1.1470088 0.16817988 0.8922036 1.713144 1.5326103 -0.9061179 -1.633685
-0.059889358 0.7985121 0.23071639 -1.0038357 -1.275605 0.2921574 -0.5511182 -0.4917699
-0.5732696 -0.01348865 -0.738345 -1.2421979 -0.16247569 -1.1365258 -1.578727 0.35351098
0.26919886 -0.93143445 -0.015900908 2.2992737 1.4437228 -0.23440675 -1.1620457 0.69815254
0.49198124 0.15074308 -0.30458343 1.5906829 -0.1247594 -0.06367179 -0.9026538 -0.6894224
-1.1045859 -0.27885434 -0.11578493 0.96299607 0.87712246 -1.4043276 -0.29368764 0.21026719
0.6800127 -0.43119353 0.2906253 1.2555634 0.63961 -0.2668417 0.05331813 1.1193022
-0.5675291 -2.5611913 -0.6214271 -0.078474425 0.15057589 -1.05408 0.89546055 -0.2719909
-0.46888515 -0.3840655 -0.041087072 1.6196847 -1.2742034 1.0919828 0.39859465 0.011080139
-0.54885894 -0.51282775 -1.3078499 2.1115093 -1.223632 -0.048309635 -1.5493495 0.8206663
0.16039343 -1.9346572 -0.6346086 -0.27435097 -2.1011047 -0.25419798 -1.9955984 0.058460314
-0.43561155 0.042331222 -1.383069 0.6802516 0.64013475 0.09847395 -1.2509888 0.50015116
-0.87135196 -0.4531158 -1.5353607 0.38421616 -0.3081645 -1.8166547 -0.86427367 -0.31049755
-0.019503003 0.2174673 -1.6735953 -0.28614527 1.7692031 -0.4809834 -0.32027578 0.24289046

RNN.layer_encode.weight f4 [128, 145]
00000000: 9724 f5bd 6356 0dbe a337 113d 5ba3 18bd
00000010: a4e6 2dbe f5cc 0bbe a4f1 37be 9fb8 653e
00000020: e033 f63d 9375 0abe 3d25 68bd 27c7 9ebd
00000030: 22ad 3bbd ec15 1a3e c644 6f3d a818 c93a
00000040: 7d5d a4bd fdaa 893d 36c3 6fbc c6ad 88bd
00000050: 1f65 883d c892 c0bb 19fd 953d 423d 873d
00000060: ebb4 02be 40ff 6b3c ff68 0a3c f412 f8bb
00000070: ff31 933d 30a4 fc3d 732d d5bc bf73 80bd
00000080: 9b77 d13d 23b3 8bbb b0c9 0c3d 9af0 fdbd
00000090: 9521 97bc 9853 45bd 1dfb 63bd 0ec7 10bc
000000a0: e1a2 89bd 3503 89bd 31e4 5b3d ee7a a93d
000000b0: ea28 8bbb 0a9c 793d 08a8 28bc 225e a7bc
000000c0: 854b 59bd 1a0e 2bbc e464 843d fa4a 613d
000000d0: 2903 043e 18e1 2d3e 1fd8 cb3d 2ccf 0cbc
000000e0: e4d8 733d 5970 1cbd 760b c83d 525c b53d
000000f0: 87a4 59bd e73d cfbd 8311 00bd c129 df3d
00000100: 70e2 853d d146 7d3c d405 053b b2ab c83a
00000110: f8db 413c 07d7 22bb 3154 c43d 0c4c 783d
00000120: 1deb 223c b64d 993d bacf 5e3c 118b 46bd
00000130: c0b0 293c 78eb b9bc 1606 ef3d bbb5 8d3d
00000140: aa0d 733d 86fb b33d 05a3 d23d d989 85bd
00000150: 08db 8f3d 395f abbd cf56 863d 21a2 5b3b
00000160: cab6 86bc 43e3 9c3d ba25 2cbd 04ac fc3c
00000170: b8ce a1bd 947d 273d 90b8 6fbc b436 4f3d
00000180: 75fc 113e 4538 173c ce80 1e3c 2cdd 24bc
00000190: a9f0 c7bd 91c8 263d c6db 91bd ac1e 773d
000001a0: 1161 bebd e4e4 adbc c2b0 ef3c 1b6c 94bb
000001b0: 346f 963d d7f6 0dbd 05de 6dbd bb4f 60be
000001c0: f865 c73c 5ccb f73c b3ea 813d 6f25 b4bd
000001d0: d8d8 013e d1f9 0c3d c54f d83d 2968 8f3d
000001e0: e5a5 bdbd e12f ae3d d58a 11bc 9b6f 7abc
000001f0: eda0 153b 01c3 063e 33cd 20bd b577 0cbb
00000200: d225 4f3d f1ac 423d 436b 943d e204 6abc
00000210: e929 163d 53b7 2fbd cf83 bbbd 050e 913d
00000220: 65e6 ae3d 897d 9b3d 47bb b53c 4b40 273d
00000230: 1bbe e03b fedc 8cbc 49d9 bbbc 1ac6 1b3c
00000240: caa2 c63d d9a3 2fbc 58f4 493d b133 a0bd
00000250: 65ee bbbd 140d 55bd e6dc 9cbd b434 61bd
00000260: 31ef aabd 42e9 d73b bee4 45bd 177d 09bc
00000270: 8a66 93bc 99eb a9bc 64ee 163e c212 57bd
00000280: d72a 093e 10ee 6dbc b62f 1fbd d311 b4bb
00000290: 052c bc3d b8c0 df3b 355b 2e3d 7357 793d
000002a0: 5902 9d3d bb5e ae3c c6f1 ce3d 1e92 443e
000002b0: e444 d5bc eb2d b5bc d110 e63c a825 44bd
000002c0: 7e07 c93b 07bd 9dbc 83a0 a2bc f501 6d3d
000002d0: 6415 1f3d bdf5 c63c 4958 35bd b908 ad3b
000002e0: 4920 b7bd a0da 14bd 3733 5c3d d585 cbbd
000002f0: ba86 263c 4c95 96bd a8f0 193d 543f 413b
00000300: 245d 393d 12a6 58bd 529d acbd e3b5 95bc
00000310: 52be 92bd 619e 72bd 7919 b73d 91f6 4abd
00000320: fcc1 02bb 0d88 b9bd 119c 1e3d d49d c03d
00000330: 1fb9 1b3d 887e 5fbd fd54 c73b 9911 853d
00000340: d85f 6f3d 9ff1 e8bc f802 863d 6419 c23d
00000350: e497 dd3c 5ba2 733c 8db6 583d 2678 35bd
00000360: 07ef 713d 2a92 fe3b f293 d9bc ff58 ac3d
00000370: 1383 323d 0593 b9bb a103 4abd 7769 74bd
00000380: a3b0 78bd 7c4c 8cbd aec8 8a3d 1e06 64bc
00000390: 1c95 803d 9a4d d03d 5ca1 d53d 0451 e4bb
000003a0: 62c9 513d 18b6 b4bd 0ee4 3b3d 66b9 cc3d
000003b0: 42ed 5bbd 7353 263d 569a 6e3d e05f 72bd
000003c0: 98b3 093d 6496 6d3c 2e2e 0f3b 9a12 9cbb
000003d0: bd28 b3bd 3be9 7bbc f7c3 963c 2f90 0bbb
000003e0: 1052 b739 2a65 d33c d56b 64bd 8582 1e3d
000003f0: d784 693d 94a6 43bd 786e 933c 6d5c b4bd
-0.119698696 -0.13802485 0.03545345 -0.037265163 -0.16982514 -0.13652404 -0.17963272 0.22433709
0.12021613 -0.13521414 -0.05667614 -0.07752829 -0.04581941 0.15047425 0.058415197 0.0015342431
-0.08025644 0.067220666 -0.014633944 -0.0667377 0.06659912 -0.0058768727 0.07323665 0.06603481
-0.12764327 0.014404118 0.008447885 -0.0075706188 0.071872704 0.12336004 -0.026022648 -0.06272077
0.10227891 -0.004263298 0.03437203 -0.12399407 -0.01844863 -0.048175424 -0.055659402 -0.008836521
-0.0672052 -0.06690065 0.053684417 0.082754 -0.0042468207 0.060939826 -0.010293968 -0.020430628
-0.053050537 -0.010440374 0.06464556 0.055003144 0.1289183 0.16980398 0.09953331 -0.0085943155
0.059533015 -0.03819308 0.09767811 0.08855499 -0.05313542 -0.10119229 -0.0312667 0.10896636
0.0653733 0.0154587785 0.0020297663 0.0015309958 0.01183223 -0.0024847405 0.09586371 0.0606194
0.009943751 0.07485525 0.013599331 -0.048472468 0.010357082 -0.022695288 0.11671083 0.06919428
0.059339203 0.08788209 0.10285 -0.06520433 0.07024199 -0.08367772 0.06559526 0.0033513384
-0.016444582 0.07660534 -0.042028166 0.030843742 -0.079007566 0.040891245 -0.0146314055 0.05058928
0.14256461 0.009229724 0.009674264 -0.010062497 -0.09762699 0.04071862 -0.071219966 0.060331985
-0.09295858 -0.021227308 0.02925909 -0.0045294887 0.07345429 -0.034659233 -0.058073062 -0.21905415
0.024340615 0.030248336 0.063435934 -0.087962024 0.12680376 0.03441793 0.1056209 0.07002289
-0.092601575 0.08505226 -0.008883198 -0.015285398 0.0022831515 0.13160326 -0.039258193 -0.0021433656
0.050573178 0.04752821 0.07247021 -0.014283391 0.036661062 -0.04289944 -0.09156 0.07082752
0.08540038 0.07592303 0.022184027 0.0408328 0.0068586 -0.017195221 -0.022930758 0.00950768
0.09699018 -0.010720217 0.04930529 -0.07822359 -0.091763295 -0.052014425 -0.076593205 -0.054981902
-0.083464034 0.006589086 -0.04831385 -0.00839164 -0.01799323 -0.020742225 0.14739376 -0.052508123
0.13395248 -0.014522091 -0.03886386 -0.005495289 0.091880836 0.006828394 0.04256745 0.060874414
0.076664634 0.021285405 0.101047084 0.19196364 -0.026033826 -0.022116622 0.02808419 -0.047887474
0.0061349263 -0.019255174 -0.019851929 0.057863194 0.03883876 0.024287099 -0.04427365 0.005280581
-0.08941705 -0.03634131 0.05375978 -0.09937636 0.010163957 -0.07352695 0.037583023 0.002948721
0.04525484 -0.052892752 -0.08428444 -0.018275207 -0.07165207 -0.059233073 0.089404054 -0.04955155
-0.001995205 -0.09059153 0.038723055 0.09405103 0.038018342 -0.05456403 0.0060831294 0.06497497
0.058441013 -0.028435526 0.06543535 0.09477499 0.027049966 0.0148702515 0.05290847 -0.044304036
0.059065845 0.007768889 -0.026559804 0.08415412 0.043582033 -0.005663278 -0.049319867 -0.05967089
-0.06071533 -0.06850526 0.06776558 -0.013917474 0.0627844 0.10171051 0.104311675 -0.0069676656
0.051217444 -0.08823794 0.045871787 0.099962994 -0.053693064 0.040606927 0.058252655 -0.059173465
0.03361854 0.014501188 0.0021847594 -0.0047629597 -0.087480046 -0.015375431 0.01840399 -0.0021295657
0.0003496562 0.025805075 -0.0557669 0.038698692 0.05701145 -0.047766283 0.017997012 -0.08806691

RNN.layer_encode.bias f4 [128]
00000000: c82e 6abd a077 6e3d e2b4 bdbb 4e1b b83d
00000010: a1f4 a93c fc0b 7e3c db6a 193d ccfb 1bbd
00000020: 5957 193d 1317 a8bb d9bf 303c b541 533d
00000030: b476 833d d2f1 90bd 8b67 2ebd 84e8 abbc
00000040: e8a6 4e3d f2e7 8ebd 5e47 d1bc e4c3 53bd
00000050: ba95 593d 6f0d 84bd ea34 acbc e6e3 563d
00000060: 9201 7e3c ac76 4b3c d393 bebd aeb1 7ebd
00000070: 4b78 76bd 7981 103d 40bd 1e3d 7e92 6cbd
00000080: 247e 46bc b9b0 893d f766 25bd 55f5 8abd
00000090: 50b1 39bd 5ab0 08bd e358 08bd 9777 eebc
000000a0: 3047 00bd 2537 c5bc 36f5 913d afa3 203c
000000b0: 8649 093d 80bc b13d 4367 aa3b 8e3a 50bd
000000c0: 0525 9e3d fad2 553d f116 053e 16ce 66bc
000000d0: c4ec bebc b7b7 e13c 8c2e dbbc 1de0 5cbc
000000e0: 4429 ad3c e82d a6bd 79ac 72bc 447b 0abd
000000f0: df1b 77bd b6e1 a03d 19fb eb3c 0b33 413d
00000100: 13a0 8abc 68ef 4cbd 34d4 f23b 9d18 82bd
00000110: dad7 41bc 427e 1c3d b7a6 f2bb 0b2e 9e3d
00000120: 31a3 163d 59dc d8bc 0c40 06bd 9e08 ab3d
00000130: 397d df3c 0346 dd3c 731e 8ebb 63fd 293d
00000140: fb67 1fbd 8075 ce3d 2a9d debb 736d 9abc
00000150: 6bb9 a33c b357 46bd 2f03 39bb e16e b6bb
00000160: 9a5f b0bd 1cae 0b3d a049 0d3d 48d1 b23d
00000170: 6f09 a43d 690b 44bd 6281 debb c64e 25bd
00000180: 38e9 ddbc fa48 913c f9cb e73c 16a1 d1bc
00000190: c03d b63d 158e 9cbd d311 38bd 7d5d 953d
000001a0: bce0 5cbd 00b2 39bd 7b4e c43c 3227 cabc
000001b0: a727 913d 4d56 823d 9325 57bc 849c dabb
000001c0: 8db0 743d 973f 213d e431 a6bd 9f4d d43d
000001d0: 2041 b83c bf51 ee3d 77eb 89bd 06dc 7a3d
000001e0: e0a6 f83b dce6 1dbc 68bf 6d3d 155b 19bd
000001f0: ca74 bc3d 3680 a2bd 402f 823d 0935 ae3d
-0.05717352 0.058219552 -0.005789385 0.08989583 0.020746531 0.015505787 0.03745542 -0.03808193
0.037436817 -0.005129704 0.010787928 0.051576335 0.06419125 -0.070773736 -0.042579215 -0.020984896
0.050452143 -0.06977834 -0.025546726 -0.051700488 0.053121306 -0.06447875 -0.021021325 0.052463435
0.015503304 0.01241843 -0.09305539 -0.062181167 -0.060173314 0.035279725 0.0387547 -0.057756893
-0.012115035 0.0672316 -0.040381398 -0.067850746 -0.045335114 -0.033371307 -0.033287894 -0.02910976
-0.03131789 -0.024074147 0.071268484 0.00980465 0.033517383 0.08678532 0.005200298 -0.050837092
0.07721905 0.052203156 0.12997033 -0.014087221 -0.023306258 0.027553422 -0.026755594 -0.013481167
0.021137841 -0.08114225 -0.0148116285 -0.03380896 -0.060329314 0.07855551 0.028806256 0.04716782
-0.016922032 -0.050033003 0.0074105505 -0.06352351 -0.011831248 0.038206346 -0.007405128 0.07723626
0.036776725 -0.026472257 -0.032775924 0.08351253 0.02728139 0.027010923 -0.004337126 0.041501414
-0.038917523 0.10081005 -0.0067936378 -0.018851018 0.019985875 -0.04842348 -0.0028230657 -0.005567417
-0.086119846 0.03410159 0.034494042 0.087313235 0.08009612 -0.047862444 -0.006790326 -0.040358327
-0.027088746 0.017734993 0.028295504 -0.025589507 0.08898497 -0.076442875 -0.044938873 0.07293222
-0.05392526 -0.04533577 0.023963204 -0.024676893 0.07087641 0.06364117 -0.013131517 -0.00667149
0.059738684 0.039367285 -0.08114985 0.103663675 0.022491992 0.116366856 -0.067343645 0.061244987
0.0075882524 -0.009637561 0.058043867 -0.03744038 0.09201963 -0.079346105 0.063566685 0.085062094

actor.weight f4 [3, 128]
00000000: f8b8 323d b649 a03e 6dc6 15be 35c0 9e3e
00000010: 128c e0bd a2f5 793c b46a b2be b33c 18be
00000020: 4a8e 6b3e 010c 03be 99b2 e33e a36a a6be
00000030: ed99 9e3e 61e9 a0bc 8433 053e 221d 113e
00000040: 4bf8 e8bd d932 27be 2a0b 4bbe 43ab 693e
00000050: 74b8 aabe 3ca5 4f3e 85ec 603e 7d9d 9e3e
00000060: a160 c2be 5e93 b7be ffe0 f93d 688b e9bc
00000070: c337 ad3e 6fcc 7e3b 250b 673e 867a e7be
00000080: 3df1 f63e 1fb5 92bd c2f0 0d3e 361e 523e
00000090: 0519 2e3e 985c b2bd f8a4 c13e e0db 983e
000000a0: 85ed 1bbe fec9 7d3e 333f 05be a713 c13d
000000b0: 1de4 893e 170d 733e a5ac b93e 52a7 283e
000000c0: e520 963e 7d1e 0d3e fe76 5a3e 7074 813e
000000d0: 9b9f b93d 005c ad3e fbba a03e c611 cfbe
000000e0: 05fe 933e f65c 893c 73b9 a03d 2a5c 953e
000000f0: 0c09 3abd 4872 533e f2e7 bd3e 2d06 c23e
00000100: 0f0f f13d 0cd8 c0be 758a 1b3e f774 b13d
00000110: 2b04 8bbd 0d84 ab3e 2384 183e 904e 88bd
00000120: b7ac 43be e6fd db3e 2cf7 8a3e 38ec 23bc
00000130: 55e6 e5bd 9439 e9bd c7a2 b33d 07e2 6f3e
00000140: 775f f9bc 691f e63d 6b4d 4c3b a62d 1e3e
00000150: 1036 aa3e 4c1b 3bbe fc8c cbbc 7435 8fbe
00000160: 36a6 103d 42cb 9fbd 0aea 39be 23d0 763e
00000170: 9190 a1be d8e6 1ebe e280 ac3e 3d6a 54be
00000180: 7efe 243e 2507 b2be 32f8 923c 707e ab3e
00000190: a30a 4a3d 8364 e63d f768 983e 3268 6a3e
000001a0: 59a4 af3b 7d26 a43e 413e 0dbe 71db 783e
000001b0: d76a 20be 9738 b0bd 659f 153d 4d7f c43e
000001c0: a148 38be 8ed7 4ebe 4ca4 db3c 0ec5 99bd
000001d0: 7ec1 983e 7131 3fbd 5287 e4be b3b4 a43e
000001e0: 932c 60be a584 dc3e 248c bebe 47bc ab3e
000001f0: abc6 1e3e 00c6 023e 0a33 903e 9b0d ae3e
00000200: 9d30 5bbe 0884 25be 3ad9 6d3d 9d70 92be
00000210: e0cf 763e 09ca 9d3d 3920 c73e 10c7 6b3e
00000220: ba81 93be bd77 9b3e 38e0 98be a1f8 45be
00000230: 3dd6 20be 9624 a83d 9d63 5fbe f6d7 94be
00000240: a1c7 a13e 771c d13d da36 693e 93c2 9cbe
00000250: 1f4b 9b3b efb8 4d3e 34a8 443d 94c1 a4be
00000260: fc2a a53c deb0 0bbe a3f4 bcbe 3ff6 6e3e
00000270: bb5f 33be cc06 00bb 3b88 8ebe a5fe 783e
00000280: 2905 bbbe 7e8d 903e 8fe1 14be 8776 523d
00000290: 3911 34be 7d34 abbe 290f 2fbe 20c9 aabe
000002a0: c797 3d3e d652 90be a947 ea3c 64b1 78bd
000002b0: 0a94 cfbd 3bbf f23d 8df8 0fbe dd27 12be
000002c0: 0a20 163e 7965 17be 5125 1e3c d3d9 c0be
000002d0: 081f 95be 99e8 75be 1ee9 9ebe 41a8 e93d
000002e0: 86e9 54be c0ff fa3d 873d 273e 21b3 8bbe
000002f0: f500 b43c 557e 60be 187f b4be 0eea 4bbe
00000300: 5ee4 8b3d cfa5 1c3e 359f 3d3d 5adc 0dbe
00000310: a982 07be 4b02 363c 5c1f 90be e916 c83e
00000320: 5a42 643e fff4 acbe 48c4 9fbe 9364 c33d
00000330: d1d2 b63e c530 28bd 9cc1 97be 6776 93be
00000340: b85f ddbc a142 f53d 4244 f2bd d001 663d
00000350: 7d17 91be 6fcb 883d 9c64 9f3d bd16 fb3e
00000360: 744b b9be e68a 98be 8924 903d 153c acbe
00000370: 1b4f e3be 09e2 54bd e38d 01be d7bd cebd
00000380: d81d 8bbd 33e3 873c dd8a 623e 632c 91be
00000390: e0b3 cfbd ac13 90be 61ba aebe 2961 75be
000003a0: 6f38 6c3d 2b37 06be f532 ae3d eeaf 07be
000003b0: df89 dcbd cdff 30be f12d 62be 0402 95be
000003c0: be1e 44be 1b8c 133c 4a41 a93c 9eeb 313e
000003d0: a0ae 5fbe 6e63 e63e 72ec b63e 0026 abbe
000003e0: 0021 fd3d 3fe8 93be 5ba2 c5bd 8ec1 e1bd
000003f0: 8800 c0be 6e87 e83c d34c 91bd 67d8 5bbe
0.04363343 0.31306237 -0.14626475 0.31006017 -0.10964216 0.015256317 -0.34847033 -0.14866905
0.23003498 -0.12797548 0.44472197 -0.32503232 0.3097681 -0.019642534 0.13007933 0.1417127
-0.11375483 -0.1632799 -0.19828478 0.22819237 -0.33343852 0.20277876 0.21965225 0.3097953
-0.37964347 -0.3585462 0.12201118 -0.028508857 0.33831605 0.0038879176 0.22562845 -0.45210665
0.48230925 -0.07163452 0.13861373 0.20519337 0.17001732 -0.08709067 0.37821174 0.2985525
-0.15227325 0.24784085 -0.1301239 0.094275765 0.2693185 0.23735462 0.3626453 0.16470078
0.29321972 0.13781162 0.21334454 0.25284147 0.090636455 0.33859253 0.31392655 -0.40443248
0.2890474 0.01676796 0.07847872 0.29171878 -0.045418784 0.20649064 0.37091023 0.37895337
0.1177045 -0.3766483 0.15189536 0.086648874 -0.06787904 0.33499184 0.14894156 -0.066556096
-0.19108854 0.42967147 0.27141702 -0.010005049 -0.11225573 -0.11387935 0.08771282 0.23426066
-0.030441029 0.1123646 0.0031174074 0.15447101 0.3324437 -0.18272132 -0.0248475 -0.2797047
0.03531476 -0.0780244 -0.18155685 0.24102835 -0.31555608 -0.15517747 0.3369208 -0.20743652
0.16112706 -0.34771076 0.017940614 0.33494902 0.04932655 0.1124964 0.29767582 0.2289131
0.005360168 0.32060614 -0.13793279 0.2430246 -0.15665756 -0.08604544 0.036528964 0.38378373
-0.17996456 -0.20199415 0.026811741 -0.07508288 0.29835123 -0.04667801 -0.4463449 0.32169113
-0.21892004 0.4306995 -0.37216294 0.33542082 0.15505473 0.12770844 0.2816394 0.33994755
-0.21405263 -0.16163647 0.05806849 -0.28601542 0.24102736 0.07704551 0.3889177 0.23025155
-0.2880991 0.3036479 -0.29858565 -0.19333126 -0.15706725 0.08210103 -0.21815343 -0.29071015
0.31597617 0.10210507 0.2277483 -0.30617198 0.0047391797 0.20090078 0.048011974 -0.32178938
0.020162098 -0.13641688 -0.36905393 0.23336123 -0.17516987 -0.0019535301 -0.2783831 0.24315889
-0.36527374 0.2823295 -0.14539169 0.051382568 -0.17584695 -0.33438483 -0.17095627 -0.3335657
0.1851493 -0.281882 0.028598623 -0.060716048 -0.10135658 0.118528806 -0.14059658 -0.14273019
0.1466066 -0.14784802 0.009652452 -0.37666187 -0.29125237 -0.2401451 -0.3103723 0.11409045
-0.20792207 0.12255812 0.16332065 -0.27285102 0.021973113 -0.21923192 -0.35253215 -0.19913504
0.06830667 0.15297626 0.04629441 -0.13853589 -0.13233437 0.011108945 -0.28148925 0.3907998
0.22290936 -0.33780667 -0.31204438 0.095406674 0.35707715 -0.041062135 -0.296399 -0.2880127
-0.027023181 0.11975599 -0.118294254 0.056154072 -0.28338233 0.06679427 0.077828616 0.49040785
-0.3619038 -0.2979347 0.070382185 -0.3363959 -0.4439629 -0.051973376 -0.12651782 -0.10094803
-0.067928016 0.01658783 0.22123285 -0.28354177 -0.1014173 -0.28140008 -0.3412657 -0.23962845
0.057671007 -0.13106982 0.08505813 -0.13250706 -0.10768484 -0.1728508 -0.22087838 -0.291031
-0.19152352 0.009005572 0.020661015 0.17375037 -0.21843958 0.44997734 0.35727268 -0.3342743
0.1235981 -0.28888127 -0.096501075 -0.11023246 -0.37500405 0.02838489 -0.07094731 -0.2146927

actor.bias f4 [3]
00000000: 01d1 5b3d 8fa9 c03c 531c e7bd
0.05366612 0.023518352 -0.11284699

critic.weight f4 [1, 128]
00000000: d87b 9c3e 611b 543e 8b56 243d 9a92 a1bd
00000010: 3ad2 97bd 0840 80bd c291 49bd 0907 52be
00000020: 6f81 c63d 0cb1 023e 3960 f8bd 8ec3 1c3e
00000030: 1705 20bd 0f76 bb3d 7a0f 4dbd b8d7 fa3d
00000040: 0e0c 3d3d abc6 493e 1f44 6cbe 2580 293e
00000050: 92af 6abd 18ac 323e d911 023d f6d0 5cbe
00000060: c265 ca3b 1450 a93c 3d3b f43d 232c 113c
00000070: d172 ecbc 7200 ea3d a1e0 aa3d f7f5 1fbd
00000080: ae72 113e 69cc 1cbd 9fab 863b b09c 523d
00000090: 16a3 0f3e 36b8 633e 5c8c 053e 8b1e f13d
000000a0: c98c 863e edf5 8fba 6343 e23d b5e6 f53c
000000b0: 6857 13bd b029 28be 3638 f83d 8289 063d
000000c0: 1cb7 e9bd cf9b 113e 5ebb 55bd 09b0 8a3e
000000d0: b83b 69bd 5509 833e 8d16 c53d aaee ab3c
000000e0: 39e5 2cbe 05d8 33bd 34cf eabd b946 01be
000000f0: 9f97 0a3e dfe5 f23d 9a66 bf3d 3ec3 53be
00000100: 606c e2bc fcec 81be 36d6 423d e71a 2d3e
00000110: f512 8f3c 1b00 04bd f294 053d 66ea 063e
00000120: 5819 243e fc6a 56bc 68de 263e 1885 983e
00000130: f307 9a3d 8dd6 193e 2425 25bd 77e7 573d
00000140: 7d8c 8e3d 5561 2a3e 3a79 0a3f a907 6dbd
00000150: 4f67 ec3c 7e66 f8bd 2706 153d 310a a43b
00000160: 96ad 3b3e 471a c7bd d5de a03d d209 bbbc
00000170: 83ca f83d 65a7 963c a3af 3d3c f338 283e
00000180: 7e4a cbbd 039f 1b3e cc4f 60be d684 28be
00000190: 64c8 1cbd 2753 bd3d 43d1 67bd 7807 d6bd
000001a0: 0512 a7bd 1d16 aebd 8c1f 573e 1518 413e
000001b0: 7e68 743d 9d5d 3a3e df54 993e 48ce 553e
000001c0: 1327 663e 80bb 503e fbe4 073e 7e5b 01be
000001d0: 98fe c43d 8f70 ca3d 13d5 5e3e 6be5 dfbd
000001e0: fbd4 53bd 3831 93bd 4510 b53b 0282 ee3c
000001f0: 09d0 f6bc 17ab cf3c 1d7c 253e a880 853d
0.30563235 0.20713569 0.040121596 -0.0788929 -0.074131444 -0.06262213 -0.04921127 -0.20510496
0.09692656 0.1276285 -0.12127728 0.15308973 -0.039067354 0.09153377 -0.050063588 0.12248176
0.046154074 0.19704692 -0.23072861 0.1655279 -0.057296343 0.17448461 0.031755302 -0.21564087
0.0061766813 0.020668067 0.11925361 0.008860621 -0.028863342 0.11425866 0.08343626 -0.03905293
0.14203903 -0.03828088 0.0041098143 0.05141896 0.14027056 0.2223824 0.13041824 0.11773404
0.26279286 -0.0010983326 0.11048009 0.030017236 -0.03597203 -0.16422153 0.121200964 0.03284598
-0.114118785 0.14219593 -0.05218064 0.2708743 -0.056941718 0.25593057 0.09623442 0.020987827
-0.16884317 -0.043907184 -0.11465302 -0.12624635 0.13534401 0.11860251 0.093457416 -0.20679948
-0.027639568 -0.25376117 0.04756757 0.16904794 0.017465094 -0.032226663 0.03261275 0.13175353
0.16025293 -0.0130870305 0.16295779 0.29789042 0.075210474 0.15023251 -0.040318623 0.052710976
0.0696039 0.16638692 0.5409123 -0.057868633 0.028857855 -0.12128924 0.03638282 0.0050060977
0.18327937 -0.09721809 0.07855002 -0.022831831 0.12148001 0.018390367 0.01157752 0.16427974
-0.09926318 0.15197377 -0.2190544 -0.16456923 -0.038277045 0.09244376 -0.056596052 -0.10450643
-0.08157734 -0.085003115 0.21008128 0.18856843 0.059669964 0.18199773 0.29947564 0.20879471
0.22475843 0.20384026 0.13270943 -0.12632558 0.096188724 0.0988475 0.21760969 -0.1093243
-0.051716786 -0.07187122 0.005525621 0.029114727 -0.030128496 0.025350137 0.16160627 0.0651868
