W__RNN/W_RNN/md2/v_6/train_iter_3000.pt (torch, 80523 bytes, 8 tensors)

h0 f4 [128]
-0.75235134 0.99247897 -1.0702789 0.3677718 -0.15453145 1.6594656 0.05604438 -0.7388555
0.22937922 -0.106757924 -0.67631227 0.7079882 -0.30437416 -1.223562 -0.12960067 0.33677566
-1.0650601 0.95489615 0.055000782 -0.73107797 0.6453824 -0.4294092 0.40437752 1.0996859
0.25593036 -0.57558244 -0.43651733 0.923465 0.3994609 -0.57975364 -0.05554551 1.5505255
1.1462663 -0.44336167 -1.7723713 0.77456474 0.5797133 -0.82045287 -0.023865864 0.40469855
-0.20580292 -0.68626475 -1.1667055 -0.48561612 0.40003964 -1.3441149 -0.26904938 -0.6369119
0.52039003 -0.70700127 0.46546516 -1.2609375 -1.3857946 -0.4381672 -1.3400414 0.9837529
-0.03205659 1.186642 1.0704803 1.3946306 0.6726405 1.0689237 0.05964115 -2.185145
1.8828954 0.17313926 -0.40194437 -1.7321078 1.143094 -0.83589023 -1.5172669 -0.073010825
0.45738205 -1.8645298 0.76480633 -0.054711096 -1.3409234 -0.85277385 -0.18248047 1.2867692
-0.43811083 1.2282982 1.3760614 -1.6046256 -0.1865874 0.23037794 -0.050918538 -0.49379325
0.6838602 0.30982637 1.3122903 -0.24623701 0.5308117 -0.35011655 -0.4313638 1.2402185
-1.7931076 -1.0266106 -0.16805108 -0.17543712 0.3788938 0.07553646 0.16750243 0.8197013
-0.6390862 1.0768136 -0.35791066 -0.11258952 -0.5945298 2.146436 1.2167139 -0.19878392
0.10375567 -0.07532923 0.35749388 0.28027445 0.21517307 -1.0370641 -0.9142515 0.80071414
-0.08478435 -0.9257581 -0.92792714 0.42733398 -1.0278711 -0.29026777 0.685571 -0.689642
00000000: 199a 40bf 1a13 7e3f e6fe 88bf 964c bc3e
00000010: 7e3d 1ebe 5e69 d43f cb8e 653d a225 3dbf
00000020: 63e2 6a3e e6a3 dabd cd22 2dbf b73e 353f
00000030: eed6 9bbe ae9d 9cbf 0ab6 04be dc6d ac3e
00000040: e453 88bf 1374 743f 8048 613d ed27 3bbf
00000050: c837 253f 86db dbbe 920a cf3e 82c2 8c3f
00000060: 4e09 833e 5f59 13bf 337f dfbe 3468 6c3f
00000070: 2486 cc3e bc6a 14bf b083 63bd 9f77 c63f
00000080: dbb8 923f 4d00 e3be 10dd e2bf e049 463f
00000090: 1768 143f 3309 52bf 5882 c3bc a634 cf3e
000000a0: 00be 52be 0caf 2fbf 9b56 95bf ada2 f8be
000000b0: ffd1 cc3e f50b acbf d7c0 89be a90c 23bf
000000c0: 4838 053f 09fe 34bf 7351 ee3e 6666 a1bf
000000d0: b861 b1bf 7457 e0be 7a86 abbf 3bd7 7b3f
000000e0: c54d 03bd e3e3 973f 8005 893f 4183 b23f
000000f0: 2b32 2c3f 7ed2 883f 474a 743d 6ad9 0bc0
00000100: b702 f13f 6b4b 313e a7cb cdbe b5b5 ddbf
00000110: e750 923f e7fc 55bf cd35 c2bf b386 95bd
00000120: fb2d ea3e eaa8 eebf 59ca 433f be18 60bd
00000130: 61a3 abbf 634f 5abf 29dc 3abe dab4 a43f
00000140: 1050 e0be e038 9d3f c822 b03f 5f64 cdbf
00000150: c410 3fbe 32e8 6b3e f58f 50bd 78d2 fcbe
00000160: 7611 2f3f 90a1 9e3e 21f9 a73f 8e25 7cbe
00000170: 47e3 073f 7a42 b3be b7db dcbe 7bbf 9e3f
00000180: 8d84 e5bf fa67 83bf 9515 2cbe caa5 33be
00000190: 5efe c13e dcb2 9a3d c285 2b3e f2d7 513f
000001a0: 279b 23bf 07d5 893f 1140 b7be 5695 e6bd
000001b0: 1b33 18bf 355f 0940 48bd 9b3f 038e 4bbe
000001c0: da7d d43d 3646 9abd 7009 b73e 2280 8f3e
000001d0: 5456 5c3e 84be 84bf 630c 6abf 9afb 4c3f
000001e0: 6ba3 adbd 7cfe 6cbf a28c 6dbf 85cb da3e
000001f0: 4891 83bf fa9d 94be 9581 2f3f 618c 30bf

RNN.weight_ih_l0 f4 [128, 17]
-0.036198188 0.2049756 0.24337773 0.46953684 0.02573979 0.17045426 0.39221135 -0.10462013
-0.1076745 -0.13084298 -0.12657444 0.055399854 0.012510297 -0.092088036 -0.021813514 -0.101122074
-0.0588848 0.023796823 -0.049540497 -0.10219832 -0.08551844 -0.077524826 -0.049125887 -0.1095434
0.009924514 -0.09655227 -0.028844513 0.051793516 0.23052435 0.09912042 -0.09802859 0.072871074
-0.12660466 0.22110322 -0.09417101 -0.06406587 -0.12783182 -0.05582922 0.0014367898 -0.060643796
-0.08620888 -0.11570282 -0.091781065 -0.042351097 -0.106817015 0.052788354 -0.038912147 -0.008336727
-0.040054075 -0.077707596 0.16636549 -0.057636082 0.27961943 0.254043 0.49804923 0.18212661
0.2258923 0.15693985 -0.17198601 -0.08082859 0.028172024 -0.07916505 0.049063496 -0.09359608
-0.040538404 0.009986852 -0.060132794 -0.089373745 0.13932861 0.029743353 0.21738988 0.46964732
0.051004604 0.25065115 0.4308406 -0.17796406 -0.33719355 -0.1802132 -0.11455306 -0.03406653
0.23552868 -0.101721525 -0.033019617 0.029629834 -0.034682006 0.22078678 -0.32503253 -0.27408794
-0.37823194 -0.11086708 -0.26640993 -0.18295191 0.22441521 0.1348439 0.1881696 0.10091925
-0.15362756 0.09063423 0.06448474 0.07159293 -0.022263987 -0.015756724 -0.12897801 -0.16648534
-0.109580524 -0.08977246 -0.06913311 -0.09981959 -0.16653158 -0.02704897 -0.07162705 -0.116150506
-0.06394025 0.09538836 0.23794542 -0.2166295 0.06371093 -0.08641261 0.13392219 -0.03286877
-0.16639118 0.077613324 0.3577462 -0.19315489 -0.32968435 -0.2762653 0.3828271 0.32744512
0.12931694 0.015932417 0.0053699035 0.019369688 0.10257015 0.114033796 0.060495384 -0.062916346
-0.13444915 -0.116896406 -0.05173155 -0.12201134 -0.04148303 -0.113080665 -0.07119087 -0.01987391
-0.14142999 -0.12375044 0.010338348 0.19836879 0.15041295 0.115125604 0.022294581 -0.19488727
0.08558023 -0.1438244 0.06354945 0.20276321 0.4885885 0.012830317 0.06827432 0.23422576
-0.10307054 -0.09599407 -0.11059554 0.057714608 -0.05858616 0.18277374 0.009130097 0.052060496
-0.10426236 -0.16287756 0.21398859 -0.09806484 -0.29809514 -0.5225735 0.09056968 -0.043593615
-0.2760613 0.49512193 0.4080477 0.32192636 -0.074336514 -0.12935278 0.04263791 -0.11019709
0.03472839 0.106856495 -0.0057899384 -0.21195808 0.06527279 0.24708849 0.50519264 -0.04280926
0.103795104 0.22642864 -0.3773567 -0.33748245 -0.19747429 0.20750277 0.1304428 -0.012615174
-0.09188226 0.003785918 0.008287849 0.17044847 -0.20635645 -0.14299835 -0.10305241 -0.08896777
-0.00905119 -0.041891422 -0.07768662 0.10733985 0.14097741 -0.03641601 -0.17003329 0.07430776
-0.0017132307 -0.22546266 -0.023796268 0.05732537 0.13139918 0.2969467 0.14934938 0.2552815
0.5228231 -0.103100486 -0.2906117 -0.3869649 -0.15035293 -0.1941778 -0.10690077 -0.1258608
-0.26475185 -0.13089035 -0.12634048 -0.025787463 0.08954127 -0.032934025 0.12538081 -0.20642579
-0.055622246 0.019593826 -0.24205416 -0.11049159 -0.0730461 -0.03719068 -0.04335023 -0.10184806
-0.13672757 -0.15112111 0.2003712 -0.16576393 0.08599369 0.018616889 0.074365295 -0.38329747
00000000: 8d44 14bd 20e5 513e 0338 793e 2267 f03e
00000010: 41dc d23c 908b 2e3e edcf c83e 1443 d6bd
00000020: 7384 dcbd b4fb 05be bb9c 01be f5ea 623d
00000030: fdf7 4c3c a798 bcbd 41b2 b2bc 1719 cfbd
00000040: 3031 71bd 8ef1 c23c faea 4abd 5a4d d1bd
00000050: 4b24 afbd 56c5 9ebd 3a38 49bd 4a58 e0bd
00000060: 6e9a 223c 32bd c5bd 544b ecbc 7025 543d
00000070: 930e 6c3e a6ff ca3d 37c3 c8bd 6e3d 953d
00000080: a7a4 01be e268 623e bbdc c0bd f834 83bd
00000090: 58e6 02be 2ead 64bd aa52 bc3a a165 78bd
000000a0: 488e b0bd 9af5 ecbd b6f7 bbbd 5878 2dbd
000000b0: e1c2 dabd 9a38 583d 5862 1fbd c496 08bc
000000c0: be0f 24bd 2925 9fbd b75b 2a3e d013 6cbd
000000d0: 472a 8f3e ed11 823e 4f00 ff3e 667f 3a3e
000000e0: 5050 673e d7b4 203e 1a1d 30be 7689 a5bd
000000f0: 04c9 e63c 4921 a2bd cef6 483d 4daf bfbd
00000100: 990b 26bd e59f 233c ce4d 76bd 9509 b7bd
00000110: 29ac 0e3e 55a8 f33c 749b 5e3e 9d75 f03e
00000120: 34ea 503d 5955 803e 2497 dc3e 363c 36be
00000130: a2a4 acbe cf89 38be cb9a eabd 5989 0bbd
00000140: 6e2e 713e 6053 d0bd 943f 07bd 44ba f23c
00000150: b80e 0ebd ee15 623e aa6a a6be 4155 8cbe
00000160: 9ea7 c1be 480e e3bd e266 88be bf57 3bbe
00000170: 1acd 653e 8514 0a3e 88af 403e c0ae ce3d
00000180: 8b50 1dbe 709e b93d 9310 843d 509f 923d
00000190: f762 b6bc 3f14 81bc d012 04be 227b 2abe
000001a0: c16b e0bd a0da b7bd a995 8dbd 376e ccbd
000001b0: 4187 2abe cd95 ddbc 34b1 92bd 51e0 edbd
000001c0: 1bf3 82bd f95a c33d f7a7 733e 20d4 5dbe
000001d0: e07a 823d 18f9 b0bd e622 093e 67a1 06bd
000001e0: 7362 2abe bcf3 9e3d 832a b73e 65ca 45be
000001f0: 63cc a8be a572 8dbe ea01 c43e e3a6 a73e
00000200: a96b 043e b384 823c 04f6 af3b 2ead 9e3c
00000210: 4c10 d23d 8d8a e93d 02ca 773d 49da 80bd
00000220: 0aad 09be 6267 efbd 76e4 53bd 15e1 f9bd
00000230: 1cea 29bd d696 e7bd 85cc 91bd 9cce a2bc
00000240: 06d3 10be df70 fdbd 2d62 293c 3021 4b3e
00000250: da05 1a3e f9c6 eb3d 20a3 b63c 8790 47be
00000260: b044 af3d b446 13be 3726 823d 29a1 4f3e
00000270: 4628 fa3e 4036 523c 68d3 8b3d e1d8 6f3e
00000280: a616 d3bd 8a98 c4bd ea7f e2bd 2766 6c3d
00000290: 0bf8 6fbd 0a29 3b3e 6796 153c 633d 553d
000002a0: 8187 d5bd 60c9 26be d31f 5b3e 38d6 c8bd
000002b0: ed9f 98be 60c7 05bf 997c b93d 388f 32bd
000002c0: e857 8dbe 9f80 fd3e a1eb d03e 88d3 a43e
000002d0: be3d 98bd 0e75 04be 17a5 2e3d 03af e1bd
000002e0: 5b3f 0e3d 94d7 da3d 86b9 bdbb 8a0b 59be
000002f0: bead 853d c404 7d3e 4e54 013f c358 2fbd
00000300: 8792 d43d e9dc 673e e634 c1be 80ca acbe
00000310: b336 4abe 9b7b 543e cc92 053e e0af 4ebc
00000320: c42c bcbd 2a1d 783b c2c9 073c 0b8a 2e3e
00000330: 1b4f 53be 296e 12be 240d d3bd bc34 b6bd
00000340: 714b 14bc 5796 2bbd 2a1a 9fbd ffd4 db3d
00000350: 625c 103e f428 15bd 351d 2ebe ab2e 983d
00000360: 7c8e e0ba afdf 66be 64f0 c2bc 02ce 6a3d
00000370: 828d 063e 6609 983e 0bef 183e 42b4 823e
00000380: bcd7 053f 5926 d3bd 0fcb 94be 4320 c6be
00000390: 1ef6 19be 8cd6 46be caee dabd a7e1 00be
000003a0: 8e8d 87be 1f08 06be 665f 01be 3b40 d3bc
000003b0: 6a61 b73d d4e5 06bd d463 003e 4861 53be
000003c0: 27d4 63bd 3b83 a03c 0cdd 77be 6a49 e2bd
000003d0: 3299 95bd 4155 18bd 0390 31bd b795 d0bd
000003e0: 5002 0cbe 7ebf 1abe 1c2e 4d3e 05be 29be
000003f0: 761d b03d 7282 983c d54c 983d 913f c4be

RNN.weight_hh_l0 f4 [128, 128]
0.0012454666 -0.09473937 0.034037758 -0.11709059 -0.09294231 -0.027390147 -0.05495685 0.07961046
-0.057862435 -0.057158396 -0.03296505 -0.16247937 0.05631236 0.055553436 -0.046122245 8.037675e-05
0.060113832 -0.077010825 -0.020786334 -0.06104373 -0.02337813 -0.04379836 -0.036128167 -0.028732216
-0.03687756 0.023560409 -0.034513682 0.027093105 -0.07772571 -0.019324496 0.115724355 0.020852907
0.03779969 0.07105833 -0.07847049 0.04899751 -0.08417389 -0.024025993 0.06372715 -0.06640246
-0.07022883 0.0126274 -0.03287809 0.031456895 -0.050516818 -0.056177676 -0.19081426 0.1869162
0.05139725 -0.05579639 -0.009158888 -0.024753915 0.07219007 0.01494681 0.028426692 -0.0542069
-0.06723715 -0.06539813 -0.020721216 0.08476854 0.08073531 0.07369918 0.04574471 -0.06615925
-0.05605475 -0.10116725 -0.076589204 0.01985224 -0.13983378 -0.019216783 -0.086271554 -0.051256943
-0.034775596 0.025307905 0.0457649 -0.13159262 0.05103442 -0.0632165 0.04837772 -0.018564435
-0.114192896 -0.06812032 -0.06565628 0.022749603 0.021124074 -0.059013523 -0.053230334 0.16143632
0.065521374 -0.06940237 -0.15223072 0.045493178 -0.09627556 -0.051623516 -0.058800235 0.054169457
-0.14280498 0.06967521 0.079624884 -0.024558714 0.068623 0.046534933 0.04822924 0.087327585
-0.02012548 0.0023355426 0.018201103 -0.054841954 -0.03939858 0.04788232 0.08685367 -0.03960346
0.028702555 0.12941076 0.03976806 0.041959565 -0.042347744 0.050815813 0.09202955 -0.040890366
0.072966926 -0.017159188 -0.026554558 0.11919527 0.056356475 0.031922255 -0.14464678 0.015117366
-0.08388737 -0.04227888 0.039031036 0.0016147721 -0.09468968 0.028333021 0.10864876 0.019972602
-0.00208883 0.027162978 0.13684477 -0.048697095 -0.0050887056 -0.07293215 -0.003780321 -0.052344527
0.0112014 0.121940054 0.09593543 0.12867434 -0.07876092 -0.073079124 -0.045688156 -0.12812798
-0.034628373 -0.019336235 0.001820298 -0.09609503 -0.13791475 0.014611703 0.08655669 -0.033908635
0.034998447 -0.003276364 0.028290922 0.048343915 0.0069725458 -0.0031965915 -0.075949386 -0.04779169
0.04914883 0.057573304 0.07395008 -0.09861087 0.035627645 0.018401647 -0.02696061 0.014817791
-0.022334067 -0.01975028 -0.029565746 0.092684336 -0.09633836 0.06286003 -0.13876522 -0.008489625
0.070789285 -0.19563904 -0.0022190972 -0.08013103 -0.10576733 0.10295935 0.06696999 -0.015183435
0.00782866 -0.06542078 0.010930435 -0.06500747 0.010230387 0.006442737 0.10772284 0.075581625
-0.085510984 0.08116309 0.042764958 -0.03808212 0.044609204 0.031232681 0.010692169 -0.042339336
-0.11270036 -0.040985882 -0.034132995 0.081199795 -0.10490378 -0.011407561 -0.100143366 0.038818866
-0.025006708 -0.012611151 0.022993425 -0.039805923 0.018080547 -0.037889678 -0.083796404 -0.0048481696
-0.05537732 -0.07124547 -0.07865643 -0.019513402 0.034851898 -0.040407464 -0.048947055 0.11907244
-0.044785608 -0.02738235 0.08756401 0.0120814275 -0.009794732 0.013919512 -0.012939201 0.030447189
-0.024278477 -0.06416857 0.04110291 0.101286866 -0.010897981 -0.015978651 0.06681445 0.037601724
0.019534534 -0.012945661 0.06471442 0.009558653 -0.03813693 -0.008185271 0.07351028 0.043378413
00000000: ed3e a33a b706 c2bd 2d6b 0b3d 31cd efbd
00000010: 8a58 bebd 4d61 e0bc 6f1a 61bd cf0a a33d
00000020: 2901 6dbd ec1e 6abd 5c06 07bd fe60 26be
00000030: caa7 663d 008c 633d aeea 3cbd f08f a838
00000040: ec39 763d dab7 9dbd 1a48 aabc fd08 7abd
00000050: 7e83 bfbc e965 33bd 21fb 13bd d35f ebbc
00000060: ed0c 17bd c201 c13c 385e 0dbd 5cf2 dd3c
00000070: a82e 9fbd 684e 9ebc e400 ed3d b7d3 aa3c
00000080: d9d3 1a3d 0887 913d 23b5 a0bd 9db1 483d
00000090: 5c63 acbd 29d2 c4bc 6183 823d 03fe 87bd
000000a0: 22d4 8fbd 28e3 4e3c 2dab 06bd f2d8 003d
000000b0: b9ea 4ebd 901a 66bd d064 43be f666 3f3e
000000c0: ec85 523d c18a 64bd 290f 16bc b9c8 cabc
000000d0: 63d8 933d 77e3 743c 18df e83c 0e08 5ebd
000000e0: a2b3 89bd 74ef 85bd 8abf a9bc 219b ad3d
000000f0: 8e58 a53d 98ef 963d ce5e 3b3d 807e 87bd
00000100: aa99 65bd c630 cfbd cdda 9cbd 2aa1 a23c
00000110: 9630 0fbe 846c 9dbc 24af b0bd cdf2 51bd
00000120: db70 0ebd 8652 cf3c fa73 3b3d 37c0 06be
00000130: 7809 513d a777 81bd b727 463d 7114 98bc
00000140: f7dd e9bd ab82 8bbd cd76 86bd 605d ba3c
00000150: 650c ad3c 2ab8 71bd 0d08 5abd 904f 253e
00000160: 1230 863d d422 8ebd 5fe2 1bbe 0e57 3a3d
00000170: 1f2c c5bd 2e73 53bd 84d8 70bd cbe0 5d3d
00000180: 783b 12be e0b1 8e3d 5f12 a33d 5b2f c9bc
00000190: 378a 8c3d 6a9b 3e3d 068c 453d ced8 b23d
000001a0: 31de a4bc e70f 193b 7b1a 953c f5a1 60bd
000001b0: 6860 21bd 4020 443d 56e0 b13d 3d37 22bd
000001c0: 9f21 eb3c 4184 043e d5e3 223d cbdd 2b3d
000001d0: d474 2dbd 3e24 503d fd79 bc3d a87c 27bd
000001e0: af6f 953d 6d91 8cbc f288 d9bc a61c f43d
000001f0: 0cd6 663d e9c0 023d 491e 14be d4ae 773c
00000200: 24cd abbd 9e2c 2dbd 02df 1f3d c3a6 d33a
00000210: aaec c1bd a71a e83c 3e83 de3d 959d a33c
00000220: c1e4 08bb e584 de3c 0921 0c3e 9b76 47bd
00000230: 28bf a6bb 735d 95bd 43bf 77bb 3767 56bd
00000240: 1486 373c b5bb f93d cb79 c43d 35c3 033e
00000250: 684d a1bd 82aa 95bd 8123 3bbd fb33 03be
00000260: 7bd6 0dbd 0667 9ebc 1197 ee3a 79cd c4bd
00000270: 8639 0dbe ed65 6f3c a244 b13d c8e3 0abd
00000280: 885a 0f3d 44b8 56bb 5dc2 e73c 4504 463d
00000290: f479 e43b e87d 51bb 5a8b 9bbd 38c1 43bd
000002a0: 4950 493d fcd1 6b3d 2473 973d 7ff4 c9bd
000002b0: 4bee 113d 0dbf 963c 7fdc dcbc 52c6 723c
000002c0: eff5 b6bc 57cb a1bc dd33 f2bc 49d1 bd3d
000002d0: 0c4d c5bd c2bc 803d 7818 0ebe 1118 0bbc
000002e0: f9f9 903d 9a55 48be 466e 11bb bd1b a4bd
000002f0: 8b9c d8bd 5adc d23d 9027 893d f1c3 78bc
00000300: c843 003c 54fb 85bd 9115 333c a322 85bd
00000310: 5a9d 273c 981d d33b cb9d dc3d 8aca 9a3d
00000320: 6220 afbd d638 a63d 4f2a 2f3d fffb 1bbd
00000330: 24b8 363d aedb ff3c 352e 2f3c 036c 2dbd
00000340: 72cf e6bd d0e0 27bd 0acf 0bbd 144c a63d
00000350: cbd7 d6bd c7e6 3abc f717 cdbd 8800 1f3d
00000360: deda ccbc 009f 4ebc b55c bc3c 890b 23bd
00000370: a81d 943c 3532 1bbd 739d abbd 65dd 9ebb
00000380: 54d3 62bd 25e9 91bd 9f16 a1bd 92da 9fbc
00000390: ddc0 0e3d 4c82 25bd b57c 48bd 40dc f33d
000003a0: 1d71 37bd f350 e0bc c254 b33d 2ef1 453c
000003b0: 157a 20bc aa0e 643c f1fe 53bc 626c f93c
000003c0: a8e3 c6bc d06a 83bd 865b 283d 7d6f cf3d
000003d0: 728d 32bc a9e5 82bc 04d6 883d 4404 1a3d
000003e0: e306 a03c 0a1a 54bc fe88 843d e69b 1c3c
000003f0: 7835 1cbd 841b 06bc 8f8c 963d 90ad 313d

RNN.bias_ih_l0 f4 [128]
-0.057735484 0.004957903 0.033572298 -0.07121062 0.0057677943 0.105221465 0.10164034 -0.04942142
-0.02190453 -0.041333888 0.003048445 -0.032715254 0.08019428 0.06857432 0.020585898 0.01653864
0.101789325 -0.06869227 -0.016697496 0.09094605 0.072674744 -0.008218051 0.01981427 0.081531696
0.06947846 0.04608738 0.046623483 -0.02545428 -0.04766571 0.11004451 0.06715783 0.1149853
-0.0840223 -0.0408834 0.084562115 0.032277156 -0.0017365091 -0.004556982 -0.04330348 -0.054538835
0.10226085 -0.06766799 -0.020673683 -0.014576808 -0.025041604 0.040020913 0.017113717 -0.0021225552
0.065734796 0.055834647 -0.009764572 0.12558012 0.008638405 0.07812699 -0.05214998 -0.053125404
-0.009003215 0.10088761 -0.051379874 -0.020033127 -0.037447184 0.07118526 0.059149936 0.055466972
0.063640215 0.099790186 -0.033545554 -0.046043057 0.07393618 -0.09439719 -0.044886827 -0.046786018
0.054232575 -0.0019753338 0.06463635 0.07989274 0.087205015 -0.098878935 0.05426318 0.009200621
0.08875206 0.059266634 0.020749988 -0.087321356 0.020501137 0.053707905 0.0847847 -0.0065190233
0.07099543 0.039883435 0.009546673 0.05548643 0.056697242 0.04451557 0.013871939 -0.057017505
0.09112218 -0.01618108 0.060149465 -0.04384176 0.048900336 0.08763281 -0.005875736 -0.058621608
-0.04272819 0.04833024 0.019476678 0.0002628297 0.089596115 -0.022503335 0.122863136 -0.00012533768
-0.03671498 -0.030463498 -0.08508635 0.00623818 -0.12065621 0.108518824 0.016759077 -0.009041582
0.019540697 -0.099529035 -0.015693074 -0.035770636 0.038550157 -0.069422446 -0.019434888 0.0031883137
00000000: 0b7c 6cbd e875 a23b 1b83 093d e0d6 91bd
00000010: c4ff bc3b 5a7e d73d d028 d03d 1d6e 4abd
00000020: 2171 b3bc b94d 29bd 6cc8 473b 6e00 06bd
00000030: e63c a43d b170 8c3d c2a3 a83c 0b7c 873c
00000040: ec76 d03d 88ae 8cbd 30c9 88bc ec41 ba3d
00000050: 7fd6 943d 01a5 06bc 8951 a23c 17fa a63d
00000060: b94a 8e3d 1fc6 3c3d 44f8 3e3d 7f85 d0bc
00000070: 1f3d 43bd 045f e13d 0b8a 893d 6a7d eb3d
00000080: e213 acbd 5a75 27bd e72e ad3d 0d35 043d
00000090: 949b e3ba bc52 95bb fd5e 31bd 1d64 5fbd
000000a0: 236e d13d 8495 8abd db5b a9bc 90d3 6ebc
000000b0: 0d24 cdbc f8ec 233d 1132 8c3c 911a 0bbb
000000c0: f79f 863d dfb2 643d 95fb 1fbc 1398 003e
000000d0: 1988 0d3c 0b01 a03d 389b 55bd 069a 59bd
000000e0: 3882 13bc 2a9e ce3d b473 52bd 831c a4bc
000000f0: 3862 19bd 94c9 913d 3447 723d 5631 633d
00000100: cd55 823d cc5e cc3d 1067 09bd a597 3cbd
00000110: da6b 973d 5053 c1bd 40db 37bd b2a2 3fbd
00000120: fa22 5e3d 9a74 01bb 1060 843d ce9e a33d
00000130: 8b98 b23d 0a81 cabd 1143 5e3d 34be 163c
00000140: a4c3 b53d 92c1 723d e1fb a93c 8ad5 b2bd
00000150: 00f2 a73c d2fc 5b3d 9aa3 ad3d 889d d5bb
00000160: 0d66 913d d05c 233d a669 1c3c bd45 633d
00000170: 5e3b 683d f555 363d 2147 633c 308b 69bd
00000180: 449e ba3d 2f8e 84bc 495f 763d 6b93 33bd
00000190: b84b 483d d578 b33d 3f89 c0bb 361d 70bd
000001a0: c103 2fbd eef5 453d 8e8d 9f3c 68cc 8939
000001b0: 2b7e b73d ea58 b8bc ab9f fb3d 146d 03b9
000001c0: 7262 16bd 968e f9bc c141 aebd a669 cc3b
000001d0: 9a1a f7bd 1e3f de3d 554a 893c 2523 14bc
000001e0: d013 a03c e1d5 cbbd c38e 80bc 3b84 12bd
000001f0: c5e6 1d3d 5b2d 8ebd ea35 9fbc 07f3 503b

RNN.bias_hh_l0 f4 [128]
0.096864976 0.06868564 0.05178182 -0.03824574 0.051255386 0.086564146 -0.0038136877 0.10857056
-0.07451499 0.09805764 -0.010934369 0.036965396 -0.0482232 0.027667126 0.023123616 0.06591558
0.07121664 0.057745762 0.020674188 -0.017383369 -0.059198633 0.049393628 0.072941214 -0.011322982
0.100187555 -0.020213122 0.057120934 0.050913725 0.057244577 -0.04531907 0.0764857 0.076035455
0.037687175 0.018267205 -0.046718568 0.08528866 -0.009203096 -0.042956963 0.024147848 0.03910599
0.055806227 -0.052664496 0.072893515 0.07645062 0.00966099 -0.01882196 -0.012937247 0.13040534
-0.0010845843 0.0881469 0.057940215 -0.004881565 0.08698272 -0.03348565 0.004299683 0.012340444
0.06949301 -0.03479345 0.03315095 -0.024212021 -0.03670279 0.029830553 -0.021328062 0.077924795
0.0925006 0.07592463 -0.06954778 0.016531156 -0.03189047 -0.03459532 0.10771925 0.070609346
0.034388646 0.014234831 0.0012929383 0.00517718 -0.031964667 -0.006083383 0.12261479 0.042682834
-0.035518806 -0.013556507 0.09750721 0.015285673 -0.016232578 0.10432746 0.09679936 0.019014029
0.061652236 -0.09461903 -0.0032841554 0.07843776 0.12708154 0.12174983 0.08536737 -0.048371486
0.1256913 -0.034832533 -0.008952846 0.015546802 -0.013203612 -0.02469772 -0.044073466 0.032950696
-0.027621005 0.03727016 0.008134139 -0.040758684 0.09873881 -0.010177374 0.038288936 0.036008906
0.04258509 0.11031477 -0.08704257 0.041096106 0.01758837 0.12352857 0.07474106 -0.050593443
0.00783761 -0.057924468 0.08036016 0.012389227 -0.034165297 -0.08487825 -0.05431721 0.06567525
00000000: 2561 c63d 0fab 8c3d 2c19 543d 91a7 1cbd
00000010: 2bf1 513d 8b48 b13d 10ef 79bb 3e5a de3d
00000020: 519b 98bd 72d2 c83d 1126 33bc 0769 173d
00000030: b185 45bd 2ba6 e23c bd6d bd3c bffe 863d
00000040: 08da 913d d286 6c3d ea5c a93c 9167 8ebc
00000050: 447a 72bd f950 4a3d 3462 953d 0784 39bc
00000060: 222f cd3d fd95 a5bc a4f7 693d e98a 503d
00000070: 4a79 6a3d 7da0 39bd 89a4 9c3d 7ab8 9b3d
00000080: de5d 1a3d 1ba5 953c f85b 3fbd d2ab ae3d
00000090: 95c8 16bc a4f3 2fbd b5d1 c53c 9a2d 203d
000000a0: 1295 643d bab6 57bd 3249 953d 2592 9c3d
000000b0: 2149 1e3c 8330 9abc bff6 53bc fa88 053e
000000c0: 9c28 8eba 5d86 b43d b852 6d3d 89f5 9fbb
000000d0: ff23 b23d 4028 09bd 5be4 8c3b 932f 4a3c
000000e0: 5a52 8e3d 9483 0ebd 4ac9 073d 4a58 c6bc
000000f0: aa55 16bd 345f f43c 30b8 aebc 0997 9f3d
00000100: f470 bd3d 5f7e 9b3d 116f 8ebd 596c 873c
00000110: 959f 02bd d2b3 0dbd e99b dc3d a29b 903d
00000120: 1cdb 0c3d 3539 693c cf77 a93a 55a5 a93b
00000130: 62ed 02bd 1e57 c7bb 771d fb3d 32d4 2e3d
00000140: 2b7c 11bd 1d1c 5ebc dcb1 c73d c270 7a3c
00000150: 2ffa 84bc a3a9 d53d be3e c63d 4fc3 9b3c
00000160: 0e87 7c3d 9fc7 c1bd fc3a 57bb faa3 a03d
00000170: aa21 023e fa57 f93d 16d5 ae3d 2e21 46bd
00000180: 38b5 003e 8fac 0ebd f5ae 12bc 04b8 7e3c
00000190: f653 58bc df52 cabc 6186 34bd 4ff7 063d
000001a0: 7245 e2bc 98a8 183d 0d45 053c 94f2 26bd
000001b0: 9337 ca3d 00bf 26bc dcd4 1c3d 137e 133d
000001c0: b46d 2e3d b6ec e13d 6043 b2bd 6454 283d
000001d0: 7c15 903c 8cfc fc3d d711 993d 123b 4fbd
000001e0: 5269 003c 3542 6dbd de93 a43d 2ffc 4a3c
000001f0: e9f0 0bbd a6d4 adbd b97b 5ebd bf80 863d

actor.weight f4 [3, 128]
0.19483721 -0.1388442 -0.13640778 0.37824076 0.39667457 0.22113584 0.04844547 0.22827442
-0.14107002 0.22525708 0.36093354 -0.06622508 -0.13188925 0.11923646 0.35857555 -0.27442032
-0.21843046 0.06969394 -0.0045031942 -0.27140418 -0.32955366 0.20488518 -0.24733306 -0.15742822
0.38873363 0.33157006 0.030424282 -0.0796985 0.055987548 0.30843836 -0.2559833 0.094932534
-0.18483032 0.28057408 0.018297002 -0.01242723 0.12726778 -0.39447913 0.43040046 0.038273122
-0.3022782 0.17341419 -0.3173962 0.37322712 0.057802252 0.46606135 0.38235384 0.039876822
0.28325456 -0.38596186 0.18921155 0.2878001 -0.10814629 -0.41273898 0.010807631 -0.2142868
-0.11912089 -0.011534385 -0.2074437 0.058549512 -0.08804164 -0.16229334 -0.26947495 -0.25356907
0.33020392 0.055828124 0.16537955 0.3349075 -0.015187584 0.34428245 -0.29716536 0.22391912
0.053385977 -0.088699356 -0.40863279 0.19202985 0.1951854 0.16783552 0.48916 0.46534485
0.011987422 0.08642504 -0.07037126 0.2459007 0.29885164 0.21001534 0.17081639 0.20781763
0.18972638 -0.2162618 0.34591126 0.5338462 0.42883146 -0.29430047 -0.13037866 -0.022130474
0.2642379 0.38744107 0.35067028 0.13915862 0.47637135 0.45249823 -0.1860592 0.109789245
-0.20132555 0.0895599 -0.037580643 0.06517657 0.2679448 -0.022811046 0.39597553 0.07551934
0.41759533 -0.03901566 -0.018425183 0.122876905 0.25644884 0.50460124 0.33438107 0.30682135
-0.15286614 0.1141832 -0.1646768 0.4471367 0.13605854 0.027682599 0.12527898 0.071322374
-0.12296418 0.2724188 0.28839496 -0.2421855 -0.02022694 -0.51726174 0.15776564 -0.024030052
0.36303064 -0.43522367 -0.123478174 0.31952983 0.09665337 -0.2290601 -0.26780942 0.22658584
-0.28106046 -0.13480648 0.0024758927 -0.11682795 0.20171832 -0.22790007 0.18673058 0.1452838
-0.3564226 -0.29841703 -0.019657409 0.3640439 -0.07121848 -0.24220456 -0.20660591 0.055589937
0.11296069 -0.18739332 -0.045240734 0.039481524 -0.083682925 0.13287266 -0.11222636 -0.23736939
-0.052855857 -0.33996603 0.26753682 -0.006865046 -0.097917095 -0.32928574 -0.16846776 0.015153111
-0.3542086 0.25607854 -0.32715866 -0.26213968 0.1434865 0.07418834 -0.062482428 -0.21611682
0.3451754 0.07441501 -0.13342671 -0.22242074 -0.17608356 -0.14754319 0.1147419 0.3712641
-0.44933197 0.26242635 -0.35825023 -0.26219052 -0.33859867 -0.19594805 0.5065199 -0.091722354
0.23119985 0.13388595 -0.12430194 0.03749119 -0.34307283 0.3074719 -0.2293026 -0.40135962
0.01884287 -0.262756 -0.03951754 -0.2369128 -0.1501345 -0.19050542 -0.16056508 -0.3040626
0.034355912 0.3662711 -0.32622224 -0.33588687 -0.17498545 0.26221505 0.06939243 0.038269743
-0.30295435 -0.3310539 -0.50560707 0.20041913 -0.21002378 -0.25915715 0.119644545 -0.4260282
-0.07670677 -0.30725834 0.21981254 0.054180004 -0.12370079 -0.42708042 -0.24618575 -0.24606423
-0.30113477 0.0777369 -0.19465898 -0.18620841 -0.13637057 -0.32517624 -0.3206144 -0.11428716
-0.059302703 -0.24313591 0.25892836 -0.3438192 0.011528144 0.015929824 0.02565865 0.16723943
00000000: 6883 473e 2d2d 0ebe 7bae 0bbe c6a8 c13e
00000010: ee18 cb3e 6f71 623e c26e 463d c5c0 693e
00000020: a974 10be cba9 663e 48cc b83e 04a1 87bd
00000030: fa0d 07be 3f32 f43d 3797 b73e d280 8cbe
00000040: 3cac 5fbe b2bb 8e3d 888f 93bb 7df5 8abe
00000050: 42bb a8be 6ccd 513e e144 7dbe dd34 21be
00000060: 1808 c73e 8dc3 a93e 583c f93c f838 a3bd
00000070: 3353 653d a2eb 9d3e 3e10 83be fd6b c23d
00000080: 2944 3dbe 68a7 8f3e 98e3 953c 959b 4bbc
00000090: 7c52 023e 2bf9 c9be 735d dc3e 47c4 1c3d
000000a0: 35c4 9abe 7d93 313e c181 a2be a017 bf3e
000000b0: 0ec2 6c3d 989f ee3e e2c3 c33e e155 233d
000000c0: be06 913e cb9c c5be acc0 413e 895a 933e
000000d0: cd7b ddbd 8652 d3be 7d12 313c 006e 5bbe
000000e0: a7f5 f3bd b8fa 3cbc 1f6c 54be 9dd1 6f3d
000000f0: 2d4f b4bd 3a30 26be 9ff8 89be ced3 81be
00000100: 7d10 a93e 08ac 643d 4259 293e ff78 ab3e
00000110: 58d5 78bc ca45 b03e 0f26 98be 0e4b 653e
00000120: 41ab 5a3d 02a8 b5bd 5138 d1be 79a3 443e
00000130: aede 473e 13dd 2b3e 2e73 fa3e ae41 ee3e
00000140: e466 443c 9dff b03d cf1e 90bd 65cd 7b3e
00000150: 1503 993e 430e 573e 7eea 2e3e 25ce 543e
00000160: a247 423e bc73 5dbe 481b b13e 25aa 083f
00000170: cc8f db3e 8dae 96be fc81 05be f84a b5bc
00000180: 314a 873e ad5e c63e 0e8b b33e 997f 0e3e
00000190: f2e6 f33e d9ad e73e 4e86 3ebe 2fd9 e03d
000001a0: 4928 4ebe 2e6b b73d 29ee 19bd 4b7b 853d
000001b0: 1030 893e 3bde babc 4ebd ca3e e2a9 9a3d
000001c0: 0ecf d53e e2ce 1fbd 69f0 96bc e3a6 fb3d
000001d0: 434d 833e 8c2d 013f ff33 ab3e b017 9d3e
000001e0: f188 1cbe e2d8 e93d 09a1 28be 1aef e43e
000001f0: ee52 0b3e 9ec6 e23c 2249 003e 7711 923d
00000200: a5d4 fbbd 7a7a 8b3e 81a8 933e 7aff 77be
00000210: f8b2 a5bc 446b 04bf 518d 213e acda c4bc
00000220: 27df b93e a3d5 debe 20e2 fcbd 6a99 a33e
00000230: 34f2 c53d bb8e 6abe 511e 89be 1e06 683e
00000240: 28e7 8fbe b60a 0abe 9642 223b 7e43 efbd
00000250: 3f8f 4e3e a35e 69be 4d36 3f3e 47c5 143e
00000260: 067d b6be 1eca 98be 9308 a1bc f663 ba3e
00000270: ffda 91bd 7904 78be 8090 53be 46b2 633d
00000280: ef57 e73d 09e4 3fbe 594e 39bd 61b7 213d
00000290: f461 abbd c50f 083e efd6 e5bd f610 73be
000002a0: 627f 58bd 0710 aebe 96fa 883e 2ef4 e0bb
000002b0: c288 c8bd 2498 a8be d082 2cbe c144 783c
000002c0: d45a b5be ba1c 833e 5781 a7be 2c37 86be
000002d0: 20ee 123e 0ef0 973d 93ed 7fbd ba4d 5dbe
000002e0: d4ba b03e e666 983d 03a1 08be 43c2 63be
000002f0: 404f 34be 9015 17be cdfd ea3d 5416 be3e
00000300: d70e e6be bf5c 863e 936c b7be d63d 86be
00000310: ce5c adbe 9ba6 48be 4aab 013f eed8 bbbd
00000320: a7bf 6c3e 6619 093e 0492 febd 5d90 193d
00000330: 3ea7 afbe f56c 9d3e 4dce 6abe 027f cdbe
00000340: 5d5c 9a3c f487 86be 25dd 21bd 4599 72be
00000350: dcbc 19be da13 43be 2c6b 24be 18ae 9bbe
00000360: c9b8 0c3d e387 bb3e 9a06 a7be 5df9 abbe
00000370: 632f 33be 0d41 863e 9e1d 8e3d bcc0 1c3d
00000380: d51c 9bbe e67f a9be 776f 01bf ac3a 4d3e
00000390: 7910 57be 3fb0 84be 3308 f53d 5e20 dabe
000003a0: 7018 9dbd f750 9dbe 8a16 613e daeb 5d3d
000003b0: d756 fdbd 49aa dabe 1e18 7cbe 43f8 7bbe
000003c0: 562e 9abe 8634 9f3d af54 47be 6bad 3ebe
000003d0: baa4 0bbe 807d a6be 9227 a4be 630f eabd
000003e0: 64e7 72bd 9ff8 78be 4292 843e 1209 b0be
000003f0: 8ae0 3c3c 437f 823c 1732 d23c d040 2b3e

actor.bias f4 [3]
0.011675056 -0.0066621127 -0.0072245672
00000000: bc48 3f3c da4d dabb 10bc ecbb

critic.weight f4 [1, 128]
0.076975554 0.17294873 -0.011685622 -0.14397112 0.026832946 0.04540314 0.20607002 0.12079371
-0.055406056 -0.09463029 0.052517503 0.18006368 0.18300736 0.022081345 0.21018068 0.060808048
0.18858556 -0.10598403 0.048688494 0.168945 -0.06477621 -0.0042287796 0.1236952 -0.12427088
0.10501771 0.18184052 -0.16396476 -0.043590125 -0.11769432 0.20852713 -0.013106746 0.20664398
0.036846243 0.2019185 0.023599366 0.041812804 -0.024254192 -0.082594976 0.06345191 0.0031963233
0.09809962 -0.18683758 -0.15097496 -0.02863637 0.08951243 -0.18689765 0.15838078 0.09102196
-0.03082862 -0.07794937 -0.02398557 0.112826936 -0.01073269 -0.046970926 0.14135593 0.023577794
-0.011094831 -0.10336767 0.09293413 0.05404714 0.26710954 0.16963406 0.0503404 -0.14111458
-0.009769876 0.06576649 -0.02112524 -0.052966658 0.054541517 -0.119782686 0.16544065 0.12778313
0.062393755 0.016021702 -0.048213955 -0.038026523 0.015889158 0.018374948 -0.025059167 0.123204894
-0.048482228 0.16789646 -0.1298298 -0.11668297 0.011577832 0.05634817 0.047883995 0.28974286
0.24290213 0.10848603 0.07267952 0.055082384 0.17018814 0.016026663 0.17299317 0.022668708
0.18123323 -0.01160059 0.104557164 0.0184327 0.023241857 -0.013343536 0.046760324 -0.16997063
0.109707125 0.17715551 0.240242 -0.12264966 0.033699285 0.16408849 0.11215935 0.23908634
-0.0359643 0.050688807 0.11055872 -0.18493922 -0.06597892 -0.05589734 0.12717523 -0.03930771
-0.0454448 -0.09205924 0.13920283 -0.12896015 0.077839024 0.18410623 0.077194996 -0.13350154
00000000: 5ca5 9d3d 7919 313e 0d75 3fbc 2a6d 13be
00000010: c4d0 db3c a5f8 393d 0504 533e b162 f73d
00000020: 76f1 62bd 87cd c1bd 981c 573d 9d62 383e
00000030: 4866 3b3e f0e3 b43c 9b39 573e dc11 793d
00000040: 931c 413e 280e d9bd 966d 473d ebff 2c3e
00000050: 64a9 84bd 9391 8abb e953 fd3d bb81 febd
00000060: 8613 d73d 6734 3a3e 61e6 27be 8f8b 32bd
00000070: b809 f1bd 2388 553e adbd 56bc 7b9a 533e
00000080: 16ec 163d b9c3 4e3e 7553 c13c e743 2b3d
00000090: bab0 c6bc 8e27 a9bd 13f3 813d 6879 513b
000000a0: 74e8 c83d 5a52 3fbe 2e99 1abe d296 eabc
000000b0: 4b52 b73d 1962 3fbe 922e 223e b969 ba3d
000000c0: 4d8c fcbc eba3 9fbd 637d c4bc cf11 e73d
000000d0: 2ad8 2fbc 9664 40bd 9cbf 103e 3826 c13c
000000e0: 18c7 35bc 6eb2 d3bd 4054 be3d 8960 5d3d
000000f0: 95c2 883e 8db4 2d3e bc31 4e3d 5780 10be
00000100: d411 20bc 95b0 863d d70e adbc 91f3 58bd
00000110: ed66 5f3d a050 f5bd 4669 293e 95d9 023e
00000120: 9890 7f3d f23f 833c ff7b 45bd b3c1 1bbd
00000130: fb29 823c 0f87 963c e248 cdbc d952 fc3d
00000140: 4d95 46bd 0ded 2b3e 1af2 04be 7bf7 eebd
00000150: f2b0 3d3c 57cd 663d 0222 443d 2d59 943e
00000160: 56bb 783e ec2d de3d 00d9 943d 119e 613d
00000170: cd45 2e3e 594a 833c 1f25 313e bab3 b93c
00000180: 3495 393e 6710 3ebc 1122 d63d 2c00 973c
00000190: b565 be3c d99e 5abc c187 3f3d c80c 2ebe
000001a0: 21ae e03d 4168 353e 0002 763e bf2f fbbd
000001b0: 4308 0a3d d006 283e cdb3 e53d 0dd3 743e
000001c0: 4d4f 13bd 119f 4f3d 9c6c e23d b560 3dbe
000001d0: f51f 87bd 9cf4 64bd 393a 023e 1f01 21bd
000001e0: 5424 3abd 8e89 bcbd 308b 0e3e 210e 04be
000001f0: 116a 9f3d 5886 3c3e 6918 9e3d a1b4 08be
